run/RES_L_train5/100_RES_decom.pth (torch, 13399 bytes, 6 tensors)

inconv.0.weight f4 [16, 3, 3, 3]
000000 2e c1 f4 bd 05 18 4c bd 06 8d 85 bc 93 33 8a 3d
       -0.119509086 -0.049827594 -0.016302597 0.06748118
000010 84 f4 35 be 9a 07 13 3e 2e c4 7c bd df 41 27 be
       -0.17769057 0.14358369 -0.06171053 -0.16333722
000020 83 3e c1 bc ed 1c fb bc 28 2e 5d 3d 73 d6 5e be
       -0.023589378 -0.030653441 0.053999096 -0.21761493
000030 b0 37 58 3c 1a 3e 52 3e fd d4 0c 3d 87 05 39 be
       0.013196871 0.20531502 0.03438281 -0.18068515
000040 35 25 1c 3e 1c 0f 01 3d 8b 95 ff 3d 91 56 3d 3d
       0.15248568 0.03150855 0.12479695 0.046225134
000050 4e 71 fa 3c b5 38 c9 bd c3 f5 ac bd c4 ed 72 bd
       0.030571606 -0.09825269 -0.08445313 -0.059308782
000060 2d 16 1d 3e 03 b4 ae 3d a1 3b c6 bd 6d 32 97 bc
       0.1534049 0.08530428 -0.09679342 -0.018456662
000070 1c 86 0a 3e ee 4e 22 3e f2 90 c9 bd 16 f2 3c bd
       0.13527721 0.15850422 -0.09842099 -0.04612931
000080 c6 39 51 be 43 a8 90 bd 16 c6 4d be a9 16 c0 3d
       -0.20432195 -0.070633434 -0.20095095 0.09379322
000090 ac 68 f6 3d 2f 77 aa 3a 23 ea 27 be 0f bf 9c bd
       0.12031683 0.001300549 -0.1639791 -0.07653629
0000a0 7c 25 8e bd 37 c6 42 3d 80 28 bb bd 5a df 2e 3d
       -0.06940743 0.047552314 -0.09138584 0.042693473
0000b0 9b 43 4e 3c 69 42 2f be 51 4a 0e 3d 1a 30 9d 3d
       0.012589361 -0.17115177 0.034738842 0.0767519
0000c0 4a 14 21 be 51 20 1a 3e 54 e3 b0 3d f0 87 e8 3d
       -0.15730396 0.1505139 0.086371094 0.11354053
0000d0 12 3f b1 3d 12 64 05 be ad c7 17 be 28 41 01 be
       0.08654608 -0.13026455 -0.14822264 -0.12622511
0000e0 fa 81 50 bd 54 66 f1 bd bc 39 15 be 5f 26 11 be
       -0.050905205 -0.11787096 -0.14572805 -0.14174794
0000f0 5d 2d 35 bd 32 2f 3e be f5 1f b6 3d b6 f3 04 3e
       -0.044232715 -0.18572691 0.08892814 0.12983593
000100 e4 ce 49 3c 3f 6f 1c 3d 99 b7 c7 bd 4b 0c 38 3c
       0.012317393 0.03819203 -0.09751815 0.0112334
000110 94 5f 2e 3c 06 9c 27 3e ea 96 41 3d 6f c2 fa 3d
       0.010642905 0.16368112 0.047263063 0.122441165
000120 d9 2a 96 3e 70 3a 07 3e 77 81 3f 3e a3 49 7c 3d
       0.29329565 0.13205886 0.1870173 0.061593663
000130 78 e9 35 3b 3e 4f 3e 3e 53 52 b7 3e 0e 9b 66 bd
       0.0027757566 0.18584916 0.35804996 -0.056300215
000140 9c 1e 95 3e be 93 03 3e 59 19 9e 3c 18 be 86 3e
       0.29124916 0.12849328 0.019299196 0.26316905
000150 df fa 82 bd 60 a4 9b bd 9e de df 3d 4c b7 7d 3e
       -0.06395506 -0.075997114 0.10931133 0.24776953
000160 b3 f1 bb 3d f2 21 c2 3e 6c 8b e1 3d 99 a7 62 bd
       0.0917696 0.37916523 0.11012921 -0.055335615
000170 c4 fe c5 3e 92 61 98 3d d1 6c de bd ec 75 46 3d
       0.38670933 0.07440485 -0.10860599 0.048452303
000180 3a 98 d2 3e 76 7e a3 3d ba cc 40 3e ad 37 37 bd
       0.41131765 0.07983105 0.18828097 -0.04473083
000190 bd 7e d6 bd b5 a7 41 3e f8 15 3c bd bc 29 9a be
       -0.10473392 0.18911631 -0.04591939 -0.30109966
0001a0 a7 e0 47 bd dd 7a d7 3d f9 86 b6 3c 27 7e 67 3e
       -0.04879823 0.10521481 0.022281157 0.22606717
0001b0 74 61 9d bb 79 c5 8e bc b3 ce 09 3b 37 ac 24 bc
       -0.004802877 -0.017428147 0.0021027743 -0.010050825
0001c0 53 1e af 3b 02 e2 d2 bc 15 9c 27 b8 01 7b 20 bb
       0.005344191 -0.025742535 -3.9961265e-05 -0.0024487379
0001d0 d8 48 58 3b 71 93 d0 3a d0 91 4f 3c d3 04 0b 3c
       0.0033002403 0.0015913082 0.012669042 0.008485037
0001e0 91 fe 3a bc 23 7c e6 bc f8 48 19 3c 9f 14 46 3c
       -0.011413232 -0.028135365 0.009355776 0.012089877
0001f0 44 ab 88 bc b7 84 26 3c fd 67 61 bb 49 1b ee 3b
       -0.016683228 0.010163478 -0.0034394257 0.0072664362
000200 13 0b f3 bc 55 67 9f 3b da 5d 03 3d 86 ab 5e bb
       -0.029668367 0.004864613 0.032071926 -0.0033976748
000210 fa 0a 96 bc 58 62 06 bb 52 ce 46 bb b1 ac 01 be
       -0.01831578 -0.0020505395 -0.0030335379 -0.12663533
000220 95 72 78 bd d1 fe ec bc 94 53 33 3d 19 47 1d be
       -0.06065615 -0.0289301 0.04378088 -0.15359153
000230 a5 f2 17 3d 7a 41 94 bd 8f 4b 87 bb 79 d9 8a 3e
       0.03709664 -0.07239051 -0.0041288803 0.27119043
000240 db 2d 4a bd 80 59 f0 bb 4f 8e 07 3e d6 60 7e be
       -0.049360137 -0.007334888 0.1323788 -0.24841627
000250 c9 bc ce bc c4 87 bc bd 8b 51 1c 3d 81 4f 91 3e
       -0.025236504 -0.09205583 0.038163703 0.2838097
000260 69 f6 4c 3e 30 55 ba bd ef 82 41 be e8 ce 21 be
       0.20015873 -0.090982795 -0.18897603 -0.15801585
000270 e3 de e4 bb 12 98 38 bd 32 03 6f bc 25 0d e1 bd
       -0.006984578 -0.0450669 -0.014588164 -0.10988835
000280 c8 36 18 3e 6a d7 5d 3e a8 ad 07 3e d7 e3 22 3e
       0.14864647 0.21664205 0.13249838 0.15907227
000290 49 00 cc 3e e9 ff e4 3d a4 da e6 bd 38 04 fd 3c
       0.39843968 0.111816235 -0.11272171 0.0308858
0002a0 b8 70 95 bd fa 6f 5d bd dc 12 98 3d 4d 89 bb bd
       -0.0729689 -0.054061867 0.07425472 -0.091570474
0002b0 b3 2a b1 bc 0a d9 8b bc c1 3b 7d be ba a4 83 be
       -0.021626806 -0.017071266 -0.24729826 -0.25711614
0002c0 13 1d 21 3d 06 63 d8 3b 04 ce 0e be 58 72 01 bd
       0.039334368 0.0066036014 -0.13945776 -0.031603187
0002d0 fe be 0e be b3 9d 0c 3e 66 63 a0 3d f3 c9 0a bd
       -0.13940045 0.13732032 0.07831459 -0.033884
0002e0 b7 08 75 3d e3 a9 99 bd 67 e0 87 3e 9f e0 ab 3d
       0.059822764 -0.075031064 0.26538393 0.083924524
0002f0 57 c6 19 3e ce b3 a3 3e cf b6 ae 3d 59 50 0f 3e
       0.15017067 0.31973118 0.08530962 0.13995494
000300 ca 36 06 3e 91 2b 0c bd ec 83 4f bd 18 89 3b 3e
       0.13106838 -0.034221236 -0.05066292 0.18314016
000310 26 34 60 3d 80 af 6e bd 8b e3 ad 3e 55 8d 8a bd
       0.054737233 -0.05827284 0.33962664 -0.06765238
000320 29 1a e5 3d ef 98 61 39 97 e4 14 bd f7 90 28 3d
       0.1118663 0.00021514644 -0.036350813 0.041153874
000330 c3 5e fb 3d cd f2 c9 bd d4 70 92 bd 88 27 2b 3e
       0.12273934 -0.09860764 -0.071504265 0.16714299
000340 1f 3a 8c 3b 70 a1 18 3e 22 db 1f bd 91 48 71 bd
       0.0042793895 0.14905334 -0.03902734 -0.058907095
000350 36 c4 05 bc 0d fe 19 3e fe 81 8f bd e9 e8 8e bd
       -0.008164456 0.15038319 -0.07007216 -0.06978018
000360 ec 01 30 3e 1b a5 0f bd 92 6e 60 3d e7 09 b8 bd
       0.17188233 -0.035069566 0.054792948 -0.08986264
000370 1a 74 4e be 14 cf 58 bd fd 3f b2 3d 09 56 fe 3b
       -0.20161477 -0.05293186 0.08703611 0.007761721
000380 42 cb 9a bd f6 d2 c6 3d 46 ea a6 3d c6 21 01 3e
       -0.075582996 0.09708206 0.08150153 0.1261054
000390 24 aa 3c be 20 d1 89 bc 54 9c 3b be 8d 00 51 bc
       -0.18424278 -0.016823351 -0.18321353 -0.012756479
0003a0 8d 66 f5 3d 61 b3 12 be 94 89 05 3e f4 f5 d5 bd
       0.11982451 -0.1432624 0.13040763 -0.104473025
0003b0 11 31 21 3e af a4 01 be a0 80 f3 3c 35 23 10 3e
       0.15741374 -0.12660478 0.02972442 0.1407593
0003c0 cf de a8 3d 0b 60 b3 3c 67 bb 9e 3c d5 a2 b9 3b
       0.08245622 0.021896383 0.01937647 0.005665163
0003d0 b4 b6 0a be 6c 97 d4 3d b7 71 1c 3e 9f 1d 95 3d
       -0.13546258 0.10380444 0.15277754 0.072810404
0003e0 cc 9c 1e be 60 18 24 be 9e ef 8a bd d9 25 10 be
       -0.15489501 -0.16024923 -0.067839846 -0.14076938
0003f0 ea 2a 82 bc 76 2c 04 3e 5a 96 99 bd ab e0 37 3e
       -0.015889604 0.12907586 -0.074993804 0.17956798

inconv.0.bias f4 [16]
000000 a5 7c 3c 3e 6f e6 56 be 4c 80 50 be 73 62 a0 be
       0.18406923 -0.20986341 -0.20361441 -0.3132511
000010 58 45 4d 3c 29 48 11 be de d9 c3 bd 4e 9a 3f be
       0.01252874 -0.14187683 -0.09563039 -0.18711206
000020 3c 8e 8a 3d 10 4d 80 bd 65 76 b0 3e 63 f2 3e 3e
       0.0676541 -0.062646985 0.34465328 0.1864715
000030 ff 4a 53 3e cb 61 c4 3e ca ea d5 bd 3e 53 26 be
       0.20634077 0.3835586 -0.10445173 -0.16242692

convs.0.weight f4 [16, 16, 3, 3]
000000 cc 83 50 3c c7 43 5a bc 61 d1 3f 3c 0c 3f 5e bd
       0.012726735 -0.013321823 0.011707635 -0.054259345
000010 1c 1b cb be 6d eb 41 3d a7 4a 27 bc 4f 0a 72 3d
       -0.3966912 0.04734366 -0.01021067 0.059091862
000020 36 93 db 3c b3 35 89 bd 38 a7 18 bd d3 29 69 bd
       0.026803594 -0.066996954 -0.037268847 -0.056924652
000030 67 83 61 bd b6 af ea bc 3c 4c 7e 3d 30 d1 60 bd
       -0.055056956 -0.028648239 0.06208442 -0.054886997
000040 bb e0 92 bd 21 c8 af bd 6e c8 81 bd 71 a9 5c 3d
       -0.0717177 -0.085830934 -0.06337057 0.05387253
000050 f2 c2 bc bd 28 f3 08 3c 12 14 fd 3d f6 76 0a bd
       -0.0921687 0.008358754 0.12357344 -0.033804856
000060 ac 1b 96 bd d8 57 cf 3a 54 1f 7f bd 65 fb 39 bc
       -0.07329497 0.0015819026 -0.062285736 -0.011351441
000070 06 09 a0 bc 32 3e 27 bd ce 41 f7 3c c3 3c 0c 3e
       -0.019535553 -0.0408308 0.030182745 0.13695054
000080 f8 7c da 3b 45 db dc b6 9a 68 23 bd b4 38 be bd
       0.0066677295 -6.5820373e-06 -0.039894678 -0.09288159
000090 df bc 89 be 62 c8 f1 bd a6 c6 e0 bd 0d a4 70 be
       -0.2690191 -0.11805798 -0.10975389 -0.2350008
0000a0 af 64 38 bf 87 42 94 be 40 a5 5f be 74 c3 5b be
       -0.7202863 -0.28957006 -0.21840382 -0.21461278
0000b0 17 f0 2d be 51 42 66 3d cd 10 5f 3d d5 14 ab 3d
       -0.16986118 0.056215588 0.05445938 0.08353583
0000c0 04 ed 04 3b b2 7b 6a 3c 85 b4 04 3b 70 17 2f 3d
       0.0020282874 0.014311718 0.00202492 0.04274696
0000d0 1c 92 37 3c 13 08 7a 3c 7a 35 1a 3c ea 29 17 3d
       0.011204269 0.015260714 0.009412164 0.036905207
0000e0 b6 65 57 bc d6 4d 84 bc 52 4f 1c 3e fe 4d 48 bc
       -0.013146808 -0.016150396 0.15264633 -0.012225626
0000f0 1d 66 9b bd b2 71 69 bd bd 70 85 bc e8 e5 c1 bd
       -0.07587836 -0.056993194 -0.01628911 -0.09467679
000100 f4 6c cd 3b 02 2d cb bd b8 0f ed bc 7b 33 b9 be
       0.0062690917 -0.09920694 -0.02893816 -0.3617209
000110 46 f6 a8 3c a3 e6 3c bd bc 8e 26 bd eb a2 a9 3c
       0.020625245 -0.04611839 -0.040663466 0.020707568
000120 a4 47 6f 3d 61 ef 04 3c 47 73 8e 3d 3f 1c fb 3c
       0.05841793 0.008113713 0.06955581 0.030653117
000130 0f e7 78 bc 39 78 19 3d da 23 c2 3c 73 e2 ca 3c
       -0.015191807 0.03746817 0.023698736 0.024766183
000140 40 66 01 3e 9a d2 26 3d 05 a2 04 3e 39 a6 c8 3d
       0.12636662 0.04072819 0.1295243 0.097973295
000150 9d b7 e4 3d 60 cb c6 3d cc f5 9f 3d 69 e7 2c 3c
       0.11167834 0.097067595 0.07810554 0.010553219
000160 d7 44 41 3e 4a ff 02 3e f3 ee 20 bd 9d e6 06 3d
       0.18873917 0.12792698 -0.03929038 0.032934774
000170 7f 4e 5e bc 54 db 2d bc ee a1 10 be cb 37 c2 bc
       -0.01356852 -0.010611374 -0.14124271 -0.023708245
000180 9f a6 a7 3d cf e7 22 bc fe 69 64 bd a0 fd 84 3c
       0.08186077 -0.009942963 -0.055765145 0.01623422
000190 4b c2 86 3c 62 63 49 bd 24 19 c7 3c d2 e9 8e 3d
       0.016450068 -0.049167044 0.02430398 0.069781914
0001a0 22 b9 31 3d 85 60 6e 3c 4b 61 23 bd c8 c2 42 3d
       0.043389447 0.014549379 -0.039887708 0.04754904
0001b0 91 ad 66 3d c4 24 b3 3c 06 30 91 3c bf 8c 25 3c
       0.05631787 0.021868117 0.017723095 0.010104357
0001c0 b9 73 ef bd 33 dc 0e 3d 62 e1 52 3d 50 a7 3e 3d
       -0.11691994 0.034877967 0.051484473 0.04654628
0001d0 37 53 2b 3e 08 a5 24 3e 76 43 36 3d 12 f7 c1 3d
       0.16730963 0.1607858 0.04449793 0.09470953
0001e0 02 4e a2 3d 3e 3b 8b 3d 05 c0 e5 3b 9c a8 d9 3c
       0.07925035 0.06798409 0.007011416 0.026569657
0001f0 6e b2 14 3e 4a 1e 3f 3e 06 fb 3c bd 24 5f df 3a
       0.1452119 0.18663898 -0.046137832 0.0017041904
000200 9f c3 b1 3d 9e 8b d2 3c e6 67 13 be 69 9c a9 3c
       0.0867989 0.02570134 -0.14395103 0.020704465
000210 48 71 84 3c 3e d1 8a bc 41 b3 f7 3c 1e fa 00 3d
       0.016167298 -0.016945478 0.030236842 0.03148853
000220 0f ba 0b 3b da 48 55 3d ad 21 f9 3c 78 ea 67 bd
       0.0021320616 0.05207143 0.030411566 -0.05662009
000230 62 a4 80 bd 33 f8 85 3d 1e 26 e1 3c e6 ba 87 bd
       -0.062813535 0.06541481 0.027483996 -0.06627445
000240 59 76 4e 3d 27 1d 3c bc 3d 63 4d 3d 17 b3 01 3d
       0.050405834 -0.01148156 0.05014347 0.031664934
000250 c3 d6 b5 3d 9d ed dd 3c cc 6a 9d 3c c9 b4 11 3d
       0.08878853 0.027090842 0.019215964 0.0355728
000260 67 01 b0 bc 2c 49 75 3d 81 45 8f 3b 19 45 7c 3b
       -0.021485044 0.059884235 0.004372299 0.0038493334
000270 ce ce a1 bc 06 a4 b2 bb 19 de 84 bd 3f b8 ae bd
       -0.019751932 -0.005451682 -0.06487674 -0.08531236
000280 79 6f 09 bd 42 e8 88 bd e2 27 9c bd 02 1f e0 bb
       -0.033553574 -0.06684925 -0.076247945 -0.006839634
000290 0d 57 c5 bb 87 eb 7e 3b 78 fd 8b 3e 3d 34 c6 3c
       -0.00602234 0.003889771 0.2734182 0.024194831
0002a0 97 0c 1f bd c8 c8 55 3c c9 7e 63 bc b5 45 0a bd
       -0.038830366 0.013048358 -0.013885208 -0.033757884
0002b0 85 2f d5 bd 43 4d 48 be 97 0c cc bc 1e ca 21 bc
       -0.10409454 -0.19560723 -0.024908347 -0.009874849
0002c0 c1 43 1b bd e2 d4 0a be 32 4e 96 bc 28 c5 12 be
       -0.037906412 -0.13557771 -0.018347833 -0.14333022
0002d0 6b 5a 55 be ae 82 82 bd af fe 11 be ad 5b 4b be
       -0.20835273 -0.063725814 -0.1425731 -0.1985919
0002e0 1b 17 0d bf ee 99 5b be 80 5b b7 be 45 2a 7e be
       -0.5511338 -0.21445438 -0.35811996 -0.24820812
0002f0 48 aa 99 be 54 58 93 3e ca b8 42 3e 3d 3f 17 3e
       -0.30012727 0.28778327 0.19015804 0.14770217
000300 49 3c 36 bd e4 25 03 be f2 33 c0 bd c7 84 91 bd
       -0.044491086 -0.12807423 -0.09384908 -0.071054034
000310 08 ea e4 bc ec bc 0e be 49 2a 32 bd d8 e2 b7 3c
       -0.027943626 -0.13939255 -0.043497358 0.022447035
000320 5f 7e 5a bd 81 33 3e bd 1d a9 15 bd eb b8 2d bd
       -0.053343173 -0.046435837 -0.036538232 -0.04241268
000330 80 36 00 bd cb db 67 3c 5f eb c4 3c 62 1e 0c be
       -0.031301975 0.014151524 0.024038015 -0.13683465
000340 f7 53 22 3d 73 99 5a ba 61 15 b6 3c c2 de 8c bd
       0.039630856 -0.0008338906 0.022226991 -0.06878425
000350 b4 c1 e7 3b 4f 3a f2 bc 67 3b 09 bd 53 f0 88 3d
       0.0070726518 -0.02956882 -0.033503916 0.06686463
000360 ae ba 48 3d c5 79 ca 3c 9e 9c 20 3d 41 5b c7 3c
       0.049006157 0.024716267 0.03921186 0.024335505
000370 ff 97 b6 3d 3c 6b 7f 3c 24 30 c1 3d 0a 5b d4 3d
       0.0891571 0.0155895315 0.0943301 0.10368927
000380 7c 71 42 3e d6 37 36 3b c6 6a 64 3d 52 f0 30 3e
       0.18988603 0.0027804277 0.05576589 0.17279175
000390 2e 94 f0 3d 08 b9 c3 bc dc 7c 30 3e da 5f 83 3d
       0.11747013 -0.02389194 0.1723513 0.064147666
0003a0 f9 c5 9d 3d 18 ec b5 3d 42 7e 8f bd 88 2c 8a bd
       0.07703776 0.08882922 -0.07006504 -0.06746775
0003b0 d3 a4 05 be a3 3c 8d 3b 22 dc a3 3c 6c 9f d4 bd
       -0.13051157 0.004310207 0.020002428 -0.1038197
0003c0 fe 58 05 3d 5b a6 89 3c 60 30 22 be 2d 88 1a ba
       0.032555573 0.016802957 -0.15838766 -0.00058949256
0003d0 d0 cf 52 3c 67 2c 02 bd 47 5e 1b 3d bb 38 2b bd
       0.012866929 -0.031780627 0.037931707 -0.04180215
0003e0 e7 52 5e 3d e3 c5 02 3c db dd b2 bc 81 2a bb 3c
       0.05427828 0.00798175 -0.021834305 0.022847416
0003f0 22 c7 3a 3e 03 49 0f 3b 79 6c 86 3c 5c b4 99 bc
       0.18240026 0.0021863587 0.016409146 -0.01876276

convs.0.bias f4 [16]
000000 6c 31 c3 3e 00 f2 97 3e 09 91 63 3d 2d 52 85 bd
       0.38123643 0.2967682 0.05555824 -0.065098144
000010 40 dc 91 3e 35 c3 49 3e e8 bb 68 bd 91 e8 d3 3e
       0.2848835 0.19703372 -0.056819826 0.41388372
000020 da b3 26 bd e2 de c5 3e ea 44 5d 3e 6b e4 a4 bd
       -0.040698864 0.3864661 0.2160832 -0.0805138
000030 85 71 6a bd b0 8b 47 bd 1a ff 5f 3e ca 67 b1 bd
       -0.057237167 -0.0487172 0.21874657 -0.08662374

outconv.0.weight f4 [3, 16, 1, 1]
000000 02 43 68 3d 9b e3 3c bd 4b b5 da 3d ef 73 49 bd
       0.05670453 -0.0461155 0.1067911 -0.04918283
000010 4f 18 3c bf 48 a2 03 be 05 69 68 bd 58 e0 b6 3d
       -0.7347459 -0.12854874 -0.05674078 0.08929509
000020 12 68 69 bc 0d d4 86 3c db 23 42 bc 4d d9 41 bd
       -0.014246004 0.016458536 -0.011849369 -0.047326375
000030 d4 aa 35 3d 95 12 c3 3c da ac 83 3d a8 11 fe bd
       0.044352368 0.023812572 0.06429453 -0.124057114
000040 cb 4e 0c be c2 a9 91 bd 61 a5 81 bd 85 7e d2 3d
       -0.13701932 -0.07112457 -0.06330372 0.10278038
000050 b4 ab 31 bf 9b 6b 84 3e 0e 99 4f 3d 2a 6a 79 be
       -0.69402623 0.25863346 0.050683074 -0.24356905
000060 3e 54 37 bc 78 68 57 be 1d 77 bb 3b ce 89 94 3c
       -0.0111895185 -0.21035945 0.0057209865 0.018132117
000070 86 99 a2 bd 98 a8 d2 bc 12 f0 4a bd 47 2f 3b bd
       -0.079394385 -0.025715157 -0.049545355 -0.045699384
000080 97 5f 9e bd 43 e3 1c 3d 0a 97 57 3d f2 0c 2f bd
       -0.07733076 0.03830267 0.052634276 -0.042736955
000090 27 94 2a bf b9 93 03 be de 37 6d 3c d5 ac 57 3d
       -0.6663231 -0.1284932 0.014478652 0.05265506
0000a0 7b 71 2d bb 86 b3 10 3e 8b 4b e4 bc 99 cc 9b bc
       -0.0026465345 0.14130983 -0.027868053 -0.019018458
0000b0 31 c3 92 3c 81 34 1d 3d 6d e3 96 bd bf 31 0b be
       0.01791534 0.03838015 -0.07367597 -0.13593195

outconv.0.bias f4 [3]
000000 20 d8 ce be d1 e2 1b be 47 1d c3 be
       -0.40399265 -0.15223242 -0.38108274
