save/100_SCI_model_EN_yuan.pth (torch, 62581 bytes, 15 tensors)

in_conv.0.weight f4 [16, 3, 3, 3]
0	0x3e0f5a1c	0.13999218
1	0xbd998fed	-0.07498155
2	0xbdb902b7	-0.09033721
3	0xbe2e4189	-0.17017187
4	0xbe1491ff	-0.14508818
5	0xbe2bf5cc	-0.16792983
6	0xbde1881f	-0.11012291
7	0x3e3fb263	0.18720393
8	0x3d6539b7	0.055963244
9	0xbc964f6f	-0.018348424
10	0xbe0b131c	-0.13581508
11	0x3c520b09	0.012820014
12	0x3d88f9b8	0.06688255
13	0xbc0066ab	-0.007836978
14	0x3da26832	0.0793003
15	0xbca6a444	-0.020342
16	0x3dfe91e4	0.1243017
17	0xbd94df56	-0.072691604
18	0xbdc84760	-0.09779239
19	0x3d871f95	0.06597821
20	0x3dbd2966	0.09236412
21	0x3e275ed1	0.16344763
22	0x3dfad7fa	0.122482255
23	0x3dc7202e	0.09722935
24	0x3d523ffc	0.05133055
25	0x3e105777	0.14095865
26	0xbd5648b8	-0.052315444
27	0x3def5569	0.116862126
28	0xbe28ea33	-0.1649559
29	0x3d7e1b11	0.06203753
30	0xba5c9eb7	-0.00084159843
31	0xbcfb8438	-0.030702695
32	0x3e17b0fa	0.14813605
33	0x3dda77b1	0.106673606
34	0xbd8eb68f	-0.06968414
35	0x3df956d9	0.12174768
36	0xbe3a2561	-0.18178321
37	0x3c9e3f84	0.019317396
38	0xbe31c257	-0.17359291
39	0x3ce01882	0.027355436
40	0xbd810a12	-0.06300749
41	0x3e03a705	0.12856682
42	0x3ce85bd2	0.028364096
43	0xbe3938a0	-0.18088007
44	0xbc223fd4	-0.009902913
45	0xbdf7c618	-0.1209833
46	0xbd34696c	-0.04404585
47	0x3da1232f	0.07868039
48	0xbd232f87	-0.039840247
49	0x3ca01633	0.019541835
50	0xbe083063	-0.13299708
51	0xbdf9252f	-0.12165295
52	0xbcfe6c91	-0.031057628
53	0x3d2b6083	0.041840088
54	0x3e3ab98f	0.18234847
55	0x3dabdb07	0.083913855
56	0xbdead825	-0.114670075
57	0x3e281297	0.16413341
58	0x3e3a6e3a	0.1820611
59	0x3bdfae5f	0.0068262066
60	0xbe283834	-0.1642769
61	0xbe29c67a	-0.16579619
62	0xbdd593ed	-0.10428605
63	0x3e272082	0.16320994
64	0x3cfbeeb1	0.030753465
65	0xbda17d7b	-0.078852616
66	0xbe0dfcaa	-0.13865915
67	0xbd628463	-0.055302035
68	0xbdeb9802	-0.115036026
69	0xbe1c4bb6	-0.15263256
70	0xbe1cac1a	-0.15300027
71	0xbdbc8bcb	-0.09206351
72	0x3c1cb703	0.009565118
73	0x3dc9525d	0.09830163
74	0xbe1ed15e	-0.15509555
75	0x3e05e8c2	0.13077071
76	0xbe155ba6	-0.14585742
77	0x3de69765	0.11259345
78	0xbd85b4a2	-0.065285936
79	0x3da54c3d	0.08071182
80	0xbe17cf25	-0.14825113
81	0x3d15ccee	0.03657239
82	0xbd0dc6ab	-0.034613293
83	0x3e079369	0.13239826
84	0x3c875dd0	0.016524225
85	0x3deb0733	0.114759825
86	0x3dff2ea4	0.12460068
87	0x3cdff376	0.02733777
88	0xbe01c452	-0.12672547
89	0xbda0179e	-0.078170046
90	0xbdc48812	-0.09596266
91	0xbe0b0172	-0.1357477
92	0x3e3bd0ee	0.18341419
93	0x3e2b6817	0.16738926
94	0x3e08fc18	0.13377416
95	0xbe0ebeab	-0.13939922
96	0x3dbdc7f4	0.09266654
97	0x3e11762c	0.14205235
98	0x3e3d69e3	0.18497424
99	0x3da597c3	0.08085587
100	0xbce150e7	-0.027504398
101	0x3dec4d9e	0.11538242
102	0x3dded2c0	0.10880041
103	0x3d754c96	0.05988749
104	0xbdab607d	-0.08368013
105	0xbdf509b8	-0.11964744
106	0xbe315d58	-0.17320764
107	0xbdbd902e	-0.09256016
108	0xbdcb5b59	-0.099295326
109	0xbe341328	-0.17585433
110	0x3dde1809	0.10844428
111	0xbe25046d	-0.1611497
112	0xbc0a61a3	-0.00844613
113	0x3db333b0	0.08750093
114	0x3d98b093	0.07455554
115	0x3e20fcf4	0.15721494
116	0x3e398fdb	0.18121283
117	0xbe18ca52	-0.14920929
118	0x3d42cea0	0.047560334
119	0x3da04cbc	0.07827136
120	0xbd821e0e	-0.06353389
121	0xbe3cce02	-0.1843796
122	0xbe448f01	-0.19195177
123	0xbd89044a	-0.06690271
124	0xbda55430	-0.08072698
125	0x3e0b9372	0.13630465
126	0x3dadacf3	0.08480253
127	0xbc922cf5	-0.017843703
128	0xbe2eafff	-0.17059325
129	0x3e3967b0	0.1810596
130	0x3d77d15d	0.0605024
131	0x3d530449	0.05151776
132	0x3da5b862	0.08091809
133	0x3e179fed	0.148071
134	0xbe2c9442	-0.16853431
135	0xbd160e81	-0.036634926
136	0x3dcd7d55	0.10033671
137	0x3e02a618	0.12758672
138	0x3dd55872	0.1041726
139	0x3e39921e	0.18122146
140	0x3dbe8fd0	0.09304774
141	0x3e41e89a	0.18936387
142	0xbd991574	-0.07474795
143	0xbdc61276	-0.0967149
144	0xbe3f98d1	-0.18710639
145	0x3de4871f	0.11158585
146	0xbd826820	-0.063675165
147	0xbbf140e4	-0.007362472
148	0x3c093411	0.00837423
149	0x3e1ef3b0	0.15522647
150	0x3e1d2d3e	0.1534929
151	0x3e25c585	0.16188629
152	0x3d90cf5c	0.07070801
153	0xbdb18a5c	-0.08668968
154	0xbdb65183	-0.08902266
155	0xbe3b9742	-0.18319419
156	0xbda51918	-0.08061427
157	0xbc2b53f4	-0.010457028
158	0x3dd3838e	0.103278264
159	0xbe294790	-0.16531205
160	0xbdb33711	-0.087507375
161	0xbe198e77	-0.14995752
162	0x3dd1884e	0.10231076
163	0x3d88fbc3	0.06688645
164	0xbd1c376b	-0.03813879
165	0xbe140739	-0.1445588
166	0xbdd54fa1	-0.10415579
167	0x3d186532	0.037205882
168	0xbe41c9ad	-0.1892459
169	0x3e32be50	0.17455411
170	0x3d884ec0	0.06655645
171	0xbe288255	-0.16455968
172	0x3dcfb540	0.101419926
173	0xbddfa264	-0.109196454
174	0x3e214d84	0.15752226
175	0x3d4be5bc	0.04977964
176	0xbd90cb7a	-0.0707006
177	0x3e2a463c	0.16628355
178	0xbe3fa332	-0.18714598
179	0x3e052f4d	0.13006325
180	0x3c189ae3	0.009314272
181	0xbd3c0f8e	-0.04591327
182	0x3e039780	0.12850761
183	0xbdd000cd	-0.10156403
184	0x3de68c8f	0.11257278
185	0xbdab9230	-0.083774924
186	0x3daafef3	0.08349409
187	0xbd83b355	-0.06430689
188	0xbd82dbc6	-0.06389575
189	0x3e328a83	0.1743565
190	0xbc058db9	-0.008151465
191	0x3e29b65e	0.16573474
192	0x3ca4b50c	0.020105861
193	0x3df74543	0.120737575
194	0xbe0b98a3	-0.13632445
195	0x3e242a3c	0.16031736
196	0xbc170848	-0.009218283
197	0xbcedf742	-0.029048566
198	0xbe3a485a	-0.18191662
199	0xbdfc93a5	-0.123328485
200	0xbe398b0c	-0.18119448
201	0xbe23692a	-0.15958086
202	0x3d6e202e	0.058136158
203	0x3e2cc7e9	0.16873135
204	0x3dafd496	0.085854694
205	0xbdeb278e	-0.11482154
206	0x3d6c2c2b	0.05765931
207	0x3d4c271e	0.049841993
208	0xbe2acc8d	-0.16679592
209	0xbdd36672	-0.10322274
210	0x3d63b2c6	0.055590414
211	0x3d4870ae	0.048935585
212	0x3d8b7ec0	0.06811285
213	0x3dfb409f	0.12268185
214	0x3d78ab19	0.060710046
215	0xbd13e4d4	-0.0361069
216	0x3cd435eb	0.025904616
217	0x3d58bc40	0.052913904
218	0x3d1526bf	0.036413904
219	0xbdefd45b	-0.117104255
220	0xbe2ad92f	-0.16684411
221	0xbd3263ce	-0.043552212
222	0xbe4486a4	-0.19191986
223	0xbbbee163	-0.005825208
224	0xbd869c98	-0.06572837
225	0xbdbd7aa0	-0.092519045
226	0xbe0ec827	-0.1394354
227	0xbd1b9d19	-0.037991617
228	0x3d65540e	0.055988364
229	0xbe40165e	-0.18758532
230	0xbd0301c6	-0.031984113
231	0x3e2c00e9	0.16797222
232	0x3e3a4ea1	0.18194057
233	0xbd9c68bc	-0.07637164
234	0xbcdc09c2	-0.026860122
235	0x3df39f5c	0.1189563
236	0xbdcf0659	-0.101086326
237	0x3dac14f8	0.08402437
238	0xbcc1047a	-0.023561705
239	0x3d63619c	0.05551301
240	0x3e2ebd0a	0.170643
241	0xbd9d8dcc	-0.07693061
242	0xbd3e20c5	-0.04641797
243	0x3d92fd84	0.071772605
244	0x3c131db7	0.008979253
245	0x3d82c713	0.06385627
246	0x3e04a480	0.12953377
247	0xbbf309f6	-0.007416959
248	0xbde692c7	-0.11258464
249	0x3d0c4690	0.03424698
250	0x3e15c386	0.14625368
251	0x3bea1c9d	0.0071445243
252	0xbe42e4ce	-0.19032595
253	0x3d68ec6c	0.056866094
254	0xbe19b1be	-0.1500921
255	0xbe1565ee	-0.14589664

in_conv.0.bias f4 [16]
0	0x3db0a9d2	0.08626141
1	0xbce73758	-0.028224632
2	0x3d727ad9	0.059199188
3	0xbd5b0503	-0.053471576
4	0xbd168a96	-0.03675326
5	0xbe0489ea	-0.12943235
6	0xbdc2df7d	-0.09515283
7	0xbe1e22e9	-0.15443005
8	0x3e12101f	0.14263962
9	0xbe3a29ab	-0.18179958
10	0xbd43e9e4	-0.047830477
11	0x3e2b135b	0.16706602
12	0x3e4183b4	0.18897897
13	0xbce214dd	-0.027597839
14	0xbdc76b33	-0.097372435
15	0xbe0451e4	-0.12921864

convs.0.0.weight f4 [16, 16, 3, 3]
0	0xbcdf427b	-0.02725338
1	0xbd781db0	-0.060575187
2	0xbc9c44bb	-0.019075742
3	0xbc78cdb6	-0.015185764
4	0x3c24f6cb	0.010068606
5	0x3cfd6e2b	0.030936321
6	0xbd3117d6	-0.043235622
7	0xbca113b6	-0.01966272
8	0x3cf1fefb	0.02954053
9	0x3cff3d76	0.031157237
10	0xbcd8334b	-0.026391646
11	0xbcf08c8b	-0.029363891
12	0xbcca046b	-0.02466031
13	0xbcdf1cd0	-0.027235419
14	0x3c91d010	0.017799407
15	0xbc612ec0	-0.013744056
16	0x3c741600	0.014897823
17	0x3cc72456	0.024309319
18	0x3d55f5fb	0.05223654
19	0x3d5534de	0.05205237
20	0xbd22b0b6	-0.039719306
21	0xbd657a76	-0.05602499
22	0xbda06cc3	-0.07833245
23	0x3d7c8b36	0.0616562
24	0xbcae1586	-0.021250498
25	0xbc1d8d56	-0.009616217
26	0xbd20fadb	-0.039301734
27	0x3c9629e6	0.018330526
28	0xbc5d11f6	-0.013493052
29	0xbd9bd2f6	-0.07608597
30	0xbd767d48	-0.06017807
31	0x3da44326	0.0802062
32	0xbca56dbb	-0.020193925
33	0x3cc8ad0b	0.024496576
34	0xbd634448	-0.05548504
35	0xbc1c98d6	-0.009557923
36	0x3cda47f6	0.026645642
37	0x3d09cf96	0.033645235
38	0x3d8cf1c4	0.06882051
39	0xbd84c4a7	-0.06482821
40	0xbd8cb11a	-0.06869717
41	0xbcfc00b0	-0.030762047
42	0xbda2efbe	-0.079558834
43	0x3caa7e46	0.020812165
44	0x3d7d7cfe	0.06188678
45	0xbcf789a0	-0.030216992
46	0xbd9e9edf	-0.07745146
47	0x3c746776	0.014917245
48	0xbd906cf7	-0.070520334
49	0x3c51cd4b	0.012805293
50	0x3ca6d3f6	0.020364743
51	0xbd7b3af6	-0.061335526
52	0xbadf81ab	-0.0017052194
53	0x3b453b00	0.0030094981
54	0xbbda3a40	-0.006659776
55	0xbb970a16	-0.0046093566
56	0xbb90246b	-0.0043988726
57	0x3d23124b	0.039812367
58	0x3d97e48e	0.0741664
59	0xbd4cd1de	-0.050004832
60	0x3d4a089b	0.049324613
61	0xbca93dd0	-0.020659357
62	0xbd93cf43	-0.072172664
63	0x3d9723f4	0.073799044
64	0xbd90336c	-0.07041058
65	0x3ad7c5ab	0.0016462108
66	0x3d9cf784	0.07664397
67	0x3cdd3340	0.027001977
68	0xbd28ad1b	-0.04118071
69	0xbda4f59c	-0.08054659
70	0xba7b2600	-0.00095805526
71	0xbc8fc5cb	-0.01755037
72	0xbd453263	-0.048143756
73	0xbd048b6b	-0.03235952
74	0x3d876616	0.06611268
75	0x3da127ac	0.07868895
76	0x3a1de0ab	0.0006022553
77	0x3cc0fe26	0.023558687
78	0x3d619973	0.05507798
79	0xbb1bc9d6	-0.0023771427
80	0xbd256ce6	-0.040387057
81	0x3d2c838e	0.042117648
82	0x3d55107b	0.05201767
83	0xbc032476	-0.008004298
84	0xbd67b816	-0.056572042
85	0xbd07308e	-0.03300529
86	0xbd5760ee	-0.052582674
87	0x3b4c1900	0.003114283
88	0x3d1f177e	0.038840763
89	0x3d385973	0.04500718
90	0x3c76f74b	0.015073608
91	0xbd293cd3	-0.041317772
92	0x3d97115c	0.07376358
93	0xbd23e3b3	-0.040012073
94	0xbd2d9026	-0.0423738
95	0xbd1a4a8b	-0.037668746
96	0x3cc97fcb	0.02459707
97	0x3d570f28	0.05250469
98	0x3a275f56	0.00063847506
99	0xbd24142e	-0.040058307
100	0xbd898478	-0.067147195
101	0xbce8d266	-0.028420638
102	0x3d8e855c	0.0695903
103	0x3d3d6976	0.046243154
104	0xbd46d280	-0.048540592
105	0x3d993524	0.07480839
106	0x3cfa0e1b	0.030524304
107	0x3cebaeeb	0.02876993
108	0xbc36c76b	-0.011155943
109	0xbbe0e440	-0.006863147
110	0xbd948a0a	-0.07252891
111	0x3d4f15ce	0.050557904
112	0x3b795a80	0.0038048327
113	0x3a668200	0.0008793175
114	0x3d9f282f	0.07771336
115	0x3da57ac3	0.080800556
116	0x3da9907c	0.08279511
117	0x3c3a44a0	0.011368901
118	0xbc71294b	-0.014719318
119	0x3c7b0b4b	0.015322517
120	0xbd5ee168	-0.054414183
121	0xbd2b9cd8	-0.041897625
122	0xbda0724a	-0.07834299
123	0xbd36cdae	-0.044629745
124	0x3d67ff6e	0.05664008
125	0x3d9482df	0.07251524
126	0x3ba84d00	0.0051361322
127	0x3b4845ab	0.0030559103
128	0x3cc82676	0.024432402
129	0xbc0b7976	-0.008512845
130	0x3d3d0fd0	0.046157658
131	0x3d87c6b6	0.06629698
132	0xbd672e48	-0.05644062
133	0xbd0dafb0	-0.034591377
134	0xbd8ff1f2	-0.07028569
135	0x3c8bdd90	0.017073423
136	0x3b6fdb80	0.0036599338
137	0x3c5952eb	0.013264398
138	0xbcc91136	-0.02454434
139	0xbd562576	-0.05228182
140	0xbd421016	-0.047378622
141	0x3da4617f	0.080264084
142	0x3d91b87e	0.07115267
143	0x3c22de56	0.009940704
144	0xbd09b2a3	-0.033617627
145	0x3d6b5926	0.057458065
146	0xbd1d6868	-0.038429648
147	0xbc35c84b	-0.011095117
148	0x3cae405b	0.021270921
149	0xbd6aed63	-0.057355296
150	0x3d53a6f6	0.0516729
151	0x3d8f7d2e	0.07006298
152	0xbad59800	-0.001629591
153	0xbcc4647b	-0.023973694
154	0xbd41b198	-0.047288507
155	0x3d12f898	0.03588161
156	0xbd44d483	-0.04805423
157	0x3d6d1c23	0.05788816
158	0xbd423ed8	-0.047423214
159	0x3d843c27	0.06456786
160	0x3d39a42b	0.04532258
161	0xbd8615b0	-0.06547105
162	0xbd1d3090	-0.03837639
163	0x3d01674e	0.03159266
164	0x3d826f78	0.06368917
165	0x3d171760	0.036887527
166	0x3d9e8c5a	0.07741614
167	0x3d7fba56	0.062433563
168	0x3cf60f3b	0.03003656
169	0x3d2e4c30	0.042553127
170	0x3da0c0c6	0.078492686
171	0xbac0fb00	-0.0014723241
172	0xbd92f8dc	-0.071763724
173	0xbd1106eb	-0.035406988
174	0xbd9bef70	-0.076140285
175	0xbd8f371c	-0.06992933
176	0x3c8ee8d0	0.017444998
177	0xbcb184c6	-0.021669757
178	0xbd9b04f6	-0.075693056
179	0xbc2a50a0	-0.010395199
180	0xbda02eb0	-0.07821405
181	0xbcf249db	-0.029576233
182	0xbd8c7636	-0.068584844
183	0x3d932c0a	0.07186134
184	0xbd41f7d6	-0.047355495
185	0x3d888d6b	0.06667598
186	0x3c8db5a0	0.01729852
187	0x3c17d30b	0.009266625
188	0x3c89b1e0	0.01680845
189	0xbd5ecb96	-0.054393373
190	0xbd8fccef	-0.0702151
191	0xbda0c002	-0.078491226
192	0xbda81a8e	-0.0820819
193	0x3d2bf92b	0.041985672
194	0x3d5d0dcb	0.053968232
195	0x3c90a6cb	0.017657658
196	0xbd12471e	-0.035712354
197	0xbd954547	-0.07288604
198	0x3bb621d6	0.005558233
199	0xbc591100	-0.013248682
200	0x3d193980	0.037408352
201	0x3da9cc53	0.08290925
202	0x3d5644e0	0.052311778
203	0xbd1f7e13	-0.038938593
204	0x3c797a16	0.015226861
205	0xbd7deb4b	-0.06199197
206	0xbda6261f	-0.0811274
207	0x3a795556	0.0009511312
208	0xbda4da4c	-0.08049449
209	0x3c451256	0.012028297
210	0xbd976434	-0.07392159
211	0x3cbca07b	0.023025742
212	0x3d2dc2c3	0.042422067
213	0xbd1694fe	-0.036763184
214	0xbcf9c726	-0.03049047
215	0x3b8ec000	0.0043563843
216	0xbc189920	-0.009313852
217	0x3cac2f9b	0.021018794
218	0xbd91cb0e	-0.07118808
219	0xba2f1156	-0.00066783035
220	0x3da6099f	0.08107304
221	0x3d850547	0.06495147
222	0x3da6920f	0.08133327
223	0x3d892d20	0.0669806
224	0x3cc2f716	0.02379946
225	0x3d6df15b	0.058091503
226	0x3d56cd5b	0.052441936
227	0xbd9e6920	-0.07734895
228	0x3d3517a3	0.044211995
229	0x393042ab	0.00016809504
230	0x3d8ece88	0.069729865
231	0x3aac73ab	0.001315703
232	0xbd00d683	-0.031454574
233	0xbd9cc6ee	-0.0765513
234	0xbd4403f0	-0.047855318
235	0x3d521503	0.05128957
236	0xbd261dce	-0.040555768
237	0xbda1186f	-0.078659885
238	0x3bc858c0	0.0061140954
239	0xbd94561a	-0.07242985
240	0x3d8393b3	0.06424656
241	0xba2b7356	-0.0006540319
242	0x3ce4d60b	0.027934095
243	0xbc7fe680	-0.01561892
244	0xbd3c40f3	-0.045960378
245	0xbd286223	-0.041109215
246	0xbd90f446	-0.070778415
247	0xbd757ca0	-0.059933305
248	0xbd580833	-0.052742194
249	0xbc006c96	-0.007838389
250	0xbd5c7d63	-0.053830516
251	0x3b62efab	0.0034627717
252	0xbd7a578b	-0.061118644
253	0xbcf4c806	-0.029880535
254	0x3d1a2618	0.037633985
255	0x3d7a7c20	0.06115353

convs.0.0.bias f4 [16]
0	0xbd960dbb	-0.07326838
1	0xbc37f400	-0.011227608
2	0xbd96a0df	-0.073549025
3	0xbbbb1f2b	-0.0057105026
4	0x3cb5e14b	0.022202155
5	0xbd9e33e0	-0.07724738
6	0xbd896860	-0.06709361
7	0x3d2ac2d6	0.041689716
8	0xbd30c11b	-0.04315291
9	0xbd9a6f17	-0.0754072
10	0x3d7c38e8	0.061577708
11	0xbcf4b816	-0.029872935
12	0xbc005760	-0.007833332
13	0xbbb84d96	-0.0056244833
14	0xbd58cf88	-0.052932292
15	0xbc5a9a20	-0.01334241

convs.0.2.weight f4 [16, 16, 3, 3]
0	0x3d18be3e	0.037290804
1	0x3d578566	0.052617453
2	0xbd891dcf	-0.06695139
3	0xbcddfc86	-0.027097952
4	0xbd0fbe00	-0.035093307
5	0x3d954e1b	0.07290288
6	0x3d37cec8	0.044874936
7	0xbc8486f6	-0.016177636
8	0xbd8255ee	-0.06364046
9	0x3d94ceb2	0.072659865
10	0x3d3d8b20	0.046275258
11	0x3c0d02ab	0.008606593
12	0xbd5ba276	-0.05362173
13	0x3d5a3858	0.05327639
14	0x3ce79660	0.028269947
15	0x3d8de110	0.06927693
16	0xbd43e870	-0.04782909
17	0x3d48e3ce	0.049045376
18	0xbd1f6cc6	-0.038922094
19	0x3c8cdb2b	0.017194351
20	0xbcfaaf80	-0.030601263
21	0xbd47ca8b	-0.048777144
22	0xbd06302b	-0.03276078
23	0x3d91fef6	0.07128708
24	0x3d910c3b	0.07082411
25	0xbc53e0eb	-0.012932043
26	0x3d869f5b	0.065733634
27	0xbda17fe4	-0.07885721
28	0xbd82a6e8	-0.06379491
29	0xbd880000	-0.06640625
30	0xbcbd312b	-0.023094734
31	0x3c7cc60b	0.0154280765
32	0xbd77afe0	-0.06047046
33	0x3d325bee	0.043544702
34	0x3c9ceaab	0.019154867
35	0x3b38a400	0.0028173923
36	0x3d65400b	0.05596928
37	0x3d91ad17	0.071130924
38	0x3b9da416	0.0048108203
39	0x3d816ffe	0.06320189
40	0xb7eed556	-2.8471153e-05
41	0x3c5974c0	0.013272464
42	0x3c961850	0.01832214
43	0x3d21bc66	0.03948631
44	0xbd84be8f	-0.06481659
45	0xbd825fce	-0.063659295
46	0x3d072c23	0.033001076
47	0x3da764cc	0.08173522
48	0x3a6bcd56	0.0008995136
49	0x3d6ca356	0.057772957
50	0x3d030520	0.03198731
51	0xbd67c4b8	-0.05658409
52	0x3d1f34ab	0.038868587
53	0xbc9c8da6	-0.019110512
54	0xbd81f2d7	-0.06345146
55	0x3d13f1de	0.036119334
56	0xbce934e0	-0.028467596
57	0xbd8ef4c2	-0.069802776
58	0x3da12e44	0.078701526
59	0x3d7b5e26	0.061369084
60	0xbbbb7440	-0.005720645
61	0x3d10e0c6	0.03537061
62	0x3da2c87c	0.079483956
63	0x3da088db	0.07838603
64	0x3d086ac0	0.03330493
65	0xbbe51f56	-0.006992261
66	0xbda9eadc	-0.08296749
67	0x3da792f0	0.08182323
68	0x3d43e026	0.047821186
69	0xbda924e7	-0.08258992
70	0xbd1233b3	-0.035693835
71	0x3c9b5e0b	0.018965742
72	0xbd5b1e13	-0.053495478
73	0x3d98bdbe	0.074580655
74	0xbd767643	-0.060171377
75	0xbbabdf6b	-0.0052451394
76	0xbc91a2db	-0.01777785
77	0xbd9a4f77	-0.07534688
78	0xbbed862b	-0.00724866
79	0xbc582d00	-0.013194323
80	0xbbc1c9eb	-0.005913963
81	0x3d6ce38e	0.0578342
82	0xbd71046e	-0.058842115
83	0x3d91445c	0.07093117
84	0xbba80fd6	-0.005128841
85	0xbd20a093	-0.039215636
86	0xbd87d9bf	-0.06633329
87	0x3c8c07db	0.01709359
88	0x3b880b00	0.004151702
89	0x3b659156	0.0035029254
90	0x3c21a056	0.009864887
91	0xbb873256	-0.0041258736
92	0x3ccc9a20	0.024975836
93	0xbcbb4896	-0.02286176
94	0x3d35a008	0.04434207
95	0xbc22908b	-0.009922157
96	0x3d0c4e88	0.03425458
97	0xbc879a70	-0.016553134
98	0xbd7901d0	-0.060792744
99	0x3d29851b	0.041386705
100	0xbd066c46	-0.0328181
101	0x3ab8e100	0.0014105141
102	0xbd5a73d3	-0.053333115
103	0xbd1460f8	-0.03622529
104	0xbd6a23a0	-0.05716288
105	0x3da0fdd0	0.07860911
106	0xbc54bd0b	-0.0129845245
107	0xbca1ab96	-0.019735139
108	0xbc3e608b	-0.011619697
109	0x3c07e4a0	0.008294255
110	0xbd08bb80	-0.03338194
111	0xbd8f5a2e	-0.06999622
112	0x3c6dd32b	0.014515678
113	0x3c191d56	0.009345373
114	0xbd26c84b	-0.040718358
115	0xbc1d3916	-0.00959613
116	0xbc243c8b	-0.0100242
117	0x3d7fa648	0.062414438
118	0xbb91aa2b	-0.0044453344
119	0x3c29c480	0.010361791
120	0xbd8f0c10	-0.069847226
121	0x3d56d1d0	0.052446187
122	0x3d37eb6e	0.044902258
123	0xbcfd55a6	-0.03092463
124	0x3c061cf6	0.008185616
125	0xbc84125b	-0.016122034
126	0x3d5b4dce	0.053540997
127	0xbd2e1e0e	-0.04250913
128	0xbadcffab	-0.0016860863
129	0x3d865398	0.06558913
130	0x3d6cf46e	0.057850294
131	0xbd353128	-0.044236332
132	0x3d81f416	0.06345384
133	0x3d8353a8	0.064124405
134	0xbd802162	-0.06256367
135	0x3d122826	0.03568282
136	0x3d65e0d3	0.056122612
137	0x3d8e46d8	0.06947106
138	0x3ce20dd0	0.027594477
139	0xbda59367	-0.080847554
140	0xbb83d0d6	-0.004022698
141	0xbd3de2e0	-0.046358943
142	0xbb952100	-0.004551053
143	0xbd6c4406	-0.05768206
144	0xbca7445b	-0.020418337
145	0xbd3c96ee	-0.046042375
146	0xbd4715ce	-0.04860478
147	0x3d8d6cd4	0.06905523
148	0xbce35106	-0.027748596
149	0xbce8aa66	-0.028401565
150	0x3d349c93	0.044094633
151	0x3d1e9560	0.038716674
152	0xbcef7ddb	-0.029234817
153	0x3d671783	0.056418907
154	0x3da0b2b2	0.078465834
155	0xbcf93450	-0.030420452
156	0x3d48ff46	0.049071573
157	0x3da25cea	0.07927878
158	0xbd4566a6	-0.048193596
159	0x3c31236b	0.010811667
160	0xbd6ac1b8	-0.05731365
161	0x3d334e28	0.043775707
162	0xbd1c6f4b	-0.038192075
163	0x3d2899d0	0.041162312
164	0xbd4af78e	-0.049552493
165	0xbd8aa94e	-0.067705736
166	0xbd08d003	-0.0334015
167	0x3bd81480	0.0065942407
168	0x3d956fee	0.072967395
169	0xbb6a3f00	-0.0035743117
170	0x3d648e7e	0.055799954
171	0x3d1e1bae	0.038600616
172	0x3c54a5d6	0.0129789915
173	0xbda5a8f2	-0.080888644
174	0x3d023540	0.031789064
175	0xbd8a1827	-0.06742888
176	0xbd0ea200	-0.034822464
177	0xbd571cb6	-0.052517615
178	0xbbc9c92b	-0.0061580143
179	0x3d0ca8be	0.034340613
180	0x3da3fcee	0.08007227
181	0x3d70969b	0.05873738
182	0x3c8e44e0	0.017366827
183	0xbd7ab030	-0.06120318
184	0x3d3c7ce8	0.046017557
185	0x3c5f6600	0.013635159
186	0xbd325346	-0.043536447
187	0x3d4ac35b	0.04950271
188	0xbda4478c	-0.08021459
189	0xbbfb9456	-0.007677595
190	0xbcee8660	-0.02911681
191	0xbd847908	-0.064683974
192	0x3c63c960	0.013902992
193	0xbd92d6ca	-0.07169874
194	0x3d4ebd93	0.05047376
195	0xbd687fbe	-0.05676245
196	0x3cdf28d6	0.027241152
197	0x3d9de46a	0.07709582
198	0xbc89432b	-0.016755661
199	0x3cb77d60	0.02239865
200	0xbd6b1376	-0.057391606
201	0x3d987b6b	0.07445415
202	0x3c13e300	0.009026289
203	0x3d90aff6	0.07064812
204	0x3cc5ca56	0.024144333
205	0x3d2d1583	0.042256843
206	0xbd033f40	-0.03204274
207	0x3943b800	0.00018665195
208	0x3d87c45c	0.066292495
209	0x3d69ed8b	0.057111304
210	0xbda2c087	-0.07946878
211	0x3c5901e0	0.013245076
212	0x3c03d340	0.008045971
213	0xbda023a2	-0.078192964
214	0x3ba17200	0.00492692
215	0xbd5c08d3	-0.053719353
216	0x3d3c51c0	0.0459764
217	0xbd99ca5e	-0.075093016
218	0x3d488e7e	0.048964016
219	0x3d277488	0.040882617
220	0x3c90b936	0.01766644
221	0x3d2b0ab8	0.04175827
222	0x3d886313	0.06659522
223	0xbd99fe6e	-0.07519232
224	0xbcfe6c16	-0.031057399
225	0x3cab5bbb	0.020917764
226	0xbce54e40	-0.027991414
227	0xbaf6cfab	-0.00188302
228	0x3cefcc70	0.029272288
229	0xbca761b0	-0.020432323
230	0xbda9254f	-0.08259069
231	0x3d2eeca8	0.04270616
232	0x3d5a5668	0.05330506
233	0x3d8ea238	0.069645345
234	0xbd2b7ed0	-0.041868985
235	0xbc8a6066	-0.01689167
236	0xba897156	-0.0010486047
237	0xbc66900b	-0.014072428
238	0x3d4ba018	0.049713224
239	0xbd607fc8	-0.05480936
240	0xbd62527e	-0.055254452
241	0xbd8d5e9b	-0.0690281
242	0xbd7b78de	-0.061394565
243	0xbd6b89a0	-0.057504296
244	0x3c7c8d96	0.015414616
245	0xbda33dfe	-0.079708084
246	0xbd32b116	-0.043625914
247	0x3d6caddb	0.05778299
248	0x3d8b4b12	0.06801428
249	0x3ce4698b	0.027882358
250	0x3cb33b56	0.02187888
251	0x3da2fec3	0.07958748
252	0x3d122d63	0.035687815
253	0x3c8bbd70	0.017058104
254	0xbd413126	-0.047166012
255	0x3d0a841b	0.03381739

convs.0.2.bias f4 [16]
0	0x3bbe9100	0.005815625
1	0x3d1045ae	0.0352227
2	0xbda13aaf	-0.07872521
3	0xbd1a68f3	-0.037697744
4	0x3d9eff68	0.077635586
5	0xbc5bd7e0	-0.013418168
6	0x3d77a6a3	0.06046165
7	0x3bbf6a80	0.005841553
8	0xbd2b47de	-0.041816585
9	0xbb887b2b	-0.0041650734
10	0xbc80d3e0	-0.01572603
11	0xbd31924e	-0.043352418
12	0x3d193916	0.037407957
13	0xbc2588ab	-0.010103385
14	0x3c82879b	0.015933802
15	0x3d7dd303	0.061968815

convs.1.0.weight f4 [16, 16, 3, 3]
0	0xbd8b692a	-0.06807168
1	0xbc6aca8b	-0.014330517
2	0xbcd3f5e6	-0.02587409
3	0xbc022c2b	-0.007945101
4	0xbc6111c0	-0.013737142
5	0x3d01f363	0.031726252
6	0xbd9ab6bc	-0.07554385
7	0x3d693156	0.056931816
8	0x3d0080c0	0.031372786
9	0x3d1d26ae	0.038366966
10	0x3d3dccf0	0.04633802
11	0x3d35b1de	0.04435908
12	0x3da92518	0.08259028
13	0x3ba8bb80	0.005149305
14	0xbc91fb30	-0.01781997
15	0xbbe384eb	-0.0069433353
16	0xbd9f4838	-0.077774465
17	0xbcb6d906	-0.022320282
18	0x3d98512b	0.074373566
19	0xbda050ea	-0.07827933
20	0xbb6ac22b	-0.00358213
21	0x3c8ad906	0.016949188
22	0x3b9c4d16	0.0047699315
23	0x3c05bd6b	0.008162837
24	0xbd60575e	-0.05477082
25	0x3d25ce0e	0.040479712
26	0xbd56ed83	-0.052472603
27	0x3d190a7b	0.03736351
28	0xbd94902f	-0.07254063
29	0xbd47c626	-0.048772953
30	0x3d3ba366	0.045810126
31	0x3d9be96f	0.07612883
32	0x3d78cb48	0.06074074
33	0x3d93d76a	0.07218821
34	0x3c632076	0.01386272
35	0x3c8495f0	0.016184777
36	0x3d6415fb	0.055685025
37	0x3d4c0d83	0.049817573
38	0x3d980fde	0.074249014
39	0x3d17a120	0.037018895
40	0xbd1dc20e	-0.038515143
41	0xbd2c764e	-0.04210501
42	0x3d909756	0.07060115
43	0xbcc5c130	-0.02413997
44	0x3d70c2ee	0.05877965
45	0xbd9123a3	-0.07086875
46	0x3da16da2	0.07882239
47	0x3d0ecee3	0.03486527
48	0x3d855b5a	0.065115646
49	0xbd7e0188	-0.06201318
50	0xbca8de7b	-0.0206139
51	0xbc87882b	-0.016544422
52	0xbd84d91a	-0.06486721
53	0xbd04206e	-0.03225749
54	0x3d996e73	0.0749177
55	0xbda8667a	-0.08222671
56	0xbcd0ec10	-0.025503188
57	0x3ca457c6	0.020061385
58	0x3d23c073	0.039978456
59	0xbb924e2b	-0.0044648848
60	0xbd33dea3	-0.043913495
61	0xbc8f37b0	-0.017482609
62	0xbd2e41b0	-0.042543113
63	0xbd98231f	-0.07428574
64	0xbd41eedb	-0.04734693
65	0xbcb7a4f0	-0.022417516
66	0x3ccc74bb	0.024958005
67	0x3d484698	0.04889545
68	0x3d9578e6	0.0729845
69	0x3d7d871e	0.061896436
70	0xbd52fc93	-0.051510405
71	0xbb5770d6	-0.0032873652
72	0xbccf1e70	-0.025283068
73	0xbd8051c7	-0.06265598
74	0xbd8edb48	-0.06975418
75	0xbcec3b70	-0.028836936
76	0x3d38531e	0.04500114
77	0x3d4432e6	0.047900103
78	0x3d8dcac8	0.06923443
79	0x3bffad6b	0.0078026555
80	0x3d11e77e	0.03562116
81	0xbd32e6d3	-0.043677162
82	0xbd985f03	-0.07439997
83	0x3cd7ce96	0.026343625
84	0x3d396cf8	0.045269936
85	0x3ae52000	0.001748085
86	0x3d856892	0.06514086
87	0x3d84b624	0.06480053
88	0xbd8de200	-0.06927872
89	0x3ab1c556	0.0013562839
90	0x3d02caab	0.03193156
91	0xbd8d845b	-0.069100104
92	0x3b383f80	0.002811402
93	0xbd214a0b	-0.039377254
94	0xbcd23a46	-0.025662553
95	0x3d08494e	0.033273034
96	0x3d57c4c3	0.05267788
97	0xbda494c2	-0.08036186
98	0x3cc9f020	0.024650633
99	0xbd017953	-0.031609844
100	0x3d8b68cc	0.06807098
101	0xbbe23d6b	-0.0069042942
102	0x3da79b66	0.08183937
103	0x3cae10f6	0.021248322
104	0x3cff68eb	0.031177958
105	0xbd1a562e	-0.037679844
106	0xbc5ec076	-0.013595691
107	0xbce8b446	-0.028406274
108	0xbd7ae068	-0.061249167
109	0xbc9c181b	-0.019054463
110	0xbd21a03b	-0.03945945
111	0xbd52e7f0	-0.051490724
112	0x3d66cfbe	0.056350462
113	0xbd0bd186	-0.034135364
114	0x3d1159e0	0.035486102
115	0x3d0ba7c3	0.034095537
116	0xbd5c9833	-0.053856086
117	0xbd32b2e0	-0.04362762
118	0xbd36cffb	-0.04463194
119	0xbd6eb92b	-0.05828206
120	0xbda54de6	-0.080714986
121	0xbd21a913	-0.039467882
122	0xbd317306	-0.043322586
123	0xbc5fed20	-0.013667375
124	0x3c88b890	0.016689569
125	0xbcc9ef70	-0.024650306
126	0xbcfd1f9b	-0.03089886
127	0xbcd0c13b	-0.025482764
128	0xbd07744e	-0.0330699
129	0x3c845d5b	0.016157797
130	0x3d89260f	0.06696712
131	0xbc1e2720	-0.009652883
132	0x3cce97c6	0.025218856
133	0xbd96a854	-0.07356325
134	0x3d86b7fc	0.06578061
135	0xbca58056	-0.020202797
136	0x3cacc8c0	0.021091819
137	0x3ca07496	0.019586843
138	0xbc06c74b	-0.008226226
139	0x3bb88feb	0.0056323907
140	0x3d190053	0.037353825
141	0xbcd8b72b	-0.026454529
142	0x3d538c30	0.051647365
143	0xbc272136	-0.010200789
144	0xbb012bd6	-0.0019709966
145	0x3cc8933b	0.024484267
146	0xbc789bf6	-0.015173903
147	0xbd8baf5f	-0.06820559
148	0x3d361e40	0.044462442
149	0x3c7c258b	0.01538981
150	0x3d7dfb10	0.06200701
151	0x3d2f1d06	0.04275229
152	0xbd419840	-0.047264338
153	0xbd73808e	-0.05944877
154	0xbd11c303	-0.03558637
155	0x3d80157a	0.06254096
156	0xbcb1e886	-0.021717321
157	0x3bb09c56	0.0053897304
158	0x3c985fa6	0.018600296
159	0x3ba09356	0.0049003763
160	0x3c8b0bd6	0.016973417
161	0x3cb6618b	0.022263309
162	0x3d02e396	0.031955324
163	0x3d6bf95b	0.05761085
164	0x3d83f047	0.06442314
165	0x3d699bd6	0.057033382
166	0xbbe6e180	-0.0070459247
167	0x3da41058	0.0801093
168	0xbcbe15e0	-0.02320379
169	0xbcdbc2f0	-0.026826352
170	0x3bdc02d6	0.0067142053
171	0x3b264700	0.002537191
172	0x3d0c7668	0.03429261
173	0x3cc878e0	0.0244717
174	0xbd55d708	-0.052207023
175	0x3d0a9f60	0.033843398
176	0xbd24937e	-0.040179722
177	0xbd408eab	-0.04701106
178	0xba148cab	-0.0005666713
179	0x3d7cc5be	0.06171202
180	0x3d801a70	0.062550426
181	0xbd96d0a4	-0.07364014
182	0xbcbea9fb	-0.023274412
183	0xbc8440c0	-0.016144156
184	0x3ab08200	0.0013466477
185	0xbc411b00	-0.011786222
186	0xbd2bd996	-0.041955553
187	0xbd7b036b	-0.061282557
188	0xbd21d5c8	-0.03951052
189	0x3d839414	0.06424728
190	0x3bba172b	0.0056790314
191	0xbd305790	-0.043052256
192	0x3d50e06b	0.05099527
193	0x3d7d6283	0.061861526
194	0x3c833aa6	0.016019177
195	0x3d93f814	0.072250515
196	0xbd742a3b	-0.059610587
197	0xbd947c7f	-0.07250308
198	0x3bd0d62b	0.006373187
199	0x3d3e43f6	0.04645153
200	0xbd771e50	-0.060331643
201	0xbd1faa2b	-0.038980644
202	0xbd8d34a3	-0.06894805
203	0x3d0d88a0	0.034554124
204	0x3d16a913	0.036782335
205	0xbda572a4	-0.080785066
206	0x3d65a610	0.056066573
207	0xbcd3b946	-0.025845181
208	0x3d7aea40	0.061258554
209	0xbd8f2d3e	-0.06991051
210	0x3c0bba60	0.008528322
211	0x3d952f82	0.07284452
212	0xbd223f6e	-0.039611273
213	0x3ce77560	0.028254211
214	0xbcfea390	-0.031083852
215	0xbd1f6f33	-0.038924407
216	0x3d49a640	0.049230814
217	0xbd590d2b	-0.052991074
218	0x3c0d8e36	0.008639863
219	0x3b78aed6	0.0037946007
220	0xbd3614d3	-0.044453453
221	0x3da6be14	0.08141723
222	0x3d191d16	0.037381254
223	0xbd680aab	-0.0566508
224	0xbcf73150	-0.030174881
225	0xbbe944d6	-0.0071188016
226	0xbd8b43d4	-0.068000466
227	0xbd8ec4ce	-0.06971131
228	0x3d6040eb	0.05474941
229	0xbd8f7428	-0.07004577
230	0x3d814a7e	0.063130364
231	0xbd57a896	-0.05265101
232	0x3d0856d8	0.033285946
233	0xbd90e388	-0.07074648
234	0x3d8710b6	0.06594984
235	0x3b335e2b	0.002736936
236	0xbaf9e1ab	-0.0019064447
237	0xbcfd7006	-0.030937206
238	0xbd92ed12	-0.07174124
239	0xbccf3f06	-0.025298607
240	0x3c653ef6	0.013992062
241	0xbd42a883	-0.047523987
242	0x3c731120	0.014835626
243	0xbda2ea06	-0.07954793
244	0xbd57f9d6	-0.052728496
245	0xbd231b8e	-0.0398212
246	0x3d475db6	0.048673354
247	0xbca02866	-0.019550513
248	0xbd2f7fc6	-0.042846464
249	0xbd85bd96	-0.06530301
250	0xbd93a5c8	-0.07209355
251	0x3d9973eb	0.07492813
252	0xbc8fed66	-0.017569255
253	0x3d2abc3e	0.041683428
254	0xbd024f20	-0.03181374
255	0x3c004ceb	0.007830839

convs.1.0.bias f4 [16]
0	0xbb859196	-0.004076193
1	0xbcd929bb	-0.026509156
2	0x3d346046	0.044037126
3	0x3d85adff	0.06527328
4	0xbd223ad0	-0.03960687
5	0x3ba0cf00	0.004907489
6	0x3d8558c2	0.0651107
7	0xbbd80b56	-0.006593148
8	0xbd370a40	-0.04468751
9	0xbd250b90	-0.04029423
10	0xbd3df0d6	-0.046372257
11	0x3d420088	0.047363788
12	0x3c9d04c6	0.019167315
13	0x3d7baf10	0.06144625
14	0xbd1baa18	-0.03800401
15	0x3da2e99b	0.07954713

convs.1.2.weight f4 [16, 16, 3, 3]
0	0xbd2fdf0e	-0.04293733
1	0x3c412e4b	0.011790822
2	0x3d0c2cf6	0.034222566
3	0xbc801db0	-0.015639156
4	0xbceb2ebb	-0.028708806
5	0x3d79b8b8	0.060967177
6	0xbda77f00	-0.0817852
7	0x3cc51d16	0.02406172
8	0xbc7522eb	-0.014961938
9	0x3d32ad30	0.043622196
10	0x3ce2a386	0.027665865
11	0x3da42d7b	0.08016487
12	0xbd32d5a8	-0.04366079
13	0xbb84e840	-0.0040560067
14	0xbd35165e	-0.044210784
15	0xbd986e0f	-0.07442867
16	0x3d3810b3	0.0449378
17	0x3d5ad8c6	0.053429388
18	0xbc366d8b	-0.0111345155
19	0x3c1d21d6	0.009590587
20	0x3cead90b	0.028667947
21	0xbc6618a0	-0.014043957
22	0xbcb29306	-0.021798622
23	0x3d7f79fe	0.0623722
24	0xbda19eb0	-0.07891595
25	0x3d81515f	0.063143484
26	0xbd8fef48	-0.07028061
27	0x3c45df20	0.012077123
28	0xbd94be2f	-0.07262837
29	0x3cf57d96	0.02996711
30	0xbd62c76b	-0.05536596
31	0xbd6a36d0	-0.05718118
32	0x3d0f66c3	0.03501011
33	0x3a624556	0.00086315477
34	0x3d00ed2e	0.031476192
35	0x3c460216	0.012085458
36	0xbb475eab	-0.0030421417
37	0x3d2ba8b8	0.04190895
38	0x3adec300	0.001699537
39	0xbd9ea52c	-0.07746348
40	0xbc061060	-0.008182615
41	0x3b3ace2b	0.0028504233
42	0xbd9d5f3f	-0.076841824
43	0xbd8dbdc6	-0.06920962
44	0x3ada1800	0.0016639233
45	0x3cbbc646	0.022921693
46	0x3cecedd6	0.028922003
47	0xbd51c29b	-0.05121098
48	0xbd650533	-0.05591316
49	0x3d02122b	0.031755608
50	0xbd80ea92	-0.06294741
51	0xbd9f10c3	-0.07766869
52	0xbc4de236	-0.01256614
53	0xbd1ec728	-0.03876415
54	0x3cdb5720	0.026774943
55	0xbd5651de	-0.05232417
56	0x3d207b60	0.03918016
57	0x3c288536	0.010285666
58	0xbc0ba736	-0.008523753
59	0x3b94f756	0.0045460863
60	0x3c875746	0.016521107
61	0xbd3ed738	-0.046591967
62	0x3c9f5860	0.01945132
63	0x3d71a063	0.058990847
64	0xbda5766a	-0.08079226
65	0xbc638e96	-0.013888976
66	0x3d7b3303	0.061327945
67	0x3c1924a0	0.009347111
68	0xbd98e157	-0.07464855
69	0x3c79ba16	0.01524212
70	0x3bde7c80	0.006789744
71	0xbd1d0418	-0.038333982
72	0x3d95b3f7	0.07309716
73	0xbd6c4b46	-0.057688974
74	0x3d08d82e	0.03340929
75	0x3c00c736	0.007859996
76	0xbda79a4e	-0.08183728
77	0xbd248228	-0.04016319
78	0xbd13c5b3	-0.036077213
79	0xbd5ad3cb	-0.053424638
80	0x3d36ee7e	0.044661038
81	0x3d8971be	0.06711148
82	0x3c839470	0.016061991
83	0x3ca225ab	0.019793352
84	0x3d9ba868	0.0760048
85	0x3c9e3db6	0.019316535
86	0x3d608ef0	0.054823816
87	0xbc91390b	-0.017727396
88	0x3b9f6080	0.0048637986
89	0xbd3324d0	-0.04373628
90	0x3d512e60	0.051069617
91	0xbcbce810	-0.023059875
92	0x3d39dfc3	0.04537941
93	0x3d750c76	0.059826337
94	0x3a76fd56	0.0009421905
95	0x3d91655f	0.07099413
96	0xbda7a002	-0.08184816
97	0xbd4cdcb6	-0.050015174
98	0x3d66a173	0.056306314
99	0xbd446628	-0.047948986
100	0xbd761696	-0.060080133
101	0xbd03db7b	-0.032191735
102	0x3d58bbc0	0.052913427
103	0xbd4561c0	-0.048188925
104	0x3a9bd856	0.0011890035
105	0x3d385abe	0.045008413
106	0x3d96c65f	0.07362055
107	0x3d881896	0.066453144
108	0x3c599ccb	0.013282011
109	0xbcb100db	-0.021606853
110	0xbd39657b	-0.045262795
111	0x3c0eda16	0.008718988
112	0xbc139a36	-0.009008935
113	0x3c2edd4b	0.010672878
114	0x3da1366a	0.07871707
115	0xbdaa6f1f	-0.08321976
116	0xbc3c7960	-0.011503547
117	0x3c1bab76	0.009501329
118	0x3c6f48e0	0.014604777
119	0xbd3149d3	-0.043283295
120	0x3d27befe	0.04095363
121	0xbd148540	-0.03625989
122	0x3cbbbb16	0.022916358
123	0xbd80b39c	-0.06284258
124	0x3d08232e	0.033236675
125	0x3d1bbd93	0.03802259
126	0xbcd8fed0	-0.026488692
127	0x3da8a346	0.08234267
128	0x3cee9120	0.029121935
129	0xbda52d13	-0.08065238
130	0xbd09ee83	-0.033674728
131	0x3d8a519f	0.06753849
132	0xbd3936db	-0.04521833
133	0x3d2a67f3	0.04160304
134	0x3c543c16	0.012953779
135	0xbc00c2c0	-0.007858932
136	0x3da66f76	0.08126728
137	0x3d1e8b63	0.03870715
138	0x3d9f09ae	0.07765518
139	0x3d5855a8	0.052816063
140	0xbbb89000	-0.0056324005
141	0x3cb65040	0.022255063
142	0xbd80a2e0	-0.06281066
143	0xbca87ed0	-0.020568281
144	0xbd5d5933	-0.054040145
145	0x3d3d87fe	0.04627227
146	0x3d030eae	0.03199642
147	0x3d6e92f3	0.05824561
148	0x3c736b00	0.014857054
149	0xbd991010	-0.07473767
150	0x3c929ff0	0.01789853
151	0xbc70cbc0	-0.014697015
152	0xbd5b79f6	-0.053583108
153	0xbd99ce58	-0.0751006
154	0xbda36eb7	-0.079801016
155	0xbd20f976	-0.039300404
156	0xbc0bcb96	-0.008532425
157	0xbc7f1b20	-0.015570432
158	0x3d1263f6	0.03573986
159	0x3d8f045b	0.069832526
160	0x3d80a872	0.062821284
161	0x3d2b0123	0.04174913
162	0xbb733a2b	-0.0037113528
163	0xbd0ec1ab	-0.034852665
164	0xbd8823aa	-0.066474274
165	0x3d44e37e	0.048068516
166	0x3c1eb84b	0.009687494
167	0x3d30b090	0.043137133
168	0xbcd4bf4b	-0.025970122
169	0xbd6e0476	-0.058109723
170	0xbd8b4ca8	-0.068017304
171	0x3d8a3b13	0.06749549
172	0x3d589d9e	0.05288469
173	0x3c5593c0	0.013035715
174	0xbbf01980	-0.0073272586
175	0x3d1930a8	0.037399918
176	0xbd744b06	-0.05964186
177	0x3d089d83	0.03335334
178	0x3d8d8ffb	0.06912228
179	0x3d7df773	0.062003564
180	0xbd197f13	-0.037474703
181	0x3c8aba66	0.016934585
182	0x3d97f6f3	0.07420149
183	0x3d7ca790	0.061683238
184	0xbd40f193	-0.047105383
185	0xbd93ff97	-0.07226484
186	0x3da8af73	0.08236589
187	0x3cea7a06	0.028622638
188	0x3c13f196	0.009029767
189	0x3cd681ab	0.026184877
190	0x3d429f9b	0.047515493
191	0xbd156d86	-0.036481403
192	0xbd1d3bb3	-0.03838701
193	0xbd949f53	-0.07256951
194	0x3d98dbf4	0.07463828
195	0xbd87dd98	-0.066340625
196	0xbd9b855b	-0.07593795
197	0x3bc21eab	0.005924066
198	0xbc6d82f6	-0.014496556
199	0x3c33116b	0.010929446
200	0x3cabfcdb	0.020994594
201	0xbc941acb	-0.018079182
202	0x3d97f436	0.074196264
203	0xbd017e0e	-0.031614356
204	0x3da08f2c	0.07839808
205	0xbd9843c7	-0.074348025
206	0x3be478c0	0.0069724023
207	0xbd2878e8	-0.04113093
208	0x3d7850c3	0.060623895
209	0xbd5f1a10	-0.054468215
210	0x3cbf0bb0	0.023321003
211	0x3ca5fffb	0.020263663
212	0xbd003c7b	-0.03130768
213	0x3d12a793	0.035804342
214	0x3d389fb8	0.045074195
215	0x3d9c4e83	0.076321624
216	0xbb1f8c80	-0.002434522
217	0xbdaa5520	-0.083170176
218	0x3da8808b	0.082276426
219	0xbc0231ab	-0.007946412
220	0x3d007816	0.031364523
221	0x3d2b73d6	0.041858517
222	0x3d47bcb8	0.04876396
223	0x3da8d0d6	0.08242957
224	0x3cdd3d16	0.027006667
225	0xbd5f11d0	-0.054460347
226	0xbce96126	-0.028488707
227	0xbd955d83	-0.072932266
228	0x3d7b1908	0.06130317
229	0x3d41c906	0.04731085
230	0xbd477326	-0.0486938
231	0xbd9c085f	-0.07618784
232	0x3d14d800	0.036338806
233	0xbd0b9d80	-0.03408575
234	0x3d000d73	0.031262826
235	0xbd6bcd5b	-0.05756889
236	0x3d7959d0	0.060876667
237	0x3c54e0a0	0.012993008
238	0x3d9dd792	0.077071324
239	0x3d5b7a26	0.053583287
240	0xbd916c43	-0.071007274
241	0x3b955916	0.004557739
242	0xbc870320	-0.016480982
243	0x3d744ae8	0.05964175
244	0x3d8fa9d0	0.07014811
245	0xbc802e10	-0.015646964
246	0x3d8bc008	0.068237364
247	0xbd97d77b	-0.074141465
248	0x3da29433	0.07938423
249	0x3d99a577	0.07502263
250	0x3daa9a3b	0.083301984
251	0xbcfa869b	-0.030581763
252	0xbbd74180	-0.0065690875
253	0xbce0e4c0	-0.027452826
254	0x3c698640	0.014253199
255	0xbd21c76e	-0.03949683

convs.1.2.bias f4 [16]
0	0x3d5a9163	0.053361308
1	0x3d8c7c67	0.06859665
2	0xbd3b02b0	-0.04565686
3	0xbb1ba380	-0.0023748577
4	0xbd39e5ce	-0.045385174
5	0x3da9c2d2	0.08289112
6	0xbd1058f6	-0.03524109
7	0x3c719b6b	0.014746527
8	0x3cece880	0.028919458
9	0x3d1768d0	0.03696519
10	0x3d967032	0.07345618
11	0xbd5a231b	-0.053256135
12	0xbd28014e	-0.04101687
13	0x3d29f8ee	0.041497163
14	0xbc084ac0	-0.008318603
15	0xbca24d5b	-0.019812277

convs.2.0.weight f4 [16, 16, 3, 3]
0	0xbd1b11c6	-0.037858747
1	0xbda473c0	-0.0802989
2	0x3cae599b	0.021282962
3	0x3c0d6f76	0.008632531
4	0x3d7dede3	0.061994445
5	0xbc566100	-0.01308465
6	0xbda140e4	-0.07873705
7	0xbd9656a8	-0.07340747
8	0x3d6e9568	0.058247954
9	0x3d747253	0.05967934
10	0xbd768463	-0.060184848
11	0xbce752c6	-0.028237712
12	0x3d138afe	0.036021225
13	0x3bf6fe96	0.007537673
14	0xbd93789b	-0.07200738
15	0xbd548813	-0.051887583
16	0xbd2d648e	-0.042332225
17	0xbbd9a296	-0.006641696
18	0xbb056456	-0.0020353994
19	0xbce0fc3b	-0.027464023
20	0x3c9f62f0	0.019456357
21	0x3ad81eab	0.0016488632
22	0x3d2ba12e	0.04190176
23	0xbda70bc0	-0.08156538
24	0xbcea8ef0	-0.028632611
25	0xbd3f7570	-0.046742857
26	0x3d653ed8	0.055968136
27	0xbd4306cb	-0.0476139
28	0x3c085e76	0.0083233025
29	0xbd56f2a8	-0.05247751
30	0xbd83b896	-0.06431691
31	0xbd2814d6	-0.041035496
32	0x3d5d7dc6	0.054075025
33	0x3c773856	0.015089115
34	0xbd0a28db	-0.03373037
35	0x3d7370b6	0.05943366
36	0x3cb2f290	0.021844178
37	0xbc167d36	-0.009185126
38	0x3d5bc470	0.053654134
39	0x3cd46236	0.025925737
40	0x3d756938	0.059914798
41	0x3c9bbcb6	0.019010883
42	0xbbab7956	-0.00523297
43	0xbd805f50	-0.062681794
44	0xbd9af508	-0.07566267
45	0x3d00d5a0	0.03145373
46	0x3d53fe08	0.051755935
47	0xbcd851bb	-0.02640616
48	0xbbd09e96	-0.006366561
49	0x3d5aaec6	0.053389333
50	0x3ce5338b	0.02797868
51	0x3da9ca18	0.082904994
52	0xbd610cb0	-0.05494374
53	0x3d9e62f8	0.077337205
54	0x3d4c1dbe	0.04983305
55	0xbd30063e	-0.042974703
56	0x3c3414cb	0.010991286
57	0x3d9fded8	0.07806176
58	0x3d5631a3	0.05229343
59	0x3d8047ae	0.06263672
60	0xbca88bd0	-0.02057448
61	0x3baa0f2b	0.0051897964
62	0x3bd42680	0.006474316
63	0x3ce01e1b	0.027358105
64	0x3ca62bf6	0.020284634
65	0x3ca31790	0.019908696
66	0x3d015b5e	0.031581275
67	0xbc45a0d6	-0.012062272
68	0x3d8ec44e	0.06971036
69	0x3d8e8dc0	0.069606304
70	0xbd3fa058	-0.046783775
71	0xbd381178	-0.044938534
72	0xbd585df0	-0.05282396
73	0x3b86b196	0.0041105254
74	0x3d8b0f93	0.0679008
75	0x3c3909d6	0.011293849
76	0x3cfc171b	0.030772736
77	0xbd4ebb93	-0.050471853
78	0xbc9949a0	-0.018711865
79	0xbcba2f26	-0.02272756
80	0xbbe9b8c0	-0.0071326196
81	0x3d8d66f0	0.069043994
82	0xbd58ad50	-0.05289966
83	0xbbc6f880	-0.006072104
84	0x3d35249e	0.044224374
85	0x3d1044a0	0.035221696
86	0xbc88ab1b	-0.016683152
87	0xbd0c6b9e	-0.03428232
88	0xbcf64abb	-0.030064931
89	0xbd833a9e	-0.06407665
90	0xbcd9638b	-0.026536724
91	0x3d772a38	0.060342997
92	0xbd180bee	-0.037120752
93	0xbd9bc4af	-0.07605874
94	0x3d6665eb	0.05624954
95	0xbd2910db	-0.04127584
96	0x3d9ba067	0.07598954
97	0x3d670a3b	0.05640624
98	0xbcc94a90	-0.024571687
99	0x3d3469bb	0.044046145
100	0xbd799ccb	-0.060940545
101	0x3d91af4f	0.071135156
102	0x3c99379b	0.018703273
103	0xbd409586	-0.047017597
104	0x3d4bfa6b	0.049799364
105	0x3c4b2ca0	0.012400776
106	0xbda90a28	-0.0825389
107	0xbd4d44d8	-0.050114483
108	0xbad84dab	-0.0016502639
109	0x3c633000	0.013866425
110	0xbce2bed0	-0.027678877
111	0xbd9ce620	-0.0766108
112	0xbd0d7b40	-0.03454137
113	0x3c7a35ab	0.0152715845
114	0x3d9b95da	0.07596941
115	0xbcf3d44b	-0.029764315
116	0x3d965d54	0.0734202
117	0xbd37dba3	-0.044887196
118	0xbd805f83	-0.062682174
119	0xbcd55ac0	-0.02604425
120	0x3d5eae66	0.054365538
121	0xb7280000	-1.001358e-05
122	0x3ca4550b	0.020060083
123	0x3d3134a6	0.0432631
124	0x3b407cab	0.0029371183
125	0x3d8b85aa	0.06812604
126	0x3d8a4063	0.06750562
127	0x3d9ac9c0	0.07558012
128	0xbd507c33	-0.050899696
129	0x3d9f0232	0.077640906
130	0x3b62592b	0.0034538012
131	0xbd729c2b	-0.059230965
132	0xbd8fce24	-0.0702174
133	0x3c972936	0.018452268
134	0x3ce8dd5b	0.028425863
135	0x3d1340eb	0.035950582
136	0x3d5810ae	0.052750282
137	0x3cc81170	0.024422377
138	0xbd38cb30	-0.04511565
139	0xbd7abf76	-0.061217748
140	0x3c9b0df0	0.018927544
141	0xbb786c2b	-0.003790627
142	0xbc11c420	-0.0088968575
143	0x3c55b080	0.013042569
144	0xbc5c2660	-0.013436884
145	0x3d85d747	0.065352015
146	0x3d76f0bb	0.060288172
147	0xbd8714cc	-0.065957636
148	0xbd64681e	-0.055763356
149	0xbd4b7bcb	-0.049678605
150	0x3d9b642e	0.07587467
151	0x3c5d7120	0.013515741
152	0x3cd6a016	0.026199382
153	0x3b8815ab	0.0041529736
154	0x3d8774c3	0.066140674
155	0xbc1d3980	-0.009596229
156	0xbce8fa2b	-0.028439602
157	0xbd178d86	-0.0370002
158	0x3d817652	0.06321396
159	0x3da4e8cb	0.08052214
160	0xbd8afd0a	-0.067865446
161	0xbd316eb8	-0.04331848
162	0xbd410e83	-0.04713298
163	0x3cfd3326	0.030908179
164	0xbd88a0b8	-0.0667128
165	0xbac2ea56	-0.0014870863
166	0x3d901b66	0.07036476
167	0xbd8f96c0	-0.07011175
168	0x3baa59d6	0.0051986976
169	0xbbfccfab	-0.0077151856
170	0xbd4f1e1b	-0.05056582
171	0x3c827cb6	0.015928607
172	0x3da1cb07	0.079000525
173	0xbc452e80	-0.012035012
174	0xbc7ea276	-0.015541663
175	0xbd0a658b	-0.033788245
176	0x3d8918f4	0.066942126
177	0xbd5d3d5b	-0.05401359
178	0xbd8bf7bb	-0.0683436
179	0x3d1acacb	0.037791055
180	0x3cb70ac0	0.022343993
181	0x3c2302e0	0.009949416
182	0xbd91f5ce	-0.07126962
183	0x3d85c576	0.06531803
184	0xbda100eb	-0.07861503
185	0xbc96d5cb	-0.018412491
186	0xbd4ad9eb	-0.04952423
187	0xbd285498	-0.0410963
188	0xbd0b3400	-0.033985138
189	0xbc9ed6c0	-0.01938951
190	0x3d18f986	0.03734734
191	0x3bf23240	0.007391244
192	0x3c8d19c0	0.017224193
193	0x3d6b2043	0.057403814
194	0xbc83518b	-0.016030094
195	0x3d1467bb	0.036231738
196	0x3cd2fb26	0.025754523
197	0x3cfa36e0	0.030543745
198	0xbc50da76	-0.012747398
199	0x3da8b1a2	0.08237006
200	0x3ac053ab	0.0014673372
201	0x3d96d770	0.0736531
202	0x3cdc7210	0.026909858
203	0x3d8e4f2c	0.069486946
204	0x3d3ec068	0.04657021
205	0xbcede970	-0.029041976
206	0x3d9ac3c8	0.075568736
207	0xbcb85086	-0.022499334
208	0x3c3b2c8b	0.011424194
209	0x3b27fe2b	0.0025633674
210	0x3c5cdf0b	0.013480912
211	0x3d154740	0.036444902
212	0xbd8b1fc2	-0.06793167
213	0xbd41fb28	-0.047358662
214	0x3cb61930	0.022228807
215	0x3bed6b80	0.007245481
216	0x3b5707ab	0.0032810967
217	0x3da620e2	0.08111741
218	0x3cfc3350	0.030786186
219	0xbc0c8b2b	-0.008578102
220	0x3d825203	0.06363299
221	0xbbbc5896	-0.005747865
222	0xbd5668ee	-0.052346162
223	0x3d43347b	0.04765747
224	0xbbf20200	-0.0073854923
225	0x3cd23b66	0.025663089
226	0x3d898dfa	0.06716533
227	0x3caa0cd6	0.020758074
228	0x3d903392	0.07041086
229	0x3d7421d8	0.05960259
230	0xbc0aef2b	-0.008479874
231	0x3bc16180	0.0059015155
232	0xbd1c2cc0	-0.038128614
233	0x3da9344a	0.082619265
234	0x3d9016f8	0.07035631
235	0x3c32984b	0.010900567
236	0x3b103856	0.0022006235
237	0xbbd6ca00	-0.006554842
238	0x3d9dad07	0.07699018
239	0xbd5dad90	-0.0541206
240	0xbd1a83a8	-0.037723213
241	0xbd61251b	-0.054967027
242	0x3d200fc8	0.03907755
243	0x3d95387b	0.072861634
244	0xbd9fdfa2	-0.078063264
245	0xbd5f13bb	-0.054462176
246	0xbd7ac860	-0.06122625
247	0x3d22fe80	0.03979349
248	0x3da18144	0.078859836
249	0xbcce6046	-0.025192391
250	0xbd8a387b	-0.06749054
251	0x3a59fcab	0.00083155435
252	0xbd9ccb0f	-0.07655918
253	0xbc558696	-0.013032576
254	0xbd6ce713	-0.057837557
255	0x3d67ba8e	0.056574397

convs.2.0.bias f4 [16]
0	0x3d1d3638	0.038381785
1	0x3d51f23e	0.05125641
2	0xbd8c8be7	-0.06862622
3	0xbc16ae0b	-0.0091967685
4	0xbcf5f000	-0.030021667
5	0x3cb4ea16	0.022084277
6	0x3d72cebb	0.059279185
7	0x3c016220	0.00789693
8	0xbd89bd0a	-0.067255095
9	0xbcfad67b	-0.03061985
10	0x3bef41eb	0.007301559
11	0xbd4fa4d3	-0.050694298
12	0x3da2b9eb	0.07945617
13	0x3d2832c6	0.041064046
14	0xbd842d4c	-0.06453952
15	0xbc832006	-0.01600648
