save/100_RES_decom.pth (torch, 13399 bytes, 6 tensors)

inconv.0.weight f4 [16, 3, 3, 3]
0	0x3d92c0df	0.071656935
1	0xbe2f9a73	-0.17148761
2	0x3e12a462	0.1432052
3	0xbb8fec4a	-0.0043921815
4	0x3cb64377	0.022248967
5	0x3e04e388	0.12977421
6	0xbdde2e0c	-0.108486265
7	0x3e191c8a	0.14952293
8	0x3debfe19	0.11523075
9	0xbdc9bf32	-0.09850921
10	0x3d7ba610	0.061437666
11	0xbd9a7b9e	-0.07543109
12	0xbe3f3410	-0.18672204
13	0xbe0b1cdd	-0.13585229
14	0x3df76553	0.12079873
15	0xbd1b88bb	-0.037972193
16	0xbdf8e408	-0.121528685
17	0xbdb103c0	-0.086432934
18	0xbbbb5af1	-0.005717628
19	0x3d9eace3	0.07747819
20	0x3e12a33a	0.14320078
21	0xbe1b9d18	-0.15196645
22	0xbde8645c	-0.11347267
23	0x3d45edba	0.048322417
24	0x3db2d712	0.08732428
25	0x3d9fbc8b	0.077996336
26	0xbe2768db	-0.16348593
27	0xbded1fed	-0.11578355
28	0xbd3ea774	-0.046546414
29	0xbe2ca26e	-0.16858837
30	0x3d106c26	0.03525939
31	0x3de0ba2f	0.10973012
32	0xbd71fa57	-0.059076633
33	0xbdb24c39	-0.087059446
34	0xbcb96917	-0.022633119
35	0xbdd786fb	-0.10523792
36	0xbe7dbe81	-0.24779703
37	0xbc349afc	-0.011023279
38	0xbda806ec	-0.08204445
39	0x3c9aadda	0.018881727
40	0x3dfb2f66	0.122649
41	0xbd99f402	-0.07517244
42	0xbd218035	-0.03942891
43	0x3dac4177	0.08410924
44	0xbda5420b	-0.08069237
45	0xbe28320b	-0.1642534
46	0x3c9d755b	0.019220999
47	0xbe23b2f7	-0.15986238
48	0x3c821b72	0.015882228
49	0x3e4bb5ea	0.19893613
50	0x3e012198	0.12610471
51	0xbe35afa0	-0.17742777
52	0xbd778d4b	-0.06043748
53	0xbd8a6d96	-0.06759183
54	0xbd7647f4	-0.060127214
55	0xbbd7f98e	-0.0065910285
56	0xbcc165fc	-0.0236082
57	0x3e3321a6	0.17493305
58	0xbd49e03d	-0.049286116
59	0x3d4adee9	0.04952899
60	0xbe23d1cb	-0.15997998
61	0xbd1fcba4	-0.039012566
62	0xbd3fde2d	-0.046842743
63	0x3dfc2bf6	0.123130724
64	0x3de740ef	0.11291682
65	0x3d26c1bf	0.040712114
66	0x3e511993	0.20419912
67	0x3da0ee9a	0.0785801
68	0x3e3565ac	0.17714566
69	0x3e0ecdad	0.13945647
70	0x3dfc538e	0.12320624
71	0x3bfc8904	0.007706763
72	0xbe55f005	-0.20892341
73	0xbe2a7014	-0.16644317
74	0xbe1b5362	-0.15168527
75	0xbe6b967d	-0.23006625
76	0x3d7cd787	0.06172898
77	0xbe15335b	-0.14570372
78	0xbd6ef7f4	-0.058341935
79	0xbe109b29	-0.14121689
80	0x3badbd43	0.005302103
81	0x3cd40dbd	0.025885457
82	0xbe4e2259	-0.2013029
83	0xbe3c44f5	-0.1838568
84	0x3e1bf787	0.15231143
85	0xbd77c85c	-0.060493812
86	0x3dcf7dc4	0.1013141
87	0xba8909bc	-0.0010455172
88	0x3ce4c64e	0.02792659
89	0xbdbfefc4	-0.093719035
90	0xbd480fd2	-0.048843212
91	0x3c719c44	0.014746729
92	0x3e218ff1	0.15777566
93	0xbe2e036b	-0.16993491
94	0xbe2fb8a1	-0.17160274
95	0x3e10576c	0.14095849
96	0x3e1c7a7d	0.152811
97	0xbe537705	-0.20650871
98	0x3e2395a8	0.15975058
99	0xbe328004	-0.17431647
100	0x3e286464	0.16444546
101	0x3ce5381b	0.027980855
102	0x3dea2507	0.11432844
103	0xbdad4fe8	-0.084625065
104	0xb9f1b001	-0.00046098235
105	0x3dcbd1d4	0.09952131
106	0x3b484f64	0.0030564899
107	0xbde2a671	-0.110669024
108	0x3cc2be38	0.023772344
109	0x3bbb5353	0.00571672
110	0x3a293dab	0.00064560276
111	0xbe21e462	-0.15809777
112	0x3e0b9500	0.13631058
113	0xbe2c8ddb	-0.16850989
114	0x3d1828c7	0.037148263
115	0x3cf4bba7	0.029874636
116	0xbdcde07b	-0.10052582
117	0xbcbe8392	-0.023256097
118	0x3dcb0cd6	0.09914558
119	0x3b984f5d	0.0046481327
120	0x3e0c6456	0.1371015
121	0xbd1c77e0	-0.03820026
122	0x3da5959d	0.08085177
123	0x3d8419c0	0.06450224
124	0x3d3251c9	0.043535028
125	0x3dcecadf	0.10097288
126	0xbc8acc8a	-0.016943235
127	0xbc04c951	-0.008104638
128	0x3d13ac3f	0.03605294
129	0x3db85875	0.09001247
130	0x3e15a7f4	0.1461485
131	0xbd3c174e	-0.045920663
132	0xbd762e70	-0.06010288
133	0x3db8c083	0.09021094
134	0x3db6c77a	0.08924766
135	0x3d6fac37	0.058513846
136	0xbcefabbb	-0.029256692
137	0x3d78f83a	0.060783602
138	0x3db698fb	0.089158975
139	0x3df11efe	0.117734894
140	0xbe4b3cd4	-0.19847423
141	0xbe6dd014	-0.23223907
142	0x3d46e334	0.04855652
143	0x3909d9b1	0.00013146435
144	0x3dc2957a	0.09501167
145	0xba6fff78	-0.0009155194
146	0x3cfa2f87	0.03054024
147	0x3d234911	0.039864603
148	0xbe5f1505	-0.21785362
149	0xbe7467af	-0.23867677
150	0x3d98ce40	0.07461214
151	0x3ddae550	0.10688269
152	0x3d0f0d2d	0.034924675
153	0xbd92a0d0	-0.07159579
154	0xbdc8c6d0	-0.098035455
155	0x3e009b90	0.12559342
156	0xbd831571	-0.06400574
157	0x3cb6e864	0.02232761
158	0x3d6bd1e5	0.057573218
159	0xbce5968b	-0.028025886
160	0x3d79815a	0.060914375
161	0x3ddc5bf8	0.10759729
162	0xbce48a94	-0.02789811
163	0x3dd16062	0.10223462
164	0xbd8d1ff8	-0.06890863
165	0xbe39e50e	-0.18153784
166	0x3df6c6dc	0.12049648
167	0xbd9d33c8	-0.07675892
168	0xbd820f24	-0.06350544
169	0xbe0a56aa	-0.13509622
170	0x3df8e53e	0.121530995
171	0xbd025b3b	-0.031825285
172	0xbe03c275	-0.12867148
173	0x3e214104	0.15747458
174	0x3d2b0580	0.041753292
175	0xbe050307	-0.12989436
176	0xbac0db7d	-0.001471385
177	0xbe00993f	-0.12558459
178	0xbda9e493	-0.0829555
179	0xbca762e4	-0.020432897
180	0xbe2dde1f	-0.16979264
181	0x3e0ec20c	0.1394121
182	0xbd2be6cb	-0.04196815
183	0x3e1e2b82	0.15446284
184	0xbc275890	-0.010213986
185	0x3e1ffb00	0.15623093
186	0xbe116e7b	-0.14202301
187	0xbd028490	-0.031864703
188	0xbd9be999	-0.076129146
189	0xbe5f653f	-0.21815966
190	0x3dcf1566	0.10111503
191	0xbe6f236d	-0.23353358
192	0xbe30e727	-0.17275678
193	0xbe33902b	-0.17535464
194	0xbe618736	-0.22024235
195	0xbcb172ae	-0.021661129
196	0xbe45c159	-0.19312038
197	0xbd86de8a	-0.06585415
198	0xbd51c7ce	-0.05121594
199	0xbd160319	-0.036624048
200	0x3dd30c31	0.1030506
201	0x3c258579	0.010102623
202	0xbe20c5c8	-0.15700448
203	0x3e1b6c25	0.15177973
204	0x3e12776f	0.14303373
205	0xbd68817e	-0.05676412
206	0x3daeaed6	0.08529441
207	0x3e1f96fe	0.15584943
208	0x3cdf4659	0.027255224
209	0xbe21cd61	-0.15801002
210	0x3d90686f	0.07051169
211	0x3e418873	0.18899707
212	0x3e410421	0.18849231
213	0x3e4c9c8d	0.19981594
214	0xbdd6e8c5	-0.10493616
215	0xbcd9a09a	-0.026565839
216	0xbd5461a4	-0.05185093
217	0x3e27b472	0.16377428
218	0xbe06d56c	-0.13167351
219	0x3db42b82	0.08797361
220	0xbd3710ce	-0.04469376
221	0xbbe19a2b	-0.0068848333
222	0xbda8afa6	-0.08236627
223	0xbcc7a116	-0.024368804
224	0xbe145e94	-0.14489204
225	0x3d998372	0.07495774
226	0xbd8204fb	-0.06348606
227	0xbde3e852	-0.11128296
228	0xbe00cc7c	-0.12578005
229	0x3e3b4a4b	0.1829006
230	0xbdfc948f	-0.12333023
231	0xbd94e8cd	-0.07270966
232	0x3ddc786a	0.10765155
233	0x3c62a554	0.013833363
234	0xbe5790c5	-0.21051319
235	0xbda0f754	-0.07859674
236	0x3d5f12e0	0.05446136
237	0x3dc13e18	0.094356716
238	0x3e1ab051	0.15106322
239	0x3dc4f438	0.096168935
240	0xbc56b687	-0.013105041
241	0xbd79b74f	-0.060965832
242	0xbe1bdcb7	-0.15220915
243	0xbdb880a4	-0.09008911
244	0xbd51f475	-0.051258523
245	0xbd239c86	-0.039944194
246	0xbe4a04e9	-0.19728436
247	0xbe0db960	-0.13840246
248	0xbde15e22	-0.110042825
249	0xbe4576a8	-0.19283545
250	0xbd08ef70	-0.03343147
251	0xbe3614f5	-0.17781432
252	0xbb063036	-0.0020475513
253	0xbcc9ed87	-0.024649395
254	0x3d1278c0	0.035759687
255	0xbcfe6c34	-0.031057455

inconv.0.bias f4 [16]
0	0x3eb39c03	0.35079965
1	0x3e5833ca	0.21113506
2	0x3d4b59ee	0.04964631
3	0xbe23a610	-0.15981317
4	0xbdea7344	-0.114477664
5	0xbd801290	-0.062535405
6	0xbe19baee	-0.15012714
7	0x3d99914e	0.07498418
8	0x3e91ec9d	0.28500834
9	0x3ea765c3	0.32694826
10	0xbe3f6ce0	-0.18693876
11	0x3d76dde0	0.06027019
12	0x3e9a7e83	0.30174646
13	0x3dab2e19	0.08358402
14	0x3e364a5b	0.17801802
15	0x3eb5a4e7	0.35477373

convs.0.weight f4 [16, 16, 3, 3]
0	0xbd94e167	-0.072695546
1	0x3c2df82d	0.010618252
2	0x3d796d45	0.060895223
3	0xbd977988	-0.07396227
4	0xbc0f0ba2	-0.008730801
5	0xbd2b4357	-0.041812267
6	0x3d1a05fd	0.037603367
7	0x3d8c6a7e	0.06856249
8	0xbd8dfbc3	-0.06932785
9	0xbda0c72a	-0.078504875
10	0xbd88718b	-0.066622816
11	0x3be0d653	0.006861487
12	0xbc81a030	-0.015823454
13	0xbbee5872	-0.007273727
14	0xbd92e2f8	-0.07172197
15	0xbc09a3bd	-0.008400855
16	0x3ce8fe3b	0.028441539
17	0xbd2a5b6e	-0.0415911
18	0x3d0b72d4	0.034045056
19	0x3ced3d65	0.02895994
20	0xbd1ab27c	-0.037767872
21	0xbcda43f2	-0.026643727
22	0xbabfdbef	-0.0014637689
23	0xbd971828	-0.07377654
24	0x3ce962f3	0.028489565
25	0x3d1d6a34	0.03843136
26	0xbd635b39	-0.05550692
27	0xbc37f976	-0.01122891
28	0xbd87343e	-0.06601761
29	0x3cf934d6	0.030420702
30	0x3d2d5ba8	0.04232374
31	0xbd00fdab	-0.031491917
32	0x3d225f0e	0.039641432
33	0xbd8a8c7e	-0.06765078
34	0xbd9f6ea4	-0.07784775
35	0x3d77bb36	0.060481273
36	0xbb4cbe27	-0.003124127
37	0xbd770bc2	-0.060313947
38	0xbd54a212	-0.051912375
39	0xbd3d6734	-0.046241
40	0x3c1f52b4	0.009724308
41	0xbd508344	-0.050906435
42	0x3c5ce694	0.0134827085
43	0xbda5d2ff	-0.08096885
44	0xbd21ac1c	-0.039470777
45	0xbc2f48a6	-0.010698473
46	0x3d933773	0.071883105
47	0x3d7504b6	0.059818946
48	0x3d3f16c9	0.04665259
49	0x3d11e266	0.0356163
50	0x3d80c770	0.0628804
51	0xbd237c3f	-0.039913412
52	0x3d974b89	0.07387454
53	0xbd0d6fbe	-0.034530394
54	0x3d8dd87c	0.06926057
55	0x3d925a0a	0.0714608
56	0x3ccafa5b	0.024777582
57	0x3da2ccee	0.079492435
58	0xbbc4a6d6	-0.0060013337
59	0x3d2eb9d3	0.042657685
60	0x3d1626b0	0.03665799
61	0xbd3a2478	-0.045444936
62	0xbb674bd6	-0.0035293004
63	0xbd8e66de	-0.06953214
64	0xbd962c8e	-0.07332717
65	0x3d5efb06	0.054438613
66	0xbc384ae0	-0.01124832
67	0xbd952192	-0.07281794
68	0x39a18400	0.0003080666
69	0x3d8af8bc	0.067857236
70	0xbd89d942	-0.06730892
71	0xbd5881c0	-0.052858114
72	0x3c38b720	0.011274129
73	0xbd698155	-0.057008106
74	0x3d04281f	0.032264825
75	0x3d0563f4	0.032566026
76	0xbc0f0e15	-0.008731385
77	0x3d8787e9	0.0661772
78	0xbd5227c1	-0.051307444
79	0xbcd8fe0b	-0.026488325
80	0xbd7f6846	-0.062355302
81	0xbd54342b	-0.051807564
82	0xbd9a7564	-0.07541922
83	0x3da40c5a	0.080101684
84	0xbc8df8c8	-0.017330542
85	0xbd8d2dfc	-0.068935364
86	0xbd7a2cfd	-0.06107806
87	0xbd807146	-0.06271605
88	0xbcfed39a	-0.031106759
89	0xbcfd577e	-0.030925509
90	0xbd7a0511	-0.061039988
91	0x3d3c8759	0.046027515
92	0xbd3c9545	-0.046040792
93	0xbd14969d	-0.03627645
94	0x3badeff0	0.005308144
95	0xbd422eed	-0.047408033
96	0xbd594a33	-0.053049278
97	0xbd6d9738	-0.05800554
98	0xbc0bd193	-0.008533853
99	0x3d10b2db	0.03532682
100	0x3d93b5cf	0.072124116
101	0x3c5761a6	0.01314584
102	0x3d5afc0b	0.053463023
103	0xbd1f07d4	-0.038825825
104	0xbcbffbb1	-0.023435446
105	0xbcf7c87d	-0.030246967
106	0xbdabccee	-0.083886966
107	0xb9bffdf3	-0.00036619566
108	0xbd7639b4	-0.060113624
109	0x3d069c71	0.032864038
110	0xbd86119f	-0.0654633
111	0x3a5da019	0.00084543374
112	0x3d9db983	0.07701399
113	0xbd452a0f	-0.048135813
114	0x3d930dd4	0.07180372
115	0x3d1846b7	0.037176814
116	0xbd33a7cb	-0.04386119
117	0xbc53affa	-0.012920374
118	0xbd3efd8f	-0.04662853
119	0x3c011f82	0.007881047
120	0xbdb1f9c8	-0.0869022
121	0x3ae7d3e9	0.0017687056
122	0x3b061f14	0.0020465301
123	0x3d204d19	0.039136026
124	0x3c56c1f7	0.013107768
125	0xbd9fc834	-0.078018576
126	0xbd03f13f	-0.032212492
127	0xbda491f9	-0.080356546
128	0x3c481642	0.012212338
129	0xbd4f40bd	-0.05059885
130	0xbd8d22f1	-0.0689143
131	0xbc98fdcc	-0.018675707
132	0xbcda6eb1	-0.02666411
133	0x3d56bcbc	0.052426085
134	0x3c9538ed	0.01821562
135	0xbcdcc4ce	-0.026949313
136	0xbd37cced	-0.044873167
137	0xbd0be1d8	-0.03415093
138	0x3d50e5cf	0.051000413
139	0x3c4f1e63	0.012641522
140	0x3d6b3867	0.057426836
141	0xbc5c3c21	-0.01344207
142	0x3d40fa6e	0.04711383
143	0x3c987624	0.018611021
144	0x3ce360ea	0.027756173
145	0x3b28212a	0.0025654533
146	0xbda01e96	-0.07818334
147	0xbc453c12	-0.012038248
148	0x3c66bd99	0.01408329
149	0xbcbd53fb	-0.023111334
150	0xbcdc9db3	-0.026930666
151	0xbd8a38ac	-0.067490906
152	0x3cd656c6	0.026164424
153	0xbd5443dd	-0.051822532
154	0xbd9a4cf8	-0.07534212
155	0xbdda0845	-0.106461085
156	0xbde7bd79	-0.11315436
157	0xbe0ec445	-0.13942058
158	0xbd9e3eea	-0.07726844
159	0xbda473be	-0.080298886
160	0x3c3ad3d1	0.01140304
161	0x3bb1e937	0.0054294127
162	0x3bef6abb	0.0073064244
163	0x3cf6428c	0.030061029
164	0x3d32ddf7	0.043668713
165	0xbc7bef2e	-0.015376849
166	0x3d4b358c	0.049611613
167	0x3d31feba	0.043455817
168	0x3e0307d2	0.12795952
169	0xbcd74881	-0.02627969
170	0xbd42d796	-0.04756888
171	0xbd81128e	-0.06302367
172	0xbda93044	-0.08261159
173	0xbc5cdea6	-0.013480818
174	0x3c588e30	0.013217494
175	0xbda514ed	-0.08060632
176	0xb96e434f	-0.00022722523
177	0xbcc21457	-0.02369134
178	0xbda1b2f2	-0.07895459
179	0x3c77c9ca	0.015123794
180	0xbd5fe4e4	-0.054661646
181	0x3d86a676	0.06574719
182	0xbcdaaa8f	-0.026692657
183	0x3d8cc330	0.068731666
184	0xbd9470f1	-0.07248104
185	0xbd9b0a7a	-0.075703576
186	0x3d8b14b4	0.06791058
187	0x3cfae962	0.030628864
188	0xbd482e04	-0.04887201
189	0xbd592268	-0.053011328
190	0x3d56c15c	0.052430496
191	0x3c82c91c	0.015965037
192	0x3d8e6ba9	0.06954128
193	0xbd7f780f	-0.062370356
194	0xbd23e461	-0.04001272
195	0xbd93aee7	-0.07211094
196	0xbd662b0e	-0.056193404
197	0xbdb24716	-0.08704965
198	0x3c7c6c5d	0.015406695
199	0x3cb9ca15	0.022679368
200	0xbd9455e4	-0.07242945
201	0x3d70083a	0.058601595
202	0x3b1a0154	0.0023499327
203	0xbd818f00	-0.06326103
204	0xbbe2a80f	-0.006917007
205	0xbd40bdab	-0.04705588
206	0x3d1968d7	0.0374535
207	0x3c9f2d60	0.019430816
208	0x3d6000bc	0.0546882
209	0xbced4dd5	-0.028967777
210	0xb9d156fc	-0.00039928395
211	0x3d1f0b46	0.03882911
212	0x3d3eb3d2	0.04655821
213	0x3d509e96	0.05093249
214	0xbd01b5a3	-0.031667363
215	0x3bf1cf49	0.0073794466
216	0xbe4f247b	-0.2022876
217	0xbe2be498	-0.1678642
218	0xbe35ca59	-0.17752971
219	0xbe4c104a	-0.19928089
220	0xbe49cd45	-0.1970721
221	0xbdbbc08b	-0.09167584
222	0xbe4ea1a0	-0.20178843
223	0xbe1e2e64	-0.15447384
224	0x3b375364	0.0027973289
225	0xbe160262	-0.14649346
226	0xbe0cf34c	-0.13764685
227	0x3d049d1c	0.032376394
228	0xbe1e47d9	-0.15457095
229	0xbe01a5b3	-0.12660865
230	0x3d805ae7	0.06267338
231	0xbd52dd6f	-0.051480707
232	0x3c2a5c99	0.010398054
233	0xbc137b02	-0.009001495
234	0xbd958a60	-0.073017836
235	0xbd7efbc8	-0.062251836
236	0xbd09cd81	-0.03364325
237	0xbc9c794c	-0.019100808
238	0xbd2c331d	-0.042040933
239	0xbd9eb864	-0.077500135
240	0xbd473cbe	-0.048641913
241	0x3d23a399	0.03995094
242	0x3c795b48	0.015219517
243	0xbda7f7b2	-0.08201541
244	0xbd26e549	-0.040746007
245	0xbc13980f	-0.009008422
246	0xbe3d9689	-0.18514456
247	0xbca3d8bf	-0.020000814
248	0x3dda4108	0.10656935
249	0xbe3933ef	-0.18086217
250	0x3d449b8a	0.047999896
251	0x3c5ef811	0.013608948
252	0xbca85790	-0.020549566
253	0xbd3979a1	-0.04528201
254	0x3d8474b3	0.06467571
255	0xbd175f6c	-0.036956236

convs.0.bias f4 [16]
0	0xbd02ac4c	-0.031902596
1	0xbdbfa456	-0.093575165
2	0x3e1eee8a	0.15520683
3	0x3c5eb77b	0.01359355
4	0x3dbeaf93	0.09310832
5	0xbd398a8d	-0.045298148
6	0xbd240731	-0.04004592
7	0x3bb19272	0.005419069
8	0x3c9b236e	0.018937793
9	0xbc497733	-0.012296486
10	0x3dea9f8f	0.11456215
11	0x3d24a96f	0.040200647
12	0x3e02593b	0.12729351
13	0x3de01cf0	0.109430194
14	0x3e4db11d	0.20087095
15	0x3e41eff9	0.18939199

outconv.0.weight f4 [3, 16, 1, 1]
0	0x3d97aa7a	0.07405563
1	0xbe1ab9e8	-0.1510998
2	0x3bc1f15b	0.0059186644
3	0x3e5b45f2	0.21413401
4	0xbe3883c3	-0.18019013
5	0x3e04419e	0.12915656
6	0x3d9a2a51	0.075276025
7	0x3e0302b2	0.12793997
8	0xbd30355a	-0.04301963
9	0xbe7842b0	-0.2424419
10	0xbdfd0cad	-0.12355933
11	0xbeb9e1a0	-0.3630495
12	0xbe3f6b69	-0.18693317
13	0xbe2222b0	-0.15833545
14	0xbdc54fc6	-0.09634356
15	0xbd5a3008	-0.053268462
16	0xbe2d0c90	-0.16899323
17	0xbe40d857	-0.18832527
18	0xbe30b7cf	-0.17257617
19	0x3e5f8833	0.218293
20	0xbe18d1bc	-0.14923757
21	0x3d1a1a4b	0.03762273
22	0xbd932330	-0.07184446
23	0x3dad52af	0.08463036
24	0xbb3dd853	-0.002896805
25	0xbd0d45f6	-0.034490548
26	0xbc605ce9	-0.0136940265
27	0xbe08a849	-0.13345446
28	0xbe12679a	-0.14297333
29	0xbe542cd9	-0.20720233
30	0x3db966bb	0.090527974
31	0xbe64d743	-0.22347741
32	0xbe0d7549	-0.13814272
33	0xbdc98a1b	-0.09840795
34	0xbea1b655	-0.3158442
35	0xbe60596e	-0.21909115
36	0xbe19b5e3	-0.1501079
37	0x3e1f7890	0.15573335
38	0x3e31412b	0.17310016
39	0xbe0d7525	-0.13814218
40	0x3d5d657a	0.054051854
41	0x3dc44871	0.095841296
42	0xbd84c38b	-0.06482609
43	0x3c9cba94	0.019131936
44	0xbe5ace05	-0.21367653
45	0xbe26a917	-0.1627544
46	0xbe49b8cf	-0.19699405
47	0xbdfa9274	-0.12234965

outconv.0.bias f4 [3]
0	0xbcb317d4	-0.021861948
1	0x3d5ad38c	0.053424403
2	0xbc520e03	-0.0128207235
