save/100_Denoise.pth (torch, 5591 bytes, 6 tensors)

convs.0.0.weight f4 [8, 3, 3, 3]
00000000: 77a1 66be 81cd 96bd d9b6 7bbd 2a2d 68bc
00000010: 20cc 41bd 00a5 853d b602 3e3e 7227 293e
00000020: 19cf 703d bd2e 81bd f287 9f3c fd3a 003e
00000030: e6dd d9bd f517 843e cbf6 803e d31c 8ebc
00000040: 4d29 6c3e 0762 693e 5f37 043e 2986 963e
00000050: 391f 8cbb 6324 003e 84af ca3e cdc8 a53e
00000060: 32dc 28bd 7dee 873d 85cb c03d 6b0e afbd
00000070: e517 e63d e0bb b03e 4e8d 833c 1847 b73c
00000080: beec dfbd b2d9 4d3e 2e26 823e 3bcb 773e
00000090: 0fa4 5bbe 5443 a7be fd31 a5be c6a6 cbbd
000000a0: 98b0 9abe 3849 85be 8b27 85be 3c65 4dbe
000000b0: abc3 82bd 09ec d63d 2d5e aabd 9f69 533d
000000c0: 9c3a eb3d 0de0 1ebe 8723 823e 3bb5 9a3e
000000d0: 523c 633d 8324 813e 6949 8cbe 7b8f 05be
000000e0: e46e 4a3d 53bf 1bbe 6a19 acbd 8497 95be
000000f0: abdd 6d3d bc3a a3be 643e 9dbe c42e be3d
00000100: 40ae babc 7674 d33b 5c4b 0fbd 00ab 0b3e
00000110: 0176 093c 21d9 37be 02da 5ebc 5963 2b3d
00000120: ec2a 91bd 8342 723e 2cb0 613e 7d04 963e
00000130: f852 06bc 5dde e43d 6471 833e 576a ff3d
00000140: b753 173e 6cd2 e83d 8d0e c53d 0fe5 333e
00000150: 55f0 f33d 4985 ac3d f37b 553e 0e8c 713e
00000160: 17fc 753e 041b 263e 7e9a 01be 796f 0abe
00000170: 54d4 21be da28 47bd 604f d13d 4e4c 22bd
00000180: 391c a7bd f97e 153d 9f45 49bb b9ee 48be
00000190: b807 d4bd 542c 83bd 8045 5abe 5d24 2fbe
000001a0: e75c 03be 73f5 16be 6030 06bd 2072 6cbe
000001b0: 3cc8 3cbc dcc0 fcbd 9fc8 fdbd 3a7c 2ebd
000001c0: 957e 8ebe e044 13bd 76d8 cdbd feb3 19be
000001d0: 971f 4e3e dd37 d23c f73e aa3d c373 a43d
000001e0: 4ea9 93bd f33d 083e a801 a33c 6371 23bd
000001f0: 95ef cabd 45a6 82bc 864b 443e ebb0 103e
00000200: 8fff d23d fda8 08be 3940 f2bd 9d37 d8bd
00000210: 5f04 cbbb 62e1 6fbc 5792 643e 5adb 083e
00000220: 3c20 983e 4ad9 51bd 134d 0d3e 06fa 933e
00000230: 4a42 533d 0a33 9b3e eb4f bd3d 88b0 0f3e
00000240: 2372 01be 52c3 babd 16e1 11be 1463 6fbe
00000250: 67b0 85be dfbc 04bd 08c2 88be bfe3 0dbe
00000260: dd7d afbe cc3a 6abc 3215 233e bcef 883d
00000270: 6dd6 183d f7f4 303e 080c 023e ea31 2bbd
00000280: 60b7 25be dd6b 0b3d 9207 063e 878d 34be
00000290: baf0 32bd 428a dcbe 8a71 acbe 8efd 473e
000002a0: 4ef2 80be a7be f43d 8a08 9e3e 8ef1 db3d
000002b0: b3b1 73be ca21 adbd 8c20 0dbe abf5 5cbd
000002c0: 14e4 d7bd 92dd 21bd 642c 1dbd 14c8 0fbe
000002d0: 3c89 37be db90 aabd a8f6 03be da50 9ebd
000002e0: 0429 40be 566b 2cbe cd5d e13d ca91 1e3d
000002f0: 6a66 b3be 8fae 243e 317f 2f3e b653 2fbd
00000300: 1da8 46bb 1f65 80bd 7e38 9f3c 732e a43d
00000310: 177e db3c 9f07 1a3e 142d b13d c3a9 043e
00000320: 139e 9f3d 836f 233e 30ea 2e3e 8dfc 4cbd
00000330: 7603 673e d4e1 bbbc cda1 2cbd c3c8 79be
00000340: 106e 3cbe a957 823d b14d fcbd 77ca afbe
00000350: f2f4 22be ab03 95be 5b5f 97bc f42d 18be
-0.22522531 -0.073634155 -0.061453674 -0.014170924 -0.04731381 0.06525612 0.18555722 0.16518953
0.058791254 -0.06307743 0.019474003 0.12522502 -0.10638027 0.25799528 0.25188288 -0.017347729
0.2306263 0.227913 0.12911747 0.2939923 -0.004276183 0.1251388 0.39587033 0.3237976
-0.04122562 0.06637285 0.09413818 -0.08547672 0.11235026 0.34518337 0.01605859 0.022372767
-0.10933827 0.20102575 0.25419754 0.2419862 -0.21449302 -0.32668555 -0.322647 -0.09943919
-0.30212855 -0.26032424 -0.2600673 -0.20058149 -0.06384977 0.10494239 -0.08318744 0.0516144
0.11485788 -0.15515156 0.2541773 0.30216393 0.055477448 0.2522317 -0.27399758 -0.13043015
0.04942216 -0.15209703 -0.08403285 -0.2921716 0.058072727 -0.31880748 -0.30711663 0.092862636
-0.022788167 0.006453092 -0.034983978 0.1363945 0.008389951 -0.17953922 -0.013601782 0.041842792
-0.07088265 0.23658185 0.2203986 0.293003 -0.008198492 0.11175225 0.25672448 0.124714546
0.14778028 0.1136826 0.09621916 0.17567848 0.11911074 0.084238596 0.20848064 0.23588583
0.24021946 0.16221243 -0.1265659 -0.13519086 -0.15803653 -0.048622943 0.10220218 -0.03962355
-0.0815968 0.036498044 -0.0030711663 -0.19622315 -0.10353035 -0.06404939 -0.21315575 -0.17103715
-0.12828408 -0.14742069 -0.032760978 -0.2309041 -0.011522349 -0.123414725 -0.12391781 -0.04259894
-0.2783095 -0.035954356 -0.10051052 -0.15010068 0.20129238 0.025661403 0.08312791 0.08029892
-0.07210027 0.13304882 0.01989825 -0.039903056 -0.09908978 -0.015948424 0.19169435 0.14129989
0.1030265 -0.13345714 -0.11828656 -0.105574824 -0.0061955894 -0.014641138 0.22321449 0.13364926
0.29712093 -0.051232614 0.13798933 0.2890169 0.05157689 0.30312377 0.09243759 0.14032185
-0.12641196 -0.09119286 -0.1424602 -0.23377639 -0.26111147 -0.032406684 -0.26710534 -0.1385641
-0.34275714 -0.014296245 0.15926054 0.06686351 0.037313867 0.17280947 0.12699902 -0.04179565
-0.16183233 0.034038413 0.13088825 -0.17632113 -0.043686606 -0.43074232 -0.33680373 0.19530317
-0.25184864 0.119504265 0.3086589 0.10739432 -0.23798256 -0.084537104 -0.13781947 -0.053945225
-0.10541549 -0.039517947 -0.038372412 -0.14041167 -0.17923445 -0.0832841 -0.1288706 -0.07730265
-0.18765646 -0.1683782 0.11004219 0.038713254 -0.35039073 0.16082214 0.17138363 -0.042804442
-0.0030312606 -0.06269287 0.019436117 0.08016672 0.026793523 0.1504197 0.08651176 0.12955384
0.07793822 0.15960507 0.17081523 -0.05004554 0.22559914 -0.022934832 -0.042146493 -0.24392991
-0.1840136 0.06364376 -0.12319506 -0.34334156 -0.15913752 -0.2910436 -0.018478086 -0.1486128

convs.0.0.bias f4 [8]
00000000: f08e 693b 50d3 993e f002 713e 4f1c d2bd
00000010: ce29 e03e 48fc bf3d 9e84 dd3e 6cdb c63e
0.0035638176 0.3004403 0.23536277 -0.10259306 0.43781894 0.09374291 0.4326524 0.3883928

convs.0.2.weight f4 [8, 8, 3, 3]
00000000: 90c7 d43d 6162 743d 2bca 283e 867d 383d
00000010: 41e5 13bd ab48 2fbb 6586 af3d 7150 19bd
00000020: d3c5 083e 0d92 1cbe cfa8 4cbc 5cd8 78be
00000030: 4f4c ccbd 6136 62be 2238 07be 5dd1 16be
00000040: a4e1 3abe 6daf 92be 6a84 03be bda6 45be
00000050: c4f1 a9bd ad51 57be 3447 49be 05eb 39be
00000060: ca19 ac3c 252c cabd dd43 8a3d c4cd fc3d
00000070: 165f 2c3e 9e47 823d 33f5 5a3e ebd2 4c3e
00000080: 7726 303e 5d4a de3d 8f47 73bd 74c1 c13d
00000090: 8521 523c ee1a 433d 8f52 8c3d ca84 81bd
000000a0: afd0 9ebc b205 f3bc b0a5 2dbd 26ba 2f3d
000000b0: 66ad 963d 00e6 aabe 1890 e5bd 3811 91be
000000c0: a66c b4be d942 b0be df08 ccbe b55a 6ebe
000000d0: 60be 90bd caa0 49be 8aaa 263e 6f42 483d
000000e0: 0b16 8abd c267 88bd a4ca a8bd ff81 35bd
000000f0: fb9c efbc 5618 b9bd baee f23d aaaa 913e
00000100: 81d2 463e 81ad 213e 9c6c 873e 6d7b bd3e
00000110: b4f3 ba3e b96e 2b3d 0c57 a73e 5d05 be3e
00000120: ba0a cabd 7cc6 d0bd 0387 0ebe d22e 35bd
00000130: 7ec7 cdbd 24cb 3c3d c30f 11bc cc12 88bb
00000140: 5a00 9a3c 8a8d 53be 9feb e5bd 7d0c 28be
00000150: e405 c83c 5c62 9a3d faee af3d 2757 68bb
00000160: 6d54 0b3e 820b 163e 693d e13e e08e 8f3e
00000170: 651a 5c3e ff58 873e 8780 ad3e a7a1 0a3e
00000180: c8f8 0c3e 074a 1b3e 3030 563e 7a9f 9b3d
00000190: 5bb2 8abd 07c3 033e 3350 0d3e db89 093e
000001a0: b2a3 883e 0bc5 053f d30d c93e 1365 dd3e
000001b0: ef3d 5c3b 7f18 923e 8f8b ad3e 1745 953e
000001c0: 8b80 dc3e 88b4 103e ac8a 503e d9c6 a43e
000001d0: 3ce6 393e 83f1 4ebe 8c4f 74be a338 fbbe
000001e0: 42c6 3cbe 1cbe 25bf 665f f0be 0d79 a43c
000001f0: 7ecb 2cbf 15cb 52be 5cf5 f53d 6924 c43d
00000200: 959f 6d3e bd8c 783d 5b83 d53e 5195 7f3e
00000210: 1b56 6d3e 80a1 623e 4971 213e c8fb ab3e
00000220: 5dd8 b13e 6874 9d3e eb80 8d3e d82d b13e
00000230: da42 853e 68ab bb3e 86a3 393e 2fa9 6d3e
00000240: 74a6 b9be 1ce2 77be a56f aebe a2be 96be
00000250: 9a08 f1be 7ebc 9abe cec9 ebbe e227 a0be
00000260: 586a b7be d8e7 79bd 4adf 5a3d b581 81bd
00000270: 1ad4 623d 4471 d3bc 5ee1 f53d 114e 103e
00000280: fa6c 963d 1930 8d3d 2e66 15be db8a 9dbd
00000290: 8236 78bd b44b bebd afde 78bc b10f 55bd
000002a0: 661a 2bbe ec7a c9bc 6d78 bdbd 35fc bfbd
000002b0: a6e1 6e3c ee95 873d efab 803d 4a69 86bd
000002c0: 05bb 74bd b959 e1bc 09cc b43d 6a9f 23bc
000002d0: cc96 acbd 5265 8cbd 4c78 abbc 5c70 7ebc
000002e0: d824 cf3b c7f9 8e3c 34ac 50bd 0611 1a3d
000002f0: 850c e3bd f7b8 85bb 9fad 343e 6fb1 4c3e
00000300: 2a6c 163d fd2f 213e 3325 1e3e 334e 2e3d
00000310: 393f 013e 6f8e 413e 08a5 843d a9e7 053e
00000320: 85ed d4bd 3cf1 a03d 4a05 0bbd 39a8 933c
00000330: 6f61 1e3d 2c99 01bc f61f 0d3d 3f58 fbbb
00000340: 6dad e8bd ac1a fc3c 2338 9abd 3156 08be
00000350: 4171 073d 7c72 52bd bc1e 82bd 0e2b 4b3d
00000360: 5032 2d3d 7bcf 85bd 8bed 5dbc bc85 a43d
00000370: 1f1f 7fbd cd7e 693d 85a5 fdbd 0e9a 86bd
00000380: f73f 363c 1a42 c7bc 1074 84bd 2a7a 04be
00000390: 82fb 98bd f408 debd 3c0f 773d a5a0 6dbd
000003a0: 261b 953b 1cde 0cbd def9 8f3d ecbf c63d
000003b0: 1d20 06be 7196 e93b 50dc 29bd 36e8 103d
000003c0: a130 103d b179 12bd 763b 8a3d 0efa 3dbd
000003d0: 5f64 143b 35ed 1a3c 14ce 85bc 9cc3 2a3d
000003e0: 81d4 94bd 03e2 893d d728 683d 107b 3a3d
000003f0: cf38 c2bd c60b a53d e4c3 44bd ed77 473d
0.10389626 0.059664134 0.16483371 0.045041583 -0.036107305 -0.0026746194 0.085705556 -0.03743023
0.13356714 -0.15290089 -0.012491419 -0.24301285 -0.09975492 -0.22091056 -0.13205007 -0.14728303
-0.18250138 -0.28649464 -0.1284348 -0.19301887 -0.08298066 -0.2102725 -0.19656068 -0.18156059
0.021008391 -0.09871701 0.06751225 0.12343934 0.16833147 0.06361316 0.21382599 0.20002334
0.17202173 0.108540274 -0.059394415 0.094607264 0.0128253745 0.047633104 0.06851684 -0.06324156
-0.019386617 -0.029665802 -0.04239434 0.042902134 0.07357292 -0.333786 -0.11209124 -0.2833345
-0.35239142 -0.34426 -0.39850518 -0.2327679 -0.07067561 -0.19690242 0.16275993 0.04889148
-0.067424856 -0.06660415 -0.08241776 -0.044313427 -0.029249659 -0.09037845 0.1186194 0.2845052
0.19416238 0.15788843 0.2645005 0.3700823 0.36514056 0.04185364 0.326836 0.37113467
-0.09865327 -0.10194108 -0.1391869 -0.044234104 -0.10047816 0.046092167 -0.008853856 -0.0041526314
0.018798996 -0.20659462 -0.11226582 -0.16411014 0.024416871 0.07538292 0.08590503 -0.0035452337
0.13606425 0.14652827 0.43992165 0.28038692 0.21494444 0.26435086 0.3388712 0.13538228
0.13766778 0.15164958 0.2091682 0.07598777 -0.067723 0.12867366 0.13800125 0.13431494
0.2668739 0.5225379 0.3926836 0.43241176 0.0033606251 0.28534314 0.33895537 0.29154274
0.4306682 0.14131367 0.20365399 0.3218296 0.18154234 -0.20209317 -0.2385847 -0.49066648
-0.18435004 -0.6474321 -0.46947783 0.020077253 -0.67498004 -0.20585282 0.12009689 0.09577257
0.23205407 0.060681093 0.4170178 0.24959303 0.23177378 0.2213192 0.15765871 0.3359053
0.34735385 0.30752873 0.2763742 0.34605289 0.26027566 0.3665421 0.18128785 0.2320907
-0.36259806 -0.24207348 -0.34069553 -0.29442316 -0.47076875 -0.30221933 -0.46052402 -0.31280428
-0.3582332 -0.06101212 0.0534356 -0.06323568 0.055378057 -0.025810845 0.12005876 0.1409228
0.073450044 0.068939395 -0.1458976 -0.076925 -0.060598858 -0.09291783 -0.015189811 -0.052016918
-0.16709289 -0.024594747 -0.09251485 -0.093742765 0.014580166 0.06620394 0.06282794 -0.06563051
-0.05974867 -0.027508603 0.08827979 -0.009986738 -0.084272 -0.06855263 -0.020931385 -0.015529718
0.006321531 0.017453087 -0.050945476 0.03761389 -0.11086372 -0.0040808874 0.17644356 0.1998956
0.036724247 0.15740962 0.15443878 0.042555045 0.12621774 0.1890199 0.0647679 0.13076653
-0.10396866 0.07858512 -0.03394059 0.01802455 0.03866714 -0.007910054 0.03445431 -0.007670432
-0.11361203 0.030774437 -0.075302385 -0.1331413 0.03306699 -0.051378712 -0.06353518 0.049601607
0.04228431 -0.065337144 -0.013545404 0.0803332 -0.06228554 0.057005692 -0.12385086 -0.06572352
0.011123649 -0.024323512 -0.0646745 -0.12937227 -0.07469846 -0.108415514 0.060317263 -0.05801453
0.0045503555 -0.034391508 0.0703008 0.09704575 -0.13098188 0.0071285297 -0.041469872 0.035377704
0.035202626 -0.035760585 0.067496225 -0.04638105 0.0022642834 0.009455969 -0.016333617 0.041690454
-0.072670944 0.067325614 0.056679573 0.045527518 -0.09483492 0.08058886 -0.04803838 0.048698355

convs.0.2.bias f4 [8]
00000000: 8f8e ac3d 4a4f 443e f728 0ebe d0e9 c0bd
00000010: c389 ae3d e8d6 293e a2a2 823d 38ae b8bd
0.084256284 0.19170871 -0.13882814 -0.09419596 0.0852237 0.16585886 0.06378676 -0.090176046

outconv.0.weight f4 [3, 8, 1, 1]
00000000: 1fc9 3e3e 8e58 fbbe 3eef 973c ca96 853e
00000010: b782 30be 9064 f53e f652 89be d0bf 57bc
00000020: d980 a53e 1003 48be 6815 9cbe 42af 9c3c
00000030: 1ac9 953d 7e21 943e f6a7 f3be e858 81be
00000040: 0688 53be c18e a5be 00d9 98bd 2048 27be
00000050: b964 ee3e 3b78 293e 0fb3 dabe eb99 0e3e
0.18631409 -0.49091 0.018546697 0.26091605 -0.17237364 0.47928286 -0.26821107 -0.01316829
0.32324865 -0.19532418 -0.30485082 0.019126538 0.07313748 0.28931803 -0.47589082 -0.25263143
-0.20657358 -0.32335475 -0.074632645 -0.16336107 0.4656122 0.1654977 -0.42714736 0.13925903

outconv.0.bias f4 [3]
00000000: 174c 54bd 7a91 4ebd 11ed 3cbe
-0.051830377 -0.050431706 -0.18449809
