save/100_SCI_model_KD.pth (torch, 294441 bytes, 19 tensors)

conv1.weight f4 [16, 3, 3, 3]
00000000: ee65 c53d e910 783d 7532 2fbe c889 7cbd
00000010: 63ac 693c 50da 08be aea4 b8bd 7b87 6fbc
00000020: 6820 c03d 530e dfbd fe3b 7abe b147 303c
00000030: eca3 8ebd 770b 7dbc 3de6 0d3e 4e23 b7bd
00000040: 9cf8 e3bd 7134 1bbd a05e 313e 3f1f 263e
00000050: 01c4 543e a918 d2bd b2ad 75be 06d0 84bc
00000060: a322 b7bc 8c23 8dbb cd90 1f3e 7e84 b83d
00000070: 4189 a9bd 942f 003d 89db 04bd 90ec 013d
00000080: 8b42 19be 4e80 62bc 7b7f 72bd 8750 163e
00000090: 930e 2cbe 856e db3d fcc5 7cbc 6bad 343d
000000a0: 019e 03be 95f1 8c3d c093 e93d 0978 6ebd
000000b0: 8994 2ebe ac46 f5bd a29f 0cbd c3ac 1fbe
000000c0: 527e 84ba ad22 10bd 9b54 193e e994 373e
000000d0: 2ee9 96bc f155 6ebc 4870 06be d328 10bd
000000e0: fa39 d73d 4c34 0fbe 07bd 12be 40e7 47be
000000f0: 46b0 a5bd d3ac 94bd b3ef 113d 23ad 13be
00000100: debc 72bd b42f 39be 8a28 133e 0205 4f3e
00000110: a238 393e 87ee 3fbe 3939 ecbd 6127 8abc
00000120: 9ea8 993e 6c6d 133d 0f3b 853e 9d06 b0be
00000130: 54ce c4be 96a2 69bd 2ee2 353e 53f5 d53d
00000140: 9b91 1a3e c39d a0bc 70f6 b43d 3ae1 86bd
00000150: fd76 8dbc 2ff1 593e 165f 71bd 77f3 1d3e
00000160: 6e5a 023e a7e8 263e 30ed bc3d f4cb f33c
00000170: 1057 503d 2957 3d3e fa76 a7bd babe 183e
00000180: d8e7 12be 1354 383e f337 ef3d caf6 dabd
00000190: bb56 94bd 8f94 6b3d 2333 db3d 6f74 483e
000001a0: 4ec0 f0bd c058 593c bef4 0b3e f139 94bd
000001b0: d08d 333d 4a9e 9d3d 8554 ae3d afc7 203e
000001c0: 7dea fd3c 3fe6 743e a0c2 e83d f5bc 1abe
000001d0: 5d13 833e 877e a6bd 9307 2c3d 1868 3d3d
000001e0: f624 ef3d e2a9 ae3d 3fc2 e2bd f58a 4abe
000001f0: a553 c73d b5f4 cf3c b974 b9bd 4495 e43d
00000200: 5483 54be 16ab 68bc 20e5 8fbe 1a61 e93c
00000210: 0182 16be 7496 1bbe 6917 1d3e 50c4 cbbd
00000220: 5460 ed3a 3a05 1c3e 2f9d 073d 8738 b33c
00000230: 6f58 f13c e91f 063d 3e8d 94ba 3c0a a9bc
00000240: 6464 14be 298d 2ebe fe6b 3ebe fd13 663d
00000250: 5dac 3c3e 8a98 103e 703f a7bd a549 833d
00000260: 0c3a 15bd 03d8 4f3e 427a 423e 1e13 c93d
00000270: ac26 69be 2d7e 63be 543b 7bbe bc10 2fbd
00000280: 06b8 1e3e 27a9 e1bc f352 d5bf 3ee7 cebf
00000290: 9bfb d8bf 5008 dcbf 4b83 fcbf f64a ebbf
000002a0: dbff d9bf 1378 d6bf b7fd d7bf 3c2a 4cc0
000002b0: a5d7 4cc0 6cc7 4ec0 ec10 46c0 664d 4dc0
000002c0: 92ce 4ec0 496c 46c0 754d 4ec0 ed5d 4dc0
000002d0: 4bd0 02bf 9452 15bf 260e f6be 70c5 11bf
000002e0: 8c7d 53bf e414 33bf f0bf ebbe 59f2 1abf
000002f0: f82a fbbe e9d2 b8bd ff3f 08bf 0ecf a3be
00000300: 730a af3e e30f a8be ea30 72be 10d7 bfbe
00000310: 3e9a dc3d 953c f63e ef0c 06be a84d 4dbb
00000320: 6a07 bb3e fd09 cf3e e9bf 54bd 3ea5 623e
00000330: a8e7 1c3e 7763 073e 94e5 a1bd 817f dc3d
00000340: acc0 c93e 7e12 b53d 103c 163d ab6e 5fbe
00000350: 8351 003d f5c4 21be 4012 32be 3e48 47be
00000360: a9a8 36be 9b26 3f3d a115 7bbe 55db 303e
00000370: a736 193c 944f fa3d 24ee 1cbd f764 21be
00000380: 2e9d 07bc 3ff8 1c3e 8cb4 9b3e 3b22 ba3e
00000390: e230 52be 17f8 20be f4ee acbd 8950 28bd
000003a0: e448 4d3e 4daf 2f3e 775a 18bd 64b0 89be
000003b0: 291d 76be a34c 5c3e 0ad2 753e b707 85bd
000003c0: b078 3b3d 3644 48bd ad55 88be 14e1 1cbd
000003d0: a37f 27be f9fe 37be 7e0c 22bd 4fd3 073f
000003e0: d1d7 91be 1eda 1ebf 2631 583e 6db1 a1be
000003f0: 52e1 b33d 173f 9bbe 24fb debd 2938 09bc
0.09638582 0.060563 -0.17109092 -0.061654836 0.014262292 -0.1336453 -0.09015785 -0.014619703
0.09381181 -0.10891404 -0.24436948 0.01075928 -0.06964859 -0.015444628 0.1385736 -0.08942281
-0.11131403 -0.03789181 0.17321253 0.16222857 0.20777895 -0.1025861 -0.23992041 -0.016212475
-0.022355383 -0.004307216 0.15582581 0.09009646 -0.08278132 0.031295374 -0.032435928 0.031719744
-0.1496679 -0.0138245355 -0.059203606 0.14679156 -0.16802435 0.10714439 -0.0154280625 0.044110697
-0.12853242 0.068820156 0.11405134 -0.058219943 -0.17048849 -0.1197637 -0.034331925 -0.15593247
-0.0010108447 -0.03518932 0.1497368 0.17927898 -0.018421736 -0.014546857 -0.1312877 -0.035195183
0.10509105 -0.13984793 -0.1432992 -0.19521809 -0.08090262 -0.07259526 0.035628986 -0.14421515
-0.05926215 -0.18084604 0.14370933 0.20216754 0.1808801 -0.18743335 -0.11534352 -0.01686448
0.30011457 0.035993025 0.2602162 -0.34380046 -0.38438666 -0.05703982 0.17762062 0.104471825
0.15094607 -0.019606477 0.08836067 -0.06585927 -0.017268652 0.2128341 -0.05892857 0.15424906
0.12729809 0.16299687 0.092249274 0.029760338 0.05086428 0.1849028 -0.0817699 0.14916506
-0.14346254 0.18000822 0.11680593 -0.106916025 -0.07243105 0.057514723 0.10703113 0.19575666
-0.11755429 0.013265789 0.1366758 -0.07237614 0.043836415 0.07696207 0.085122146 0.15701173
0.030995602 0.23915957 0.11365247 -0.15111144 0.2560071 -0.08129602 0.04199941 0.04624185
0.116769716 0.08528496 -0.11072206 -0.1977957 0.09732751 0.02538524 -0.09055466 0.11161283
-0.20753223 -0.014200946 -0.28104496 0.028488684 -0.1469803 -0.15194112 0.15340962 -0.09949553
0.0018110373 0.15236369 0.033108886 0.02187754 0.029461114 0.032745276 -0.0011333597 -0.020634763
-0.14491421 -0.17046036 -0.18595883 0.056171406 0.18425126 0.14120689 -0.081663966 0.06410531
-0.03643231 0.20297246 0.1899195 0.098180994 -0.22768658 -0.22216101 -0.2453435 -0.04274057
0.15499887 -0.027546478 -1.6665939 -1.616432 -1.6951784 -1.7190037 -1.9727567 -1.8382251
-1.7031206 -1.6755394 -1.6874303 -3.1900778 -3.200662 -3.2309217 -3.0947828 -3.207849
-3.231358 -3.1003592 -3.2234776 -3.2088578 -0.5109908 -0.5832913 -0.4805767 -0.5694189
-0.82613444 -0.6995375 -0.46044874 -0.60526043 -0.4905622 -0.09024603 -0.5322265 -0.31993908
0.3418766 -0.3282462 -0.23651472 -0.37468767 0.10771607 0.48093095 -0.13090871 -0.0031326804
0.36529094 0.40437308 -0.051940832 0.22133347 0.15322745 0.13221537 -0.07905117 0.10766507
0.3940481 0.08841418 0.036678374 -0.2181956 0.031327736 -0.1579779 -0.17389774 -0.19461152
-0.17837776 0.046667676 -0.2451997 0.17271169 0.009351409 0.122222096 -0.038313046 -0.15761171
-0.008277221 0.15329073 0.30411184 0.3635424 -0.2052646 -0.15719639 -0.08444014 -0.04109243
0.20047337 0.17156716 -0.03719565 -0.26892388 -0.24034561 0.2151361 0.24005905 -0.06495612
0.045769393 -0.048893176 -0.26627865 -0.03830059 -0.16357283 -0.17968358 -0.039562695 0.53056806
-0.28484967 -0.6205157 0.21112499 -0.31580678 0.08783211 -0.3032157 -0.10887745 -0.008375206

conv1.bias f4 [16]
00000000: 7f72 dabc 6cc5 7c3e 638e 1b3e bc92 2dbe
00000010: 7c1e 943b 9c7c 333e b157 bf3d 11c1 0c3d
00000020: 5ede 1d3d 36fc ae3d f854 3bbe 7a72 0c3e
00000030: 6481 a13c 27f2 a03c 081d 91bb e398 093e
-0.026665924 0.24684685 0.15191035 -0.16950506 0.0045202356 0.17528003 0.09342898 0.03436381
0.038542144 0.08544199 -0.18294132 0.13715544 0.019715019 0.019646717 -0.0044285096 0.13437228

conv2.weight f4 [32, 16, 3, 3]
00000000: 1054 5cbd eab6 973b 6f69 efbd 6121 b13c
00000010: 206e d03d ba8e 6cbd 8f87 80bd d971 b7bc
00000020: 9e13 0bbd 03fa 023e e239 29bb c5b4 ac3c
00000030: a09f 23be 62f0 103c 72ec e13d dffe e33d
00000040: 8096 4d3e b982 aebb 1138 a2bd c7c2 303d
00000050: 54a6 ddbd b5cd f7bd 1d4f d83d 3c72 febd
00000060: e51a 41bd 3582 47bd 4740 d5bd 65b0 78bd
00000070: 4096 32bd 609b 2dbd ab1f 28be 331c 06be
00000080: 13d5 6e3b e7c2 0d3d dee8 94bd dd05 2dbd
00000090: 9587 d0bd a84a f9bc 57e0 e43d c744 40be
000000a0: d522 ee3d 506e 2a3d c1cd ebbd 884b 903c
000000b0: 579b afbc 723e 1abe f876 27be f55f 2dbe
000000c0: e0d2 c23d 6fb0 30bd d031 07be ac91 213c
000000d0: e470 87be d5e6 1bbe 3ae2 ecbc 7958 a8be
000000e0: 3b22 5dbc 8696 a3be 153b d3be 9fa8 9d3b
000000f0: 0182 bf3d d1da 803d 10f4 613d fccd debd
00000100: 47b5 e53c 3882 fa3d b144 f1bb 026f 1b3e
00000110: 07ad 00bd d90d 91be a3a1 6bbd a884 82be
00000120: 4fc9 87be 2156 b8be 7970 2ebf 8512 f6bc
00000130: 8887 29be ace1 aabe e8b1 b7be 57eb ddbe
00000140: fb87 86be cd93 3e3d bd66 3bba db1e 91ba
00000150: f92d a8bd e420 d0bd baaa 2ebd e8b6 50bd
00000160: f105 7c3d be93 80bc 156a 063e 644d 9fbd
00000170: c99e 3bbd a5e8 c8bd c704 68bd 0562 febd
00000180: a6bb 7c3c 65d9 b4bc ea94 a13d bfec 2ebd
00000190: 1631 263e 87b0 493c a281 a3be 50f8 3d3e
000001a0: 69f5 b2bd b1ea 02be 93d8 353d ae89 76be
000001b0: 006b 353d 0ed6 ab3d 8495 b33d 9b6a 57be
000001c0: 70ce 1a3e 2825 c73d 847c e43d 4118 1bbd
000001d0: 84b8 123e a55c 7fbd 9340 a03d 8d0f 073e
000001e0: a0e3 bd3d 2d76 57be 2578 103e 4475 37be
000001f0: b5aa d8bd 236c 1fbd f5b9 d0bd b375 a7be
00000200: d702 8abe 115e 1abc 6444 ffbd 4ad9 90be
00000210: 0be4 67bc 5120 73bd 3bba 24be 700d 5abd
00000220: 0a66 69be e91b 05be ab89 463e eba7 863d
00000230: 5f01 f3bd 9bb9 043e 77ed 92bd bbf4 ecbc
00000240: e64e 043d cdbb 453d 3952 30bd c8aa 5dbc
00000250: b93f 0f3d 5443 1f3c 577c 1d3d 498b a4bd
00000260: e1c2 3c3c b5ac e53d 45f6 343d d418 1d3e
00000270: aa96 f53d 2cbd dd3d ee1e da3d 4bb2 413e
00000280: c191 5b3e 80d3 093e 79d8 a43b d625 d0bd
00000290: 70a1 d73b c418 d3bd 35e0 79bc 2675 783d
000002a0: 7497 923c 2366 13be cc0e e1bd 39f9 9dbb
000002b0: ba04 7cbd 5862 a0bd 2bc9 17bd 8332 37be
000002c0: 3c4a a1bd 6e91 483d 9926 90bd 2116 4abd
000002d0: e596 423d c80d 0b3c 1a84 193e 7f94 bbbc
000002e0: cf89 debc 4fdd 0f3c c8c8 a53d a0d7 b93b
000002f0: 6146 b23d 5f39 1e3d e31c 0d3c ac4f 023e
00000300: ba2e 833c 2003 27bd 4893 74bd 5b04 f2bc
00000310: b453 473d 81d1 813d 3eff 5fbe 3472 9dbe
00000320: 2e6f a7bd 4481 53be d5a1 a8be 357a 57be
00000330: af1d 3cbe fb78 21be cc96 a2bd 14d2 df3c
00000340: 238f efbc 190a 9d3c 925d 993c f6a6 103d
00000350: 81c1 183d f492 273c 6903 103e 0301 22bd
00000360: f59d 9fbd 0014 3fbd a50b 6c3d d6b8 113d
00000370: 9032 1ebe cc64 7c3d 1eed 013e 6fa1 a3bd
00000380: 9beb ce3d b0c8 e1bd 1ed6 09be 4f67 2f3d
00000390: ae04 d4bd 82b9 4cbe b49c 64be 99e4 22bd
000003a0: 9115 dfbc ed60 03be 2a15 d83c e7a5 23bd
000003b0: a115 08bd 05a1 11be 251b 39be 4f5f a43c
000003c0: 71dc abbd f26a 68bd d6aa e73c 34ae 7e3d
000003d0: 9337 cdbb 3727 533d 6d3b e6bc f546 2a3d
000003e0: bfff 823d 7568 263d 588c febc 5720 783d
000003f0: 1435 c33d 9ebe 933d 7fff e03c d113 3d3c
-0.053791106 0.0046299594 -0.11690032 0.021622362 0.10177255 -0.057753302 -0.06275856 -0.022393154
-0.033954255 0.12790684 -0.0025821854 0.021082291 -0.15978861 0.008846374 0.110314265 0.11132597
0.20076942 -0.005325642 -0.0792085 0.043154504 -0.1082274 -0.120997824 0.10561965 -0.12424132
-0.04714479 -0.04870816 -0.104126506 -0.060715098 -0.04360032 -0.042384505 -0.1641833 -0.13096695
0.003644292 0.0346097 -0.072709784 -0.04224192 -0.1018211 -0.030431107 0.11175602 -0.18776236
0.116277374 0.04160911 -0.11513854 0.017614141 -0.021436376 -0.15062883 -0.16353977 -0.16931136
0.095128775 -0.04313701 -0.13202596 0.009861391 -0.26453316 -0.15224774 -0.028916467 -0.3288
-0.013496931 -0.31950778 -0.41256014 0.004811361 0.09350968 0.06291736 0.055164397 -0.10879132
0.028040541 0.122318685 -0.007362925 0.15179065 -0.03141501 -0.28330877 -0.057527196 -0.25491834
-0.26520774 -0.3600321 -0.6814037 -0.030038128 -0.16555607 -0.333753 -0.3587792 -0.43343613
-0.2627562 0.046527673 -0.0007148793 -0.0011071818 -0.082118936 -0.101625234 -0.042643286 -0.050955683
0.061529104 -0.015695449 0.13126405 -0.07778433 -0.045805726 -0.098099984 -0.05664518 -0.124210395
0.015425598 -0.022076318 0.07889731 -0.042706247 0.16229662 0.012310154 -0.3193484 0.18551755
-0.087382145 -0.1278484 0.044395994 -0.24075958 0.044291496 0.08390437 0.08768752 -0.2103676
0.15117812 0.09723884 0.11156562 -0.037864927 0.143282 -0.062344212 0.078248166 0.13189526
0.09271932 -0.21041174 0.14108332 -0.17915827 -0.10579435 -0.038921487 -0.101917185 -0.32706985
-0.26955292 -0.009421841 -0.12464216 -0.28290778 -0.014153491 -0.05935699 -0.16086666 -0.05323547
-0.22792831 -0.12998928 0.19388454 0.065749966 -0.11865496 0.12961428 -0.07174199 -0.02892529
0.032301806 0.048274804 -0.043047164 -0.013529487 0.03497288 0.009720642 0.038448658 -0.08034379
0.011521072 0.11214582 0.044180173 0.15341502 0.119916275 0.10827097 0.106504306 0.1891567
0.2144232 0.13459587 0.0050306884 -0.10163467 0.006580524 -0.10307458 -0.015251209 0.060658596
0.017894484 -0.14394431 -0.109891504 -0.0048209694 -0.061527945 -0.078312576 -0.037057083 -0.17890362
-0.07875487 0.048966818 -0.07038612 -0.04933751 0.047507185 0.008487172 0.14991799 -0.022897957
-0.027165322 0.008780791 0.080949366 0.0056714565 0.0870483 0.038628932 0.008612844 0.12725705
0.016013492 -0.040774465 -0.05971077 -0.029543092 0.04866381 0.06338788 -0.21874711 -0.30751193
-0.08175503 -0.2065478 -0.32935968 -0.21042712 -0.18370698 -0.15768807 -0.079389185 0.027321853
-0.029243058 0.019169854 0.018721376 0.035315476 0.037293915 0.010227907 0.14063801 -0.039551746
-0.077938 -0.046649933 0.057628293 0.035576664 -0.15448976 0.061619565 0.1268811 -0.079897754
0.10103532 -0.11024606 -0.13460585 0.042823132 -0.10352455 -0.1999264 -0.22325402 -0.03976879
-0.027231963 -0.12829943 0.02637728 -0.03995314 -0.033223752 -0.1422158 -0.18076761 0.020064978
-0.08391655 -0.056742616 0.028279703 0.06217785 -0.0062627285 0.05155107 -0.028104508 0.041571576
0.06396436 0.04062696 -0.03107278 0.060577717 0.09531608 0.07214092 0.02746558 0.011540369

conv2.bias f4 [32]
00000000: 54ca 673d b316 763e 1ddb 373d d7cd 96be
00000010: 6e04 b3bd 6db1 8dbd 030a 8d3d 23a7 f4bc
00000020: 2fb7 423c 6b6a 25be f244 32bc 2235 a9be
00000030: bfbf 8fbc 9197 f4bd 326d 123e 10f9 263d
00000040: 7658 8bbd f0ad dc3c d03e 2abd 1f72 9f3d
00000050: c4e0 f5bb 6c60 2cbd e90a b23c 656d 65bd
00000060: 5b88 16bc cdeb d3bd 6653 f43c 421d 1cbe
00000070: 28f4 113d 5c54 ccbe 4c03 a33d 9f3e 90be
0.05658944 0.24032097 0.044886697 -0.29453918 -0.08741079 -0.06918607 0.06886675 -0.029864853
0.011884495 -0.16153876 -0.010880696 -0.3304835 -0.017547486 -0.119429715 0.14299467 0.04076487
-0.06803982 0.026938409 -0.04156381 0.07785439 -0.007503601 -0.042084143 0.021733718 -0.05601253
-0.009187783 -0.1034771 0.029824924 -0.15245536 0.035633236 -0.3990811 0.07959613 -0.28172776

conv3.weight f4 [64, 32, 3, 3]
00000000: d0e9 863d 3147 b73d 0d6b 893d b28f 5e3e
00000010: 34e3 04be de4d 2fbb 9e01 e83c 8bfc 413d
00000020: 3af0 28bd 957b cd3c 5291 253e a3fa 2a3d
00000030: 234a b2bd ab85 92bd d27c 98bd 1bfa 04bc
00000040: 1534 85bc a6a7 6a3d c2b7 26bd 4def 9f3d
00000050: bad6 cdbd 7f15 163d 2bcd a7bd a8ea d13c
00000060: 8c21 753b 664c 623c b195 3c3c f461 993d
00000070: 0740 21bd 3259 083e 8fdc 303e f438 98bd
00000080: 0a9a 913d 32af f93c 5b98 74bc edba dd3c
00000090: da11 813c 08ad 3abd 7e3c 003d 9396 38bd
000000a0: 3f4b ae3c 79c2 72bc 9a13 0dbd 58d1 4d3d
000000b0: 8889 4e3d 34fc 29bd b606 82bd 82fb 01bd
000000c0: bb16 37be 337d e93d afc9 643d f8f1 39bd
000000d0: 1e8c 4abd 51d0 2cbd 0555 433e a2b3 c33c
000000e0: a7f4 cabd b701 7b3e 6d36 913d 5ed0 7f3d
000000f0: ce61 463d 4bf0 72bc f562 4abd f3ad cc3c
00000100: 3936 7b3d 21c7 ce3d 699d 49bd cb91 4a3e
00000110: f619 c13c 5b43 1cbe 4f56 0dbe 3521 b83d
00000120: 30a4 e23d 4cdf 86bd 95a3 1abe 0cc5 483d
00000130: 63ad bd3a 8a19 37be 5ed0 fe3c edbf 65bd
00000140: 4107 c9bd 32ee 84be f417 2fbd b532 cd3d
00000150: 60df 6cbe cc04 0ebc b933 e63d 6491 7bbb
00000160: 5239 8c3d 50cb e23d 6d38 32bb 3086 7ebd
00000170: 16a4 a03d afb3 a53d 26d8 babc a209 39bb
00000180: 673f 39bb 79a3 8dbd ea4c 94bd 5467 bd3c
00000190: 729f 5bbc 6526 4abd 0053 b83d 0a03 b3bd
000001a0: 9a4b 1c3d 39b5 043d 63cb 3abd eddc 853c
000001b0: 0bff bcbd fe66 353e a209 f63d dfdc e0bd
000001c0: f64f be3c 242b 0e3e 33b3 9dbd 591c 083e
000001d0: 434c 393d 7a51 71bd 6dca 9fbc ea72 9a3c
000001e0: d1c6 0dbd e423 0bbe 9a45 f63c 148d cb3c
000001f0: 13f5 8dbc 8303 23bd 9064 503e e0f3 c03c
00000200: 713e 07be 5098 b13d 76d5 74bd d331 5dbe
00000210: 4c02 3d3d 8492 95bc 97cf 32bd 3c13 4d3e
00000220: efe8 4c3d cf42 e1bd 8a9c f9bd 655c 17be
00000230: e336 1cbe 3b89 233d 22d4 4b3c 787a 94bd
00000240: 1e4c efbd edbc 8abd ab2c 0c3d cb86 34bd
00000250: c0b8 86bd cae9 133d 235c 49bc 67b6 343c
00000260: 9ac3 143d 05c1 9cbd 484f aebd e016 fbbb
00000270: 5f48 1abc 9b11 74bd 6730 ca3c 7fa0 89bd
00000280: ed26 163d eb67 61bc 91b5 643d 39c9 a3bc
00000290: 567e db3d 58c3 7d3e e4a1 08bd f2dd aabb
000002a0: d840 783c 3f20 8bbc 0372 40bd 5c1c c63d
000002b0: 1ddc fbbd 5255 c0bc 4560 2abe ca4f 75be
000002c0: 77bf fabc 7aef 02bd c3c4 923b cf5b 84bd
000002d0: 65d7 33bd 9285 0f3d f2cb aabd bbc2 5abe
000002e0: 12b8 cdbd 9a6d 32be 96ed 1bbe 9672 02be
000002f0: c964 28be 717d 26bd 2b5f ce3b d5ef 2d3d
00000300: 3d4d 6b3c 9db0 70bc ed1b 223d a7f5 fe3c
00000310: 88c4 603c 95bc 4cbd 0af3 33bd e243 7c3d
00000320: 6bc4 42bc db7f dabb 3b42 a5bd f3a3 493c
00000330: 2c31 493d e51f 8abd 0b8e 233c cc04 ddb9
00000340: e233 10bd dd86 b3bd cae4 09be ac97 f13d
00000350: 5c55 e8bc 63b6 1bbe f367 bf3c 1b39 ebbd
00000360: 9c2f 2d3e 254b 25bd 1f49 a93d 27ef d13d
00000370: a4fd 73be a902 edbd 3b46 823d 86c5 32be
00000380: e122 6abd a998 3cbd 3a09 733c 96c6 37bd
00000390: 48e3 afbd a2bd 8bbd 2af7 a7bd d5c0 be3c
000003a0: 3632 9dbc 658e 2abc c3e9 9f3e b782 af3d
000003b0: 22fc 973d 4aa0 b1bd 8209 23be 40a1 77bd
000003c0: ab91 69bc ffbf 93be 3881 223c 1df4 11be
000003d0: 5ed1 93bd 64ea a53d 7fe5 27bd 3425 833d
000003e0: 6851 fa3d 2e1d 00bc f17d 1f3e 98a4 7a3e
000003f0: b8a8 163e f8b8 023d 28e2 8b3d 1baf 4bbd
0.06587565 0.089491256 0.067098714 0.21734503 -0.12977296 -0.0026749293 0.028321084 0.047359984
-0.041244723 0.025083343 0.16168717 0.041742932 -0.08705547 -0.071544014 -0.074456826 -0.00811627
-0.016260186 0.05728879 -0.04070259 0.07809315 -0.100507215 0.036641594 -0.081934296 0.025624588
0.0037404029 0.01381216 0.011510299 0.07489386 -0.0393677 0.13315275 0.17271636 -0.07432738
0.07109459 0.030479047 -0.0149289025 0.027066672 0.015755583 -0.04557517 0.03130769 -0.045065474
0.021276115 -0.014816874 -0.03444252 0.050248474 0.05042413 -0.041500285 -0.06348936 -0.031733997
-0.17879765 0.11400833 0.055856403 -0.045396775 -0.049450032 -0.042190854 0.19075401 0.023889367
-0.09909945 0.24512373 0.07090459 0.062454574 0.048433118 -0.014827798 -0.04941078 0.02498529
0.061331008 0.100965746 -0.049222384 0.19782178 0.02357195 -0.15260069 -0.13802455 0.08990709
0.110664725 -0.06585559 -0.15101464 0.049016044 0.0014471229 -0.17880836 0.031105217 -0.056091238
-0.09815837 -0.2596298 -0.042747453 0.10019437 -0.23132086 -0.008668136 0.11240334 -0.003838622
0.068468705 0.11073935 -0.0027194277 -0.06213969 0.07843797 0.080909126 -0.022808146 -0.0028234501
-0.002826655 -0.069159456 -0.07241233 0.02312056 -0.013404714 -0.049353022 0.09000206 -0.08740814
0.038158037 0.03239939 -0.04560412 0.016340697 -0.09228333 0.1771507 0.12013556 -0.10979628
0.023231488 0.13883644 -0.07700195 0.13292064 0.045238744 -0.058915593 -0.019505704 0.018853623
-0.034613434 -0.1358791 0.030062485 0.024847545 -0.017328775 -0.03979827 0.20350862 0.023553789
-0.13207413 0.086716294 -0.059773885 -0.21601038 0.04614477 -0.01825834 -0.043655004 0.20026869
0.05002683 -0.10999071 -0.121880606 -0.1478134 -0.15255313 0.039925795 0.012440713 -0.072499216
-0.1168444 -0.06774316 0.034222286 -0.04407386 -0.06578207 0.03611163 -0.0122900335 0.011029816
0.036319353 -0.07654003 -0.085112154 -0.007662639 -0.009416669 -0.059587102 0.024681283 -0.06720065
0.036658216 -0.013757686 0.055837218 -0.019993411 0.10717456 0.24781549 -0.033357516 -0.005214446
0.015152179 -0.01698315 -0.04698373 0.09673378 -0.12297843 -0.023478184 -0.16638286 -0.23956218
-0.030608876 -0.031966664 0.004479022 -0.064628236 -0.043906588 0.035039492 -0.08339681 -0.21363346
-0.10044874 -0.17424622 -0.1522735 -0.12739024 -0.16444696 -0.040646974 0.006297966 0.04246505
0.014361677 -0.014690545 0.039577413 0.031122996 0.013718732 -0.049984533 -0.043932952 0.061588176
-0.01188765 -0.0066680736 -0.08069273 0.012307155 0.04911916 -0.06744365 0.009982596 -0.0004215598
-0.03520573 -0.087659575 -0.13466182 0.11796507 -0.028361015 -0.15206294 0.023364997 -0.114855014
0.16912693 -0.040354867 0.082659 0.10250693 -0.23827225 -0.11572773 0.06361052 -0.17458162
-0.05716217 -0.046044026 0.014833743 -0.04486712 -0.08588272 -0.06823279 -0.0820144 0.023285309
-0.019188982 -0.010409926 0.31233034 0.08569854 0.074211374 -0.08673151 -0.15921596 -0.060456514
-0.014255921 -0.2885742 0.009918503 -0.14253278 -0.07217668 0.08101347 -0.04099035 0.0640358
0.12222558 -0.007819457 0.15575387 0.2447685 0.14712799 0.03191468 0.06830245 -0.04972754

conv3.bias f4 [64]
00000000: a0b7 f13d 5426 1d3e 215b 1b3d 1312 bfbe
00000010: 2a65 3e3d fe41 8c3d 3aba 8e3d affd a53d
00000020: fa9a efbd fbb3 bfbc 3ffa 21bb 3d72 ccbd
00000030: 8d09 e3bd 78ba 56bd 41bd 2f3d faff 053e
00000040: afe2 cc3d 18ae e1bd 3037 073e f0b0 563d
00000050: cbc4 b5bd 77e3 d6bc 3951 da3e c8dd b73d
00000060: 708d 9d3c ac90 b63d 37a9 fcbd 1eb8 afbd
00000070: feda 95be 11df b2be b684 bdbd a5e9 debd
00000080: a0bb 393d 0a30 ac3d a002 983d 7ff7 a83e
00000090: 15a2 b83d 1272 d7bd f0e2 32be 865c 88bd
000000a0: 4f46 303e a130 17be 36c6 23be c540 8a3d
000000b0: 1b76 a03d e59e c03d a31c d9bd 60b4 bebd
000000c0: 5ec5 503b 67be 30bd b588 fabd 1c25 083d
000000d0: 5a36 633d d79b 99bd c767 2fbc 9e5c dabd
000000e0: 5c8f ddbd 7842 ba3c afc0 29bd acfd c33c
000000f0: 5576 4ebd e2d2 653d 3b11 04bd 56d7 aa3c
0.11802602 0.15346652 0.037928704 -0.37318477 0.046483196 0.068485245 0.06969114 0.08105027
-0.11699481 -0.023401251 -0.0024715809 -0.09982727 -0.11085806 -0.052423924 0.042905096 0.13085929
0.10004174 -0.11019534 0.13204646 0.052414834 -0.08875426 -0.02623151 0.42640093 0.08977848
0.019232482 0.08914313 -0.12336963 -0.085800394 -0.2926864 -0.3493581 -0.09253828 -0.10884408
0.04534495 0.084076 0.07422376 0.33001325 0.0901529 -0.10519804 -0.17469382 -0.066582724
0.1721432 -0.14764644 -0.1599358 0.06750635 0.07835027 0.09405307 -0.10601165 -0.093117476
0.0031855921 -0.04315033 -0.12233106 0.033238515 0.055471756 -0.07500427 -0.010705895 -0.106621966
-0.10818359 0.022736773 -0.041443523 0.023924671 -0.05040582 0.056109317 -0.032242995 0.020854633

up1.weight f4 [64, 32, 3, 3]
00000000: 0a9e 813d d043 8ebb 4708 d2bc c321 19bd
00000010: 6034 a93d a264 04bc f846 d23a 25c2 a23d
00000020: 7f77 06bd d47e ac3c 017f 693d 39fa 5dbc
00000030: 11b6 8d3d 490e 553d d246 853d 44e1 66bd
00000040: 43dd d43c 41ad a1bc e5ba 71bc a8d9 76bd
00000050: b4ec 593d 2d6c a53c 1793 b23c ed51 993c
00000060: 757b a7bd ae73 793d 12b3 b73c f009 9fbc
00000070: 80ad c6bc 4246 10bd b379 15bc 3f56 2d3d
00000080: af4e 55bd 13f0 76bb 20a7 843d 0799 85bb
00000090: e514 8ebd f514 0f3e 97da b93d a063 c1bd
000000a0: e383 053d 282e a53b 7a31 d6bd 97d4 233d
000000b0: de76 fb3d fecb 213d e100 8a3d 1e8d 063e
000000c0: 8f1c 3bbd 4a7f 0d3d 26e3 c93d 0e61 23bd
000000d0: 821d 423d d4e2 88bd 380e 67bc 986e 123d
000000e0: d07f fe3c f721 6cbc e8b6 253d d7c0 b03d
000000f0: 2feb 02be 4d4e 26be f47a aebd 4781 afbd
00000100: c8c9 e5bc 0c0d 673d cfcc 1bbe f76f f6bc
00000110: 52ea 3e3e 8fe2 2abe e2d2 903d 0014 9d3d
00000120: ba47 6dbd c45b 513d c275 053e ec9a 70bd
00000130: f1f8 4d3d fc63 ba3d 308c 30bd 9e08 64bd
00000140: b8eb 3e3d 3514 b23d 8332 a53d 178a 8e3c
00000150: 159f 17bd 7418 fdbd 2841 1fbd 73a7 a93c
00000160: 3e87 80bd cbcd 00be 60c5 9dbd 949a 373d
00000170: 562e 21bd 1880 19be 829a c6bc de45 c53d
00000180: cde7 a7bd 2a2f 473c b218 9e3d 8bac 17be
00000190: fd94 86bb 064b a83c 1abf 47be 3232 83bd
000001a0: ce04 b43d 7d4c 80bd dc38 0f3e b80b 1d3e
000001b0: 1d70 0c3e 8e39 783d b425 293d a875 f73c
000001c0: 6477 ef3d 6068 ea3c acf0 de3c 5244 49bd
000001d0: eb0d 2cbe e5b2 cc3d a344 5dbc 0cb5 a33c
000001e0: f57e ae3c 3764 4cbd d42d 0fbe fc8e a8bd
000001f0: 10b0 8e3d 7d67 7a3d 67bd a8bc 7eb9 65bc
00000200: bbbf 5cbd e955 63bd 1f69 063d 99a0 423d
00000210: c8b7 063d 4db1 9f3d 8ddc d3bb a474 813d
00000220: 0467 483a a5e9 89bc 3d28 a73d f4c3 4d3e
00000230: 7258 c6bc 31ed 0b3d cf27 c5bd 72b4 c6bd
00000240: bd12 34bd f5c8 053e ea7b a5bc fa26 c8bd
00000250: 4e22 f93c aee8 dfbd 2841 9cbd 7d23 23be
00000260: 482e ddbd ee13 8a3b 0158 66bd 0528 323e
00000270: d861 18ba ad37 9bbd c7a7 06bd 32ca 38be
00000280: da9c 613d 9c56 0c3e d39b 2bbe 53db b1bc
00000290: 37e8 993c 37b8 4dbd b17b 21ba 2815 e23d
000002a0: 0d2a 9fbd 41e2 463d c6c9 ba3d 12b8 0d3e
000002b0: 6d05 97bb fa2e 14bd 7ed0 5c3d a3a7 393d
000002c0: 5b57 1bbd d075 74bd 38b5 abbc 6cb4 823d
000002d0: c2d4 9abc 0021 213d a643 8e3c 798a 8a3b
000002e0: c68c 8abc 5a7d 153e e29a 2abd 64aa a33d
000002f0: d9bf 153d f7ab eebd 799b 86bc ce61 a23d
00000300: 4c44 a83c 11ca 753d 8cf5 e73d a2e1 09bd
00000310: 2c8f 14bd e9d3 143e b335 80bd 284a d4bc
00000320: f858 10be e54e acbc aa72 cdbb ccef 25ba
00000330: cb94 4f3d aae5 c3bd 7347 fb3c b05f c4bd
00000340: 28b8 923b 118d f23d b18f fcbd 8ef6 71bd
00000350: 644c 2a3e b11b 02be 17a2 653d f041 7a3d
00000360: 8157 d03d dc21 01be 709f a3bb 90b9 f03d
00000370: 25ca 93bb 69de 97bd 1ccc 143e fee3 31bd
00000380: cc81 33be f80a c0bc f013 8dbd 4a46 ccbd
00000390: 29b6 523d ce61 cdba 9aa3 8abd feb1 533d
000003a0: 9d8b 823c 2ef1 81bd 5a83 63bd d1d2 483c
000003b0: 9cd7 f4bb ffee b93d daa9 383d 460b 3abd
000003c0: 844a 48bc 2aee 853c 366a 00ba 12fb 72bd
000003d0: b945 1bbb 4845 833c 16e4 063d 9d61 8a3d
000003e0: 9707 d3bd 9ca5 133c 4041 a5bd 9b2b 283d
000003f0: 478e ad3d 4848 043e b363 af3d 4d61 c1bd
0.06328972 -0.00434158 -0.025638713 -0.037385713 0.08261943 -0.008080633 0.0016042879 0.079471864
-0.032828804 0.02105657 0.057005886 -0.013548427 0.06919492 0.052015577 0.065076485 -0.056367174
0.025984412 -0.019735934 -0.014754032 -0.060266167 0.053204253 0.020193184 0.021798654 0.018715823
-0.081778444 0.060901336 0.022424255 -0.019413918 -0.024252653 -0.035223253 -0.009123254 0.04231858
-0.05207699 -0.0037679716 0.06477189 -0.00407708 -0.06937579 0.13972838 0.09074896 -0.0944283
0.03259648 0.0050409026 -0.10458656 0.039997663 0.122785315 0.039501183 0.06738449 0.1313977
-0.045681532 0.03454522 0.09857778 -0.03988748 0.047391422 -0.06683889 -0.014102511 0.03575
0.031066805 -0.014412395 0.040457636 0.08630531 -0.12785028 -0.16240807 -0.08519545 -0.085695796
-0.028050318 0.056408927 -0.15214847 -0.030082686 0.18644074 -0.16687988 0.07071473 0.0766983
-0.057929732 0.051112905 0.13033202 -0.058741495 0.050286237 0.09101102 -0.043102443 -0.05567228
0.046611518 0.086952604 0.08066275 0.01739983 -0.037016947 -0.1235818 -0.038880497 0.020709729
-0.062757954 -0.12578504 -0.07703662 0.04482515 -0.03935083 -0.1499027 -0.024243597 0.09632467
-0.08198509 0.012157241 0.07719554 -0.14811914 -0.0041071163 0.020543586 -0.19506493 -0.06406058
0.08789979 -0.06264589 0.13986534 0.15336502 0.13714643 0.060601763 0.041295722 0.03020747
0.11692694 0.028614223 0.02721437 -0.04913742 -0.16802184 0.09995059 -0.013505134 0.01998379
0.021300772 -0.04990026 -0.13982326 -0.08230397 0.06967175 0.06113385 -0.020598127 -0.014021276
-0.053893786 -0.055501852 0.032815095 0.04751644 0.03289011 0.07797489 -0.0064655007 0.063210756
0.0007644745 -0.016835043 0.08161972 0.20094281 -0.024212096 0.03416175 -0.096267335 -0.09702386
-0.043963183 0.1306494 -0.020200688 -0.09773059 0.030411866 -0.10933052 -0.07629615 -0.15931506
-0.10799843 0.0042138016 -0.05623627 0.17398079 -0.00058129197 -0.07578979 -0.03287485 -0.18045881
0.055081226 0.13704914 -0.16758661 -0.021711027 0.018787486 -0.05022451 -0.0006160094 0.110391915
-0.077716924 0.048555616 0.091205165 0.13839749 -0.004608801 -0.036177613 0.05390977 0.045325886
-0.037925106 -0.059682667 -0.020960435 0.06382069 -0.018900279 0.039338112 0.017366242 0.004227933
-0.01691283 0.14598599 -0.041651614 0.07991484 0.036559913 -0.116538934 -0.016431557 0.07928811
0.020540379 0.06000716 0.11326131 -0.033662446 -0.03626935 0.14533962 -0.06260242 -0.025914267
-0.14096439 -0.021033714 -0.0062697725 -0.0006329983 0.05067901 -0.09565289 0.030673718 -0.095885634
0.0044775195 0.118433125 -0.123320945 -0.059073023 0.16630703 -0.12705876 0.056062784 0.06109804
0.1017294 -0.12610573 -0.0049933717 0.11754143 -0.0045101815 -0.07415468 0.14530987 -0.04343032
-0.17529982 -0.02344273 -0.068885684 -0.09974344 0.051443253 -0.0015669407 -0.06769486 0.05168342
0.015935713 -0.063448295 -0.05554519 0.012257294 -0.0074719917 0.09078788 0.045083858 -0.045420907
-0.012224797 0.016348917 -0.0004898639 -0.05932147 -0.002369268 0.016024247 0.032932363 0.067568995
-0.10304182 0.009011652 -0.08069086 0.04105721 0.08474403 0.12918198 0.08563938 -0.09442387

up1.bias f4 [32]
00000000: 96f5 d13c d672 d8bc 7230 cebc f2d3 863e
00000010: 043f 50bc fac4 bebb a2c7 aa3b 11ed 6a3d
00000020: 82d4 f4bb 8a43 233d 27e2 fcbc 252e 02bd
00000030: af31 273d 90be 10bb 65f2 c33d ac7a afbc
00000040: a221 efbc db91 19bc 3251 2fbe df09 c5ba
00000050: ecc2 c73d dbe5 973c f6ee 0cbd 2c57 6dbd
00000060: 1f12 38bb e653 5ebb 90e7 c03d c1a3 af3d
00000070: 3180 7e3c 2ba8 313d 0989 b83e 9a53 88ba
0.0256298 -0.026421946 -0.025169585 0.26333576 -0.012710337 -0.0058218213 0.0052117864 0.05735499
-0.007471622 0.039859332 -0.030869557 -0.031782288 0.040818866 -0.002208624 0.095677175 -0.0214208
-0.029190842 -0.009373154 -0.17120817 -0.0015032849 0.09753975 0.01854222 -0.03440758 -0.05794446
-0.0028086973 -0.003392452 0.09419167 0.085761555 0.015533493 0.043373268 0.3604205 -0.0010400892

conv4.weight f4 [32, 64, 3, 3]
00000000: 34ec 3c3d 2436 05be d7f0 413e 3a78 57be
00000010: 2715 c8be 49c9 d9bd 05f8 463e 248c 033e
00000020: cd1d 3f3e d3e1 42bd 2eb6 87bc 7759 60bd
00000030: 42a2 1ebe c006 063c c388 fdbc c2fc a5bd
00000040: 7cf7 17be ce5c 1bbe 3dfc f2bc c17f 7dbc
00000050: 6450 d3bd 6b9e 69bd f7d0 dcbd fb6c 0abe
00000060: 7ce3 66bd a89f 1bbe fc06 1cbe f21d 09bd
00000070: 3152 85bd 8c60 f4bd 76d4 6abc 81ce 0cbe
00000080: 9b15 1bbe a09d aabd 52f7 c6bd 4979 dbbd
00000090: a594 f7bb 83e9 e03c 04be 3c3c 812c e4bb
000000a0: 886c 1cbd 8929 753c 49e8 be3c 99f2 e0bc
000000b0: 83ad 2c3c 5908 2bbd 20f1 0dbd be4b 0fbe
000000c0: cce6 ea3d 0086 613d 80bb fcbd ebb5 4cbd
000000d0: 7eda 04bc ab7c 2dbe c258 a5be 076d debe
000000e0: 5647 92be ffe1 41be 6818 843e bc78 dc3d
000000f0: 3c70 81be 191e 61be d054 98bd 1fac 803e
00000100: 7031 d13e 425c e23d bd79 1c3f a430 563f
00000110: d33b 873e c197 933e 1e84 973e 839e 833d
00000120: 47bd dc3c c9fb 8b3d 7254 873a 8fdb 5abd
00000130: 8c7b 5f3d 0732 febc 343c f2bd f99c a9bd
00000140: 0ae3 d7bd f69c 743d 393c fdbd 8ac4 dd3d
00000150: d5e4 afbc 847e edbe d451 3bbe a19d 173e
00000160: 146a 01be c282 f63c ec97 40be 2ee7 cfbe
00000170: 4c5d fb3c 16e3 6abe c931 81be 9424 c43d
00000180: 70ea 11bd f061 4cbd 2b51 b53e 3fbc 01bd
00000190: 9895 ed3b 2282 f93c a4dd 7ebc 5b16 14bd
000001a0: 5390 843c 306c b83c 7b98 f03c c354 af3c
000001b0: 3688 b73d f91c 9c3d 9581 3abe 512d 093e
000001c0: b553 323e abd4 c1bd 5600 933c b5ab 6e3d
000001d0: 7a8f 82bd 6f80 93bc 467b 07be 0917 423e
000001e0: 510c 3fbe 83b4 c9be a061 053e a6b8 763b
000001f0: fad8 c4bd 38de 383d 6405 b63d 7c80 edbe
00000200: cd24 8f3e 1519 f0bd 002b 3bbf 4f17 a33d
00000210: 12f9 9b3e dd1e 8ebd c85a 893e 1701 f1bc
00000220: aef0 9fbd a91c f7bd 18ca 88bd bb4e 3bbd
00000230: e9ab a8bd 0c8b 71bd 77af aabd b09d 1fbd
00000240: 90d4 783e 8b02 b73e ae0c 1abc b5f2 813e
00000250: 31c4 04bd 9577 86be 4753 b03d 832b 82be
00000260: bb03 23be 12aa 18c0 9594 12c0 8341 b0bf
00000270: c159 d4bf 08e0 78bf 15a9 6ebf 62d2 88bf
00000280: c2b1 99bf ebbf d0bf 0d1f 953c ccc6 c6be
00000290: f2b1 a73e 679e 37be 74b8 4bbf 842e fcbd
000002a0: 5be6 9a3e f4e7 2b3e 28ef 193e 95cc 10be
000002b0: bae5 07bf bebd 123e dccb 37be 5912 5abf
000002c0: 8966 b43c 14a6 be3d 04dd 15be 0320 2f3e
000002d0: f19e 133e 469c 643d 4080 953d e2b1 db3d
000002e0: 7479 2c3c a0dd 383d 42cc abbd 7923 14be
000002f0: 3796 aebd af11 7a3c 8b0e 663c 5676 c13a
00000300: fb74 913b 5855 023d db43 4b3c e912 26bd
00000310: 9c87 373c 600d 953b 44da 6bbc 3e65 343d
00000320: 878b 8a3e 6341 25bf c2b4 eebe 90ee 043e
00000330: 3016 b5be 8bd7 cebd 2688 4c3e 62f7 31bf
00000340: b70f 333e 2660 4a3d 75d9 2c3d 9bee 653f
00000350: de96 943e 495a 5dbe c9f6 31be 2753 cbbe
00000360: 561a 353e 2506 7f3e bb12 953d d222 0fbe
00000370: 129d b6be a3fc 45be 26cc 873d 53ee 2cbe
00000380: ed4a abbd c253 a33b 0f4a 3dbd d03e 4ebd
00000390: e801 8cbd 3dc9 57bd 7035 7fbd 155b 3fbd
000003a0: ae13 5ebc fd80 13bd 8518 0e3d c011 0b3d
000003b0: 0189 0bbe 4b6c 3a3e b277 c03e bb3a 71bc
000003c0: dff8 a9bb c56f 523d d2a9 0cbe ee9c a3bd
000003d0: 984e 99bd 68c2 51be b3b4 69be 4694 ac3c
000003e0: 02d2 23be 0f16 87bf 451c 33bf bf5d 1abf
000003f0: ab07 ef3d 53d3 8f3d 9cb5 643e 4683 ef3c
0.0461237 -0.13008934 0.1893953 -0.21041957 -0.39078638 -0.10634095 0.1943055 0.12846428
0.18663712 -0.047578644 -0.016566362 -0.05477282 -0.15491584 0.00818032 -0.030949002 -0.0810485
-0.14840502 -0.15172121 -0.029661292 -0.015472353 -0.10318068 -0.057035845 -0.107820444 -0.13518135
-0.05636929 -0.15197623 -0.1523704 -0.033475824 -0.065098174 -0.11932477 -0.014332881 -0.1375065
-0.1514496 -0.08330846 -0.09715141 -0.10716493 -0.0075555616 0.027455097 0.011519913 -0.006963313
-0.03818944 0.014963516 0.023304122 -0.02745943 0.010539415 -0.041756008 -0.034653783 -0.13993737
0.11469802 0.055059433 -0.1234045 -0.049978178 -0.008108733 -0.16942088 -0.3229428 -0.43442556
-0.2857005 -0.18933867 0.2579987 0.10765216 -0.2528094 -0.21984138 -0.07438052 0.25131318
0.4085803 0.11052753 0.6112326 0.8366797 0.2641283 0.28826717 0.29592985 0.06426718
0.026945723 0.068351336 0.0010324849 -0.053432044 0.054561183 -0.031029714 -0.11827889 -0.08281893
-0.10541351 0.059720002 -0.12365002 0.108285025 -0.02147142 -0.46385586 -0.18292934 0.14806224
-0.12638122 0.030091647 -0.18807954 -0.40606064 0.030684136 -0.22938189 -0.25233296 0.09577289
-0.035623968 -0.049898088 0.3541349 -0.031673666 0.007250499 0.03045756 -0.015555773 -0.036154132
0.0161821 0.022512525 0.029369583 0.021402722 0.08961527 0.076227136 -0.18213494 0.13396193
0.17414744 -0.09464391 0.017944496 0.05826922 -0.06375022 -0.018005578 -0.13230619 0.189541
-0.18657042 -0.39395532 0.13025522 0.003764668 -0.096116975 0.0451338 0.08887747 -0.46387088
0.27957764 -0.11723534 -0.7311249 0.0796343 0.30463463 -0.069394805 0.26827073 -0.029419465
-0.07809578 -0.12066013 -0.06679171 -0.04572938 -0.08235914 -0.058970496 -0.083342485 -0.038968742
0.24299836 0.35744128 -0.009402437 0.25380483 -0.032413665 -0.2626311 0.08609634 -0.25423822
-0.15919392 -2.3853803 -2.2903187 -1.3769993 -1.6589891 -0.97216845 -0.9322675 -1.0689204
-1.2007372 -1.6308569 0.018203283 -0.38823545 0.3275295 -0.1793152 -0.7957833 -0.1231356
0.30253872 0.16787702 0.15032637 -0.14140542 -0.5308491 0.14330193 -0.1794886 -0.85184246
0.022021549 0.09309021 -0.14635092 0.17102055 0.144161 0.055813096 0.07299852 0.10727288
0.010527004 0.045133233 -0.083885685 -0.14466657 -0.08524745 0.015263005 0.014041553 0.0014759998
0.004438994 0.03181967 0.012406315 -0.040545378 0.011201765 0.0045487136 -0.0143953 0.044041865
0.27059576 -0.645529 -0.46622282 0.1298163 -0.3536849 -0.10099705 0.19973812 -0.695181
0.17486463 0.0494081 0.04219957 0.8981721 0.29021353 -0.21616472 -0.17379297 -0.39711878
0.17685828 0.24904688 0.07278963 -0.13978127 -0.3566671 -0.19334655 0.06630735 -0.16887788
-0.083639 0.00498435 -0.046213206 -0.05035287 -0.06836301 -0.05268215 -0.06230682 -0.046717722
-0.013554497 -0.036011685 0.034691352 0.033952475 -0.13626482 0.18205373 0.3759132 -0.014723475
-0.0051871384 0.051376123 -0.13736656 -0.07988916 -0.07485694 -0.20484316 -0.22822838 0.021066796
-0.1599808 -1.0553607 -0.6996501 -0.60299295 0.116713844 0.07022729 0.22334903 0.0292374

conv4.bias f4 [32]
00000000: f429 2dbe 6678 3dbe 9b7e d5bd a475 ee3d
00000010: 0a5e 16bf a1f3 0bbf 5620 2dbd 1e8c 98be
00000020: 1d74 85bd d570 64be 5466 02be b63d 383d
00000030: 9141 67bd e3fe 073d f6dd d2be 0ea2 02bd
00000040: ec8a 1cbf b1e5 d5bd 0d7b 0e3e fed8 2dbf
00000050: 7931 45be 7d52 2abe 1625 dbbd b6c9 583e
00000060: ce90 0dbe a030 2bbf bb7d 0dbe dd1e 833c
00000070: 2ba1 13bf 00c1 173d a7f9 86be 2e91 92be
-0.16910535 -0.1850296 -0.10424539 0.11643532 -0.5873724 -0.54668623 -0.042267166 -0.297944
-0.065162875 -0.22308667 -0.12734348 0.044980727 -0.056459013 0.033202063 -0.41184968 -0.03189283
-0.6114948 -0.10444201 0.13914128 -0.6790923 -0.19257154 -0.1663303 -0.10700433 0.21170697
-0.1382477 -0.6687107 -0.13817494 0.016005928 -0.576678 0.037049294 -0.26362345 -0.28626388

up2.weight f4 [32, 16, 3, 3]
00000000: e057 323e 15cb 943d 709b c53d 79e7 253e
00000010: a6f5 80bd 021a 60bd 22c1 e13d 7d92 453d
00000020: 8d7e 61be 4bcc 75bd da26 c03d b8b6 a23d
00000030: 83a1 113e 3e29 a13e 6c7f 0b3e cbca 723e
00000040: 2c77 0b3e 60ec 79bd ab35 1fbc 57c1 23be
00000050: e118 f83d cf0a 0ebd fc1a 2bbe 6a1a 1cbe
00000060: 5962 f1bd 2126 cbbe 08bb 25be 5f42 103e
00000070: 7929 073e a6c4 2abe f867 c43d b470 563e
00000080: a31a b13d 35c8 2dbe d2d6 0a3d a8bf d03d
00000090: 103a 083e 3562 693e ff19 f73d 73c6 ca3d
000000a0: f498 633d b68c 213e 24a2 db3d 772b 623e
000000b0: ee94 413e 5da7 05be 02a7 85be ade7 31be
000000c0: 8606 d9be 5f36 02bf 0083 57be 1943 62bc
000000d0: 2f8f 6cbe 7416 81be dbf2 18bf 2cc0 14bf
000000e0: b727 60bd 30ff 47bf 6438 69bf 7a84 8fbe
000000f0: fca1 debe b5b1 11bf 26c5 a9be 1ac0 623d
00000100: 0c35 053e 6c3d 653d 3509 af3c c0d6 043e
00000110: af26 893d 7319 2c3d 3100 373e e53d 803e
00000120: 9782 dfbd ba11 acbe 011f a9be 29d7 74be
00000130: 2594 2fbf 6df0 f1be 598d d0be cbac 20bf
00000140: 3c50 3bbe eb48 aa3e d06a 123f 1587 b33e
00000150: fc9d 303f 3757 493f a03a 383f 4167 443e
00000160: d82b 1e3f 3e02 763e ba73 e4bc acfe 773e
00000170: 4717 cd3c 1af7 033e ec03 da3d 07cc 123e
00000180: 2239 3a3d c3a1 403b 1765 7e3d d178 693d
00000190: 0f8e 523e 386a fd3d 8e37 d63d abc5 cd3c
000001a0: 9b4d b83d f8c7 c33d e143 bc3c 8dde 21bd
000001b0: 6f65 013d ee29 eb3d 1d8b eebd a5fe 42bd
000001c0: a863 a9be 1f26 08be 3331 5fbd 2158 51be
000001d0: 0cd1 e93d bd35 673e e2d2 03be f594 75bc
000001e0: f120 f5bc 28d2 abbe a646 8fbe b244 19bd
000001f0: 55aa 8cbe a31e bebd ecea e5bd 3cf5 96bd
00000200: 217b 06bc 9e31 40be 3cd2 e2bc bf25 65bd
00000210: a98a bebd ede3 8fbc e614 58be 1a59 84bd
00000220: 2a3f a13e dab2 3c3e e254 963d aeed 663e
00000230: 305a 813d 58fd 1e3e eb19 d13d 6b8c 213e
00000240: ecd8 0e3d d6c7 90bd 70e8 413d 25e4 e3bd
00000250: 6a3e 28bd 535c ac3d b34f 223d 628c 1fbd
00000260: 4cd7 7bbb 5d78 39bd aee9 36bc d5a0 02bd
00000270: 060a dabd 9acc 0cbe f39b c4bc 02d6 b8bd
00000280: d083 a8bd 1411 4fbc 36be 223d 1874 febc
00000290: 8671 fbbc 9c14 db3d 59a5 583d 31a8 ad3c
000002a0: d540 fb3c ac26 6abd 48b2 e3bd aacb ffbc
000002b0: 8f7a ca3d 3e61 ec3d 3c92 d5b9 5c25 25bb
000002c0: dc2c 1fbd 8eba 043e 469f 043d 3408 523d
000002d0: 636a 1e3d 5426 c93d 0cc2 2e3d 8b2f c03d
000002e0: abc4 8e3d 0290 91bc 060b 45bd 47bf f43d
000002f0: eba3 ffbb 081a 8abc ec6a 523c e8d9 0e3d
00000300: fb7c 4b3d 0129 e43d 3bfc 2f3d 9620 94bc
00000310: b1eb 5fbd e983 693d 6c25 c93d 712a 3abc
00000320: 1494 363d bb06 d63d fc92 8c3c 4978 b33b
00000330: 5cb1 363c 61b1 153d 4454 b33c ed2c 20bd
00000340: 3dbc 0bbb 4433 31ba 35c5 a1bc 6817 e939
00000350: f629 dd3c aa01 4d3d fc0a e13b 2167 cc3d
00000360: 60aa 07bd a9e5 10bd 924d 913d 39eb 0d3d
00000370: 420c dc3b 8b84 813d 8f86 d23c 1fb8 2bbc
00000380: aeae edbd 6255 6fbd 3d5e 01be 82d6 4ebd
00000390: 3951 d2bd c8f0 86bd cead c8bd a3fa 1d3b
000003a0: 189a 88bd e479 ebbd d34b 9a3d 3e7f 7fbb
000003b0: d3a0 e5bb e51c d0bd 6833 53bc 5e11 bfbd
000003c0: eb09 3e3d 1cf6 cf3b 09ea 003e 466b 01bd
000003d0: 086b 44bd b85a 59bd f3cc efbd 6495 84bc
000003e0: 65f2 76bd b933 7abc c078 8b3d 7c21 83bc
000003f0: 56ff 9dbd ea22 d93c 309c 92bd 1857 a4bc
0.17416334 0.07265297 0.09648788 0.16201581 -0.06296854 -0.054712303 0.11023165 0.048235405
-0.22020932 -0.060009282 0.0938241 0.07945007 0.14221768 0.31476778 0.13622826 0.23710172
0.13619679 -0.06101644 -0.009717385 -0.15991722 0.1211412 -0.034678277 -0.16709512 -0.15244451
-0.117863365 -0.39677528 -0.16184628 0.14087819 0.13199414 -0.16676578 0.09590143 0.2094143
0.08647659 -0.16970904 0.033896275 0.101928055 0.13303399 0.2279137 0.12065505 0.099011324
0.05556579 0.15776333 0.10724285 0.22086893 0.18904468 -0.13052125 -0.2610398 -0.17373534
-0.4238779 -0.50864214 -0.21046066 -0.013809943 -0.23101495 -0.25212443 -0.5974557 -0.5810573
-0.054725375 -0.7812376 -0.9110167 -0.2803076 -0.4348296 -0.56911784 -0.33158225 0.055358984
0.13008517 0.05596678 0.021366695 0.12972546 0.066968314 0.042016458 0.17871167 0.25047222
-0.1091358 -0.33607274 -0.33031467 -0.23910202 -0.68585426 -0.47253743 -0.4073284 -0.6276366
-0.18292326 0.33258757 0.5719423 0.35063997 0.68991065 0.78648704 0.71964455 0.19180013
0.6178565 0.24024293 -0.027887214 0.24218243 0.025035514 0.1288723 0.10645279 0.14335643
0.045464642 0.0029393292 0.062108126 0.056999985 0.20562004 0.12373775 0.10459815 0.02511867
0.08999177 0.095596254 0.022981586 -0.03951888 0.031590875 0.11482607 -0.116476275 -0.04760613
-0.33083844 -0.13295792 -0.05449028 -0.20443775 0.11416826 0.22579093 -0.12873414 -0.014989127
-0.029922934 -0.33558774 -0.27983588 -0.03741903 -0.27473703 -0.09283187 -0.112264484 -0.073709935
-0.008208067 -0.18768927 -0.027688138 -0.0559442 -0.09303791 -0.017564738 -0.21101722 -0.06462307
0.31493503 0.18427601 0.07340409 0.22551605 0.0631603 0.1552633 0.102100216 0.15776221
0.03487484 -0.07069366 0.04734081 -0.111274995 -0.041075148 0.08416047 0.03962679 -0.03895224
-0.0038427887 -0.045280803 -0.011164112 -0.031891663 -0.10646443 -0.13749924 -0.024000144 -0.09025194
-0.08228266 -0.012638349 0.03973218 -0.031061217 -0.03069378 0.1069729 0.052892063 0.021198364
0.030670563 -0.057165787 -0.11117989 -0.031225044 0.098866574 0.11541985 -0.0004073548 -0.002519927
-0.03886114 0.1296179 0.032378457 0.051277354 0.038675677 0.09821764 0.042665526 0.09384068
0.06971105 -0.017768864 -0.048106216 0.11950546 -0.007801523 -0.016858116 0.012842875 0.03487578
0.049679738 0.111406334 0.042965155 -0.018081944 -0.054668132 0.057010565 0.09821591 -0.011362658
0.044574812 0.104505025 0.017159931 0.0054769856 0.011150684 0.036546115 0.021890767 -0.039105345
-0.0021321916 -0.00067596533 -0.019747356 0.00044458662 0.026997548 0.050050415 0.0068677645 0.09980608
-0.033121467 -0.03537527 0.070948735 0.034648154 0.0067153284 0.06324109 0.025698928 -0.01048091
-0.11605583 -0.058431037 -0.12633605 -0.05049754 -0.10269398 -0.06588894 -0.097987756 0.002410569
-0.06670016 -0.11497858 0.075339936 -0.0038985754 -0.007007697 -0.10161761 -0.012890674 -0.093294844
0.046396177 0.006346477 0.12589277 -0.031596445 -0.047953635 -0.05306503 -0.11709013 -0.016184516
-0.06028976 -0.015271121 0.068101406 -0.016007178 -0.07714717 0.026505906 -0.07158697 -0.02006106

up2.bias f4 [16]
00000000: da30 0c3d f64d cb3d 5f39 bab9 2ae0 bc3c
00000010: 233f 183c ba4c c8bc faca 47bd 9aab febb
00000020: 5714 a3bc adba b7bb 2c03 4bbd 78c5 babc
00000030: da47 8d3c 6235 60bd 4918 c73c d855 f43d
0.034226276 0.09926979 -0.0003551943 0.023056109 0.009292397 -0.024450649 -0.048777558 -0.0077719213
-0.01990716 -0.0056069703 -0.04956357 -0.022799239 0.017246176 -0.05473841 0.024303572 0.11930436

conv5.weight f4 [16, 32, 3, 3]
00000000: fd69 e73c 2ee1 a1bd 06b3 acbd 846f fe3c
00000010: 86fd 513d 88c4 213d ca34 b0bc ad4a 9c3d
00000020: 64e5 e13d 6933 973e 4d34 843e 9774 e03d
00000030: 1adc 963d c2af 573e f9e0 773e df59 b43e
00000040: 56c8 823e 9a3f dc3e 630f 7ebd 4786 1d3d
00000050: 70ff 013e 786b 93bd 1c85 0e3c edc6 283e
00000060: c113 d3bb c42a fa3c 0803 5dbd 8441 5cbd
00000070: e803 0dbc 6718 75bc 0099 253b 36f0 0b3d
00000080: 1935 a5bd dc12 f73d e6c2 7a3d 1155 243d
00000090: 008e f03c 9834 eb3c 267d 4b3e dd32 0b3d
000000a0: b7ce 233e ae5d 533e 8f35 cf3d 27ca db3d
000000b0: 460f 6b3e b787 5d3e 8a83 1dbd 8d96 a33d
000000c0: 0472 863e 312a 263e 720e 803e 2413 863e
000000d0: 512f 693e 8d33 0d3e a328 5c3e 0d64 113e
000000e0: f4b9 e6bd c171 ad3e 84f7 9f3e 550a e43d
000000f0: daec 123e 47d0 013e 9d2e 203e 5120 a6bb
00000100: 8314 6fbd 9b60 e3bd 1f23 1bbe 1c02 25be
00000110: 0a4d 873d d65b 59bd c09e 9fbc 50d0 293d
00000120: cfc5 173e 3f28 003e 88ea 4f3c bc91 853d
00000130: f789 483d e263 2f3d 9d8a 66bc 0c93 683d
00000140: b880 67bd f4cf bf3e fd49 973e b46c b53e
00000150: 6d09 413e ee83 f33e d4d9 123f eb03 083f
00000160: 40e1 393f f8bb d23e d1c8 85bd a2f7 84bd
00000170: 42c3 15be 3a0f e6bd 6743 c2bd 20c8 88bd
00000180: 4ea7 6abc e26f 0fbd 9d8f 0ebe acaa 583d
00000190: b01d 8c3d 0caf 833d b12e 85bc 9232 003d
000001a0: ed86 9f3d 9c39 1a3d ff86 703d f139 883d
000001b0: 9773 c33d 336b 233e addc 17bc 9795 e23d
000001c0: 6065 b73d 8a72 143c 7967 4cbd cbda 743d
000001d0: 6bed 64bc 5a0d 7d3e 143f de3d 8e25 b23d
000001e0: 0f75 593e 9665 263e 16b2 6f3d daf9 593d
000001f0: 08f6 a6bd 3c3c 65be d823 26be 73c2 2dbd
00000200: f78d e0bd 24c7 5cbd ee8f e73d 4234 2d3d
00000210: f38f 39be 75e4 603b 0d1b a7bd fecd 143e
00000220: 402d 853e fca1 bb3e 22f7 093f 6431 f83e
00000230: 3718 bb3e ef9d c83e 160b a53e 3c8a be3e
00000240: 8a9a bd3d 0c4e b73d 4377 fb3b 793b d13c
00000250: 2373 043d 5993 bf3d 2cd3 983c dc64 073e
00000260: c9fd bc3d 7e0e 233e f0f2 063e ded7 873d
00000270: b315 533e ba0f a13d 0f7b a43d 53a6 413e
00000280: f54f 393e d7cf 213e e264 2c3d 8236 723d
00000290: 87a1 223e af70 a63d 0195 f33c 3d45 933d
000002a0: 00f2 113e 3335 593d 6363 803d 71a8 17bc
000002b0: 608a 09bc 19b8 cfbc 3602 693d 7c3e 503c
000002c0: 59aa b03d 5483 3fbd 9f39 9d3c 4757 9dbc
000002d0: 65ba 723e 33a2 533e 3afd 5b3e 00be 8e3e
000002e0: 61d7 9c3e bb61 9e3e 1eb1 073e 37fb 803e
000002f0: 2c89 973e b30c 113e 4bb5 bc3d 1cc3 1f3e
00000300: 0516 2d3d 54b0 053d 6aa8 983d fd3a db3d
00000310: f158 d23d 1bbf 493e 410e 943d 200b da3d
00000320: 493d 9e3d b3c3 82bd 8a29 a1bd ed0e c73a
00000330: 3048 fd3b b206 093e 0864 a73d 22ae 373e
00000340: 5c41 4c3e bcc2 423e 711b e23d dffa 113e
00000350: caeb 2d3e b84f 0b3e 94da 543e cac4 463e
00000360: 5908 24be 81e9 22be 3819 05bd bd66 3cbe
00000370: 19f2 1abe cc33 91bd a1f0 1dbe 06c6 b9bd
00000380: 64b8 e6bd d327 b1bd 10d6 30be 6260 bdbd
00000390: 0b3d d7bc 7df5 b23d b159 953d 6e8a 1bbe
000003a0: 79fc 1fbe afbc 983a f05f 943a ca7d 44bd
000003b0: 2474 50bd a72d 653c 56c3 b1bc eb44 febd
000003c0: 5280 273d 1f9d 7e3d 0a1c f1bc 2085 47be
000003d0: 4d69 33be 4d1b febd 3a3b f1bd d771 f5bd
000003e0: 13bc fbbd abb6 13be e70d 58be f323 b8bd
000003f0: 3829 c6bc 2cc1 863a d8d4 39bd bcef 7f3c
0.028248781 -0.07904278 -0.084325835 0.031059034 0.05126717 0.039494067 -0.021509547 0.07631431
0.11030081 0.2953141 0.25821152 0.10959738 0.073662 0.2106314 0.24206914 0.35224816
0.2554347 0.43017274 -0.062026393 0.038458135 0.12695098 -0.071982324 0.008698728 0.16482134
-0.006441564 0.03053797 -0.05395797 -0.053773418 -0.008606888 -0.014959431 0.0025268197 0.03416463
-0.08066768 0.12064144 0.061221026 0.04012019 0.029364586 0.028711602 0.19871959 0.033984054
0.15996824 0.20641205 0.10117637 0.10731917 0.22955045 0.21633802 -0.038455524 0.079877
0.26258862 0.16227032 0.2501102 0.26186478 0.22771956 0.13789196 0.21499877 0.14198323
-0.112659365 0.3387585 0.31243527 0.11134783 0.14348164 0.12677108 0.15642782 -0.0050697704
-0.05836917 -0.111024104 -0.15150116 -0.16114086 0.06606491 -0.053066097 -0.019484878 0.041458428
0.14821552 0.12515353 0.012690194 0.06521937 0.0489597 0.042819865 -0.014071134 0.05678086
-0.05651924 0.37463343 0.29548636 0.35434496 0.18851252 0.47561592 0.5736363 0.5313098
0.7260933 0.41159034 -0.06532443 -0.06492545 -0.14625266 -0.11233373 -0.09485512 -0.06678796
-0.014322115 -0.03501881 -0.13921972 0.05289714 0.068416 0.06429872 -0.016257616 0.031298228
0.07789407 0.037652597 0.058722492 0.066516764 0.095435314 0.15958862 -0.009268922 0.11063688
0.089548826 0.009060511 -0.049903367 0.05977897 -0.0139726205 0.24712124 0.10851875 0.08698569
0.2123606 0.1624969 0.058519445 0.053216793 -0.081523955 -0.22386259 -0.16224611 -0.04242177
-0.10964578 -0.053900853 0.11306749 0.042286165 -0.18121319 0.0034315859 -0.081594564 0.14531705
0.26011086 0.36647022 0.5389272 0.48475182 0.36541912 0.39182994 0.3223502 0.3721484
0.092579916 0.08950433 0.007674129 0.025541054 0.032336365 0.09354276 0.018655382 0.13222069
0.09228093 0.15923497 0.13178611 0.0663297 0.20613746 0.07864328 0.08031284 0.18911104
0.18096907 0.15801941 0.042088397 0.059134014 0.1588193 0.081269614 0.029734137 0.071909405
0.14252472 0.05302925 0.062689565 -0.009256468 -0.008394808 -0.02535634 0.056886874 0.01271021
0.08626241 -0.046756104 0.019192515 -0.019206656 0.23703916 0.20667343 0.21483317 0.27879333
0.3063307 0.30933937 0.13251159 0.25191662 0.2959684 0.14165 0.092142664 0.15601772
0.042257328 0.032638863 0.074539974 0.107046105 0.102708705 0.19701807 0.07229281 0.10646653
0.07726533 -0.06384983 -0.07869251 0.0015186943 0.0077295527 0.1338146 0.08173376 0.1793752
0.19946808 0.19019598 0.1104039 0.14255856 0.16984478 0.13604629 0.20786506 0.19411007
-0.1601881 -0.15909387 -0.032494754 -0.18398567 -0.15131415 -0.070899576 -0.15423824 -0.09070973
-0.112656385 -0.08650174 -0.17269158 -0.09246899 -0.026274225 0.087382294 0.07292498 -0.15189525
-0.15623654 0.0011652912 0.0011320096 -0.047971524 -0.05089201 0.013987935 -0.021699589 -0.12415489
0.04089386 0.06216156 -0.029432315 -0.19484377 -0.17520638 -0.12407551 -0.11778875 -0.11984604
-0.12291732 -0.14425151 -0.21099053 -0.08991232 -0.024189577 0.0010280958 -0.045369 0.015621122

conv5.bias f4 [16]
00000000: c32a 813e 806b 8cbd a703 4dbd df37 69be
00000010: c27b 4fbd 53a5 cc3d b430 edbd d4d0 93bd
00000020: 8be6 09bd 9c67 37be e640 96be a4d5 b6be
00000030: 6e7b 8fbc 7567 7fbd def9 6f3d dc06 203e
0.25227937 -0.068564415 -0.05005231 -0.2277522 -0.050655134 0.099924706 -0.11581555 -0.07217565
-0.03366713 -0.17910618 -0.2934639 -0.3570987 -0.01751491 -0.062354524 0.0585879 0.15627617

conv6.weight f4 [3, 16, 1, 1]
00000000: a42d 173d 116a a0bd 5a8d 823e f5e5 003e
00000010: 7007 893d 667a 39be 9472 5ebe b11d 8a3c
00000020: c2cd b23d 5301 9ebd caa0 2bbf 232d 823e
00000030: 1368 9d3e 3bac fd3d 8de9 1dbe ee22 fbbe
00000040: e0e2 9bbe e0c2 3dbb dd4b 1bbe ae7c 69be
00000050: 4326 17bd 8709 5bbe b0fe 13bd b820 6b3e
00000060: 0ef3 503e e22a 7fbd 7b36 7ebf d9f0 113f
00000070: 4af2 fd3d ccff 7f3e 2d0a 4d3e f0cb 8ebe
00000080: 6a29 3abe 6f23 d73d 176a 1cbe 693f 92be
00000090: 72ab 023e 5401 003a 635b 973d 60f5 963e
000000a0: fd07 35be c227 543e 281d d43d 843b 0b3f
000000b0: a4b4 ff3d da36 903e d174 b1be 3379 963b
0.03690876 -0.078327306 0.25498468 0.12587722 0.06690872 -0.18113098 -0.21723396 0.016859861
0.087306514 -0.07715096 -0.6704222 0.25425062 0.30743465 0.12386366 -0.15421124 -0.49050087
-0.3044653 -0.0028955266 -0.15165658 -0.22801468 -0.036901724 -0.21390353 -0.03613156 0.229617
0.20405218 -0.062296756 -0.9930188 0.5700813 0.123997286 0.24999923 0.20023413 -0.27889967
-0.1817986 0.10504805 -0.15274845 -0.28564003 0.12760714 0.00048830104 0.073904775 0.2948408
-0.17678829 0.20718291 0.103571236 0.5438769 0.12485626 0.28166848 -0.34659436 0.004592085

conv6.bias f4 [3]
00000000: 405d 8abe 1e7e c8bd 5e40 7dbd
-0.2702427 -0.0978968 -0.061828963
