save/100_SCI_model_EX.pth (torch, 13263 bytes, 7 tensors)

conv_L.0.weight f4 [8, 1, 3, 3]
-0.10922382 -0.10283156 0.15105322 -0.253328 -0.091064714 -0.045024242 0.31478578 0.16067801
0.24408537 -0.039823085 0.19309966 -0.3183664 -0.14524408 -0.20386747 -0.3402514 -0.20682798
0.20029247 -0.12665913 0.19009766 -0.008876308 0.13240199 0.025929967 -0.35554054 0.14750199
-0.15710554 0.21625532 -0.19595836 0.053104587 -0.33809367 0.20428745 -0.06569534 -0.043829318
0.3313064 0.10397486 -0.008706621 -0.27692077 -0.2739084 0.07412023 0.19143552 -0.18883625
-0.25325346 0.07032701 -0.23941942 -0.31085575 -0.2586488 -0.36006698 -0.09750946 0.103527054
-0.23705588 -0.20552519 -0.059338965 -0.32302907 0.11785585 0.20366652 0.31851554 0.21978432
0.22069083 0.023478625 0.020275947 0.09213171 0.104593515 -0.18696804 0.19783366 -0.06616028
-0.3345511 -0.2511829 -0.17226906 0.04964509 -0.10332651 0.28446057 0.04157759 -0.21141763
00000000: bdb0 dfbd 5a99 d2bd b2ad 1a3e 35b4 81be
00000010: 2380 babd 576b 38bd 9a2b a13e c788 243e
00000020: 84f1 793e 881d 23bd ebbb 453e ec00 a3be
00000030: ddba 14be a2c2 50be 6e35 aebe b7ca 53be
00000040: 7819 4d3e eeb2 01be f6a8 423e ef6d 11bc
00000050: 6394 073e 156b d43c 6909 b6be c30a 173e
00000060: 46e0 20be 0972 5d3e 4fa9 48be 3284 593d
00000070: 9d1a adbe bb30 513e 478b 86bd 5f86 33bd
00000080: fea0 a93e c5f0 d43d 37a6 0ebc 8fc8 8dbe
00000090: b93d 8cbe 59cc 973d ac07 443e 4a5e 41be
000000a0: 70aa 81be 9b07 903d 5d2a 75be 7c28 9fbe
000000b0: 9e6d 84be b35a b8be 0ab3 c7bd fe05 d43d
000000c0: c7be 72be 3275 52be 6a0d 73bd 1164 a5be
000000d0: 685e f13d f58d 503e 7814 a33e 240f 613e
000000e0: c7fc 613e 3f56 c03c be19 a63c 8daf bc3d
000000f0: 2035 d63d 8d74 3fbe e894 4a3e 0a7f 87bd
00000100: 484a abbe 0c9b 80be 4d67 30be a658 4b3d
00000110: d99c d3bd d1a4 913e 434d 2a3d dd7d 58be

conv_L.0.bias f4 [8]
0.1505394 -0.055563655 0.3170874 0.23283303 -0.32670882 0.24075131 -0.35316366 -0.16240717
00000000: 0027 1a3e b796 63bd 4859 a23e c86b 6e3e
00000010: 6146 a7be 8387 763e ded1 b4be 114e 26be

conv_R.0.weight f4 [8, 3, 3, 3]
-0.05220982 0.19169131 0.20323078 -0.14784512 -0.23932932 0.1029942 0.062363338 0.115511954
-0.095233515 0.25691047 -0.1015005 0.20901725 -0.01223773 -0.06422819 0.12236777 -0.10020487
0.119054854 -0.08182599 -0.12684904 -0.015957085 -0.17379609 -0.016137693 0.006233827 -0.024838213
-0.09209618 -0.15461797 -0.034295578 -0.12624857 -0.20744844 0.18305744 -0.0810136 0.11850662
-0.12228828 0.010857314 0.01267019 0.09391343 -0.10830076 -0.03840447 0.013443562 0.16174231
0.09557456 0.19281465 0.12226124 -0.0955723 0.116493255 -0.24012618 -0.19438039 0.01050031
0.028527183 -0.21430966 0.058437306 -0.11280772 0.0718258 -0.11188226 0.08582521 0.11161152
0.423675 -0.1948473 -0.18762401 -0.47190067 0.29952583 0.37056482 0.16110758 -0.024003413
-0.03724697 0.27070203 -0.037569586 -0.23254414 -0.2116303 0.099793434 0.04675869 0.088225186
-0.1805513 0.015431779 -0.19857587 0.2387871 -0.16119424 0.11137742 0.087160885 -0.022374112
-0.14724143 -0.20913829 0.043387953 0.004856035 0.22576599 0.11708664 0.25439772 -0.06868333
-0.09744879 0.101157986 0.078703605 -0.06782134 -0.20557675 -0.16324092 -0.21470357 -0.15733701
-0.08067118 -0.12563603 -0.11342258 -0.04354299 0.15839522 0.04780842 0.09855717 -0.00042492006
0.014898305 0.17432536 -0.0014841263 0.12524638 -0.047613923 -0.06482993 0.003342547 -0.08795039
0.08571495 -0.21082622 0.07086241 0.0697591 -0.0024828808 0.32176343 0.21226014 0.18186806
-0.107924104 0.14399852 -0.103384234 0.19360858 0.07865388 -0.07897634 -0.16105682 -0.1946994
0.047044218 -0.08749255 0.010426042 -0.023341786 -0.18520258 -0.060126156 -0.19543807 -0.19219157
-0.08130887 -0.0082127685 -0.03185499 0.071764484 -0.11582394 -0.18098815 -0.18227828 0.15371309
-0.039308134 0.06411083 0.25657842 0.02257944 -0.13964099 -0.12401645 0.09389758 -0.056498297
0.15840174 -0.033845425 0.07430866 0.006325358 -0.12270349 -0.24316007 0.14208686 -0.19748147
-0.10942892 -0.20010781 -0.10040055 0.06346526 0.10254149 -0.13239415 -0.12376774 -0.27441645
0.1139867 -0.19168141 0.060787562 -0.10639073 0.19877934 -0.057491954 0.24409871 0.00067618396
0.12369436 0.13505945 -0.0026802593 -0.13344274 0.01807233 0.029400144 -0.20682679 -0.120801434
0.08512607 -0.20315476 0.07903539 -0.08004525 0.05847218 0.12608238 -0.08036656 0.20931555
-0.09770254 0.16249728 0.12189853 0.09207743 0.20999755 -0.1777334 0.03386536 -0.075549714
-0.17483462 -0.019761132 -0.06463887 -0.18325588 -0.052677754 -0.2572752 -0.21229008 0.0376683
0.1539332 0.24359635 0.005071064 0.20935345 0.20340656 -0.09147608 0.19035414 0.112463
00000000: f7d9 55bd ba4a 443e bb1b 503e b664 17be
00000010: bf12 75be a0ee d23d b370 7f3d 8891 ec3d
00000020: ca09 c3bd c589 833e 7fdf cfbd 9e08 563e
00000030: c380 48bc 128a 83bd f49b fa3d 3638 cdbd
00000040: 08d3 f33d 6294 a7bd b7e4 01be 6fb8 82bc
00000050: 9af7 31be 3233 84bc 2245 cc3b 8279 cbbc
00000060: ec9c bcbd 2c54 1ebe 8579 0cbd 4e47 01be
00000070: 5d6d 54be 6973 3b3e 75ea a5bd 99b3 f23d
00000080: 4772 fabd e0e2 313c a196 4f3c af55 c03d
00000090: cacc ddbd 014e 1dbd 6342 5c3c c79f 253e
000000a0: 98bc c33d 3471 453e 1a64 fa3d 69bb c3bd
000000b0: 0494 ee3d a3e3 75be a70b 47be 7e09 2c3c
000000c0: d7b1 e93c fe73 5bbe f55b 6f3d bc07 e7bd
000000d0: 6819 933d 8722 e5bd 21c5 af3d 9594 e43d
000000e0: eeeb d83e 0d86 47be 8220 40be f79c f1be
000000f0: 735b 993e acba bd3e 63f9 243e cea2 c4bc
00000100: 4790 18bd 7599 8a3e 91e2 19bd 0d20 6ebe
00000110: 9db5 58be 8060 cc3d 0a86 3f3d 68af b43d
00000120: 71e2 38be 93d5 7c3c 7957 4bbe 9b84 743e
00000130: 1a10 25be d819 e43d 6881 b23d ea49 b7bc
00000140: 75c6 16be 5928 56be 91b7 313d 601f 9f3b
00000150: 332f 673e 1fcb ef3d 6b40 823e d9a9 8cbd
00000160: 3b93 c7bd eb2b cf3d 5b2f a13d eae5 8abd
00000170: b682 52be a128 27be 41db 5bbe f41c 21be
00000180: ee36 a5bd bba6 00be 194a e8bd 225a 32bd
00000190: 5b32 223e c3d2 433d 57d8 c93d cec7 deb9
000001a0: 0518 743c 5982 323e 0487 c2ba 9640 003e
000001b0: d106 43bd 8ec5 84bd a20e 5b3b 561f b4bd
000001c0: 528b af3d d4e2 57be 5020 913d dcdd 8e3d
000001d0: d4b7 22bb 2dbe a43e b95a 593e 9f3b 3a3e
000001e0: 5007 ddbd 5974 133e 1dbb d3bd 5441 463e
000001f0: 4915 a13d 59be a1bd 14ec 24be 485f 47be
00000200: 70b1 403d 4b2f b3bd fdd1 2a3c 4637 bfbc
00000210: bfa5 3dbe d846 76bd eb20 48be decd 44be
00000220: 4485 a6bd d98e 06bc 617a 02bd 42f9 923d
00000230: 1a35 edbd f554 39be 28a7 3abe f766 1d3e
00000240: 9101 21bd 8a4c 833d 3f5e 833e 85f8 b83c
00000250: 0cfe 0ebe 56fc fdbd 604d c03d c26a 67bd
00000260: 1134 223e 80a1 0abd 242f 983d f344 cf3b
00000270: f84b fbbd f4fe 78be 387f 113e 9538 4abe
00000280: 451c e0bd 10e9 4cbe ce9e cdbd 13fa 813d
00000290: 4601 d23d 5592 07be f179 fdbd 5080 8cbe
000002a0: dc71 e93d 2248 44be 61fc 783d 62e3 d9bd
000002b0: d08c 4b3e af7c 6bbd 03f5 793e f041 313a
000002c0: 7853 fd3d 064d 0a3e 4aa7 2fbb 37a5 08be
000002d0: 6c0c 943c 92d8 f03c 67ca 53be be66 f7bd
000002e0: 9456 ae3d cd07 50be 4edd a13d c4ee a3bd
000002f0: 8680 6f3d bd1b 013e 3997 a4bd d156 563e
00000300: 4518 c8bd b065 263e f0a5 f93d 1793 bc3d
00000310: 9909 573e bfff 35be 67b6 0a3d cfb9 9abd
00000320: d907 33be 19e2 a1bc 6261 84bd 6ea7 3bbe
00000330: a1c4 57bd 93b9 83be 9262 59be 134a 1a3d
00000340: aaa0 1d3e 5271 793e 2b2b a63b c060 563e
00000350: cf49 503e d057 bbbd 32ec 423e 0053 e63d

conv_R.0.bias f4 [8]
0.12535478 0.13638328 -0.1596247 -0.1827527 0.07521109 0.12725161 0.21178138 0.040988218
00000000: 015d 003e 0fa8 0b3e a874 23be 8623 3bbe
00000010: 4608 9a3d 3f4e 023e 38dd 583e 43e3 273d

out_convs.0.weight f4 [16, 16, 3, 3]
0.0037282165 0.06693112 0.016091747 -0.0298775 -0.036424905 -0.07353588 -0.030932596 0.035530355
0.05717382 0.03674311 0.034626532 0.004614804 0.0777717 -0.06848708 -0.04734746 0.08323772
-0.075727664 0.082020625 -0.033600066 0.055917375 -0.033826593 0.078415416 0.06578938 0.02634747
-0.035138696 0.051462043 0.032505643 0.052654993 0.054974254 -0.07016555 -0.055788837 -0.07284399
0.07244586 -0.016831992 0.07495561 0.0070348284 0.0005284074 0.05613655 0.010698535 0.019320816
0.032361493 0.03453481 0.018109076 0.069611095 0.05532595 -0.032670207 0.07107358 0.009779038
-0.037826434 0.046510007 0.04705682 0.029060788 0.006384899 -0.0665343 0.0018812014 -0.039502006
-0.06309159 0.03667639 -0.05156931 0.020107623 0.012575888 0.0571293 0.05570351 -0.012033816
-0.060895465 -0.059861533 0.018472703 0.030821385 0.040875845 0.07256759 -0.030851489 0.0007145038
0.038453694 0.005875458 0.008097767 0.0737468 0.0478474 0.025054382 0.04722507 0.040236697
-0.05662535 -0.001657634 0.05237973 -0.041045167 -0.052110698 -0.023475502 0.029961888 0.006155025
-0.074375115 -0.028668474 -0.069417864 0.043682538 0.06177135 0.048524406 -0.021634603 0.055780765
-0.07794093 -0.027547456 -0.069364354 0.06617065 0.030161815 -0.072974704 0.007700373 0.055318218
0.07582132 -0.06973926 0.03847857 -0.026148744 -0.02281209 0.030926913 0.02505645 0.028516255
0.04197491 0.062623456 -0.0577996 -0.07212916 0.06350476 -0.016951997 0.057401314 0.06998086
-0.03142402 0.07604111 0.029486207 -0.03872987 0.056254655 0.036855124 0.06944403 0.077484444
-0.04987662 -0.0025388857 0.004002044 0.03159275 -0.077143796 0.07297013 -0.039855823 -0.08618496
0.055577166 -0.0068259644 0.023194503 0.04563735 -0.024693895 -0.0598534 -0.081159875 -0.0023081678
-0.009544863 0.08907827 -0.009666504 0.09225673 0.13376552 0.042990733 -0.053428262 0.031487856
0.06035244 0.008024785 -0.09071409 0.017068094 0.013587982 -0.07734958 0.03749164 -0.039245326
-0.04104369 -0.1226513 0.11777096 0.12736413 0.06619447 0.111141935 0.07704264 0.04050995
0.109549254 0.12530674 0.032803945 0.092926815 0.16669725 0.012529544 0.07576281 -0.014998364
-0.022307407 -0.019466013 0.15578835 0.107889205 -0.0051656687 0.04213852 0.021014014 -0.12033056
-0.11653028 0.018274019 0.014636212 -0.114865646 -0.07787376 -0.10476112 -0.018155547 0.22388251
0.10943775 0.15920733 0.35911277 -0.051413707 0.1854257 0.43004027 -0.2400148 -0.15631086
-0.32195172 -0.14233728 -0.022907926 -0.076880105 -0.5080558 -0.5461037 -0.5300215 -0.04391867
-0.13309762 -0.13889717 -0.054088697 -0.11276904 -0.011581174 0.04989014 -0.0068577006 0.051861033
0.097945616 0.09268826 0.2511269 -0.252625 -0.024553448 -0.104531914 -0.015056718 0.077310115
0.1942373 -0.08230151 0.002240176 -0.09202425 0.02277784 0.026836427 0.10353928 0.00038452164
0.05794153 0.08636396 0.022813005 0.066355705 0.030207142 -0.15059346 -0.15176475 -0.18555494
-0.030894844 0.11702403 0.000939229 -0.3685711 -0.37792423 -0.322608 -0.09519149 -0.05025186
-0.014299208 -0.34861982 -0.46772057 -0.3189503 0.09146959 -0.019222898 0.014345788 0.053957913
00000000: 1855 743b 2f13 893d d7d2 833c a9c1 f4bc
00000010: 4832 15bd fb99 96bd 5b66 fdbc 4788 113d
00000020: 182f 6a3d f17f 163d 8dd4 0d3d c837 973b
00000030: c546 9f3d f442 8cbd 69ef 41bd 8a78 aa3d
00000040: 1b17 9bbd 6efa a73d 39a0 09bd 9e09 653d
00000050: c18d 0abd 4398 a03d 95bc 863d a6d6 d73c
00000060: 98ed 0fbd ddc9 523d a324 053d c3ac 573d
00000070: af2c 613d f5b2 8fbd d682 64bd 3b2f 95bd
00000080: 7f5e 943d 3fe3 89bc 5482 993d 6b84 e63b
00000090: d284 0a3a 70ef 653d e848 2f3c b046 9e3c
000000a0: 7c8d 043d 5f74 0d3d 7c59 943c 4390 8e3d
000000b0: 779d 623d 32d1 05bd 068f 913d 4238 203c
000000c0: e4ef 1abd 4781 3e3d a7be 403d e410 ee3c
000000d0: 6a38 d13b 2343 88bd a592 f63a dbcc 21bd
000000e0: 2a36 81bd fb39 163d 573a 53bd beb8 a43c
000000f0: 190b 4e3c 6a00 6a3d 5d29 643d 7c29 45bc
00000100: 866d 79bd 5e31 75bd 1154 973c 217d fc3c
00000110: 6e6d 273d 519e 943d 43bc fcbc 8a4d 3b3a
00000120: 9f81 1d3d ea86 c03b 7fac 043c 9008 973d
00000130: a3fb 433d d93e cd3c 136f 413d 3ccf 243d
00000140: fcef 67bd f844 d9ba 218c 563d fa1e 28bd
00000150: 0772 55bd b24f c0bc a272 f53c 18b0 c93b
00000160: fb51 98bd 26da eabc f42a 8ebd 76ec 323d
00000170: f503 7d3d 87c1 463d 0d3b b1bc 5f7a 643d
00000180: 7f9f 9fbd 34ab e1bc e60e 8ebd 7a84 873d
00000190: e915 f73c c373 95bd 6953 fc3b 5b95 623d
000001a0: 3548 9b3d 75d3 8ebd b49b 1d3d e435 d6bc
000001b0: 6ce0 babc 705a fd3c 2f43 cd3c ec9a e93c
000001c0: e2ed 2b3d ba40 803d 46bf 6cbd 74b8 93bd
000001d0: c90e 823d eade 8abc a41d 6b3d 2052 8f3d
000001e0: 79b6 00bd 71bb 9b3d 0f8d f13c 36a3 1ebd
000001f0: 486b 663d 66f5 163d ac38 8e3d 2ab0 9e3d
00000200: 6d4b 4cbd 6f63 26bb 9423 833b 6667 013d
00000210: 91fd 9dbd 5d71 953d dc3f 23bd be81 b0bd
00000220: e2a4 633d 57ac dfbb 6602 be3c 3bee 3a3d
00000230: da4a cabc d728 75bd 2637 a6bd a144 17bb
00000240: 0f62 1cbc ab6e b63d 4260 1ebc 19f1 bc3d
00000250: d4f9 083e 0d17 303d 98d7 5abd 69f9 003d
00000260: 1f34 773d 637a 033c 4fc8 b9bd 63d2 8b3c
00000270: 21a0 5e3c 7569 9ebd d590 193d b5bf 20bd
00000280: 6e1d 28bd 9b30 fbbd e731 f13d be6b 023e
00000290: f790 873d 629e e33d 88c8 9d3d c3ed 253d
000002a0: 5c5b e03d 6950 003e 6e5d 063d 6a50 be3d
000002b0: afb2 2a3e b748 4d3c 8829 9b3d b3bb 75bc
000002c0: 06be b6bc 3077 9fbc fb86 1f3e 04f5 dc3d
000002d0: c544 a9bb 7199 2c3d 9525 ac3c de6f f6bd
000002e0: 6da7 eebd 65b3 953c b9cc 6f3c ae3e ebbd
000002f0: 477c 9fbd 008d d6bd f1ba 94bc 7541 653e
00000300: e620 e03d 3f07 233e a1dd b73e 2e97 52bd
00000310: 3ce0 3d3e 3d2e dc3e 71c6 75be f40f 20be
00000320: dbd6 a4be ddc0 11be 67a9 bbbc 5173 9dbd
00000330: f20f 02bf 74cd 0bbf 7daf 07bf 10e4 33bd
00000340: be4a 08be 0f3b 0ebe 1c8c 5dbd 74f3 e6bd
00000350: f7be 3dbc 9a59 4c3d 90b6 e0bb 3c6c 543d
00000360: b697 c83d 58d3 bd3d b493 803e 1058 81be
00000370: 5024 c9bc d414 d6bd 74b0 76bc c454 9e3d
00000380: 25e6 463e b28d a8bd ebcf 123b 3677 bcbd
00000390: 9898 ba3c 11d8 db3c 670c d43d 9f99 c939
000003a0: 1954 6d3d 96df b03d 57e2 ba3c 80e5 873d
000003b0: f874 f73c 2c35 1abe 3868 1bbe 1d02 3ebe
000003c0: 2f17 fdbc 4baa ef3d 9736 763a 5ab5 bcbe
000003d0: 497f c1be e02c a5be c2f3 c2bd e5d4 4dbd
000003e0: 3a47 6abc 4c7e b2be 1279 efbe 744d a3be
000003f0: 6954 bb3d 5779 9dbc 990a 6b3c f902 5d3d

out_convs.0.bias f4 [16]
-0.07475903 0.19250982 0.027498722 0.19601487 -0.07434299 0.080862395 -0.096490756 0.049423598
-0.003358327 -0.029157124 -0.049675703 -0.052861053 0.15405951 0.08849474 0.07170063 -0.011295726
00000000: 431b 99bd 4b21 453e 0045 e13c 1fb8 483e
00000010: 2341 98bd 2f9b a53d f29c c5bd 6670 4a3d
00000020: 6117 5cbb ecda eebc c078 4bbd d584 58bd
00000030: c7c1 1d3e bb3c b53d c8d7 923d b511 39bc

out_convs.2.weight f4 [1, 16, 1, 1]
0.07605222 -0.31435725 0.2045919 -0.2687807 -0.02344507 -0.72134745 0.14271839 -0.16314557
0.23088211 0.0060901493 -0.0043101385 0.27330586 -0.14740206 -0.185335 -0.24053961 -0.01107543
00000000: 44c1 9b3d 6ff3 a0be 8a80 513e a09d 89be
00000010: e00f c0bc 3aaa 38bf c524 123e a20f 27be
00000020: 5c6c 6c3e e08f c73b 103c 8dbb bfee 8b3e
00000030: 91f0 16be 75c8 3dbe 0450 76be b875 35bc
