save/100_LIME_decom.pth (torch, 118407 bytes, 10 tensors)

module.inconv.0.weight f4 [32, 3, 3, 3]
0.031255238 0.13450758 0.21764795 -0.09743649 0.14987202 -0.13720822 -0.12302625 -0.06545407
-0.15683329 0.10393031 0.13904633 0.153418 0.030809892 -0.13500126 0.07407659 -0.122874156
0.004971249 -0.21955252 0.17283574 -0.06831432 0.035170257 -0.059838675 0.089580104 0.07724418
-0.08115817 -0.11783485 -0.09607309 -0.2518605 0.105391346 0.03340459 -0.025113447 0.09550972
0.07276234 -0.082192495 -0.14265145 0.08204418 0.19443181 -0.044985585 -0.14799848 0.0055259313
0.0148945805 0.12643015 -0.16796474 0.076667495 0.15522437 0.23920505 -0.122419566 -0.22471863
0.026261695 0.1853906 0.0052832 -0.17696336 -0.25437802 -0.1868041 -0.023841139 -0.032883767
-0.036682755 -0.030882886 0.01462687 0.042053457 -0.051736 0.1886884 0.17913675 -0.096086904
0.17677605 -0.0073395604 -0.08900311 0.17659764 0.13637885 -0.045053255 -0.016984714 -0.012370641
0.06486134 0.18227729 -0.12601347 -0.083084896 -0.048656102 0.16133937 0.15310647 -0.12090614
0.11442306 -0.061665896 0.017468033 -0.046834197 -0.08955967 0.17358905 0.120978616 -0.09698335
-0.1014522 0.17353852 -0.24137035 -0.01420736 -0.07279286 -0.15394649 0.07372217 0.21250367
-0.1697355 0.19854552 0.022647822 -0.20558652 -0.20999548 0.040141907 0.09056162 0.1016979
0.13085382 -0.1865736 0.27448446 -0.026879612 -0.095281266 0.012858488 -0.1866296 -0.08396032
-0.014169453 -0.083144225 -0.049868237 0.036270544 0.1913247 0.088257164 -0.116063334 0.09896352
0.1545714 -0.044005267 -0.107571274 -0.04929203 -0.0030312592 -0.18699345 0.08580425 0.010551961
-0.085501276 0.045214463 0.12996979 -0.17716512 -0.10923596 -0.18463932 -0.13904737 0.011943341
-0.148877 -0.07452424 -0.18780558 -0.07224232 0.17428997 0.012611569 -0.09846198 -0.051722683
-0.07638616 0.1598814 0.14093588 0.13693371 -0.07471751 -0.18543111 -0.08660698 -0.14854574
-0.033362746 -0.052109003 -0.16427386 0.05857367 0.18942203 -0.16203246 -0.11593549 -0.113899216
-0.009335474 0.16186728 -0.08481992 0.09368224 -0.16406152 0.074700736 0.038152356 -0.13649781
0.09160831 -0.1579853 -0.05696487 0.050141335 -0.008726264 -0.14555922 0.036998652 0.14775585
0.061741106 0.00075882545 0.046894398 -0.006302909 0.035594955 -0.12122401 0.16236784 0.1005824
0.100225925 -0.17028458 -0.096771106 0.08598481 -0.18812425 -0.02970149 -0.08168429 -0.0064041703
0.030120721 0.010095396 -0.09086418 0.07510259 0.06954139 -0.010001274 -0.17819677 -0.09673609
-0.049298838 -0.22314003 -0.31216815 -0.22334205 -0.10863474 -0.31938636 -0.192242 0.0058071706
-0.033904325 0.21633634 0.011786776 -0.16804062 -0.0483564 0.015720692 -0.08480408 -0.051990025
-0.28371412 -0.052170537 0.11180496 0.03076071 -0.08568449 0.007576438 0.10067477 0.06727018
-0.01746233 -0.020611953 -0.09456319 -0.10614124 0.22763953 -0.11644908 -0.12561134 -0.019088898
0.21402323 0.17405757 -0.018303255 -0.20082124 -0.25426653 0.1752057 -0.02811997 0.09909856
0.25634384 -0.11874646 0.097990856 -0.03642743 0.14590997 -0.17471227 0.15230832 -0.04979638
0.21116608 -0.22001366 -0.06579785 -0.11063835 -0.06725317 0.050636247 -0.15467878 0.042727534
00000000: 7e05 003d 5bbc 093e 1bdf 5e3e c88c c7bd
00000010: 0d78 193e 5080 0cbe 30f5 fbbd c90c 86bd
00000020: e898 20be 6ad9 d43d 2962 0e3e 9c19 1d3e
00000030: 0765 fc3c c53d 0abe 78b5 973d 72a5 fbbd
00000040: dce5 a23b 60d2 60be dafb 303e 61e8 8bbd
00000050: b00e 103d 6619 75bd c675 b73d 3232 9e3d
00000060: 4136 a6bd 6653 f1bd f8c1 c4bd dcf3 80be
00000070: 6bd7 d73d 40d3 083d b7ba cdbc 9a9a c33d
00000080: 6c04 953d 8a54 a8bd 3913 12be c706 a83d
00000090: 2219 473e ce42 38bd ea8c 17be df12 b53b
000000a0: 6608 743c e876 013e f3fe 2bbe d903 9d3d
000000b0: 23f3 1e3e 2bf2 743e 1cb7 fabd a41c 66be
000000c0: c422 d73c 09d7 3d3e b21e ad3b e235 35be
000000d0: d63d 82be 9349 3fbe 7e4e c3bc 21b1 06bd
000000e0: a840 16bd 1bfe fcbc 8aa5 6f3c 3f40 2c3d
000000f0: 21e9 53bd 8837 413e a06f 373e 36c9 c4bd
00000100: c804 353e b280 f0bb 4347 b6bd 03d6 343e
00000110: e6a6 0b3e c389 38bd 8723 8bbc 3bae 4abc
00000120: 06d6 843d e6a6 3a3e ad09 01be 6a28 aabd
00000130: 9f4b 47bd 2636 253e f1c7 1c3e a39d f7bd
00000140: a356 ea3d 6195 7cbd 1f19 8f3c 37d5 3fbd
00000150: 0f6b b7bd 54c1 313e a3c3 f73d 359f c6bd
00000160: 2cc6 cfbd 15b4 313e ca29 77be fdc5 68bc
00000170: 6c14 95bd 26a4 1dbe a6fb 963d 909a 593e
00000180: 25cf 2dbe 844f 4b3e ed87 b93c 4685 52be
00000190: 0e09 57be d76b 243d 5f78 b93d fd46 d03d
000001a0: 8bfe 053e 260d 3fbe 3a89 8c3e a232 dcbc
000001b0: d322 c3bd 68ac 523c d41b 3fbe 63f3 abbd
000001c0: fe26 68bc 8547 aabd a342 4cbd 6c90 143d
000001d0: 9fea 433e 2cc0 b43d 9db2 edbd 63ad ca3d
000001e0: f747 1e3e de3e 34bd 544e dcbd 71e6 49bd
000001f0: 17a8 46bb 367b 3fbe 23ba af3d 22e2 2c3c
00000200: 4b1b afbd cd32 393d cd16 053e c66a 35be
00000210: 1ab7 dfbd 1712 3dbe 6f62 0ebe 01ae 433c
00000220: 3673 18be 2aa0 98bd 1b50 40be c8f3 93bd
00000230: 1279 323e c1a0 4e3c 6fa6 c9bd 2adb 53bd
00000240: 5970 9cbd f3b7 233e 7f51 103e 5a38 0c3e
00000250: 7e05 99bd a7e1 3dbe 005f b1bd 601c 18be
00000260: 60a7 08bd 4070 55bd 6837 28be f2ea 6f3d
00000270: d9f7 413e d6eb 25be 966f edbd fe43 e9bd
00000280: d1f3 18bc 89c0 253e 11b6 adbd 79dc bf3d
00000290: beff 27be b3fc 983d a545 1c3d 15c6 0bbe
000002a0: 239d bb3d e6c6 21be ff53 69bd 0061 4d3d
000002b0: 9bf8 0ebc 7a0d 15be e68b 173d 4f4d 173e
000002c0: 3ee4 7c3d eaeb 463a 5714 403d a288 cebb
000002d0: 04cc 113d 4b44 f8bd c143 263e 25fe cd3d
000002e0: 4043 cd3d 155f 2ebe ee2f c6bd ce18 b03d
000002f0: a5a3 40be 8a50 f3bc 184a a7bd 13da d1bb
00000300: bbbf f63c 2967 253c 0017 babd 63cf 993d
00000310: b76b 8e3d 62dc 23bc 3779 36be 921d c6bd
00000320: 94ed 49bd d27e 64be 81d4 9fbe c7b3 64be
00000330: e47b debd 9c86 a3be 16db 44be 144a be3b
00000340: 43df 0abd 4687 5d3e 521d 413c d712 2cbe
00000350: 5c11 46bd aec8 803c c3ad adbd 7ef3 54bd
00000360: fa42 91be c6b0 55bd 00fa e43d e2fd fb3c
00000370: 5a7b afbd c543 f83b 932e ce3d f3c4 893d
00000380: 290d 8fbc 66da a8bc 59aa c1bd 9460 d9bd
00000390: 561a 693e db7c eebd 42a0 00be 5260 9cbc
000003a0: e828 5b3e 263c 323e b5f0 95bc 15a4 4dbe
000003b0: 392f 82be 1f69 333e da5b e6bc 30f4 ca3d
000003c0: 803f 833e 5831 f3bd 6eaf c83d ee34 15bd
000003d0: 6c69 153e c6e7 32be b6f6 1b3e 4af7 4bbd
000003e0: ec3b 583e 434b 61be 06c1 86bd 5c96 e2bd
000003f0: 08bc 89bd f467 4f3d 1d64 1ebe 1103 2f3d

module.inconv.0.bias f4 [32]
0.1012049 0.06930355 -0.4727842 0.007691832 -0.1709901 -0.1337091 0.18806179 0.14226817
0.012349231 0.23861665 0.16618961 0.20101885 0.0008965051 -0.14311711 6.010687e-05 0.003155367
0.015243955 -0.08208109 -0.005891099 -0.002494283 -0.50458515 0.23246908 -0.016813068 0.030835379
-0.073705435 0.09436098 -0.056302845 0.11355345 0.014401449 0.2119902 -0.045434806 0.25338587
00000000: 8444 cf3d 05ef 8d3d c510 f2be c30b fc3b
00000010: 0718 2fbe 0aeb 08be 4593 403e bfae 113e
00000020: 6e54 4a3c ec57 743e 9c2d 2a3e e3d7 4d3e
00000030: 7003 6b3a 4b8d 12be 431b 7c38 46ca 4e3b
00000040: c8c1 793c 211a a8bd 1f0a c1bb 2077 23bb
00000050: 7e2c 01bf 600c 6e3e 8fbb 89bc 7a9a fc3c
00000060: e0f2 96bd 5440 c13d d09d 66bd b68e e83d
00000070: 0ef4 6b3c f613 593e d919 3abd cbbb 813e

module.convs.0.0.weight f4 [32, 32, 3, 3]
-0.13607636 -0.07759778 0.23813173 0.09710432 0.04355141 -0.017848548 0.25962248 -0.020314008
-0.25590196 -0.0034716113 0.031013004 0.028562512 0.024076471 -0.028800797 0.0020249663 0.10322646
-0.05427849 0.10014546 0.11405619 0.074673414 0.20818403 0.07743928 -0.013136258 0.35772544
0.075587675 -0.17673096 0.24937801 -0.0727245 -0.17158015 -0.03804463 -0.103141725 0.041965302
-0.11652233 -0.20050445 0.015970798 0.004289492 0.02838107 -0.056812707 0.044011824 0.022032665
0.018116493 0.05463982 -0.025696063 -0.004339868 0.004618578 -0.043311756 -0.04283761 0.00012291293
-0.058221158 -0.036583386 0.025534667 0.018748702 -0.05658915 0.05421555 0.0300742 0.028533675
-0.06593814 -0.0060238214 -0.13876085 -0.027153518 -0.13190547 -0.15390992 -0.202097 0.06268032
0.12212371 0.04102487 -0.050388217 0.04524765 0.025354255 0.02018827 -0.14640248 -0.18058363
0.0304648 0.07404141 -0.040416617 0.051723268 -0.009924055 -0.043370403 -0.16548061 0.03214606
0.065265805 0.14236434 0.116952054 -0.13563876 0.20042801 0.025846738 -0.083075546 0.16678534
-0.12746564 -0.12231192 0.024202656 0.00079892087 -0.109947145 0.10865904 0.085831515 0.025752619
-0.09156528 0.067843795 0.078054175 0.1401111 0.058755033 -0.11427846 0.2211153 -0.063220516
-0.21872362 0.16443701 -0.042520106 -0.004088144 -0.07890362 0.07540013 -0.0046166 0.04061146
-0.059917606 0.020271638 0.09327009 0.00074671843 0.06698934 -0.031829532 0.050203238 0.014958999
0.046361137 -0.009066366 -0.0049229395 0.0020447304 0.060610045 -0.04286986 -0.084297575 0.002905749
-0.10367149 -0.039826635 0.029290631 0.04745663 -0.0061312392 -0.06730274 0.0024074786 -0.12446948
-0.07656809 0.12167316 -0.14714962 0.06732874 0.065319605 -0.08929612 0.14134316 -0.010183658
-0.22016959 -0.04333323 0.20784399 -0.10879665 0.093615055 -0.0034545958 -0.029067846 0.021216849
-0.09696974 -0.062036768 -0.028514033 0.110408515 -0.07288286 -0.014909394 0.00584613 -0.00010954689
-0.03316363 0.09461128 -0.07558369 -0.0046607484 0.16594768 -0.102477 0.07999009 0.05551508
-0.005649048 0.036196034 0.07333319 -0.00394754 -0.035574686 0.11113461 -0.013215099 0.013184794
0.04596987 0.026344774 -0.008564037 0.19111332 -0.19191048 0.15263107 0.37582952 -0.086377025
0.19583207 0.38203815 -0.2801544 0.1045716 0.32287377 0.072125845 0.042733777 -0.0026208058
0.07400718 0.14027849 0.16014634 0.1137142 0.068327926 0.0788438 -0.12166618 -0.06473576
0.1730953 -0.036825523 -0.014398599 0.0692595 -0.059733506 -0.058925085 0.120162226 -0.18615022
-0.055840045 -0.15913072 -0.071641214 -0.039327726 -0.010300511 -0.15891038 -0.041608874 -0.16691422
-0.05781128 -0.036558505 0.049740393 -0.030584004 -0.020337088 0.10444225 -0.07015658 0.0041881735
0.09292998 0.31112796 -0.0063009877 0.043670967 0.058123063 -0.012669241 0.021119127 0.29808027
0.037715018 -0.059117854 -0.073362745 -0.03276161 -0.023106394 -0.023869488 -0.039594695 0.06783032
-0.04036514 -0.10774615 0.05867497 0.019231796 0.06521271 -0.002661842 0.024548056 0.040039912
-0.0072252927 0.0388352 0.056393366 -0.05091185 0.10954214 -0.044587497 0.0072462074 0.05395793
00000000: 9a57 0bbe 96eb 9ebd ced8 733e a1de c63d
00000010: f762 323d 1e37 92bc 3ded 843e 9069 a6bc
00000020: 9505 83be f983 63bb fc0e fe3c eefb e93c
00000030: 053c c53c a6ef ebbc 4cb5 043b 6568 d33d
00000040: 1f53 5ebd 1019 cd3d 4b96 e93d 60ee 983d
00000050: 322e 553e 7c98 9e3d 7639 57bc ca27 b73e
00000060: b6cd 9a3d f6f8 34be f35c 7f3e 95f0 94bd
00000070: b5b2 2fbe b0d4 1bbd f83b d3bd cfe3 2b3d
00000080: 42a3 eebd 0a51 4dbe 31d5 823c de8e 8c3b
00000090: 6b7f e83c 71b4 68bd be45 343d d97d b43c
000000a0: 0a69 943c 01ce 5f3d 8d80 d2bc 7435 8ebb
000000b0: 7157 973b ab67 31bd 7d76 2fbd 30e2 0039
000000c0: 4f79 6ebd 76d8 15bd 142e d13c e196 993c
000000d0: 06ca 67bd 2011 5e3d 2b5e f63c 74bf e93c
000000e0: 930a 87bd 7a63 c5bb 5317 0ebe 0e71 debc
000000f0: 3a12 07be 909a 1dbe 84f2 4ebe 8a5e 803d
00000100: ff1b fa3d b209 283d e063 4ebd 9a55 393d
00000110: bab3 cf3c df61 a53c 88ea 15be eaea 38be
00000120: 5191 f93c 06a3 973d e58b 25bd c7db 533d
00000130: 8198 22bc 2aa5 31bd c073 29be 96ab 033d
00000140: 14aa 853d f5c7 113e 8f84 ef3d e3e4 0abe
00000150: 003d 4d3e 8abc d33c 8323 aabd c7c9 2a3e
00000160: 5a86 02be ac7e fabd a644 c63c ac6e 513a
00000170: f82b e1bd a188 de3d 6fc8 af3d 28f7 d23c
00000180: 9486 bbbd b0f1 8a3d deda 9f3d 4979 0f3e
00000190: 1ea9 703d d30a eabd 0d6c 623e c279 81bd
000001a0: 16f9 5fbe 2d62 283e 9029 2ebd d6f5 85bb
000001b0: 3998 a1bd 626b 9a3d d946 97bb 3458 263d
000001c0: 2a6c 75bd b510 a63c 6404 bf3d 6dbf 433a
000001d0: b531 893d af5f 02bd e9a1 4d3d 9716 753c
000001e0: 2de5 3d3d 188b 14bc 9c50 a1bb e200 063b
000001f0: 3d42 783d 4e98 2fbd 35a4 acbd 616e 3e3b
00000200: b851 d4bd 4121 23bd e8f2 ef3c e261 423d
00000210: 90e8 c8bb 05d6 89bd cac6 1d3b dbe9 febd
00000220: bbcf 9cbd c72f f93d 64ae 16be a7e3 893d
00000230: 49c6 853d e2e0 b6bd 43bc 103e 5cd9 26bc
00000240: 2374 61be 2f7e 31bd 0ed5 543e c7d0 debd
00000250: 40b9 bf3d 8066 62bb b11f eebc f5ce ad3c
00000260: 1298 c6bd 441a 7ebd 4396 e9bc dc1d e23d
00000270: 9c43 95bd 8846 74bc e590 bf3b 8abc e5b8
00000280: 96d6 07bd 8fc3 c13d 9fcb 9abd 31b9 98bb
00000290: 30ee 293e 76df d1bd d8d1 a33d c863 633d
000002a0: a61b b9bb 4b42 143d b62f 963d 5e5a 81bb
000002b0: c3b6 11bd 8b9a e33d 2584 58bc 0905 583c
000002c0: e74a 3c3d ffd0 d73c 2d50 0cbc 36b3 433e
000002d0: 2e84 44be 524b 1c3e ba6c c03e 70e6 b0bd
000002e0: 3488 483e 819a c33e 6670 8fbe a329 d63d
000002f0: b64f a53e b7b6 933d 9d09 2f3d d3c1 2bbb
00000300: 1491 973d 2aa5 0f3e 67fd 233e fee2 e83d
00000310: 83ef 8b3d dc78 a13d 1e2c f9bd 2f94 84bd
00000320: e53f 313e 5cd6 16bd 1ae8 6bbc edd7 8d3d
00000330: 1fab 74bd 6e5b 71bd 9d17 f63d 2a9e 3ebe
00000340: 88b8 64bd 2af3 22be a1b8 92bd 1c16 21bd
00000350: 79c3 28bc 67b9 22be 116e 2abd 90eb 2abe
00000360: 85cb 6cbd 5fbe 15bd 95bc 4b3d 4e8b fabc
00000370: f799 a6bc d2e5 d53d 41ae 8fbd f23c 893b
00000380: 1352 be3d 2a4c 9f3e 8478 cebb 54e0 323d
00000390: 7312 6e3d a692 4fbc 0502 ad3c fa9d 983e
000003a0: 107b 1a3d 9025 72bd 353f 96bd 0a31 06bd
000003b0: 9f49 bdbc f289 c3bc 0c2e 22bd 9fea 8a3d
000003c0: eb55 25bd 03aa dcbd 2a55 703d 008c 9d3c
000003d0: 3e8e 853d 4c72 2ebb 0119 c93c e400 243d
000003e0: 26c2 ecbb a911 1f3d bbfc 663d f288 50bd
000003f0: a157 e03d 61a1 36bd 9871 ed3b fe02 5d3d

module.convs.0.0.bias f4 [32]
0.025633316 -0.047098216 -0.051378343 -0.08410631 -0.004982381 0.088310674 -0.07884539 -0.047841385
-0.055057205 0.13978903 0.06506166 -0.02917147 -0.03035229 -0.056921855 -0.0689908 -0.030578595
0.11662859 -0.041855194 -0.049125135 -0.058952495 -0.023206655 0.009138775 0.12883224 -0.03518749
0.105787046 -0.05367663 0.1095303 -0.116144605 -0.025706025 -0.054585494 0.06834232 0.06861012
00000000: f6fc d13c 0fea 40bd 1972 52bd ee3f acbd
00000010: 3e43 a3bb 3adc b43d b179 a1bd 54f5 43bd
00000020: aa83 61bd db24 0f3e 0c3f 853d 02f9 eebc
00000030: 5ea5 f8bc e426 69bd 0c4b 8dbd f67f fabc
00000040: f8da ee3d 5a70 2bbd 7037 49bd 2c78 71bd
00000050: e21b bebc cdba 153c 99ec 033e c220 10bd
00000060: e1a6 d83d 07dc 5bbd 6c51 e03d 39dd edbd
00000070: 7195 d2bc 0a95 5fbd 0ff7 8b3d 7683 8c3d

module.convs.1.0.weight f4 [32, 32, 3, 3]
0.3312174 -0.15008116 -0.11620024 -0.034010764 -0.007914643 0.028394623 -0.09252705 -0.052131314
-0.06478765 -0.013782738 0.06585401 0.060857683 0.0014573054 0.06009306 0.066768415 0.069024116
0.09116844 0.016643934 -0.09154538 0.035018794 -0.036051508 -0.008424105 0.045565054 0.02604579
-0.010136943 -0.043992937 -0.035450157 -0.42717767 -0.006227935 -0.18950358 0.1269613 0.14697994
-0.1739945 0.032770112 0.0374242 -0.16343598 -0.14642821 -0.28851873 -0.10509605 0.102433704
0.096109666 0.067890085 0.2091327 -0.036102574 0.07811573 -0.054226626 -0.056297276 -0.05318793
-0.016706621 -0.0358285 -0.016952068 0.011483911 -0.0006262127 0.08860889 0.03909121 0.011564845
0.07293379 -0.037173703 0.108444415 0.04484145 -0.102842666 0.07719224 -0.059607036 0.026858013
-0.032919385 0.008375348 -0.025434308 -0.047789313 0.021990508 -0.050784532 -0.038609874 0.005443181
0.35422865 -0.2382398 0.07015051 0.19924454 0.7878274 0.59974796 -0.20880796 -0.25384423
-0.09404937 0.020924615 0.009904643 -0.028021779 -0.017446054 0.05392514 0.049281478 -0.09916974
-0.012973145 0.047219682 0.03403876 -0.004211108 0.13643661 0.008229055 -0.048162162 -0.01706235
0.038178053 0.042223904 0.030273594 0.036168467 0.0114092445 0.087611 -0.05699138 0.02181071
-0.024969453 -0.037534088 -0.010952083 0.038072765 -0.030202214 0.033174902 0.03269729 -0.006559453
-0.007268677 0.02468817 -0.002694751 0.021886794 0.040356796 0.014158879 0.062010895 0.052805834
0.059547547 0.07588272 0.009341016 0.018255625 -0.0069791204 0.012185511 0.045693934 0.052538063
0.038271524 -0.060281318 0.07123647 0.03106741 0.0004681898 -0.085046604 0.015401162 -0.05238056
0.018034834 -0.021446312 0.02001221 -0.026982494 0.0076668765 0.00061048276 -0.06627351 -0.021107044
0.06391312 0.039593253 0.029383386 0.02387301 -0.017499564 0.01993226 -0.04356088 -0.03021474
-0.06460699 -0.028798977 -0.016110642 0.21302275 0.11269917 -0.06862811 -0.14694487 0.0039925
-0.12804936 0.32084084 -0.038921203 -0.02380304 -0.029691933 0.04404133 -0.042515155 0.03218876
0.060156 -0.042862915 0.050770417 -0.03154631 0.018181894 0.043439128 -0.006686283 -0.03709515
0.035456315 0.04157875 0.020609362 -0.0066280086 0.19122589 0.097915806 -0.25516954 0.19783846
0.026357185 0.18905981 0.22057027 -0.34047297 0.124493435 0.011269439 -0.040601566 0.03522995
-0.007722808 -0.03943224 0.0135300765 0.02859257 -0.007295473 -0.00632947 0.024151105 0.009763997
-0.047228444 0.031171845 -0.050272755 -0.013419464 -0.0015264854 -0.012668293 0.051516164 0.06576125
-0.03892252 -0.039630856 0.013056169 -0.011568575 0.0076618823 -0.0015886214 -0.025880558 -0.046615455
0.20061503 0.035912063 0.020824661 0.05251293 0.110273436 0.061975554 -0.030676728 -0.09631479
-0.06770439 -0.08312303 0.025885375 0.3182168 0.09062581 0.08200349 0.037148923 0.11780922
-0.00518895 -0.22127508 -0.02168513 0.024407193 0.06536923 -0.027971212 -0.09027181 -0.053383492
-0.08088295 -0.007227785 -0.017790971 -0.10386896 -0.04199398 -0.020041844 0.020512402 -0.047768943
0.036002383 0.0131482165 0.00011463818 0.04102444 -0.062144607 0.05193479 0.0014521375 -0.052561853
00000000: 5495 a93e e0ae 19be 64fa edbd df4e 0bbd
00000010: 6bac 01bc d79b e83c d27e bdbd a587 55bd
00000020: 63af 84bd fed0 61bc 78de 863d e845 793d
00000030: 0e03 bf3a 2424 763d e1bd 883d 845c 8d3d
00000040: 85b6 ba3d dc58 883c 257c bbbd de6f 0f3d
00000050: bfaa 13bd 4205 0abc 6ca2 3a3d fb5d d53c
00000060: 6c15 26bc f031 34bd 2f34 11bd 08b7 dabe
00000070: b513 ccbb 3a0d 42be 2502 023e e981 163e
00000080: 9d2b 32be f439 063d 1e4a 193d c35b 27be
00000090: 47f1 15be bab8 93be 993c d7bd c3c8 d13d
000000a0: 25d5 c43d f509 8b3d e226 563e 4be0 13bd
000000b0: 24fb 9f3d bd1c 5ebd f997 66bd 96db 59bd
000000c0: 53dc 88bc e8c0 12bd 10df 8abc 0427 3c3c
000000d0: 6c28 24ba 9478 b53d 1b1e 203d 7a7a 3d3c
000000e0: 505e 953d 7443 18bd 1b18 de3d abab 373d
000000f0: 2d9f d2bd f716 9e3d 8226 74bd 5605 dc3c
00000100: 7ad6 06bd c138 093c 9c5b d0bc babe 43bd
00000110: 7025 b43c 7103 50bd 6325 1ebd b65c b23b
00000120: 755d b53e 22f5 73be 12ab 8f3d c306 4c3e
00000130: 0eaf 493f 1589 193f c1d1 55be dff7 81be
00000140: f59c c0bd 196a ab3c 1547 223c ee8d e5bc
00000150: 07eb 8ebc 9ce0 5c3d 60db 493d 8119 cbbd
00000160: 508d 54bc 6d69 413d 3a6c 0b3d 56fd 89bb
00000170: 0ab6 0b3e 29d3 063c b045 45bd 57c6 8bbc
00000180: 9760 1c3d f9f2 2c3d 5400 f83c 6325 143d
00000190: d7ed 3a3c 656d b33d cb6f 69bd 60ac b23c
000001a0: bd8c ccbc 58bd 19bd 5e70 33bc 30f2 1b3d
000001b0: a26a f7bc 68e2 073d 98ed 053d aef0 d6bb
000001c0: 152e eebb d83e ca3c 6b9a 30bb ef4b b33c
000001d0: 2b4d 253d a5fa 673c 23ff 7d3d ee4a 583d
000001e0: 21e8 733d 6668 9b3d 100b 193c d28c 953c
000001f0: 1bb1 e4bb bda5 473c 9029 3b3d 2732 573d
00000200: 9ac2 1c3d 8be9 76bd 6de4 913d 1581 fe3c
00000210: 5f77 f539 ea2c aebd 2855 7c3c 008d 56bd
00000220: cabd 933c 2db0 afbc a5f0 a33c 640a ddbc
00000230: 6c3a fb3b ce08 203a 68ba 87bd aee8 acbc
00000240: e2e4 823d 892c 223d 6db5 f03c 5591 c33c
00000250: 3f5b 8fbc fb48 a33c e56c 32bd e784 f7bc
00000260: ab50 84bd d5eb ebbc 77fa 83bc a322 5a3e
00000270: d3ce e63d e58c 8cbd b778 16be 84d3 823b
00000280: 5f1f 03be 4045 a43e d76b 1fbd 98fe c2bc
00000290: 7f3c f3bc af64 343d 5f24 2ebd 5cd8 033d
000002a0: 2366 763d 0691 2fbd a4f4 4f3d b436 01bd
000002b0: 32f2 943c 3aed 313d 9b18 dbbb 16f1 17bd
000002c0: a43a 113d 7b4e 2a3d f7d4 a83c c42f d9bb
000002d0: b8d0 433e 1588 c83d 95a5 82be 2a96 4a3e
000002e0: 06eb d73c e598 413e 2cdd 613e 7952 aebe
000002f0: 6af6 fe3d 74a3 383c d44d 26bd 484d 103d
00000300: 9c0f fdbb b383 21bd 41ad 5d3c f73a ea3c
00000310: dd0e efbb 7167 cfbb 8ad8 c53c 2cf9 1f3c
00000320: 9d72 41bd 195c ff3c ceea 4dbd 50dd 5bbc
00000330: 5a14 c8ba ac8e 4fbc 9d02 533d d6ad 863d
00000340: 386d 1fbd f753 22bd 8be9 553c 1f8a 3dbc
00000350: 8710 fb3b 4a39 d0ba 7703 d4bc d9ef 3ebd
00000360: 076e 4d3e 8718 133d 7b98 aa3c cc17 573d
00000370: 0ad7 e13d 14da 7d3d c34d fbbc b040 c5bd
00000380: 99a8 8abd 683c aabd 910d d43c 50ed a23e
00000390: 069a b93d 72f1 a73d 7829 183d f645 f13d
000003a0: 1108 aabb ef95 62be 04a5 b1bc 98f1 c73c
000003b0: 4ee0 853d e223 e5bc 6de0 b8bd a6a8 5abd
000003c0: f6a5 a5bd 0ed7 ecbb 5fbe 91bc 40b9 d4bd
000003d0: e101 2cbd cb2e a4bc a009 a83c 5ea9 43bd
000003e0: 3c77 133d 9e6b 573c e769 f038 3e09 283d
000003f0: 588b 7ebd 93b9 543d a655 be3a 194b 57bd

module.convs.1.0.bias f4 [32]
0.08562656 -0.08432094 -0.03017766 -0.026207538 0.00206758 0.038403418 -0.05274327 -0.013594564
-0.07989248 -0.027248977 -0.026067318 0.018098762 -0.119808346 0.13044368 0.14183813 -0.03591726
-0.021481475 -0.068408474 -0.06918561 -0.04663871 -0.056983862 0.17241849 0.16001633 0.1416349
0.13731258 0.14394087 -0.03672106 0.049743425 0.09361436 -0.035886254 -0.09445709 -0.012712421
00000000: fa5c af3d 75b0 acbd 2437 f7bc 31b1 d6bc
00000010: 3c80 073b e74c 1d3d 5409 58bd bcbb 5ebc
00000020: ab9e a3bd 3f39 dfbc 218b d5bc db43 943c
00000030: 145e f5bd 0793 053e 043e 113e fa1d 13bd
00000040: ebf9 afbc be19 8cbd 2fb1 8dbd 3b08 3fbd
00000050: e967 69bd 798e 303e 52db 233e bd08 113e
00000060: ab9b 0c3e 3c65 133e d268 16bd c3bf 4b3d
00000070: e3b8 bf3d 77fd 12bd b872 c1bd c247 50bc

module.convs.2.0.weight f4 [32, 32, 3, 3]
0.032319047 -0.012178121 0.003925492 0.067224875 0.06714423 0.07706587 -0.013247755 -0.004409997
-0.019598907 -0.030936355 0.03679434 -0.03276392 -0.01470323 -0.05001077 0.043069884 -0.064759
-0.013428285 -0.036453087 0.049527977 -0.029415753 -0.040073436 -0.0020600616 0.02309016 -0.02537973
0.02698151 0.007344003 0.020153379 -0.021640772 -0.043099105 -0.04419499 -0.039519366 0.037870932
0.0017304808 -0.06563562 0.008979111 -0.052113254 0.049471848 0.044988327 -0.005098649 0.006477334
0.013309554 -0.010095366 0.030266693 -0.014583535 0.011203498 0.124936126 0.15448175 0.03745353
0.18122375 0.30460483 0.2453097 0.06777133 0.21846102 0.10240862 0.01578289 -0.06671134
-0.038090017 0.020806521 0.03321178 -0.056038488 0.018931003 -0.034538537 0.02615043 -0.00279687
0.035949774 -0.054306682 0.027069265 -0.040165707 0.026975108 0.034614135 -0.017923195 -0.06611822
-0.04670265 -0.03754253 -0.016604645 0.0011458993 -0.0015367542 0.012854333 -0.0054586926 0.0019358568
-0.08118337 0.03752507 -0.0035928735 -0.00062021194 0.043262433 -0.009015433 0.031259827 0.020094868
0.0041255006 0.06803425 0.16132599 0.04611917 0.10555167 -0.014004621 -0.066142246 -0.055945564
0.00063516235 -0.0136246 0.1310261 -0.020825664 -0.04993337 0.01247103 -0.032960232 -0.02741985
0.04095708 0.048219793 -0.0015792011 -0.0110485265 0.017173529 0.117009364 0.10102862 0.075678386
0.056553237 0.084020995 -0.021464985 -0.016521651 0.064655766 0.002255692 0.028482862 -0.008254318
0.10674559 0.010168488 0.025475759 0.058247264 -0.0058342996 -0.036023375 -0.010726657 0.06226734
-0.035328053 -0.046024293 -0.055341717 -0.060171723 0.027255768 0.021503383 0.058358 -0.0147251645
-0.05025865 -0.04812292 -0.04348608 -0.028148046 -0.007250067 0.027889872 -0.024807805 0.010744031
-0.056264192 -0.007823336 -0.009388018 -0.006898663 -0.04902713 -0.06756896 0.025971046 0.029825354
-0.02560966 0.04269698 -0.026628926 0.036066853 0.029733708 0.041372642 -0.035067875 -0.041859962
-0.007639547 0.028351504 0.042556655 -0.004638038 -0.009709252 0.02272585 -0.06094685 -0.03786202
-0.018610334 -0.04491738 -0.023140857 0.05393609 -0.048462853 -0.017590042 -0.011732074 -0.026166674
0.018229675 -0.05619573 0.009895438 -0.010540884 -0.0006796006 -0.04400604 -0.063414276 0.019526336
-0.05604579 0.024929943 -0.061699558 0.005711037 -0.030394968 0.043866277 0.015120527 0.03687307
0.057286523 -0.019733407 -0.06734427 -0.054750245 -0.009855001 -0.011788194 0.012796928 0.017335445
0.055056635 0.017765291 0.014862568 -0.0028132673 0.05480968 0.0737573 -0.03523051 0.011098882
0.024638109 0.0047779847 -0.0062386673 -0.00629514 0.041614573 0.06734873 0.00026329537 0.068582594
0.06983717 0.00494337 0.046268143 0.06507507 -0.010431372 0.06774495 0.0088055 0.049542837
0.054429226 0.09056432 0.06423232 0.010772643 -0.04058515 0.04451775 0.05702843 0.012460573
0.0067628375 -0.030303296 -0.05340137 0.0061547677 -0.05135376 -0.016960535 0.012744446 -0.03676553
-0.032539684 -0.06258489 -0.0613643 0.029607667 0.015048272 -0.004469302 -0.010338552 -0.037242826
-0.042920288 0.026259232 -0.00915179 0.030953145 0.043653518 -0.045673545 0.053629678 0.06020966
00000000: fa60 043d be86 47bc 6aa1 803b 32ad 893d
00000010: ea82 893d b6d4 9d3d 1d0d 59bc bc81 90bb
00000020: e38d a0bc 3d6e fdbc a9b5 163d 7633 06bd
00000030: d1e5 70bc 18d8 4cbd 0c6a 303d 5ea0 84bd
00000040: 4f02 5cbc d54f 15bd d9dd 4a3d 4ef9 f0bc
00000050: 0b24 24bd 1902 07bb 9327 bd3c 27e9 cfbc
00000060: 5408 dd3c f6a5 f03b b318 a53c fd47 b1bc
00000070: b088 30bd ce05 35bd 0fdf 21bd 8d1e 1b3d
00000080: 4dd1 e23a f86b 86bd 1f1d 133c b574 55bd
00000090: fea2 4a3d ae45 383d 9112 a7bb d13f d43b
000000a0: 5110 5a3c 0967 25bc dbf1 f73c c7ef 6ebc
000000b0: e08e 373c 83de ff3d 7730 1e3e df68 193d
000000c0: b892 393e 2af5 9b3e 7732 7b3e b2cb 8a3d
000000d0: 3fb4 5f3e 9cbb d13d 1f4b 813c f49f 88bd
000000e0: 4704 1cbd 7072 aa3c 1309 083d 9d88 65bd
000000f0: 3115 9b3c 4878 0dbd 6d39 d63c b14b 37bb
00000100: 1240 133d af70 5ebd 5dc0 dd3c cc84 24bd
00000110: e7fa dc3c 8dc7 0d3d aad3 92bc fd68 87bd
00000120: 474b 3fbd 32c6 19bd 7706 88bc 0032 963a
00000130: ea6c c9ba fb9a 523c d5de b2bb 93bc fd3a
00000140: 7743 a6bd e3b3 193d 6a76 6bbb b895 22ba
00000150: f333 313d 77b5 13bc 4e0a 003d fe9d a43c
00000160: 352f 873b 8a55 8b3d a432 253e 74e7 3c3d
00000170: 792b d83d a373 65bc 9675 87bd 2d27 65bd
00000180: 0681 263a b739 5fbc b52b 063e 959a aabc
00000190: ef86 4cbd 4a53 4c3c 4f01 07bd 989f e0bc
000001a0: 9cc2 273d 1e82 453d 32fd ceba e104 35bc
000001b0: 80af 8c3c 9ba2 ef3d 18e8 ce3d 45fd 9a3d
000001c0: 5ea4 673d 3313 ac3d 56d7 afbc 6a58 87bc
000001d0: 3e6a 843d 3bd4 133b e454 e93c 1e3d 07bc
000001e0: 6f9d da3d bb99 263c 8ab2 d03c af94 6e3d
000001f0: a72d bfbb 3f8d 13bd dcbe 2fbc 0a0c 7f3d
00000200: 26b4 10bd f883 3cbd ffad 62bd a076 76bd
00000210: 7d47 df3c dd27 b03c cc08 6f3d d141 71bc
00000220: 04dc 4dbd 8a1c 45bd 761e 32bd bb96 e6bc
00000230: f891 edbb 4d79 e43c bd39 cbbc bb07 303c
00000240: 4875 66bd 732d 00bc 34d0 19bc 2e0e e2bb
00000250: acd0 48bd 9861 8abd 3bc1 d43c 4d54 f43c
00000260: 5acb d1bc 07e3 2e3d e824 dabc d6ba 133d
00000270: 1b94 f33c 5c76 293d 55a3 0fbd 5a75 2bbd
00000280: 2a55 fabb 6a41 e83c e34f 2e3d affa 97bb
00000290: 8e13 1fbc 902b ba3c 67a3 79bd 3515 1bbd
000002a0: b374 98bc 49fb 37bd e591 bdbc 17ec 5c3d
000002b0: fc80 46bd fe18 90bc e337 40bc 7e5b d6bc
000002c0: 6656 953c 7e2d 66bd 7a20 223c acb3 2cbc
000002d0: 3927 32ba ad3f 34bd 58df 81bd b2f5 9f3c
000002e0: 4590 65bd e139 cc3c adb8 7cbd a723 bb3b
000002f0: defe f8bc 20ad 333d 16bc 773c 3708 173d
00000300: 46a5 6a3d f4a7 a1bc cbeb 89bd cb41 60bd
00000310: df76 21bc 4523 41bc 35aa 513c 1003 8e3c
00000320: 1183 613d 8488 913c 2182 733c cb5e 38bb
00000330: 1d80 603d 110e 973d de4d 10bd 16d8 353c
00000340: dcd5 c93c a490 9c3b bc6d ccbb 7647 cebb
00000350: 0b74 2a3d 22ee 893d e80a 8a39 0875 8c3d
00000360: ca06 8f3d fefb a13b aa83 3d3d 1446 853d
00000370: 58e8 2abc ddbd 8a3d f244 103c 6eed 4a3d
00000380: 2ef1 5e3d c979 b93d 3c8c 833d bd7f 303c
00000390: 9d3c 26bd 3f58 363d a596 693d 6e27 4c3c
000003a0: cb9a dd3b 9e3e f8bc 65bb 5abd efad c93b
000003b0: 5258 52bd d2f0 8abc 15ce 503c 7497 16bd
000003c0: 5548 05bd 822c 80bd 2259 7bbd c78b f23c
000003d0: 078d 763c 3973 92bb 0863 29bc ef8b 18bd
000003e0: 2fcd 2fbd 9a1d d73c 64f1 15bc 7391 fd3c
000003f0: 08ce 323d 2f14 3bbd cbaa 5b3d 689e 763d

module.convs.2.0.bias f4 [32]
0.048940767 0.09600472 0.050795104 -0.07827379 0.19475223 -0.0077607376 -0.08428818 0.13507067
-0.00040374452 -0.032312743 0.116993226 0.103512235 -0.019884136 0.2464934 -0.021951905 -0.060889482
0.14088868 0.07766857 -0.0850477 -0.08769805 0.174247 -0.042487904 0.034431357 0.035220828
0.015773013 0.02145429 -0.03457446 -0.059909474 -0.12193065 -0.050471786 -0.052248713 0.016662598
00000000: 1d76 483d 1f9e c43d 870e 503d 024e a0bd
00000010: 216d 473e c94d febb 489f acbd f74f 0a3e
00000020: acad d3b9 5e5a 04bd 259a ef3d 39fe d33d
00000030: 0ee4 a2bc c468 7c3e 7bd4 b3bc 4067 79bd
00000040: 1f45 103e b310 9f3d 7d2d aebd 099b b3bd
00000050: ce6d 323e cc07 2ebd e507 0d3d b743 103d
00000060: 6836 813c e8c0 af3c f39d 0dbd a363 75bd
00000070: c7b6 f9bd 81bb 4ebd bf02 56bd 0080 883c

module.outconv.0.weight f4 [4, 32, 1, 1]
0.2650194 0.4071029 0.6274482 0.3467709 0.53016526 0.3166094 0.27249777 0.24091285
0.31245634 0.1007992 0.17016706 0.4340779 0.091548376 0.4829006 -0.047148228 -0.073397025
0.6601071 0.30638823 0.96345985 0.59095335 0.89626074 -0.02282057 -0.1575025 -0.019732518
0.19574443 -0.16245258 0.6331668 -0.16667606 -0.04137459 0.17882489 0.29990983 1.0754182
-0.3119548 -0.080747604 -0.13577375 0.08427983 0.25739136 0.083700635 0.030487869 0.29014388
0.25410593 0.15936853 0.19950269 0.09188316 -0.05190435 0.48100984 0.12453108 -0.02715468
0.13544261 -0.21061163 -0.210108 0.16507226 0.06626208 -0.17518422 -0.06450951 -0.18114492
0.18518947 -0.07544233 -0.1479843 -0.15262558 1.0688914 0.0674164 0.9251984 -0.060061444
0.1175472 -0.14713375 -0.2659207 -0.018964002 0.21883821 0.04045285 -0.23721117 0.045815486
-0.06660628 0.15726705 -0.17733353 0.4253352 0.010882332 0.46201128 -0.027219674 -0.14184445
0.23063457 0.17510429 -0.15478435 0.12579107 -0.09492573 0.008398162 0.04266402 0.7066795
0.16644779 -0.13958693 0.06674337 -0.053951517 1.3378371 -0.13199931 0.04477694 -0.12047739
-0.026798744 -0.079263285 -0.01747733 0.04919515 -0.08309771 0.089441255 0.015762778 -0.125597
0.07874614 0.12209574 -0.0695514 0.0006735231 0.022680618 -0.030644529 -0.08057128 -0.16827379
-0.06904104 -0.11729943 0.10034116 0.0918429 -0.027208183 -0.1748475 -0.015416655 -0.0061158803
0.1149237 0.0948033 0.13444142 0.03325315 0.00131426 -0.10900425 0.0024776927 -0.0682249
00000000: 9fb0 873e cb6f d03e 72a0 203f f58b b13e
00000010: e9b8 073f a11a a23e d484 8b3e dcb1 763e
00000020: 47fa 9f3e d06f ce3d 4640 2e3e 753f de3e
00000030: b77d bb3d bf3e f73e 801e 41bd 2e51 96bd
00000040: c7fc 283f ebde 9c3e 4ea5 763f b848 173f
00000050: 5871 653f 34f2 babc 5648 21be 17a6 a1bc
00000060: 3a71 483e f859 26be 3817 223f 21ad 2abe
00000070: 6778 29bd df1d 373e c88d 993e 4ea7 893f
00000080: 8ab8 9fbe 005f a5bd 4608 0bbe e79a ac3d
00000090: cdc8 833e 3d6b ab3d b2c1 f93c bd8d 943e
000000a0: 2c1a 823e 8131 233e 6f4a 4c3e 3d2d bc3d
000000b0: a899 54bd ec46 f63e 270a ff3d 7e73 debc
000000c0: 78b1 0a3e 93aa 57be 8d26 57be b408 293e
000000d0: 6ab4 873d 7e63 33be 901d 84bd 0e7e 39be
000000e0: 4fa2 3d3e 8281 9abd 3289 17be e149 1cbe
000000f0: 6fd1 883f 9c11 8a3d cdd9 6c3f fd02 76bd
00000100: 96bc f03d 3baa 16be c226 88be 655a 9bbc
00000110: 2017 603e e3b1 253d 7ce7 72be 05a9 3b3d
00000120: e068 88bd 9d0a 213e ec96 35be 89c5 d93e
00000130: cf4b 323c be8c ec3e cbfb debc ac3f 11be
00000140: 782b 6c3e 8a4e 333e ca7f 1ebe 60cf 003e
00000150: 6c68 c2bd 7298 093c 78c0 2e3d f3e8 343f
00000160: 4a71 2a3e e0ef 0ebe bfb0 883d 44fc 5cbd
00000170: 3f3e ab3f d42a 07be 0668 373d dabc f6bd
00000180: 0a89 dbbc ca54 a2bd 9e2c 8fbc db80 493d
00000190: 222f aabd fa2c b73d f120 813c 809c 00be
000001a0: a845 a13d 550d fa3d f770 8ebd 5f8f 303a
000001b0: b4cc b93c 3c0a fbbc 8e02 a5bd f74f 2cbe
000001c0: 6465 8dbd af3a f0bd ab7f cd3d 2118 bc3d
000001d0: b2e3 debc 390b 33be 2396 7cbc b967 c8bb
000001e0: 1e5d eb3d 3c28 c23d 03ab 093e 7434 083d
000001f0: 3f43 ac3a 9f3d dfbd c960 223b 7fb9 8bbd

module.outconv.0.bias f4 [4]
0.16805251 0.09172974 0.092827365 0.01642648
00000000: f515 2c3e cddc bb3d 461c be3d d390 863c
