save/100_RES_decom_lightnogray.pth (torch, 13271 bytes, 5 tensors)

inconv.0.weight f4 [16, 3, 3, 3]
0	0xbe1a1c8a	-0.1504995
1	0xbe18b613	-0.14913206
2	0xbe7f6fa1	-0.24944927
3	0xbeadf03c	-0.33972347
4	0x3e09fb80	0.13474846
5	0xbe6b5096	-0.2297996
6	0xbe3f30e6	-0.18670997
7	0xbe5e5482	-0.21711925
8	0xbe9f422c	-0.31105173
9	0x3c724f53	0.01478942
10	0xbe21ca90	-0.15799928
11	0xbdd7c571	-0.10535706
12	0x3d955ce4	0.07293108
13	0xbd92a50a	-0.07160385
14	0xbd8f0270	-0.06982887
15	0x3e1a7d9e	0.15086982
16	0xbca5555f	-0.02018231
17	0xbcb1d56c	-0.021708213
18	0x3e06bf8e	0.1315901
19	0x3e2c92c6	0.16852865
20	0x3d943214	0.07236114
21	0x3e9bb489	0.30411175
22	0x3e195f6f	0.14977811
23	0x3e177c2c	0.14793462
24	0x3e7095d2	0.23494652
25	0x3d5a9e9a	0.05337391
26	0x3d26a6ad	0.0406863
27	0xbd5ec7cf	-0.05438977
28	0xbdae5cc7	-0.085137896
29	0xbda9a724	-0.08283833
30	0xbd8a2e78	-0.067471445
31	0x3e085267	0.13312684
32	0xbb4994ec	-0.003075893
33	0xbe2db1c1	-0.16962339
34	0xbd7dee46	-0.061994813
35	0xbd46bcce	-0.048519902
36	0xbe3f77a2	-0.1869798
37	0xbc9a23a6	-0.018815827
38	0xbc35083f	-0.011049329
39	0xbd1d15a0	-0.0383507
40	0x3e21c6dc	0.15798515
41	0x3c00ede0	0.007869214
42	0xbe3c2458	-0.18373239
43	0xbe049ed7	-0.12951218
44	0xbe271cfe	-0.16319653
45	0xbdd24355	-0.10266749
46	0x3d405530	0.04695624
47	0xbe4e3444	-0.20137125
48	0xbdbd2600	-0.092357635
49	0x3d7d6992	0.061868258
50	0x3e245122	0.16046575
51	0xbe46dae6	-0.1941944
52	0xbcaed296	-0.02134065
53	0xbe5055fe	-0.20345303
54	0x3cc01f91	0.023452552
55	0x3de56d6c	0.11202511
56	0xbd8ba0b3	-0.0681776
57	0xbdd0c2a7	-0.10193377
58	0xbcce274f	-0.025165228
59	0x3dc8f13a	0.09811635
60	0x3c1be6a2	0.009515436
61	0xbe4521cd	-0.19251175
62	0x3bd6f4d6	0.0065599484
63	0xbe4826d0	-0.19546056
64	0xbcfa2b1c	-0.030538134
65	0xbde4f954	-0.11180368
66	0x3e09b5ce	0.13448259
67	0xbe034948	-0.12820923
68	0x3ded1845	0.11576895
69	0x3e07b18d	0.13251324
70	0x3ce4ec29	0.027944641
71	0xbdb8e8b0	-0.090287566
72	0xbe3adb16	-0.18247637
73	0xbdbfa6ef	-0.09358012
74	0xbd869e69	-0.06573183
75	0xbde56f29	-0.11202843
76	0x3ddbd5e1	0.107341535
77	0xbe298416	-0.16554293
78	0x3e03f6d7	0.1288713
79	0x3e1aa81a	0.15103188
80	0xbdf14e3a	-0.11782499
81	0x3e0ff41e	0.14057967
82	0xbe003695	-0.12520821
83	0xbd8f9557	-0.07010906
84	0xbe0a7a94	-0.13523322
85	0x3df98bd7	0.121848755
86	0xbda108ce	-0.078630075
87	0xbc784c26	-0.015154874
88	0x3e157a08	0.14597332
89	0xbd0f57f2	-0.03499598
90	0xbdc78dd2	-0.09743847
91	0x3d87d28a	0.06631954
92	0xbdfdb79e	-0.12388538
93	0xbdc549ab	-0.09633192
94	0xbe3b2cf8	-0.18278873
95	0x3e341737	0.17586981
96	0xbe3fc4dd	-0.18727441
97	0x3b2c8eed	0.0026330308
98	0xbe01e02d	-0.12683173
99	0x3cf50261	0.02990836
100	0xbda8d18c	-0.08243093
101	0x3ce313e2	0.027719442
102	0xbc29a40b	-0.010354052
103	0x3da73e89	0.081662245
104	0xbbe6ed25	-0.007047313
105	0xbd3d1f79	-0.046172593
106	0xbcae992c	-0.021313272
107	0xbd8f3268	-0.06992036
108	0x3e109a06	0.14121255
109	0x3d25603c	0.04037498
110	0xbe0984c6	-0.13429555
111	0xbe059e7c	-0.13048738
112	0x3e04d430	0.12971568
113	0xbe4255a5	-0.18977983
114	0x3e13891b	0.1440777
115	0xbe287dc8	-0.16454232
116	0xbe341d23	-0.1758924
117	0x3cf723c3	0.03016842
118	0xbe00a8e6	-0.1256443
119	0x3dd62c60	0.104576826
120	0xbe0f3dcb	-0.13988416
121	0x3e465ffb	0.19372551
122	0x3df3976e	0.11894117
123	0xbe02081e	-0.12698409
124	0xbc85493c	-0.016270272
125	0x3d12c5cb	0.03583316
126	0x3de8b0dc	0.11361858
127	0x3bd9394b	0.0066291443
128	0x3d29707f	0.04136705
129	0xbd053e2c	-0.032529995
130	0x3dc41112	0.095735684
131	0xbe3ce44d	-0.18446465
132	0x3e212d30	0.15739894
133	0xbd109e35	-0.035307128
134	0xbe21c0b9	-0.15796174
135	0xbe1d4e47	-0.15361892
136	0xbe088391	-0.13331439
137	0xbdf240f4	-0.11828795
138	0x3bb02e6a	0.0053766267
139	0xbb9986ca	-0.0046852576
140	0xbd8740b9	-0.06604142
141	0x3d8e9c1e	0.06963371
142	0x3d96ab9d	0.073569514
143	0x3d8628c6	0.06550746
144	0x3df0557f	0.11735057
145	0xbe026971	-0.12735535
146	0xbdda6b58	-0.106650054
147	0x3e1fef30	0.15618587
148	0x3de295c6	0.11063723
149	0x3db2045e	0.08692239
150	0x3df1f074	0.11813441
151	0xbd2ce9ec	-0.042215273
152	0x3dbff5a5	0.09373025
153	0xbd73f959	-0.05956397
154	0x3e28bdef	0.16478704
155	0xbde6647d	-0.11249635
156	0xbcbdbdcd	-0.023161793
157	0xbe54306e	-0.207216
158	0xbe5dbfe8	-0.21655238
159	0xbd90dac8	-0.07072979
160	0x3dfa1e33	0.12212791
161	0x3daf86cf	0.085706346
162	0xbe0acb60	-0.13554144
163	0x3e15c694	0.14626533
164	0xbd97807b	-0.073975526
165	0xbaa93b31	-0.0012911317
166	0xbc7ae5b4	-0.015313555
167	0xbdfc2c51	-0.1231314
168	0xbdad6237	-0.084659986
169	0x3cd70c83	0.026251083
170	0x3dfacdfd	0.122463204
171	0x3e40e1da	0.18836156
172	0xbdbc4426	-0.09192686
173	0xbe2114d7	-0.15730606
174	0xbe1a931d	-0.15095182
175	0x3c2ffeef	0.010741933
176	0x3dee2014	0.11627212
177	0x3db270d1	0.08712924
178	0xbda3ec2a	-0.08004029
179	0xbd9bdccf	-0.07610475
180	0xbdeb8625	-0.115001954
181	0x3d432349	0.047641072
182	0x3dd22ec6	0.102628276
183	0x3d430e67	0.047621157
184	0x3d93ab7b	0.07210442
185	0x3cd9a4d1	0.026567848
186	0xbe1588a7	-0.1460291
187	0xbe22bc26	-0.15892085
188	0x3d937394	0.07199779
189	0xbe2049a4	-0.15653092
190	0x3e229fb8	0.1588124
191	0xbe252213	-0.1612628
192	0xbe21dfa4	-0.15807968
193	0xbdebac1d	-0.115074374
194	0x3d24f34a	0.04027108
195	0x3d315d8e	0.04330211
196	0x3db70729	0.089369126
197	0x3da7cbc1	0.0819316
198	0x3cd618f4	0.026134945
199	0x3bdf896d	0.0068218024
200	0xbd67776f	-0.056510385
201	0x3e08c241	0.13355352
202	0x3e18bb00	0.14915085
203	0x3d969bc6	0.0735393
204	0x3d65883c	0.056038126
205	0xbcf01f6d	-0.02931186
206	0x3ce5fae6	0.02807374
207	0x3e03f792	0.1288741
208	0x3d8ea10e	0.069643125
209	0x3c6f5aa2	0.014609011
210	0x3c094287	0.008377678
211	0xbe3bc437	-0.18336569
212	0xbde53e5f	-0.11193537
213	0xbda8eef0	-0.08248699
214	0xbcf5808e	-0.029968526
215	0x3ce52c4d	0.027975226
216	0xbe3c2384	-0.18372923
217	0xbd3d1108	-0.04615882
218	0xbe389962	-0.18027261
219	0xbe113268	-0.14179385
220	0x3c63cf4e	0.013904406
221	0xbb0b9e37	-0.002130402
222	0x3dc86858	0.09785527
223	0x3e3657b4	0.17806894
224	0xbe0caa04	-0.13736731
225	0x3d902f3e	0.07040261
226	0xbd9296ed	-0.07157693
227	0xbb9ec16b	-0.0048448346
228	0xbd57228d	-0.052523185
229	0x3c53748e	0.012906207
230	0x3d2b3592	0.041799136
231	0xbe33ae7d	-0.17547031
232	0xbe2855d5	-0.16438992
233	0x3e417abb	0.18894474
234	0xbe27a26e	-0.16370556
235	0xbd0feae3	-0.035136115
236	0x3c08e779	0.008355969
237	0x3dab02d3	0.08350148
238	0x3a2c631e	0.0006576049
239	0x3d142caf	0.036175426
240	0xbdb2e5c5	-0.08735231
241	0xbe24045a	-0.16017285
242	0xbe35af9c	-0.17742771
243	0x3e2a8ee8	0.16656077
244	0x3e339522	0.17537358
245	0x3e001921	0.12509586
246	0x3ce2c9a3	0.027684039
247	0xbcb116f3	-0.021617388
248	0xbdccc905	-0.09999279
249	0x3e248f29	0.16070236
250	0xbe18bc94	-0.14915687
251	0x3dc7d661	0.097576864
252	0x3da9c985	0.0829039
253	0xbd8054ce	-0.06266175
254	0x3ddb8a00	0.10719681
255	0xbd250f1a	-0.040297605

inconv.0.bias f4 [16]
0	0x3d8bb6e7	0.06821995
1	0x3e9a13d7	0.30093262
2	0xbd99e9e6	-0.07515316
3	0xbdfdaa9f	-0.12386059
4	0xbe1a0c4d	-0.15043755
5	0x3e420bc1	0.18949796
6	0x3eb1e4df	0.34744927
7	0xbe3f1580	-0.18660545
8	0xbe3ff614	-0.18746215
9	0x3cf9fd91	0.030516418
10	0x3e25dea4	0.16198212
11	0x3e85a079	0.26098993
12	0x3d0284a4	0.031864777
13	0x3d72db2e	0.059291057
14	0x3e70954e	0.23494455
15	0x3e68fd11	0.22752787

convs.0.weight f4 [16, 16, 3, 3]
0	0xbd35a6ea	-0.044348635
1	0xbd4b8763	-0.04968966
2	0x3bad8b79	0.0052961675
3	0xbd07e36f	-0.033175882
4	0xbe07c4e2	-0.13258699
5	0x394e2b53	0.0001966183
6	0xbd706703	-0.05869199
7	0x3d559d46	0.05215194
8	0x3d31ad84	0.043378368
9	0x3e5f118b	0.21784036
10	0x3e17fdec	0.14842957
11	0x3de03117	0.10946863
12	0x3e3f4050	0.18676877
13	0x3e4776c4	0.19478899
14	0x3df9b50e	0.121927366
15	0x3e456038	0.19274986
16	0x3e3fa773	0.1871622
17	0x3dbafa22	0.0912974
18	0x3d926d65	0.071497716
19	0x3e35953b	0.17732708
20	0x3d338fcd	0.04383831
21	0xbcd68a95	-0.026189128
22	0xbdd51681	-0.10404683
23	0x3c847fff	0.016174315
24	0x3c311eb3	0.010810542
25	0x3d9d9e3f	0.07696199
26	0x3e07a699	0.13247146
27	0xbd9c489d	-0.076310374
28	0xbd4ceaec	-0.050028726
29	0x3c207042	0.009792389
30	0xbd6ddbd9	-0.05807099
31	0xbb7ac238	-0.0038262736
32	0x3d913d1e	0.07091735
33	0xbd61aa9a	-0.05509434
34	0x3cd32153	0.025772726
35	0x3d005715	0.031333048
36	0x3e4819bb	0.19541065
37	0x3dae7dbe	0.08520077
38	0x3dbcacda	0.09212656
39	0x3db9552f	0.090494506
40	0x3e1ae00c	0.1512453
41	0x3d311605	0.04323389
42	0x3e593865	0.21212919
43	0x3ddc9353	0.10770287
44	0xbc2f4dde	-0.010699717
45	0x3da1488e	0.07875167
46	0x3dd05edc	0.10174343
47	0x3df34b74	0.11879626
48	0x3d02f46c	0.03197138
49	0xbcfb3b6a	-0.03066798
50	0x3db0883f	0.08619737
51	0xbd68eca0	-0.05686629
52	0x3cd5cdf1	0.026099177
53	0xbd15f051	-0.036606137
54	0x3eb5cc5d	0.3550748
55	0x3e91a934	0.28449404
56	0x3e22a018	0.15881383
57	0x3ec01b4d	0.3752083
58	0x3edb8361	0.42873672
59	0x3e835e74	0.25658
60	0x3ec3bacb	0.3822845
61	0x3e98ebfa	0.29867536
62	0x3e4a7c13	0.19773893
63	0x3cb17618	0.021662757
64	0xbd87b44d	-0.066261865
65	0x3d91f5a4	0.0712693
66	0xbd9d22f1	-0.0767268
67	0x3d862dcf	0.06551706
68	0x3cc90953	0.024540579
69	0xbc4f0438	-0.012635283
70	0xbd329b4a	-0.043605126
71	0xbcddbcee	-0.027067628
72	0x3d7f58c8	0.062340528
73	0x3d1f33e0	0.03886783
74	0xbda02340	-0.078192234
75	0x3d984327	0.07434683
76	0x3c1bc74b	0.009507964
77	0xbda78158	-0.08178967
78	0xbda940ac	-0.08264288
79	0x3cab15db	0.020884445
80	0x3da40c5b	0.08010169
81	0xbe015824	-0.12631279
82	0xbdb71819	-0.08940143
83	0xbdeec400	-0.11658478
84	0x3d979fd9	0.074035354
85	0xbe049276	-0.12946495
86	0x3d8580fd	0.06518743
87	0x3d0dd14f	0.03462344
88	0x3d1e562d	0.038656402
89	0x3db8b9d1	0.09019817
90	0x3e1efd74	0.15526372
91	0x3e821dac	0.25413263
92	0x3e4cfe5d	0.20018907
93	0xbd7ea2b8	-0.0621669
94	0xbcf8c9ff	-0.030369757
95	0x3e2b5a3d	0.16733642
96	0x3dca906f	0.0989083
97	0x3d94b2b7	0.0726065
98	0x3dec5067	0.11538773
99	0x3d6789f5	0.05652805
100	0x3dbe00e3	0.09277513
101	0xbb98b2b4	-0.004659975
102	0x3e051cd7	0.12999283
103	0x3ddf21ef	0.10895144
104	0x3e1f40c3	0.15552048
105	0x3defdc00	0.117118835
106	0x3d29d2f5	0.04146095
107	0x3dba0829	0.09083588
108	0xbdf5e50d	-0.120065786
109	0x3bbbcbd0	0.0057310835
110	0xbd871704	-0.06596187
111	0xbdb6c396	-0.08924024
112	0xbe51420c	-0.20435351
113	0xbdd5454a	-0.104136065
114	0xbda37de6	-0.079829976
115	0xbdc520fc	-0.09625432
116	0xbe1aec1b	-0.1512913
117	0xbdb88c62	-0.09011151
118	0x3c2a1920	0.010381967
119	0xbded6833	-0.1159214
120	0xbd178cae	-0.036999397
121	0xbda80b6b	-0.08205303
122	0xbda5cf9b	-0.08096238
123	0xbdeb1abd	-0.11479709
124	0xbc661170	-0.014042243
125	0xbe226e1b	-0.15862314
126	0x3d8b869e	0.068127856
127	0x3cba7649	0.02276148
128	0x3dcc56c9	0.099774905
129	0x3e2534a7	0.16133367
130	0x3c20719e	0.009792713
131	0x3da84bf0	0.08217609
132	0x3d646048	0.055755883
133	0x3cbb4153	0.022858297
134	0x3dd6f06b	0.10495075
135	0x3e3ec35c	0.18629211
136	0x3d87307a	0.06601043
137	0x3ddd5e46	0.10808997
138	0x3e1f3873	0.15548877
139	0x3e3cfab1	0.18455006
140	0x3e4e57df	0.20150708
141	0x3c9093b5	0.017648557
142	0x3e337dba	0.1752843
143	0x3dd0e9fc	0.10200879
144	0xb9c9574e	-0.00038402755
145	0xbcadf936	-0.021236997
146	0xbd2c96bb	-0.042135935
147	0x3ce72852	0.028217468
148	0x3d50be3a	0.050962664
149	0xbcbf77b6	-0.023372512
150	0x3d2a2eca	0.041548528
151	0x3d911de5	0.0708578
152	0x3d6e00aa	0.058106102
153	0xbccbbe50	-0.024871022
154	0xbd813680	-0.06309223
155	0xbce06a43	-0.02739442
156	0xbd157de6	-0.03649702
157	0x3d2c0278	0.041994542
158	0x3d4e7087	0.050400283
159	0xbd831af6	-0.06401627
160	0x3d994867	0.07484513
161	0xbd81cd52	-0.0633799
162	0xbd8a9e68	-0.06768495
163	0x3d0b06e4	0.03394212
164	0x3da4a2d0	0.080388665
165	0x3ccc016b	0.02490302
166	0xbd929e01	-0.07159043
167	0x3d07caa1	0.033152226
168	0xbc7c497e	-0.015398381
169	0xbbcc67f2	-0.006237977
170	0xbcd25ae4	-0.025678106
171	0xbda99bd6	-0.082816765
172	0xbc9c94d6	-0.01911394
173	0x3da53904	0.080675155
174	0xbd5a4f3e	-0.053298227
175	0x3d6190bb	0.055069666
176	0xbd2f46c6	-0.042792104
177	0xbd8c892b	-0.068621
178	0xbd362670	-0.04447025
179	0x3b9029d6	0.0043995185
180	0xbd90e995	-0.07075802
181	0x3ca39342	0.019967679
182	0x3d2331fa	0.039842583
183	0xbd066e6e	-0.032820158
184	0x3c6a24bf	0.0142909875
185	0x3d972b89	0.073813505
186	0x3d99fbab	0.07518705
187	0x3d1793ac	0.037006065
188	0x3d983204	0.07431415
189	0xbde25b8f	-0.1105262
190	0xbd4e83bc	-0.0504186
191	0x3d712b71	0.05887932
192	0xbd807852	-0.06272949
193	0xbdb0e32b	-0.08637079
194	0x3d0124a1	0.031529073
195	0xbde028c6	-0.10945277
196	0x3c5c6216	0.01345112
197	0xbc10ad2d	-0.008830351
198	0xbda9401c	-0.08264181
199	0xbd118135	-0.035523612
200	0xbdd77684	-0.10520652
201	0xbd5c9190	-0.053849757
202	0xbdba5ecb	-0.091001116
203	0xbd1ab3f1	-0.03776926
204	0xbdd18a99	-0.102315135
205	0xbc566fcb	-0.013088177
206	0xbc78df94	-0.015190024
207	0x3d8c31b5	0.06845418
208	0xbcaa33ee	-0.020776715
209	0xbd4bddc4	-0.04977204
210	0x3d297032	0.041366763
211	0xbccce19a	-0.025009919
212	0x3cdd15a0	0.02698785
213	0x3d389c7d	0.045071114
214	0xbcea5d5e	-0.028608974
215	0xbd6027b3	-0.05472536
216	0xbd80665e	-0.06269525
217	0xbcee1b66	-0.029065799
218	0xbda77d6b	-0.081782185
219	0xbda29b3a	-0.07939763
220	0x3d2ad6d3	0.04170878
221	0x3d5ce7d8	0.05393204
222	0x3b3c19d6	0.0028701923
223	0x3d65a550	0.056065857
224	0x3d9c4e47	0.07632118
225	0xbccd78ca	-0.02508201
226	0xbd3a5dfb	-0.045499783
227	0xbc823e03	-0.01589871
228	0x3d831be2	0.064018026
229	0x3d048963	0.032357585
230	0x3ab37973	0.0013692811
231	0xbd6d3ee3	-0.0579213
232	0xbd350a53	-0.0441993
233	0xbdb044ca	-0.086068705
234	0x3d70654f	0.058690365
235	0xbd414587	-0.047185447
236	0x3d45be4c	0.048277184
237	0xbda23616	-0.07920472
238	0xbbcff636	-0.0063464893
239	0x3d3dcf0a	0.046340026
240	0x3d84e661	0.06489254
241	0xbc995cb9	-0.018720971
242	0x3c5528d1	0.01301022
243	0xbdb538c0	-0.08848715
244	0x3cebc6ae	0.028781261
245	0xbda15f2a	-0.07879479
246	0x3d055be8	0.03255835
247	0x3d8508ad	0.064957954
248	0x3d3866e7	0.04502001
249	0x3d6a15f4	0.057149842
250	0x3d9a65be	0.07538937
251	0xbc8bace8	-0.017050222
252	0x3c844df0	0.016150445
253	0x3d617fa6	0.055053376
254	0xbcb84e48	-0.022498265
255	0xbd043ef8	-0.032286614

convs.0.bias f4 [16]
0	0x3d811d36	0.063044
1	0xbd30d142	-0.043168314
2	0x3e1be38a	0.15223518
3	0xbd7347e2	-0.059394725
4	0xbd037565	-0.032094378
5	0x3e9bd0ae	0.30432647
6	0xbd9c3c8f	-0.07628738
7	0x3b66dd34	0.0035227062
8	0x3cdf6fc4	0.027274974
9	0x3e0246bd	0.12722297
10	0x3c275550	0.010213211
11	0xbda41b36	-0.080130026
12	0x3e27c333	0.16383056
13	0x3e36e1d3	0.17859583
14	0x3e365855	0.17807133
15	0xbdb22394	-0.08698192

outconv.0.weight f4 [1, 16, 1, 1]
0	0xbe2c5ef4	-0.16833097
1	0xbca3e8b5	-0.020008424
2	0xbe8cad80	-0.2747612
3	0x3c0effab	0.008727948
4	0x3b8d2cfe	0.004308342
5	0xbd68cc50	-0.056835473
6	0x3d9ae871	0.07563866
7	0x3de32fa8	0.11093074
8	0x3e231021	0.15924121
9	0xbe13355b	-0.14375822
10	0xbea1c60c	-0.3159641
11	0xbd0a6dd9	-0.033796165
12	0xbe7a7829	-0.244599
13	0xbdab8904	-0.08375743
14	0xbde06f90	-0.10958779
15	0xbbbb5f48	-0.0057181455
