save/100_RES_decom.pth (torch, 13399 bytes, 6 tensors)

inconv.0.weight f4 [16, 3, 3, 3]
0	0xbd970f24	-0.07375935
1	0xbd4ebe47	-0.05047443
2	0xbdc5edf4	-0.096645266
3	0x3dd1e7e5	0.102493085
4	0x3ceffef2	0.029296372
5	0x3d33e738	0.04392168
6	0xbe57b8b9	-0.2106656
7	0x3c70f642	0.01470715
8	0xbe454989	-0.19266333
9	0xbe4e418d	-0.20142193
10	0xbdd8bf2f	-0.105833404
11	0xbe190b60	-0.14945745
12	0x3cc8b765	0.024501512
13	0x3e0528ae	0.130038
14	0xbd01bd48	-0.031674653
15	0xbe04310e	-0.12909338
16	0x3bbf8ffc	0.0058460217
17	0xbe321731	-0.1739166
18	0xbd0e35a5	-0.03471913
19	0xbdfc10de	-0.12307905
20	0xbd45c1c7	-0.048280504
21	0xbe339f1b	-0.17541163
22	0x3e578a73	0.21048908
23	0x3d13885a	0.036018707
24	0xbe058dbb	-0.13042347
25	0x3bb7195f	0.0055877413
26	0xbe3f1604	-0.18660742
27	0xbe2be0b0	-0.1678493
28	0x3d73ac57	0.059490528
29	0xbd859500	-0.0652256
30	0x3d048522	0.032353528
31	0xbb2d98df	-0.0026488823
32	0x3c1f234b	0.009713004
33	0xbd9390cd	-0.07205353
34	0x3d55cb82	0.052196033
35	0xbe232ae1	-0.15934326
36	0xbde0eda0	-0.10982823
37	0x3cea3f6d	0.028594697
38	0xbe039acc	-0.12852019
39	0x3d873b0f	0.066030614
40	0x3e116736	0.14199528
41	0xbd5a195c	-0.05324684
42	0xbd8970c0	-0.067109585
43	0xbb5053c8	-0.0031788219
44	0x3c1152e7	0.008869863
45	0xbe19114c	-0.14948004
46	0x3d9cb953	0.07652535
47	0xbe142b47	-0.14469634
48	0x3d88ae1e	0.06673835
49	0x3d31bd4f	0.04339343
50	0x3d63a36b	0.05557577
51	0xbe129421	-0.14314319
52	0xbd0007d3	-0.03125746
53	0xbe150c37	-0.14555441
54	0xbe5ff3cb	-0.21870343
55	0x3d892dbc	0.06698176
56	0x3c0c5bf2	0.008566843
57	0x3df1a173	0.11798372
58	0xbd601da3	-0.054715764
59	0xbd97b43c	-0.07407424
60	0xbe18df58	-0.14928949
61	0xbc315bcf	-0.0108251115
62	0x3dad69cc	0.08467445
63	0x3d6ab4ee	0.057301454
64	0x3e0c2357	0.13685356
65	0xbe66b205	-0.22528847
66	0xbbd4d35d	-0.006494923
67	0x3d5ebdce	0.05438023
68	0x3e12bff0	0.14331031
69	0xbe1af742	-0.15133384
70	0xbcef0005	-0.029174814
71	0xbe41b35b	-0.18916075
72	0xbd0fd880	-0.03511858
73	0xbdacb6c0	-0.08433294
74	0xbb5b8a84	-0.003349931
75	0xbdbea3c2	-0.09308578
76	0x3cd21f30	0.025649637
77	0x3ded388a	0.115830496
78	0x3d611e86	0.05496075
79	0x3d979fcc	0.07403526
80	0xbe3a7c40	-0.1821146
81	0xbe465d0e	-0.19371435
82	0xbe23cf74	-0.15997106
83	0x3d991e54	0.07476488
84	0xbd791746	-0.06081321
85	0xbd050ec9	-0.032484803
86	0xbe30e8a0	-0.1727624
87	0x3c7915b7	0.015202931
88	0x3dcd4b5f	0.100241415
89	0xbd3f51ac	-0.046708748
90	0x3ceb7983	0.028744465
91	0xbc8154f3	-0.015787577
92	0xbd9c9592	-0.07645716
93	0xbda8cc06	-0.082420394
94	0x3d80b329	0.06284172
95	0x3d0124f1	0.03152937
96	0xbdf0aa17	-0.11751192
97	0xbd940162	-0.07226826
98	0xbe0a28be	-0.13492104
99	0x3d455715	0.04817875
100	0xbe002249	-0.12513079
101	0xbcf00d06	-0.029303085
102	0xbd021f71	-0.031768266
103	0xbd90d56d	-0.07071958
104	0xbe621895	-0.2207969
105	0x3c96367a	0.018336523
106	0x3b8fcdd5	0.0043885508
107	0xbc014602	-0.007890226
108	0x3d3e71a4	0.046495095
109	0xbcd7a08a	-0.026321668
110	0x3e4612ee	0.19343159
111	0x3e04db8a	0.12974373
112	0x3dc0fe7e	0.094235405
113	0x3e260b5c	0.16215271
114	0xbcdf4375	-0.027253846
115	0x3e171b30	0.14756465
116	0xbdb4d2a1	-0.08829237
117	0xbe4e4e8b	-0.2014715
118	0xbe4bb841	-0.19894506
119	0xbd41082d	-0.047126938
120	0xbe7dcbdd	-0.24784799
121	0xbe41132a	-0.18854967
122	0xbdc6feea	-0.0971659
123	0xbdf123de	-0.11774419
124	0xbd9ff987	-0.078112654
125	0xbe21a480	-0.15785408
126	0xbdc6f298	-0.0971424
127	0x3c3f3a8c	0.0116716735
128	0x3da0a199	0.07843322
129	0x3c481a90	0.012213364
130	0xbe02dda6	-0.12779865
131	0xbe14d65b	-0.14534895
132	0xbdd8e8fc	-0.10591313
133	0xbd570275	-0.052492578
134	0xbdcfc1d3	-0.10144391
135	0x3db4e386	0.08832459
136	0x3e05061f	0.12990616
137	0xbd87e0e6	-0.06634693
138	0xbd8c5287	-0.06851678
139	0x3c2fcefe	0.010730503
140	0xbe121b39	-0.14268197
141	0xbc9494ce	-0.018137362
142	0xbb9133a2	-0.004431204
143	0xbe08178f	-0.13290237
144	0xbc4b2f64	-0.0124014355
145	0x3dd5f665	0.10447387
146	0x3e245d75	0.16051276
147	0xbcfde1f3	-0.03099153
148	0xbe07963d	-0.13240905
149	0xbdc8b8ab	-0.098008476
150	0x3e17d67c	0.14827913
151	0x3c4ce2ca	0.012505243
152	0x3d671c59	0.05642352
153	0xbd83aa79	-0.064289995
154	0xbe06811d	-0.1313519
155	0x3daf13e7	0.08548718
156	0xbd95c86e	-0.073136196
157	0x3de426c0	0.111402035
158	0xbd0f75c5	-0.035024423
159	0x3c251733	0.010076332
160	0x3e13dffb	0.1444091
161	0xbc579f7b	-0.013160582
162	0xbdf32030	-0.11871374
163	0x3e1f908c	0.15582484
164	0xbdad0b4b	-0.084494196
165	0x3dae582d	0.08512912
166	0x3d1d9498	0.03847179
167	0xbdef8ef2	-0.116971865
168	0xbe1ad8a4	-0.15121704
169	0xbd37ea2e	-0.044901066
170	0x3d3ad9d7	0.045617905
171	0xbd96cfa1	-0.07363821
172	0x3d9b6146	0.07586913
173	0xbe0e604c	-0.13903922
174	0x3b96b4d3	0.0045991926
175	0x3dc8c6c9	0.0980354
176	0xbd5e2714	-0.054236487
177	0xbe15bf3c	-0.14623731
178	0x3db87190	0.09006035
179	0xbccd42ee	-0.025056329
180	0xbdf08bba	-0.11745401
181	0xbd745991	-0.05965573
182	0xbdd14c77	-0.10219663
183	0xbd95ff71	-0.07324112
184	0x3db367de	0.087600455
185	0x3d9a4694	0.07532993
186	0xbd341626	-0.043966435
187	0xbbaa2269	-0.0051920903
188	0xbc500a53	-0.012697774
189	0x3c1e60d0	0.009666637
190	0xbdb88fc6	-0.090117976
191	0xbe00549d	-0.12532277
192	0x3e257d77	0.16161142
193	0x3d75431c	0.059878454
194	0xbd3b0f3f	-0.045668837
195	0xbd4e107a	-0.050308682
196	0xbda2d2a8	-0.07950336
197	0x3c917341	0.017755153
198	0xbd91cded	-0.07119355
199	0xbdce2522	-0.10065676
200	0x3e07aa0e	0.13248464
201	0x3e61909c	0.2202782
202	0x3d5847a1	0.052802686
203	0x393e207b	0.00018131912
204	0xbd074fa9	-0.033034954
205	0xbdc30e61	-0.09524227
206	0xbd5a0ed2	-0.05323679
207	0xbda537cf	-0.08067285
208	0x3d189872	0.03725476
209	0xbc69d310	-0.014271513
210	0x3de6f79d	0.11277697
211	0x3d1deca7	0.038555767
212	0xbda09efe	-0.07842825
213	0x3d99962f	0.07499348
214	0xbd8a141e	-0.06742118
215	0x3d8e2e4f	0.069424264
216	0xbd508a75	-0.050913293
217	0xbd4f8e79	-0.050672982
218	0x3e4ffbf5	0.20310958
219	0xbda4b5b4	-0.080424696
220	0xbc779ecc	-0.015113544
221	0x3da5cda0	0.080958605
222	0x3dd42210	0.103580594
223	0xbc1141c9	-0.008865782
224	0x3e265b95	0.16245873
225	0xbdbd78f9	-0.09251589
226	0x3d02c92b	0.03193013
227	0xbde12fde	-0.10995458
228	0xbd7e3b65	-0.06206836
229	0x3c83f732	0.016109083
230	0xbd1fac4b	-0.03898267
231	0x3e190826	0.14944515
232	0x3d92e632	0.071728125
233	0x3db01331	0.085974105
234	0x3dc7f6f0	0.097638965
235	0x3d8586ee	0.065198764
236	0x3cf600e9	0.03002973
237	0x3dd0a7b1	0.101882346
238	0xbdba771b	-0.09104749
239	0x3e40a4ee	0.18812916
240	0xbe223eaa	-0.15844217
241	0xbdbf8e98	-0.093533695
242	0xbdfafec1	-0.12255622
243	0x3e26419f	0.1623597
244	0x3e2700c0	0.1630888
245	0xbe00532d	-0.12531729
246	0xbd9523e3	-0.072822355
247	0xbd9ea75c	-0.07746765
248	0xbcad4aa4	-0.021153755
249	0xbd8fefd4	-0.070281655
250	0x3d101a2d	0.035181213
251	0x3d595ce2	0.053067096
252	0x3d0a20fe	0.03372287
253	0xbe18a86e	-0.14908001
254	0xbc497da6	-0.012298023
255	0xbe0077e9	-0.12545742

inconv.0.bias f4 [16]
0	0x3eb92f06	0.3616869
1	0x3ed252b4	0.41078722
2	0x3e870026	0.263673
3	0x3e6a74bf	0.22896098
4	0xbd89bdd4	-0.0672566
5	0x3d85b333	0.0652832
6	0x3e9324b4	0.2873894
7	0x3ec3b707	0.38225576
8	0x3c317879	0.010831946
9	0x3ca0e40a	0.019639987
10	0xbd5b20cc	-0.053498074
11	0x3ea1aca2	0.3157702
12	0x3e20d082	0.1570454
13	0x3ea1b563	0.315837
14	0x3ced0d49	0.028936999
15	0xbdab9cf9	-0.083795495

convs.0.weight f4 [16, 16, 3, 3]
0	0xbe261b7a	-0.16221419
1	0xbe3fffab	-0.18749873
2	0xbd32a386	-0.04361298
3	0xbaab718a	-0.0013080102
4	0xbdb9ab7a	-0.0906591
5	0x3dcaf282	0.09909536
6	0xbc99960a	-0.018748302
7	0x3d308f35	0.043105323
8	0x3e2db011	0.16961695
9	0xbd700164	-0.058595076
10	0x3c278fb4	0.010227133
11	0x3e10c397	0.14137112
12	0x3df98fe0	0.12185645
13	0x3d44de98	0.048063844
14	0x3e634880	0.22195625
15	0xbcb0d98b	-0.021588108
16	0xbd065ba0	-0.032802224
17	0x3d8278d3	0.06370702
18	0xbe082284	-0.13294417
19	0xbdcde800	-0.10054016
20	0xbd20e071	-0.039276544
21	0xbda5b707	-0.0809155
22	0xbc8adf27	-0.01695211
23	0xbd354189	-0.044251952
24	0xbd86c9ee	-0.06581484
25	0xbd2732c3	-0.040819895
26	0xbc51785f	-0.012785046
27	0xbe33d9b5	-0.17563517
28	0xbe6db46e	-0.2321336
29	0x3e24ba24	0.16086632
30	0xbea338e7	-0.3187935
31	0xbeb8e1be	-0.36109728
32	0x3cbfd340	0.023416162
33	0xbe945501	-0.28971103
34	0x3c872012	0.016494785
35	0x3ea73ea0	0.32664967
36	0xbe603055	-0.21893437
37	0xbd865d8e	-0.06560813
38	0xbd93d739	-0.07218785
39	0xbc8992ca	-0.016793627
40	0xbec81d5c	-0.390849
41	0xbc1bb561	-0.009503693
42	0x3e4acaf6	0.19803986
43	0x3e1785d2	0.14797142
44	0xbd422f91	-0.047408644
45	0xbd131866	-0.03591194
46	0xbca2bc53	-0.01986519
47	0x3c1e6bfa	0.009669298
48	0xbdc540df	-0.09631514
49	0xbd19bf9b	-0.037536245
50	0x3cb36b9b	0.021901896
51	0xbe07034f	-0.13184856
52	0xbd873b8f	-0.06603157
53	0x3cfa6686	0.030566465
54	0xbcfe7421	-0.031061234
55	0x3c28a641	0.010293544
56	0xbcae2106	-0.021255981
57	0xbd3f46f9	-0.046698544
58	0xbcaa66c8	-0.020800963
59	0xbd9c9ab4	-0.07646695
60	0x3cf38ff0	0.02973172
61	0xbbaebf6e	-0.005332879
62	0x3d6fc02a	0.05853287
63	0x3d8ae492	0.067818776
64	0x3cf25825	0.029583046
65	0xbd046b79	-0.032329056
66	0x3d925fdc	0.0714719
67	0x3d9d695d	0.07686112
68	0xbd319f91	-0.043365065
69	0xbda53423	-0.08066585
70	0x3d98b8ef	0.07457148
71	0x3c10c927	0.008837021
72	0xbd22bf7d	-0.0397334
73	0xbd4a9e8d	-0.049467612
74	0x3d481d49	0.048856054
75	0xbc1c3cc5	-0.009535973
76	0xbdc22dc2	-0.09481384
77	0x3d5168b7	0.051125254
78	0xbb614673	-0.0034374266
79	0xbcaf76d1	-0.02141896
80	0xbd67a269	-0.05655137
81	0x3cb7a0e9	0.022415595
82	0xbd5f457f	-0.054509636
83	0xbc0ef872	-0.008726226
84	0x3d7d8083	0.061890136
85	0xbccc2870	-0.024921626
86	0x3c992240	0.01869309
87	0x3d555546	0.052083276
88	0x3d7281dd	0.05920588
89	0x3cd9c4e2	0.026583139
90	0xbda6e85f	-0.0814979
91	0x3c7d5cf2	0.015464054
92	0x3d1af16b	0.03782789
93	0xbd2c6f9e	-0.042098634
94	0xbda3c6d4	-0.07996908
95	0x3d193ceb	0.03741161
96	0x3e399bb6	0.18125805
97	0x3e9c3578	0.30509543
98	0x3e8968de	0.2683782
99	0xbf042332	-0.51616204
100	0xbec645f0	-0.38725233
101	0xbdf0da80	-0.117604256
102	0x3ef9d9c5	0.48798957
103	0x3ee390e9	0.44446495
104	0x3e0c013d	0.13672347
105	0xbef77377	-0.4833028
106	0xbeca909b	-0.3956345
107	0x3da269a1	0.07930303
108	0x3c933c65	0.017973134
109	0x3b9d12cf	0.004793502
110	0xbc995c33	-0.018720722
111	0x3c7bc189	0.015365967
112	0x3c1643f4	0.009171475
113	0x3d5295ff	0.05141258
114	0xbdd395af	-0.10331284
115	0xbdb7eb68	-0.08980447
116	0xbd04f408	-0.03245929
117	0xbde0bbd3	-0.109733246
118	0x3c4dea66	0.012568092
119	0xbd012062	-0.031525023
120	0x3bc2e468	0.0059476383
121	0xbca9e8ab	-0.020740828
122	0xbbba9099	-0.005693507
123	0x3d98fba6	0.07469873
124	0xbd4e9de0	-0.05044353
125	0x3d564f6d	0.05232184
126	0xbe021882	-0.12704661
127	0x3c2ebb08	0.010664709
128	0x3d704d04	0.058667198
129	0x3d4fcb38	0.050730914
130	0xbd9397cf	-0.072066896
131	0xbc25f90c	-0.010130178
132	0x3e2acf83	0.16680722
133	0xbc6c431d	-0.014420298
134	0xbdbbd6b7	-0.09171813
135	0x3db8891a	0.09010525
136	0xbe37b43e	-0.1793985
137	0xbdbd2f6d	-0.092375614
138	0x3df00fb4	0.11721745
139	0xbc18d9a1	-0.0093292305
140	0xbcbaba21	-0.022793831
141	0x3e46b348	0.19404328
142	0x3d8362d5	0.06415335
143	0xbbfe8453	-0.007767239
144	0x3da9c61a	0.08289738
145	0x3e63b10e	0.2223551
146	0x3e40af31	0.1881683
147	0x3e0ebb61	0.13938667
148	0x3e547e8a	0.20751396
149	0x3e4ca9f0	0.19986701
150	0x3e52d052	0.2058728
151	0x3e40f99a	0.18845215
152	0x3cf28059	0.029602217
153	0x3e0405ee	0.12892887
154	0x3e10b64b	0.14132039
155	0x3e223e1c	0.15844005
156	0x3def2fd1	0.11679042
157	0xbe09a1eb	-0.13440673
158	0x3e62dceb	0.22154586
159	0x3de203ce	0.11035882
160	0x3e4c16ed	0.1993062
161	0x3e1f0400	0.1552887
162	0xbd01e21e	-0.031709783
163	0x3cc8fd8a	0.02453496
164	0x3d235754	0.039878204
165	0x3e0de1bc	0.13855642
166	0x3d684e78	0.05671546
167	0x3d033198	0.03202972
168	0x3da5993c	0.08085868
169	0x3d423413	0.047412943
170	0x3cd477bb	0.025935998
171	0x3e16db20	0.14732027
172	0x3d8748d2	0.06605686
173	0x3df35998	0.11882323
174	0xbc3e81fd	-0.011627671
175	0xbdfada8e	-0.12248717
176	0x3d027d4f	0.031857785
177	0x3dd3c81f	0.103409044
178	0xbdbedc20	-0.09319329
179	0x3d6fb31d	0.058520425
180	0x3ce7bf74	0.028289534
181	0x3adcc205	0.001684249
182	0xbd8b7d01	-0.06810952
183	0x3c8ca53c	0.017168634
184	0x3dddf0d6	0.108369514
185	0x3c6f8d99	0.014621162
186	0xbd875d90	-0.066096425
187	0x3cc74c87	0.024328483
188	0xbd566d5b	-0.052350383
189	0x3c8184fd	0.015810484
190	0xbc65f2af	-0.014034911
191	0x3d248997	0.04017028
192	0x3cbcd900	0.023052692
193	0x3e3dee1a	0.1854786
194	0x3d049a6f	0.03237384
195	0xbce86d63	-0.028372472
196	0xbd042c6e	-0.032268934
197	0x3bd883f4	0.006607527
198	0x3c3ea429	0.0116358185
199	0x3de1a538	0.11017841
200	0xbcff54b1	-0.031168314
201	0x3d8f8f3a	0.0700974
202	0x3db7b8f8	0.08970827
203	0xbbe9b329	-0.0071319533
204	0x3d467667	0.04845276
205	0x3db0407d	0.0860605
206	0xbd5c007a	-0.053711392
207	0x3e031173	0.12799625
208	0x3dfd76ea	0.12376197
209	0x3ce9e89b	0.028553298
210	0x3dc03926	0.093859
211	0x3b6b0815	0.0035862972
212	0x3dd2cc14	0.10292831
213	0x3d336b24	0.04380335
214	0x3e21a39a	0.15785065
215	0x3d6141ac	0.05499427
216	0x3d5695c3	0.052388918
217	0x3cd98f03	0.026557451
218	0x3cf6070d	0.030032659
219	0xbd2fa99c	-0.04288636
220	0xbd65ed38	-0.056134433
221	0xbd41dd1e	-0.047330014
222	0x3dafbdbd	0.085811116
223	0x3c51085f	0.0127583435
224	0x3db67afe	0.08910178
225	0xbc9cf088	-0.019157663
226	0xbbb424f2	-0.0054975683
227	0xbcc3a05f	-0.023880182
228	0x3ca6cfb0	0.020362705
229	0x3c8ab71c	0.016933016
230	0x3cb06115	0.021530667
231	0xbc9dd4a3	-0.019266432
232	0x3d9aab82	0.07552244
233	0x3bbccc2d	0.0057616443
234	0x3d988c89	0.0744868
235	0x3cb1f4e4	0.021723218
236	0xbe15f31f	-0.14643525
237	0x3cdbdf9d	0.026840026
238	0xbe40c1d5	-0.18823941
239	0xbd02ba99	-0.031916235
240	0x3c83f21e	0.016106661
241	0xbc7e904d	-0.015537334
242	0x3c34b96d	0.011030537
243	0xbe28e12e	-0.16492149
244	0xbe82c2e5	-0.25539318
245	0xbe56bcdd	-0.20970483
246	0xbe64da7c	-0.2234897
247	0xbf06e640	-0.52695084
248	0xbe751829	-0.23934998
249	0xbe6fccd8	-0.23417985
250	0xbe4d7414	-0.20063812
251	0xbe0b299a	-0.13590088
252	0xbb9cb903	-0.0047827973
253	0xbbf7a452	-0.0075574303
254	0x3d4c4d42	0.049878366
255	0x3cef073a	0.02917825

convs.0.bias f4 [16]
0	0xbd9f4e18	-0.07778567
1	0x3e2d8b26	0.16947612
2	0x3e22e96c	0.15909356
3	0x3dac17a5	0.08402947
4	0xbd8b4180	-0.067996025
5	0x3e0f8c6c	0.1401841
6	0x3d148139	0.03625605
7	0xbcd9714a	-0.026543278
8	0x3e06a807	0.13150035
9	0xbd2a4e6d	-0.0415787
10	0x3de595d0	0.11210215
11	0xbd862100	-0.06549263
12	0x3e1bc2a3	0.15210967
13	0xbcc2e3a8	-0.023790196
14	0x3dadeadc	0.084920615
15	0xbd99f88c	-0.0751811

outconv.0.weight f4 [3, 16, 1, 1]
0	0xbca5ef29	-0.020255642
1	0xbe917b2a	-0.2841428
2	0xbe124f41	-0.14288045
3	0xbe179525	-0.14802988
4	0x3e1c3187	0.15253268
5	0xbd7181a0	-0.05896151
6	0x3d30eb96	0.043193422
7	0xbe74811e	-0.2387738
8	0xbddfab24	-0.10921314
9	0x3bd2c7c2	0.0064325044
10	0xbe3d7a5c	-0.18503708
11	0x3d1c579a	0.03816948
12	0xbe6eb796	-0.2331222
13	0xbc1dc6fe	-0.009629963
14	0xbe2d390c	-0.16916293
15	0x3d841085	0.06448463
16	0xbe30d1a5	-0.17267473
17	0xbe923f66	-0.28563994
18	0x3d939a76	0.072071955
19	0xbe91af4a	-0.28454047
20	0xbdbd43b1	-0.09241427
21	0x3bf51e34	0.007480407
22	0xbe18bb24	-0.14915138
23	0xbd62f73c	-0.055411562
24	0xbdb1a546	-0.086741015
25	0xbd13438b	-0.035953086
26	0xbe92d44d	-0.28677598
27	0xbd5ef500	-0.05443287
28	0xbe635527	-0.22200452
29	0x3c84ece7	0.016226245
30	0xbd81fc0d	-0.06346903
31	0x3d84cd87	0.06484514
32	0xbc828acf	-0.01593533
33	0xbd77b037	-0.060470786
34	0xbe6b211d	-0.2296185
35	0xbde20681	-0.11036397
36	0xbe1239ca	-0.14279857
37	0xbe69ecd8	-0.22844255
38	0xbbdcff47	-0.0067442986
39	0xbe90716d	-0.28211537
40	0xbe283993	-0.16428213
41	0x3c4714c6	0.012150949
42	0xbe126afb	-0.14298622
43	0x3e464bcf	0.19364856
44	0xbe75bc24	-0.23997551
45	0x3ba62dad	0.005071363
46	0xbe518f7e	-0.20464894
47	0x3d484b78	0.048900098

outconv.0.bias f4 [3]
0	0x3de4caea	0.11171515
1	0xbe290b6e	-0.16508266
2	0x3e1960fa	0.149784
