save/100_RES_decom_sec.pth (torch, 13271 bytes, 5 tensors)

inconv.0.weight f4 [16, 3, 3, 3]
0	0xbe4b4d97	-0.19853817
1	0xbcdcaed9	-0.026938843
2	0xbe37dafa	-0.17954627
3	0xbe7b3236	-0.24530873
4	0x3e588980	0.21146202
5	0xbe345bc1	-0.17613126
6	0xbe935162	-0.28773028
7	0xbe03b7f0	-0.12863135
8	0xbe3db0bf	-0.18524455
9	0xbdf93c70	-0.12169731
10	0xbe816dc2	-0.2527905
11	0xbe039325	-0.128491
12	0xbc9be242	-0.019028787
13	0xbd9aacf5	-0.0755252
14	0xbd67826c	-0.056520864
15	0x3d2f78aa	0.042839684
16	0xbda7f380	-0.08200741
17	0xbd84f55e	-0.064921126
18	0x3ce82459	0.028337644
19	0x3e07ad92	0.13249806
20	0x3df023a0	0.11725545
21	0x3e53e86e	0.20694134
22	0x3da77331	0.08176268
23	0x3e2fc0dc	0.17163414
24	0x3dff2ad5	0.124593414
25	0x39199567	0.00014646874
26	0x3d9dffa2	0.07714774
27	0xbc20220f	-0.009773745
28	0xbdc48f2e	-0.09597622
29	0xbd3d7bb8	-0.046260566
30	0xbd98807d	-0.07446382
31	0x3ca169e9	0.019703822
32	0xbd320bbf	-0.043468233
33	0xbca84629	-0.020541267
34	0xbc430d13	-0.011904973
35	0xbd18e30f	-0.037325915
36	0xbe03af37	-0.12859808
37	0xbc91e00c	-0.01780703
38	0xbcded864	-0.027202792
39	0x3b825d81	0.0039784317
40	0x3d395e62	0.045256026
41	0xbdbf42b8	-0.093388975
42	0xbe1827c2	-0.14858916
43	0xbde503be	-0.111823544
44	0xbe043fe2	-0.12914994
45	0x3b97e4eb	0.0046354434
46	0x3d1739eb	0.03692047
47	0xbe1df5a8	-0.15425742
48	0xbd2f68b8	-0.042824477
49	0xbcfbec48	-0.030752316
50	0x3df522cc	0.119695276
51	0xbd24faab	-0.040278118
52	0x3dac2a19	0.08406467
53	0xbdd6e598	-0.1049301
54	0x3c8869ef	0.016652076
55	0x3dd44cf5	0.10366241
56	0xbd9077c6	-0.07054095
57	0xbdc38c55	-0.095482506
58	0xbcb0e47a	-0.021593321
59	0x3ddad4b1	0.10685099
60	0x3ba2c174	0.004966909
61	0xbe451f00	-0.19250107
62	0x3c843805	0.016139993
63	0xbe4d5fe4	-0.2005611
64	0xbd42de6a	-0.04757539
65	0xbe0173db	-0.12641852
66	0x3e102519	0.14076652
67	0xbe000510	-0.12501931
68	0x3e021e15	0.12706788
69	0x3e051ada	0.12998524
70	0x3cfb04b5	0.030641893
71	0xbda167e7	-0.07881146
72	0xbe2c845e	-0.16847369
73	0xbda56766	-0.08076362
74	0xbd59b96f	-0.05315536
75	0xbdb9c44b	-0.09070643
76	0x3e026ae0	0.12736082
77	0xbe06bbea	-0.13157621
78	0x3e0fb0b5	0.14032252
79	0x3e2b1117	0.16705738
80	0xbdb14db6	-0.086574
81	0x3e0d4dc0	0.1379919
82	0xbe0074f6	-0.12544617
83	0xbd92a2ee	-0.071599826
84	0xbe0f0cdb	-0.13969748
85	0x3dcb77ee	0.09934984
86	0xbdaa3f55	-0.08312861
87	0xbcbd8c5e	-0.023138221
88	0x3dec6aef	0.115438335
89	0xbd315cab	-0.043301266
90	0xbdcb24f2	-0.09919156
91	0x3d8442e2	0.064580694
92	0xbe00b110	-0.12567544
93	0xbdc8e267	-0.09808808
94	0xbe3c6c5f	-0.18400715
95	0x3e323a5b	0.17405073
96	0xbe4168f9	-0.188877
97	0x3b11444f	0.002216596
98	0xbe0389c8	-0.12845528
99	0x3ceae865	0.028675267
100	0xbdaa663c	-0.08320281
101	0x3cdb48c8	0.026768103
102	0xbc420b04	-0.011843447
103	0x3d99abfe	0.07503508
104	0xbc0e0691	-0.008668558
105	0xbd45ea0c	-0.048318908
106	0xbd0b9b39	-0.03408358
107	0xbd93b18a	-0.07211597
108	0x3e886cff	0.26645657
109	0x3c14520f	0.009052767
110	0xbd881812	-0.06645216
111	0xb8b8802c	-8.7976776e-05
112	0x3c5d36ae	0.013501806
113	0xbdbcde8e	-0.092221364
114	0x3e29da9d	0.165873
115	0xbde4be18	-0.1116907
116	0xbe3b74db	-0.18306296
117	0x3e7f1315	0.24909623
118	0xbe0f0bc4	-0.13969332
119	0xbc3e07f4	-0.011598576
120	0x3d6ab46a	0.057300963
121	0x3cb87711	0.022517713
122	0xbda51831	-0.08061255
123	0xbd6320e2	-0.05545128
124	0xbdafcf60	-0.085844755
125	0xbe81f607	-0.25383016
126	0x3e92f293	0.28700694
127	0xbb949c9d	-0.0045352713
128	0x3d2575f0	0.040395677
129	0x3dbfa213	0.09357085
130	0xbce25448	-0.027628079
131	0xbe2a58a6	-0.16635379
132	0x3e1a16d7	0.15047775
133	0xbd4fae4b	-0.050703328
134	0xbe6ac924	-0.22928292
135	0xbe2aa25e	-0.166635
136	0xbe06078a	-0.13088813
137	0xbe070a4e	-0.13187525
138	0xbbbedce2	-0.005824671
139	0x3c46fa9e	0.012144713
140	0xbd7f86df	-0.062384482
141	0x3d0dc141	0.03460813
142	0x3d381e3e	0.044950716
143	0x3d2752ea	0.040850557
144	0x3dec8c63	0.11550214
145	0xbdf67042	-0.1203313
146	0xbddd0719	-0.107923694
147	0x3e1f96a8	0.15584815
148	0x3de89e96	0.11358373
149	0x3dad0f45	0.08450178
150	0x3e110402	0.14161685
151	0xbd15c0cc	-0.03656082
152	0x3d9eec46	0.07759909
153	0xbd8ac083	-0.06775
154	0x3e2031b6	0.15643963
155	0xbe0bde0f	-0.13658927
156	0xbc2c651e	-0.010522155
157	0xbe57e319	-0.21082725
158	0xbe5b2a10	-0.21402764
159	0xbd5371df	-0.051622268
160	0x3dd5093e	0.104021534
161	0x3d911f4e	0.07086049
162	0xbe0dbf53	-0.13842516
163	0x3e181bed	0.14854403
164	0xbd872903	-0.06599619
165	0xbbf1641f	-0.0073666717
166	0xbc9157b3	-0.017742014
167	0xbdf34525	-0.11878423
168	0xbdaedfbe	-0.08538769
169	0x3cd377a1	0.02581388
170	0x3dfa4ef4	0.1222209
171	0x3e396710	0.18105721
172	0xbdaefbb8	-0.08544105
173	0xbe17de39	-0.14830865
174	0xbe22ffab	-0.15917842
175	0x3c14ed74	0.009089816
176	0x3def0c52	0.11672272
177	0x3da74cd3	0.0816895
178	0xbda0e5ec	-0.07856354
179	0xbd9bb8dd	-0.07603619
180	0xbde4132c	-0.11136469
181	0x3d44a034	0.048004344
182	0x3dbf04e0	0.09327102
183	0x3d1d47e9	0.038398657
184	0x3d880216	0.06641023
185	0x3c8da8d3	0.017292416
186	0xbe1c26bf	-0.15249155
187	0xbe285d04	-0.16441733
188	0x3d7f111a	0.06227217
189	0xbe0f7e6e	-0.14013073
190	0x3df14fb8	0.11782783
191	0xbe2c665f	-0.16835926
192	0xbe405f82	-0.18786433
193	0xbe42d7f9	-0.190277
194	0xba959519	-0.0011412232
195	0x3c9acc48	0.018896237
196	0x3d08c22f	0.033388313
197	0x3d585b27	0.052821305
198	0x3dbda0bf	0.092591755
199	0x3d2533c9	0.04033259
200	0xbc6560fc	-0.014000174
201	0x3e2d2390	0.16908097
202	0x3e140eca	0.14458767
203	0x3dc8bbe0	0.09801459
204	0x3dbc3f4e	0.09191762
205	0xbcd33609	-0.025782602
206	0x3d702d59	0.058636997
207	0x3df0cf4c	0.11758289
208	0x3c7ab587	0.015302069
209	0x3c0f279b	0.00873747
210	0xbc01d92d	-0.007925314
211	0xbe67d2eb	-0.22639053
212	0xbe0df22f	-0.13861917
213	0xbdca52e6	-0.09879093
214	0xbd7ab981	-0.061212067
215	0x3c8c4a04	0.017125137
216	0xbe3c2384	-0.18372923
217	0xbd3d1473	-0.04616208
218	0xbe389c15	-0.1802829
219	0xbe114626	-0.14186916
220	0x3c62e22b	0.013847868
221	0xbb0d3e01	-0.002155185
222	0x3dc7c626	0.09754591
223	0x3e361061	0.17779686
224	0xbe0cb640	-0.13741398
225	0x3d902039	0.07037396
226	0xbd92a854	-0.07161012
227	0xbb9fc9b2	-0.004876339
228	0xbd5732e7	-0.05253878
229	0x3c531595	0.0128835635
230	0x3d2b1864	0.041771308
231	0xbe33b197	-0.17548214
232	0xbe2859ed	-0.16440554
233	0x3e41749e	0.18892142
234	0xbe27a692	-0.16372135
235	0xbd0ff552	-0.035146065
236	0x3c08acc8	0.0083419755
237	0x3daaf7f2	0.08348073
238	0x3a273103	0.0006377848
239	0x3d14297b	0.03617237
240	0xbdb2e5c5	-0.08735231
241	0xbe24045a	-0.16017285
242	0xbe35b03c	-0.1774301
243	0x3e321858	0.17392099
244	0x3dd0f50c	0.10202989
245	0x3e30f7f1	0.17282082
246	0x3cee6576	0.029101115
247	0xbd448301	-0.047976498
248	0xbd1c82c0	-0.03821063
249	0x3e4e1595	0.2012542
250	0xbdc96545	-0.09833769
251	0x3e7d2463	0.24720912
252	0xbd0c8d51	-0.034314457
253	0xbe8883d5	-0.2666308
254	0xbc7bcf08	-0.015369184
255	0xbdf68144	-0.12036374

inconv.0.bias f4 [16]
0	0x3e710a37	0.23539053
1	0x3ecb33fe	0.39688104
2	0xbd343696	-0.04399737
3	0xbe1e3161	-0.15448524
4	0xbe041b8b	-0.12901132
5	0x3e365e4e	0.17809412
6	0x3ec6f0ae	0.388555
7	0xbd89bf43	-0.067259334
8	0xbe404732	-0.18777159
9	0xbd394a03	-0.0452366
10	0x3e4d744e	0.20063898
11	0x3eb4d8b1	0.35321572
12	0x3d5b20bc	0.053498015
13	0x3d296efa	0.0413656
14	0x3e908e14	0.28233397
15	0x3ea2793d	0.31733122

convs.0.weight f4 [16, 16, 3, 3]
0	0xbd0a7c95	-0.033810217
1	0xbd3f3e0c	-0.046690032
2	0x3d224ba0	0.039622903
3	0xbd41147b	-0.047138672
4	0xbde1744f	-0.11008512
5	0x3d229531	0.03969306
6	0xbd3046fc	-0.043036446
7	0x3d1c63f7	0.03818127
8	0x3ce70240	0.028199315
9	0x3de4bdfd	0.1116905
10	0x3d81d1b4	0.06338826
11	0x3d7a2d71	0.061078493
12	0x3dd986ec	0.106214374
13	0x3de1c3d3	0.11023679
14	0x3c96809f	0.018371878
15	0x3dac2e80	0.08407307
16	0x3db3c604	0.08778003
17	0x3c4f45b1	0.012650893
18	0x3cd96456	0.026537102
19	0xbcaf186c	-0.02137395
20	0x3d217411	0.03941733
21	0x3d86bf7a	0.0657949
22	0x3d39b868	0.04534188
23	0x3c8e3bae	0.017362442
24	0xbc9c3a8e	-0.01907089
25	0xbc958342	-0.018251065
26	0x3c5224d0	0.01282616
27	0xbd98ef5d	-0.0746753
28	0xbd3f517d	-0.046708573
29	0x3c314c05	0.010821347
30	0xbd773977	-0.060357537
31	0xbaffbe2e	-0.0019511634
32	0x3d8e5392	0.069495335
33	0xbd6454de	-0.055745
34	0x3ce68068	0.0281374
35	0x3d0519c4	0.032495275
36	0x3c16e1a6	0.009209072
37	0x3cc004bf	0.023439763
38	0x3c2b88ae	0.010469599
39	0x3df9f7e0	0.122054815
40	0x3d180a0e	0.037118964
41	0x3d813ca0	0.063103914
42	0x3e121c37	0.14268576
43	0x3df0d60f	0.117595784
44	0x3ce3131d	0.027719075
45	0x3d53f8f9	0.05175111
46	0x3e048944	0.12942988
47	0x3e41639d	0.18885656
48	0xbca7c77b	-0.020480862
49	0xbc7a357c	-0.015271541
50	0x3db77438	0.08957714
51	0xbd14ae9b	-0.03629933
52	0x3de51b57	0.11186855
53	0x3d960cad	0.073266365
54	0x3ea98657	0.33110306
55	0x3e5a0c33	0.21293716
56	0x3e30bf25	0.17260416
57	0x3ed5c47b	0.41751465
58	0x3ee0a3cd	0.4387497
59	0x3e7f84e4	0.24953038
60	0x3edde936	0.43341988
61	0x3ea43cee	0.32077736
62	0x3e7c235d	0.24622865
63	0xbe1a3818	-0.1506046
64	0xbe0b83a1	-0.13624431
65	0xbc46c7b6	-0.012132576
66	0xbe0bb2e1	-0.13642456
67	0x3e0621fe	0.13098904
68	0xbdc05a33	-0.09392204
69	0xbe553c1b	-0.2082371
70	0xbe149a81	-0.14512064
71	0xbc500477	-0.012696377
72	0x3d7f71a3	0.06236423
73	0x3d1f3879	0.038872216
74	0xbda01fe6	-0.07818584
75	0x3d984a98	0.07436103
76	0x3c1bf68b	0.00951923
77	0xbda77a7c	-0.08177659
78	0xbda93d4c	-0.082636446
79	0x3cab2d34	0.020895578
80	0x3da413af	0.08011567
81	0xbd9e82d6	-0.07739799
82	0xbcf11b29	-0.029431896
83	0xbe0dfc95	-0.13865884
84	0xbd5a45ae	-0.053289108
85	0xbdedbe47	-0.11608558
86	0x3cb5aa5d	0.022175962
87	0xbd091da1	-0.033475522
88	0x3c784ab9	0.015154534
89	0xbcc01fd6	-0.02345268
90	0x3d8e97fc	0.069625825
91	0x3de7c2e5	0.1131647
92	0x3d05fc16	0.03271111
93	0xbe1c9904	-0.15292746
94	0xbea07aa9	-0.31343582
95	0x3bd8bbfb	0.006614206
96	0x3ce8e23d	0.028428191
97	0x3d039d93	0.032132696
98	0xbc285978	-0.010275237
99	0x3d648189	0.055787597
100	0x3dab24f9	0.08356661
101	0x3d41bc3e	0.047298662
102	0x3dd2e5c8	0.102977335
103	0x3e003935	0.12521823
104	0x3e49247c	0.19642824
105	0x3e4783a1	0.19483806
106	0x3e1f0e39	0.1553277
107	0x3e27f81f	0.16403244
108	0xbe60be1d	-0.21947522
109	0xbdb35059	-0.087555595
110	0xbe3e3ef1	-0.18578698
111	0xbdc72ee9	-0.09725744
112	0xbebe0b89	-0.37118176
113	0xbe2b08ca	-0.16702572
114	0xbe174810	-0.14773583
115	0xbe413521	-0.18867923
116	0xbe89b1c3	-0.26893434
117	0xbddf43b4	-0.10901585
118	0xbd47a3ca	-0.048740186
119	0xbdf5d57c	-0.120036095
120	0xbd2c6bc8	-0.042094976
121	0xbe6e8508	-0.23292935
122	0xbe131fdc	-0.14367622
123	0xbdcbf30d	-0.09958468
124	0xbdc35c9c	-0.09539148
125	0xbe3b2e3a	-0.18279353
126	0x3d04ce0b	0.03242306
127	0xbd253275	-0.040331323
128	0x3dd0d7d3	0.10197415
129	0x3da61704	0.08109859
130	0xbd0e7968	-0.03478375
131	0xbd1903c5	-0.03735711
132	0xbd16cb3e	-0.03681492
133	0x3dbda623	0.09260204
134	0x3d9752f7	0.07388871
135	0x3e3d18a0	0.18466425
136	0xbcf0ec0d	-0.029409433
137	0x3e439f86	0.19103822
138	0x3e301166	0.17194137
139	0x3e17233d	0.14759536
140	0x3e16703a	0.14691249
141	0x3cecc3a5	0.028901884
142	0x3dfae61e	0.122509226
143	0x3e431466	0.1905075
144	0xb9d9ca11	-0.00041540017
145	0xbcfa2769	-0.03053637
146	0xbd778d44	-0.060437456
147	0x3d2a1fc5	0.041534204
148	0x3d4637d8	0.0483931
149	0xbd26311e	-0.040574186
150	0x3d4b42f3	0.049624395
151	0x3d81325e	0.06308435
152	0x3d1e78e7	0.03868952
153	0xbd9ed891	-0.077561505
154	0xbde6f8f2	-0.11277951
155	0xbd58c093	-0.052918028
156	0xbdbaaf17	-0.09115427
157	0xbc268d56	-0.010165533
158	0x3c9e280d	0.019306207
159	0xbdfedf57	-0.124449424
160	0x3ca42244	0.02003587
161	0xbdb30197	-0.087405376
162	0xbdeeccc8	-0.11660153
163	0xbd021abf	-0.03176379
164	0xbcfba7d7	-0.03071968
165	0xbc526a94	-0.012842793
166	0xbdcec3ff	-0.10095977
167	0x3c8dc24d	0.017304564
168	0xbcb7b057	-0.022422953
169	0xbcb394f6	-0.021921616
170	0xbd35f50b	-0.044423144
171	0xbda99bd6	-0.082816765
172	0xbc9c94d6	-0.01911394
173	0x3da53904	0.080675155
174	0xbd5a4f3e	-0.053298227
175	0x3d6190bb	0.055069666
176	0xbd2f46c6	-0.042792104
177	0xbd8c892b	-0.068621
178	0xbd362670	-0.04447025
179	0x3b9029d6	0.0043995185
180	0xbf11d251	-0.5696154
181	0x3dea8477	0.11451047
182	0x3e5843e9	0.21119656
183	0xbec0eda1	-0.37681296
184	0x3e4ed4bf	0.20198344
185	0x3e47a785	0.19497497
186	0x3ddab03b	0.106781445
187	0x3e3f4e92	0.18682316
188	0x3e70343c	0.23457426
189	0xbda19bd2	-0.078910485
190	0x3d3cfe21	0.046140794
191	0x3e5ebac9	0.2175094
192	0xbd9e92b1	-0.07742823
193	0x3c01a7e6	0.007913565
194	0x3e3a98fc	0.18222421
195	0xbe2a43bc	-0.16627401
196	0x3cd73aef	0.026273219
197	0x3d9f947d	0.07791994
198	0xbdb22762	-0.08698918
199	0xbd1d13df	-0.03834903
200	0xbdcce24a	-0.10004099
201	0xbd630c06	-0.05543139
202	0xbdb2f523	-0.08738162
203	0xbcf56994	-0.02995757
204	0xbdc44452	-0.095833436
205	0xbb7839ea	-0.0037876316
206	0xbaa382b2	-0.0012474863
207	0x3e1d4300	0.1535759
208	0x3d64be4c	0.055845544
209	0x3d032850	0.032020867
210	0x3e0aac06	0.13542184
211	0x3d761b54	0.060084656
212	0x3dcd0598	0.100108325
213	0x3e2bd939	0.16782083
214	0x3d91cd52	0.0711924
215	0x3d027958	0.031854004
216	0xbd80665e	-0.06269525
217	0xbcee1b66	-0.029065799
218	0xbda77d6b	-0.081782185
219	0xbda29b3a	-0.07939763
220	0x3d2ad6d3	0.04170878
221	0x3d5ce7d8	0.05393204
222	0x3b3c19d6	0.0028701923
223	0x3d65a550	0.056065857
224	0x3d9c4e47	0.07632118
225	0xbd4805d3	-0.04883368
226	0xbd84bacc	-0.06480941
227	0x3d0af46f	0.033924516
228	0x3d216a7c	0.039408192
229	0x3ae2084c	0.0017244904
230	0xbc61f6d4	-0.013791759
231	0xbd6a199d	-0.057153333
232	0xbd357ea0	-0.044310212
233	0xbdb2e84e	-0.08735715
234	0xbaf957e7	-0.0019023389
235	0xbdd8fc58	-0.10595006
236	0x3c97dd9c	0.018538289
237	0xbe138662	-0.14406732
238	0xbd307e92	-0.043089457
239	0x3c89de82	0.016829733
240	0x39d148e6	0.000399179
241	0xbd43faf6	-0.047846757
242	0x3c96eb4e	0.018422749
243	0xbe0aae87	-0.1354314
244	0x3d2a95d5	0.041646797
245	0x3a396369	0.0007072003
246	0x3c00b67e	0.0078560095
247	0x3dcb67bc	0.09931895
248	0x3df9b6e3	0.12193086
249	0x3d68f437	0.056873526
250	0x3e0c3e09	0.1369554
251	0x3dc1c01e	0.094604716
252	0x3c94b41a	0.018152285
253	0x3d622b17	0.055216875
254	0xbcd6c7d0	-0.026218325
255	0xbcf0716c	-0.029350959

convs.0.bias f4 [16]
0	0x3da2a0f4	0.079408556
1	0xbd1a4337	-0.037661757
2	0x3e614e7e	0.22002599
3	0xbd733b14	-0.059382513
4	0xbd037565	-0.032094378
5	0x3e8e4457	0.27786514
6	0xbdb34341	-0.08753062
7	0xbc02a0c6	-0.007972902
8	0x3b3d190f	0.0028854047
9	0x3e444c63	0.19169764
10	0xbd2c6859	-0.0420917
11	0xbda41b36	-0.080130026
12	0x3e6c5108	0.23077786
13	0x3e731a0e	0.23740408
14	0x3e7556d0	0.23958898
15	0xbdb22394	-0.08698192

outconv.0.weight f4 [1, 16, 1, 1]
0	0xbe31f503	-0.17378621
1	0x3c0bf423	0.008542093
2	0xbe8aa94c	-0.27082288
3	0x39b0ac9d	0.00033697943
4	0x3c73ca11	0.014879719
5	0xbc7d3ec2	-0.015456857
6	0x3dba1af6	0.09087174
7	0x3da21ac5	0.07915262
8	0x3d858494	0.06519428
9	0xbe0b8733	-0.13625793
10	0xbebd637c	-0.36989963
11	0x3c2d8beb	0.010592441
12	0xbe6be89f	-0.23037957
13	0xbd8fcb50	-0.07021201
14	0xbdd437df	-0.10362219
15	0x3d6b6298	0.057467073
