save/150_RES_decom.pth (torch, 13271 bytes, 5 tensors)

inconv.0.weight f4 [16, 3, 3, 3]
00000000: 9c34 483d 3ef6 f53d a0e3 203e d15b 8c3d
00000010: 7443 2b3e a223 cc3d 4e59 883e 6489 adbc
00000020: 3067 6e3d ee9c 6dbc c9de 0e3e b902 9d3c
00000030: 5101 54be 24dd 323d 9e92 5f3e 1896 b2bd
00000040: 6e0e e43d f6ba b2bd 3bcc b9bd 1c88 febd
00000050: d2c0 26be 44d9 483d c18f 9a3d a78d 80bd
00000060: 3ec5 67be 6107 233d 0873 153d 7bca 3c3d
00000070: 698a 693d ea0c 19be 8e90 563d 9596 703e
00000080: dc05 77be 0b0f 043e dd1f dbbd 0d3c a2bd
00000090: 2c96 de3d 52b0 af3d b098 34be cd71 ea3d
000000a0: 44bd bd3d be91 48be 87aa 01bd bfdf a53d
000000b0: fe1a bdbd 1651 253e ab0d 663d b4ca 6fbe
000000c0: 4d78 2f3d 5c9c 763d dafb f7bd cc61 d9bb
000000d0: 4ba5 663c b341 ea3b b0cc 0e3e 3204 d03d
000000e0: 9765 00be 45da 6cbd 3a61 ca3c 035c 113d
000000f0: eafc f53d 8dc1 643c c3d0 333e 8559 863d
00000100: b2f5 adbd 0efe 15be 5ff1 00be 74b6 0f3e
00000110: 53d1 073e 94f5 9ebd 2ff2 77bd 5e40 013c
00000120: 8f1c a53d ecde d23c e9d8 02be e0d2 1bbe
00000130: 1525 06be fce8 53bd 4dae 073b 6025 d2bd
00000140: 3f90 f53d cfd0 f03a 51df e8bd 5516 933d
00000150: d9cc 2d3e 8aaf b53d eb4f a33d 7388 edbc
00000160: 1fd5 053e 32a7 b8bd a1af e3bd 17ef 0d3d
00000170: a43f 66bd de8d 85bd 1c89 c23d f7ea e0bd
00000180: 4ca9 d2bd 1e53 24be 3cd8 10bd 3e9b b5ba
00000190: 9343 4c3d 935c 1cbe f0be ec3d 122f b33d
000001a0: fd91 16be 6f37 e73c 5091 ef3d eac4 56bd
000001b0: c39a c0bd 1325 453d 2420 c8bd ce41 92bd
000001c0: 4911 913d d6db d43d e5c1 6cbd c0f4 3abd
000001d0: 1b1f 5a3c 8227 223d 1e9c 473b e58f 0abe
000001e0: a718 2e3d 1469 ecbd cf8f 05be 0fd7 02be
000001f0: c3c1 91bd 750c 173e b66d 9a3d 68ae f8bd
00000200: 8b5f acbd 62d9 02bc ac46 8ebc bca2 3ebe
00000210: 2054 00be 7afe 34bc 5a73 18be 0035 14be
00000220: 21b0 66bd 028a cebd d242 5abe 92ce 96bc
00000230: d7b7 e3bd 6ac9 8cbe 82c3 883d dc27 c5bc
00000240: dd0c 58be 9f62 483d 5044 3dbe e1f7 0dbe
00000250: 593f debd 3ddb 62bd 139a 00be 87f9 9bbd
00000260: d06d d83d 9c12 49be 031a 9d3d 0f93 3bbe
00000270: 3f73 24be 0e72 843d 433f 3fbc a9c8 96bd
00000280: a8e6 adbc 441e 30bd c5b3 d4ba 637d fb3d
00000290: db2a b03d 75e2 d2bd 3034 2fbe 70e1 3bbd
000002a0: fb2c 823c 923a b83c 6a19 09be 9a91 f63c
000002b0: f8c3 5cbd 6b8f bfbd 6f31 f23d 848d 26be
000002c0: 40db 223e 7a54 22be 2474 0dbe 0b3f cc3d
000002d0: 066e e73d 1927 17be a37f 8a3d 7e22 223d
000002e0: f1bb 1bbe c816 02be b511 9fbd f3ad 94bc
000002f0: 57d7 adbd 1c21 783e 06be 2dbc 15b5 503e
00000300: 7446 053e 7a05 95bd eea6 b6bd ee06 a53d
00000310: c0a8 b3bd 0632 af3d 5ba8 6e3e c34d 513d
00000320: c8e8 41be ca98 613e 3c22 0b3e 3dc3 d33d
00000330: f84e dc3d 2caa 3f3d 8342 a73d 768d e73d
00000340: dbd6 e43d 8fcf fcbd 7bec 90bd e3ea d9bd
00000350: e898 30be a936 55bd 9608 e3bd b254 393d
00000360: 02b9 33be b696 033d 6ed7 50be 524f 013e
00000370: bf3d 30bc bfbd c03d c1e0 b4bd 8051 b8bd
00000380: a5f8 25be 6eae f63c e198 dbbd 96cf 07be
00000390: 8328 67bd b834 a23d 8e5b 6c3d a3ed a2bc
000003a0: 4bcd cf3c 5c0f 19be b245 04be c528 d7b9
000003b0: 630c 03be e2e2 ba3c 1e29 843d fe9f 2cbd
000003c0: aa3d d5bd 83d2 dbbd 8535 13bd 2434 49bd
000003d0: ee0a 183b 8af9 933c e40c 9cbd 4ce4 d33a
000003e0: 45a3 a6bd 5b15 e8bb e4c4 a53d 37be cebd
000003f0: 014c a13c 3185 0b3e 1202 593d d148 8abd
0.048878297 0.120098576 0.15711832 0.0685345 0.1672495 0.09967734 0.26630634 -0.021183677
0.058203876 -0.014502747 0.13952173 0.019166337 -0.20703627 0.043667927 0.21833274 -0.08720034
0.11135565 -0.08727066 -0.09072157 -0.124283046 -0.16284493 0.049035326 0.0754695 -0.06277018
-0.22633836 0.03980196 0.036486655 0.046091538 0.057016764 -0.14946333 0.05238395 0.23494942
-0.24123329 0.12896363 -0.10699437 -0.0792161 0.10868487 0.08578552 -0.1763637 0.11447487
0.09264615 -0.19586846 -0.03165677 0.08099317 -0.09233664 0.16144213 0.05616538 -0.23417169
0.042839337 0.06020771 -0.12108584 -0.0066339727 0.014077495 0.0071489452 0.1394527 0.1015705
-0.12538753 -0.057825346 0.024704564 0.03548814 0.1201113 0.013962162 0.17560105 0.06560043
-0.08494128 -0.14647695 -0.12592076 0.14034444 0.13263445 -0.07761684 -0.0605337 0.0078888815
0.08062088 0.025741063 -0.12778057 -0.15217161 -0.13100083 -0.051735863 0.0020703257 -0.10261035
0.119904034 0.0018372777 -0.11370719 0.07181994 0.16972674 0.08871372 0.079742275 -0.028995728
0.1306958 -0.09016265 -0.11117483 0.034651842 -0.056213036 -0.065212 0.09498808 -0.10982316
-0.10286197 -0.16047332 -0.035362467 -0.001385547 0.04986913 -0.1526969 0.11559856 0.08749212
-0.14704128 0.028224675 0.11697638 -0.052433886 -0.094045185 0.04813106 -0.09771755 -0.071414575
0.07083375 0.10393493 -0.0578021 -0.045643568 0.01331308 0.03958846 0.0030458043 -0.13531454
0.04250398 -0.115434796 -0.1304314 -0.12777351 -0.07117035 0.14750846 0.07540457 -0.1214264
-0.08416661 -0.007986398 -0.017367683 -0.18616766 -0.12532091 -0.011047 -0.14887753 -0.14473343
-0.056320313 -0.10084917 -0.21314552 -0.018409047 -0.11119049 -0.27497417 0.06677915 -0.024066858
-0.21098657 0.048922177 -0.1848309 -0.1386409 -0.10851926 -0.055384863 -0.12558775 -0.07615953
0.1056782 -0.19636005 0.07670977 -0.18317817 -0.16059588 0.06467067 -0.011672798 -0.07362492
-0.02122815 -0.042997614 -0.0016227892 0.12279775 0.08601924 -0.102970995 -0.17109752 -0.04586929
0.015890589 0.022488866 -0.13388601 0.030098725 -0.053897828 -0.09353527 0.11825835 -0.16264921
0.1590395 -0.15852538 -0.13813835 0.09972962 0.11300282 -0.14761008 0.06762626 0.039583676
-0.15208413 -0.12704003 -0.07767049 -0.018149352 -0.084883384 0.2423138 -0.010604387 0.20381577
0.13015157 -0.07276435 -0.08918558 0.08057962 -0.08772421 0.08554463 0.2330641 0.05109955
-0.18936455 0.2203094 0.13587278 0.10339973 0.107572496 0.046793148 0.08166983 0.113062784
0.11173793 -0.12344276 -0.07076355 -0.10640504 -0.17245829 -0.05205408 -0.11085622 0.045246787
-0.17551044 0.03212615 -0.2039468 0.12627915 -0.010756909 0.09411191 -0.08831931 -0.0899992
-0.16208132 0.030112471 -0.10722519 -0.13262782 -0.05643512 0.079202116 0.0577045 -0.019888705
0.025366446 -0.14947265 -0.12917212 -0.0004103837 -0.12797694 0.022813264 0.06453155 -0.042144768
-0.10412152 -0.10733511 -0.035939712 -0.04912199 0.0023199874 0.018063325 -0.07619646 0.001616606
-0.0813661 -0.007082624 0.080941945 -0.10094874 0.019689562 0.13625027 0.05298049 -0.0675217

inconv.0.bias f4 [16]
00000000: 420e 2fbd 9fdf 40bd 7994 443e af86 8e3e
00000010: 0194 3fbe 3e45 193e 5675 13be 5562 b33c
00000020: db6f 483e bdb3 4d3e 9ca5 313e 58c2 533e
00000030: 36fc b63e d4ac f93d 2c41 373e 193b ac3e
-0.042738207 -0.04708826 0.19197263 0.2783713 -0.18708803 0.1496782 -0.14400229 0.021897474
0.1957392 0.20088096 0.17348331 0.20679605 0.35739297 0.121911675 0.17895955 0.33638838

convs.0.weight f4 [16, 16, 3, 3]
00000000: f3af 293d 5fa9 9a3c f6b9 9d3d d65a e63c
00000010: 0ef9 4b3d a1aa 8fbd a6d7 523d 1e69 353d
00000020: be6c 89bc e7f9 85bd be74 5dbd 1a0d cabc
00000030: d5ac f5bc 9808 ad3c 0ec9 683d fa4d b53b
00000040: db35 85bd 3036 383c 4a7b cf3c ff2f d8bc
00000050: ab77 753c cc9f 0abc 8082 9e3c 1b58 b73c
00000060: 19ca 33bd 0769 76bc b49e be3b bb10 81bd
00000070: f4b4 913d b1cb 4a3d 7290 7fbd 9876 2fbd
00000080: 8311 b0bc 8c35 963d 19ef 89bd 7ea0 7bbd
00000090: 9edb 5b3d 5843 283d d6d7 1abb d62c 353d
000000a0: f003 cebc 5766 a5bd f4a6 98bd 4e20 823d
000000b0: 288d 39bd b3b6 993d 3d4e a8bd e729 98bd
000000c0: d1c0 813d 1d97 6dbd 0bef 1dbc d9bd 113d
000000d0: 02ac 2b3c 4bb9 8b3c 5b9b 183d c877 253d
000000e0: 0098 78bb 9b66 5a3d 9e4a 17bd 6ebd 7e3d
000000f0: 131e 913d 0ee2 353d f886 413d e988 193d
00000100: 13d5 3dbb e77b a2bd 5ae1 4cbd 907b 82bd
00000110: 0f31 bfbd 1e4e 17bd 0855 d63c 482b b5bc
00000120: 3969 903d 3a32 783d 98ac 36b9 2ad5 f23c
00000130: eeeb d33c 6651 65bd 16fe 863c d025 bcbd
00000140: c404 093d 0511 acbd 99a0 4dbd b202 57bc
00000150: ab42 ac3c ea23 3739 53fa a03c 3b95 edbb
00000160: 8e28 31bd fc4f 833d ae8a d93b 53cf 4b3d
00000170: d2de 55bd e3ba 2fbd 13a9 7fbc 2657 86bc
00000180: d112 023d ed0d ecbc 2815 663d 7c08 babd
00000190: 02b1 223d 9eb0 59bd d27c 37bd 22f8 34bd
000001a0: 9cde 8b3d dea0 9cbd 5553 48bc 5d15 3cbc
000001b0: 344e 283d 4168 743d a517 2c3d 425d 5bbd
000001c0: 7fbf fabc 65c8 9ebd 24b3 a43c 726d 05bc
000001d0: 04c0 2b3d 0a39 583d 6381 bdbd b1bd 52bd
000001e0: 4c84 273c b09c 6b3d cf45 81bd d779 10bd
000001f0: d528 d9bc 973a b93c e6eb e3bb 79de 66bd
00000200: c1d3 38bd 8654 903d 515e f2ba 51c7 b7bc
00000210: 2f0d 4fbc 80a1 8cbd 86c8 86ba 49fa 3a3d
00000220: 0b10 90bd 2c9a 83bd a82c 05bc 2ded adbc
00000230: acf8 bcbd d8b0 4a3d 9e0b 943a 3471 863c
00000240: 5959 c13c 00bc 3dbd 98af 803d 44f1 423d
00000250: 128f 463d dcf6 e63c 1137 e23c 8fcf a73d
00000260: 902a 41bd 2b09 133d 8c29 983c 3792 823d
00000270: 694c cabd cb29 0d3d 094f 8e3d 4194 80bc
00000280: 1ca3 0d3c f355 023e bb64 4f3e ce11 e63d
00000290: 2840 6f3e 61b9 0b3e 57ba c43e 6325 263e
000002a0: ea6e 013e 88af e93d 6f14 9f3d 1805 04bd
000002b0: 0502 f2bc a0c5 f4bc 96ba ee3d d7a0 c7bd
000002c0: e2b5 293c 3fcc 26bd f551 04be 6ce8 9fbd
000002d0: 6c6f 99bd 70fe a83d 90e6 233d a021 8b3c
000002e0: 2092 043d c082 e23b f672 7cbc f06c 2bbd
000002f0: b84e 563d 5def 3dbe d066 30be cd3d 06be
00000300: 90ce 903b 57d8 55be a11e 1c3e 8111 84be
00000310: f018 83bd 73e2 113e e03a 1dbc b698 7f3d
00000320: e0b3 3b3d 1890 733d 36cd e9bc a63b 3a3d
00000330: 8b0c bbbc 6b2f 153d 96bf aebc c78f e13d
00000340: b7b2 6e3d 8022 aa3d 0eed 2d3d 6f16 1e3e
00000350: bd5f 8f3d a050 f3bc a25f 833d 5c3c 0a3e
00000360: 1aad 5abe 66c6 81be 8e98 b7be a8de 40bd
00000370: 1b22 1e3e 0fe5 86be c77e 25be 5e15 e5bd
00000380: f0b8 3abe d535 3e3e caea 3f3e 9f73 e83d
00000390: bb8f 453e 5f9c d23d 2091 9d3e 6094 333e
000003a0: 437e ee3d 3be6 8a3e dd4b b33d 7776 c33d
000003b0: 7617 e73c f3e7 d33d 1c9b 553e 28fa b13d
000003c0: ba93 8d3d a4fa a53d c5c5 653e 2148 0c3d
000003d0: e4c5 313d 73cc 313d 99fb 50bd efc7 133b
000003e0: 4472 42bd ace5 303d 03c5 afbd 5d52 f3bc
000003f0: ebb1 6c3c 65b2 863d 01ca 683d b5e9 8d3d
0.041427564 0.01887959 0.07701485 0.028119486 0.049798064 -0.07014967 0.05147519 0.0442897
-0.016775485 -0.06541806 -0.054066412 -0.02466445 -0.02998964 0.021122262 0.056832366 0.005532977
-0.06504413 0.011243388 0.025327343 -0.026390074 0.014982144 -0.00846095 0.019349337 0.02238088
-0.043893907 -0.015039689 0.0058172587 -0.06302019 0.07114592 0.04951066 -0.062393613 -0.04283771
-0.021492725 0.07334432 -0.067350574 -0.061432354 0.05367624 0.04107985 -0.0023627183 0.044232212
-0.025148362 -0.080761604 -0.07453719 0.06353818 -0.045300633 0.0750555 -0.08218048 -0.07429867
0.06335605 -0.05800544 -0.009639512 0.035581443 0.010478022 0.017056128 0.037257534 0.040397435
-0.0037932396 0.05332051 -0.036936395 0.062192373 0.07085814 0.044405036 0.047247857 0.037484083
-0.0028966113 -0.07933789 -0.0500196 -0.06371224 -0.09335529 -0.036939733 0.026163593 -0.022115365
0.0705132 0.060594775 -0.00017421169 0.02964266 0.025869336 -0.05598583 0.01647858 -0.091869
0.03345181 -0.08401684 -0.050201986 -0.013123201 0.021027884 0.00017465619 0.019650614 -0.0072504557
-0.043251567 0.0641174 0.0066388464 0.049758267 -0.05221445 -0.04290284 -0.015604275 -0.016398977
0.031756226 -0.028815234 0.05617252 -0.090836495 0.03971959 -0.05314695 -0.044796772 -0.04418195
0.06829569 -0.076478705 -0.012226899 -0.011479703 0.041090205 0.059669737 0.042014737 -0.053555734
-0.03060889 -0.07753066 0.020104952 -0.00814377 0.041931167 0.05278877 -0.09253194 -0.051450435
0.010224413 0.057522476 -0.06312143 -0.035272446 -0.026508728 0.022610946 -0.0069556115 -0.05636451
-0.04512382 0.070473716 -0.0018491243 -0.022433909 -0.012637421 -0.06866741 -0.0010283149 0.045648847
-0.0703431 -0.0642589 -0.008128323 -0.021231258 -0.09227118 0.049485058 0.0011294966 0.016411401
0.023602175 -0.04632187 0.06283492 0.04759337 0.048476286 0.028193884 0.027614148 0.081938855
-0.04715973 0.035897415 0.018574499 0.063755445 -0.09877855 0.034463685 0.069486685 -0.015695693
0.008644845 0.127281 0.2025327 0.11233865 0.23364317 0.13644935 0.38423416 0.162252
0.12639967 0.11410433 0.07767569 -0.03223142 -0.029541979 -0.029879391 0.11656682 -0.09747475
0.010358306 -0.040722128 -0.12921889 -0.07808003 -0.07491955 0.08251655 0.040014803 0.016983807
0.03236592 0.0069125593 -0.015408268 -0.041851938 0.052321166 -0.18548341 -0.1722672 -0.13109513
0.0044191554 -0.20883308 0.15246059 -0.25794604 -0.06401241 0.1424654 -0.009596556 0.062401496
0.04582584 0.05946359 -0.028540235 0.04546704 -0.02283313 0.036422174 -0.02133159 0.110137515
0.058275905 0.083073616 0.0424624 0.15438245 0.070006825 -0.029701531 0.06414725 0.13499588
-0.21355096 -0.25346678 -0.35858577 -0.04708734 0.15442698 -0.26346633 -0.16161643 -0.11185716
-0.1823461 0.18575223 0.18741909 0.11350178 0.1929311 0.10283732 0.30774784 0.1753707
0.11645176 0.27128777 0.08754704 0.0954408 0.02820943 0.10346975 0.20859951 0.08690292
0.06912942 0.081044465 0.22438724 0.034248475 0.043401614 0.04340787 -0.051021192 0.002254959
-0.047472253 0.043187782 -0.08582499 -0.02970236 0.014446716 0.06576995 0.05683327 0.06929342

convs.0.bias f4 [16]
00000000: 72a8 38bd 999c 0abe bb33 303e 21d1 913c
00000010: 8d07 d6ba 5ba0 b3bd 9232 59bd 5f3a 253e
00000020: 12b2 fa3d 8cad fb3d 2758 373e b359 85bd
00000030: 539a e33d 55c6 a93d 6dc4 663c f562 3b3e
-0.045082517 -0.135363 0.17207234 0.017799916 -0.0016329155 -0.0877082 -0.053026743 0.16135548
0.122409955 0.12288961 0.17904721 -0.065112494 0.111134194 0.08289782 0.0140849175 0.18299468

outconv.0.weight f4 [1, 16, 1, 1]
00000000: 1021 8d3d a758 653e 589e fcbd ccd5 293e
00000010: 7d8f 253c 7cdd 803e 77ab 683e 4641 0fbe
00000020: e83b 3dbe 2740 8bbe 91e4 28be bcb7 143e
00000030: 9e63 44be 4582 52be 850c ac3e 65b6 8fbe
0.06891072 0.223971 -0.12334889 0.16585463 0.010105011 0.2516898 0.22721659 -0.13989744
-0.18479884 -0.27197382 -0.16493441 0.14523214 -0.19178626 -0.20557506 0.33603302 -0.28068843
