save/150_decom_s_LOLset.pth (torch, 294441 bytes, 19 tensors)

conv1.weight f4 [16, 3, 3, 3]
00000000: f95b 423e bb00 af3d e9db 11be c431 843d
00000010: e9c8 ad3d 08f7 57bd db49 033d cf19 a73d
00000020: 10e1 583e a7c7 f9bc d259 5abe 1d59 de3d
00000030: 88cb edbd de62 debd fa9b d63d 07de 573c
00000040: b3bc 8ebc d05b dc3d d00e 0e3e 84d6 cd3d
00000050: aa2b 363e 8da0 e23c 2aa2 28be 5e69 043e
00000060: 4bc4 68bd 9859 13bd f861 1e3e 3a82 1f3d
00000070: 9052 4cbd 4fd8 e93c aad5 6abd 47a2 363d
00000080: cf62 11be 4b08 87bc 9477 a1bd e03d fc3d
00000090: bf26 3bbe fa36 1c3e 493a d1bb da61 c53d
000000a0: c932 3cbd c6e9 0b3e 6f27 2d3e a1a0 bcbc
000000b0: 9bbb fdbd 5ff4 63be 01bb 6dbd 9896 53be
000000c0: a175 d2bc 51f1 01bd e214 143e f696 243e
000000d0: ddf9 4abd edfe d4bc ed12 09be 8352 afbc
000000e0: b574 013e d689 3ebd 19a2 123d 75bf c4bd
000000f0: 1936 4bbe 6e2a cabd ebcb 8e3d 1145 a8bc
00000100: 896f a53d 5a43 11be ae0a 6fbd 75a4 063e
00000110: d56c a53b 6996 4dbe 1432 61bc 8483 033e
00000120: c7b6 793e b4d4 ca3c acc2 d63d 14db e4bd
00000130: f2cc 5bbd 5f64 5e3e 50b4 80bd c491 2f3d
00000140: 8dc7 9d3b 7d7b e63b 0767 923d 7f19 c6bd
00000150: 8c85 103c 631b 573e ad6f a5bd 538e 483e
00000160: ff35 3e3e bc91 743e 7717 f93d 58a5 e83c
00000170: 5ac6 9e3d b761 523e c8bd 9cbd 1892 2f3e
00000180: e141 2fbe 884d 4c3e 4520 433e 6b6f 06be
00000190: 412d 0abe 1b3e fc3c cc02 b13d db5f 1e3e
000001a0: 3b51 0dbe b9e5 e0bc 3752 0a3e 77df d3bc
000001b0: 01cc 8f3b 1730 cc3c bdfb 9d3d 3a0c 473d
000001c0: f5c0 12bc 9684 483e 2760 ce3d 0c3d eebd
000001d0: 1607 843e c4c9 66bd ab85 ab3d 1cd4 fd3d
000001e0: 3343 b33d 910d d63d afb0 8d3c e77c 07be
000001f0: e71a 073e d82c 223e e392 33be 7640 ab3d
00000200: 0787 14be cc3a 68bd 66e4 6cbe 686a 1a3e
00000210: 4395 2bbe 6e6a dcbd a8b8 703e b78f 3bbe
00000220: 3ef5 30bd ec0c 133e f935 dc3d 931a 253e
00000230: 234d 053e 6226 89bd 8187 6f3c aa04 98bd
00000240: cc43 29be b92d 3dbe 396d 36be a8a0 43bd
00000250: ad19 103e 32cd 1e3d 5629 dcbd 440b 0e3e
00000260: 5ea3 59bd 6e1a 633e 74aa 1d3e 4d44 853d
00000270: bc1a ffbd 315e cebd 6a6d 4ebe 04ae adbd
00000280: 2586 453e f418 efbd 9795 c83b 933e 253e
00000290: de8b 9dbd 3a67 d83d 3f52 07bf 33cb a4be
000002a0: a5d6 a8bc de10 0fbe 9052 f8bd 6be7 75bd
000002b0: c082 9a3d 8370 edbd 7e12 c9bc f35c 89be
000002c0: 379f d6be a0f3 173e 6498 bebd b613 14be
000002d0: 87d9 8ebd 292d 1c3e d686 f13d bbf8 5b3d
000002e0: d620 bebe 2832 77be c2f3 593e ba34 46ba
000002f0: 10f9 443e 0ac6 05be ab38 dbbe 8e5b 8fbe
00000300: cfff 873e 9cca 32be 00ce 41be d7ab 4dbe
00000310: f3da d13d 9636 c33e 57cd d8bd c12f 363d
00000320: 410a 8a3e dcfa 9d3e 0a40 5cbd bc57 0f3e
00000330: 4d6f 313e 597a 353e 54ae 903c 803b 2b3d
00000340: 267e b73e 516d 8a3c 9f4d 2b3d 877a 20be
00000350: 9615 2b3d 9574 39be 4cdb 07be f20b 55be
00000360: 6e1b e5bd 729e 163e 82fb 09be c3be a53d
00000370: 52f9 0cbc 3c5a be3d 7a6a d13c 73b8 2dbd
00000380: ca5d e93d 18df 1bbd ea67 e63d 13c8 213e
00000390: 023a ddbd 0513 88bd ff14 68bd c2de 1cbe
000003a0: 8e19 573d 9d6f 91bb 997f 2b3e aeb3 9abd
000003b0: 8aec ebbd 7040 043e edf8 093e 3f78 17be
000003c0: 7b28 583e edfb 913d cd80 00be 9988 8d3d
000003d0: 5826 1ebd 11d8 97bd 3cb5 643d 2a11 a13e
000003e0: 4b69 09be 4907 65be fade 8a3e 56c7 9abd
000003f0: ab66 ab3c 1791 84be 14f2 2bbe 43ca f6bc
0.18980397 0.08545061 -0.14244045 0.064548045 0.08485586 -0.05272582 0.032052856 0.081592195
0.21179605 -0.03049071 -0.21323326 0.10856841 -0.11611086 -0.10858701 0.10478969 0.013175494
-0.017423963 0.10759699 0.13872838 0.10050681 0.17790094 0.027664447 -0.1646811 0.1293082
-0.056827825 -0.035974115 0.1546706 0.038942553 -0.049883425 0.028545527 -0.057332672 0.044588353
-0.14197849 -0.016483447 -0.07884136 0.12316489 -0.18276499 0.15255347 -0.006385122 0.09637804
-0.04594687 0.13663396 0.16909574 -0.023025813 -0.123892985 -0.22261189 -0.05803967 -0.20662916
-0.025690855 -0.031724278 0.14461091 0.16073212 -0.049554694 -0.026000464 -0.13386126 -0.02140165
0.12642176 -0.04651817 0.03579912 -0.0960683 -0.19844855 -0.09871374 0.06972488 -0.020540746
0.08077914 -0.14185849 -0.058359794 0.13148673 0.005048374 -0.20076908 -0.01374485 0.12843138
0.2438613 0.024759628 0.104863495 -0.11174598 -0.053662248 0.21717976 -0.06284392 0.042863622
0.004815048 0.007033764 0.07148557 -0.09672832 0.008820903 0.21006541 -0.08077941 0.19585542
0.18575285 0.23883718 0.12162679 0.028399155 0.07752676 0.20545088 -0.076533854 0.17145574
-0.17114975 0.19951451 0.19055279 -0.1312844 -0.13493825 0.030791333 0.086431116 0.15466253
-0.13800518 -0.02745329 0.13507925 -0.025863392 0.004388333 0.024925275 0.07714031 0.048595645
-0.008957137 0.19581828 0.10076933 -0.116327375 0.25786656 -0.056344762 0.083751045 0.12393972
0.087530516 0.10451806 0.017296163 -0.1323124 0.13193856 0.15837419 -0.17536502 0.08361904
-0.14504634 -0.056696698 -0.23134002 0.15079653 -0.16756158 -0.10762487 0.23507941 -0.18316542
-0.04320263 0.14360398 0.10752482 0.16123419 0.13017707 -0.06696774 0.014619709 -0.074227646
-0.16529769 -0.18474473 -0.17815103 -0.047760636 0.14072295 0.03876991 -0.10750072 0.13871485
-0.053134315 0.22178051 0.15397054 0.06507168 -0.12456271 -0.10076559 -0.20158926 -0.084804565
0.19289453 -0.11674681 0.006121348 0.16137151 -0.07692693 0.10566564 -0.5285987 -0.3218628
-0.020610163 -0.13971278 -0.121251225 -0.06003515 0.0754447 -0.115937255 -0.02454495 -0.26828727
-0.41918346 0.1483903 -0.0930641 -0.14460644 -0.06975084 0.15251602 0.11793296 0.053704005
-0.37134427 -0.24140227 0.21284392 -0.00075609575 0.19235635 -0.13063827 -0.42816672 -0.27999538
0.26562354 -0.17460102 -0.18926239 -0.20085083 0.102468394 0.38127583 -0.105860405 0.044479135
0.26960948 0.30855453 -0.05377201 0.13998312 0.17327614 0.17722453 0.017661251 0.04180479
0.3583843 0.01689783 0.041822072 -0.1567174 0.041768633 -0.18110879 -0.13267249 -0.20805338
-0.111868724 0.1470888 -0.13474849 0.080930255 -0.0086043645 0.092945546 0.025563467 -0.042412233
0.11394842 -0.038054556 0.11250289 0.15798979 -0.1080208 -0.06644253 -0.05666065 -0.1531935
0.052514605 -0.004438354 0.16747893 -0.075538024 -0.115197256 0.12915206 0.13473864 -0.14791964
0.21109192 0.07128129 -0.12549134 0.069108196 -0.038610786 -0.07414258 0.0558369 0.31458408
-0.13419072 -0.2236606 0.27123243 -0.075575516 0.02092298 -0.25891945 -0.16791564 -0.030125743

conv1.bias f4 [16]
00000000: 9b46 2fba e938 843e 1923 773e fc83 1ebe
00000010: 5325 133c eeab 733e 0f24 433e f6b8 a23d
00000020: 6958 b3bc 12f6 403e a91c 36be fcf8 553e
00000030: b465 293d 68f7 e43c 0c26 803c 9783 4b3e
-0.0006686241 0.2582467 0.24134482 -0.15480036 0.008981067 0.23796055 0.19056724 0.07945435
-0.021892743 0.18843868 -0.1778437 0.20895761 0.041356757 0.027950004 0.015643142 0.19874416

conv2.weight f4 [32, 16, 3, 3]
00000000: 7302 74bd 0255 bc3c 8f82 adbd f192 6c3d
00000010: d56d 8b3d f1e5 8a3c 1bb6 9dbd 5add 95bc
00000020: f68e aabc f7d0 963d f95e 023d 0cdf d2bc
00000030: 815d c8bd 6a0b acba 09c6 a33d 0643 ff3d
00000040: 2a51 053e a198 823d 1804 99bd bfa9 753c
00000050: b691 8cbd 9b87 9fbd d2ea 863d 798c 17bd
00000060: d306 67bd 1da0 44bd 71d4 a0bd fbf6 e1bc
00000070: 6da1 e7ba de59 b73c 476f f0bd 427c aabd
00000080: a814 bf3c 3041 1a3d 4ab2 16bd 250a 2fbc
00000090: bb0d 62bd b01a c3bc ecaf d33d 0a13 d5bd
000000a0: cc70 ab3d 6ac1 6e3d 8893 79bd 3b52 283d
000000b0: 2190 ae3c 25ba 3dbd 9c0a 80bd 1ef7 9dbd
000000c0: 9a5b 073e adae be3d 06e9 713b 386a e33c
000000d0: 8c18 11be 7f48 1abd 96d8 e0bd 0d9a 8cbe
000000e0: ba02 253e 3311 7cbe 54c1 85be edb2 b93d
000000f0: 5c2b db3c d4b9 d53c ed2d 543e fb9d ecbd
00000100: 67ae d13b 5621 e63d d867 b13c 494d 073e
00000110: b620 da3d fef0 79be ed2b ccbd 7952 dfbd
00000120: c99d 9e3d d76e 43bd 3e94 04bd 6105 c83d
00000130: 1c4d bfbb b72e be3d bf83 82bd 92e6 c53c
00000140: 45e5 8a3d 8623 513c ebd0 48bc fc82 b4bc
00000150: b7b3 8fbd ad33 1fbc c6af 2fbd d208 5e3d
00000160: ff8f da3d b09c 1fbd 7b4b fa3d 57a8 b0bc
00000170: 5dec 083d 411c abbd c968 9cbb 7ca9 71bd
00000180: 838c fdbb 539a 84bc 0fbc f63d 16ec 1f3c
00000190: b923 023e 4234 943d 0116 e4bd 3009 d53d
000001a0: b180 c3bc 634b e4bc 5f3a fc3c 6250 83bd
000001b0: 4594 d3bc 29b1 e03c 4f4f d03d a0e5 d4bd
000001c0: b8f2 d13d edb7 583d c617 d03c c52b 34bd
000001d0: 35f5 263d bd8b 4d3b 42e6 a83d 5774 9f3d
000001e0: 680b 093e 8676 00be eb9c f03d abe2 dbbd
000001f0: f485 11bd 79d7 7c3c db9f 2d3d 8f56 d7bd
00000200: dab8 0bbd f4a9 113d a7e4 933c 103a ddbd
00000210: 576f 973d f8cc a93d d1ee 91bd e277 a73a
00000220: ee67 f4bd a6ed b3bd 3023 f33d 88ff ba3d
00000230: 0144 c0bd c6f8 0b3e 69c0 123d aaec e8bb
00000240: a153 6d3c 489d 433d d5e1 1ebc 9714 99bc
00000250: 100a 243d ac7e 313d f174 e13c b18f 9bbd
00000260: 4270 493d 841b 993d a796 443c 8546 e03d
00000270: 2a5b a33d 25d0 6a3d 8477 883d ca72 1c3e
00000280: d334 2c3e 8d8a bf3d 72f8 2c3d 6933 b0bc
00000290: b2bf f03d d157 93bd cee4 283d d694 093e
000002a0: fed8 a23c ef9f b4bd f90e 4fbd 59c6 073b
000002b0: 6810 bcbc d44c 82bd 87c1 8abc 1d35 e3bd
000002c0: c4a0 82bd a1a2 0d3d fcf1 9ebd 026e a4bd
000002d0: 1d5d b23c eb5d 6f3c be93 573e b71a 15bd
000002e0: 5021 14bc 0ae2 813d 341b 533c 3fdc a1bc
000002f0: 3f04 f03d ba7d b13c 078e 8a3c cbeb 083e
00000300: 841d afbb 79dc 9dbc c25b 2bbd 6a2a 08bd
00000310: 4602 8d3d 4ae4 a43d a6d2 1bbe 6055 54be
00000320: c6a3 50bd aaa1 0ebe 60c1 72be 8de9 12be
00000330: ff5e 0abe c9f1 ecbd fe2f 4ebd 14f2 563d
00000340: cd4e 17bd 3043 d9bc bd52 353d 88db e63c
00000350: 1625 aa3c 7da6 0a3d c58e 0d3e 3e82 14bd
00000360: 76b0 23bd 1311 ebbb d3f9 9b3d a412 273d
00000370: e3a5 d7bd aed9 453d c769 f33d 5c12 38bd
00000380: 2b4b 863d 2004 31be 5484 3bbe 55ea 0fbd
00000390: 3875 0fbe 2c12 3fbe 4bf9 7abe 38d9 c7bd
000003a0: 8e76 85bd 7722 40be 72c7 4f3d 3339 9cb8
000003b0: e1ca 303b 1994 bdbd a459 e7bd aab8 653d
000003c0: 6fe0 4ebd 5284 bfbc f3bd 063d 1f9f 403d
000003d0: 9df8 723c 99c9 803d a5ab 33bd f1af 573d
000003e0: 97ea 883d eb26 d23c 9ec7 10bd db26 9c3d
000003f0: 3d94 043e c121 8c3d c273 b0bb 86fe 1d3d
-0.05957265 0.022989754 -0.08472168 0.05775732 0.06808058 0.016955348 -0.077007495 -0.018294025
-0.020820122 0.07364076 0.031828854 -0.025741123 -0.097834595 -0.001312596 0.079967566 0.124639556
0.13019243 0.06376768 -0.07471484 0.014994084 -0.0686373 -0.077895366 0.06587757 -0.0369992
-0.056402992 -0.04800426 -0.0785302 -0.02758359 -0.001767201 0.02238172 -0.117399745 -0.083244815
0.02332528 0.037659824 -0.036791123 -0.010683571 -0.055188876 -0.023816437 0.10336289 -0.10404022
0.08371124 0.058289923 -0.060931712 0.041094046 0.02130896 -0.0463201 -0.062520236 -0.077131495
0.13218537 0.093106605 0.0036912574 0.02776061 -0.1416952 -0.037666794 -0.109788105 -0.2746128
0.16114321 -0.24615936 -0.2612406 0.090673305 0.026754074 0.026089586 0.20720644 -0.1155357
0.006398964 0.11236827 0.021655962 0.13213076 0.1065077 -0.24408337 -0.09969316 -0.10904402
0.07744939 -0.047713127 -0.032367937 0.09766651 -0.0058380496 0.09286254 -0.06372785 0.024157796
0.06782011 0.012764817 -0.012256841 -0.022035114 -0.070167 -0.00971691 -0.04289224 0.05420763
0.10671996 -0.03896779 0.12221428 -0.021564646 0.03342854 -0.083549984 -0.0047732336 -0.058999524
-0.0077376976 -0.016186869 0.12047588 0.009760877 0.1270894 0.0723653 -0.111370094 0.10402143
-0.023865076 -0.027867978 0.030789552 -0.06411816 -0.025827536 0.027428227 0.10171377 -0.1039536
0.10251373 0.05290978 0.025401961 -0.043987054 0.04076119 0.0031363808 0.08247043 0.07785862
0.13383257 -0.12545213 0.1174868 -0.10736593 -0.03552814 0.015432232 0.04238878 -0.105145566
-0.034111835 0.03556247 0.018053366 -0.1080209 0.07394283 0.08291048 -0.07125629 0.0012776817
-0.119338855 -0.08785562 0.11871946 0.0913077 -0.09387971 0.13669118 0.035828028 -0.0071082907
0.014485271 0.047757417 -0.009697397 -0.018686576 0.04004866 0.043333694 0.027521582 -0.07595766
0.049179323 0.07475951 0.011998809 0.109509505 0.079763725 0.05732741 0.06663421 0.15278164
0.16817026 0.09352598 0.042229123 -0.02150889 0.11755313 -0.07194484 0.04123383 0.13435683
0.01987886 -0.088195674 -0.05055139 0.002071759 -0.022957042 -0.0636231 -0.016937984 -0.11094115
-0.0637832 0.034578923 -0.077609986 -0.08028795 0.021772915 0.014609794 0.21052453 -0.03640243
-0.009041145 0.06341942 0.012884904 -0.019758342 0.1171956 0.021666396 0.016913427 0.13371198
-0.0053440947 -0.019270169 -0.041835554 -0.033243574 0.06885199 0.08051355 -0.15217075 -0.20735693
-0.050937437 -0.13928857 -0.23706579 -0.14346905 -0.135128 -0.11569554 -0.050338738 0.052476957
-0.036940385 -0.026521295 0.04426836 0.028180853 0.020769637 0.03385018 0.13823994 -0.03625702
-0.03996321 -0.0071736663 0.076160096 0.04078926 -0.10529687 0.0483033 0.1188541 -0.044939384
0.06557306 -0.1728673 -0.18312198 -0.035135586 -0.14009559 -0.18659276 -0.2450916 -0.09758228
-0.06516753 -0.18763147 0.050727315 -7.449314e-05 0.0026976394 -0.09256763 -0.112963945 0.056084312
-0.050507005 -0.023378525 0.032895993 0.04702675 0.014829782 0.06288452 -0.043864865 0.052658025
0.066853695 0.025653323 -0.03534662 0.076245986 0.12947173 0.068423755 -0.005384893 0.03857281

conv2.bias f4 [32]
00000000: 5f29 923d 8f43 273e dd55 a33d d14d acbe
00000010: 3a2b 95bd 1870 a0bd b133 873d f6ab d53c
00000020: 6ca3 383d 7e77 d6bd 05ed 203c 317a 9dbe
00000030: e27b 1ebd 42c9 5ebd 8498 a93d c1b8 0d3d
00000040: f46b a9bd 021e a43c 0fab a0bd 5ddf 883d
00000050: fa80 663d 6c60 2cbd fc99 aa3c 1886 31bd
00000060: 1770 53bd 615d c1bd 1cfe f63c 6fd3 d8bd
00000070: 1a03 8a3d fd85 adbe 4cc7 963d 514a 63be
0.07136797 0.16334365 0.079753615 -0.3365312 -0.072836354 -0.0783388 0.06601656 0.026082974
0.045077726 -0.1047201 0.009822135 -0.30757287 -0.038692363 -0.054391153 0.08281043 0.034600023
-0.082725435 0.02003384 -0.07845127 0.06683228 0.056275345 -0.042084143 0.020825379 -0.043340772
-0.05162057 -0.09441639 0.030150466 -0.10587203 0.06738873 -0.33891287 0.073622316 -0.22196318

conv3.weight f4 [64, 32, 3, 3]
00000000: 516f 9e3c f636 263d 3158 e23c fe99 513d
00000010: 7112 03be 0ead 58bd e1c4 d8bc 10b9 1e3d
00000020: b581 40bd 8dcb 893c 9caa fa3d 3d74 223a
00000030: 044a 65bc 62ea 11bd d6e3 eebd a7cb 49bc
00000040: b5bb 01bd 7f26 22bc 30a0 d9bc aa98 c43d
00000050: 32a2 33bd f368 6dbc 2d0c cdbd 91be 3c3d
00000060: 059b 483a dee0 003c dbde 513d b9a6 433d
00000070: 4a0d 433b e290 5d3d e590 8e3c d5f5 c6bd
00000080: 5fe5 d13c 4bca 7e3b 676e 453c 0bae 0bbd
00000090: a3d8 8d3c 55e2 37bd 1e39 fb3c 17b6 32bd
000000a0: 71cb b23c 1c82 7abc 2f62 0cbd ff9d 4d3d
000000b0: 7195 4c3d b584 963c 8dbc a33d becb b5bc
000000c0: 16d4 06be 2150 323e 8d8c 543d 2b80 65bd
000000d0: 3096 9dbc 39cd 47bb d407 1f3d 7bae 5cbd
000000e0: 4e12 82bd f52d 083e 6129 573c 522e a73d
000000f0: 8541 babd bfc2 81bd 97f3 b4b9 d723 a0ba
00000100: 6806 403d fa1f 143d 6afb 40bd 4bc2 893e
00000110: 2c88 143d a36f 5ebe 2d56 0bbe db7a e33d
00000120: 6fb2 743d 7a16 49bd 4353 15be 6cb3 723c
00000130: bc57 02bc c8bf 2dbe 4ce3 0f3d 9105 15bd
00000140: b0d2 91bd d8cd ddbd cb11 a6bd 2d24 e3bc
00000150: 51d0 d7bd 7962 283d af9e 543d c2bd 643d
00000160: 4945 ad3d f689 813d 8878 edbc 7c20 2dbc
00000170: 59a9 693d a58a 7c3d e018 d3ba 686d f2bc
00000180: 38ad eabc 0632 2cbd 5a54 56bd 9a12 3d3d
00000190: b040 1a3c eca8 e0bc b334 de3d e030 8bbd
000001a0: 48cf 793d cd21 583d 0f41 c3bc dbd3 273d
000001b0: a7d0 64bd 37a7 123e 0b1e a83d a1eb 7fbd
000001c0: 0454 18bd 9af3 a73d 33be 01be f7ee 9f3c
000001d0: 90b4 cdbc 81d3 b4bd 7ae8 343c 95d2 823d
000001e0: b37d 243b 1e37 a0bd 2140 923d 1174 8c3b
000001f0: b937 a73a 3c2b fbbc 4309 353d 6d9b 15bc
00000200: 91c4 61bd acff 80bc 68d4 26bd a673 babd
00000210: 856b a1bd 5bf5 24bc fbf4 8e3d 7e2f 8d3e
00000220: 5764 f73d 57ce ecbb 73c1 c6bc 4962 61bd
00000230: 3f4e 0abe 313b 203d 6e16 7e3d af65 993c
00000240: b06a bfbd 9655 6cbd 4216 1d3d 74ae 63bc
00000250: 97a0 37bd 087c fd3c 0718 81bb 86e9 9e3c
00000260: bed1 e73b 2978 01bd fb65 5dbd a1ac b8bc
00000270: 5b0f df3c 65fe 15bd 3dac c43c 277a 8dbd
00000280: c4a2 c33c a428 e8bc 7578 d5bd 9416 fabb
00000290: 9800 143e 1462 be3d 4d9e 22bd a51c 4f3d
000002a0: ea7a 17bd c58b 03bd a888 6e3b 98b2 a73d
000002b0: a545 7abd fb67 c83d 825f 3abe 71c2 e9bd
000002c0: 7a21 c53d 8241 afbc f051 b83d 873e 9c3d
000002d0: 79da 27bc c3f9 7d3c f68b ed3c d9fa 3abb
000002e0: 6fe3 943d fd30 903d 9d0b 78bb 996f 983c
000002f0: 1080 2b3d 717d 26bd 2b5f ce3b d5ef 2d3d
00000300: 3d4d 6b3c 9db0 70bc ed1b 223d a7f5 fe3c
00000310: 88c4 603c 95bc 4cbd b259 3cbd def2 da3c
00000320: 43ee e9bb 3c64 f03b 0fd1 22bd da80 0abd
00000330: c8f8 cebc ceb6 133a 2419 cbbc 96e1 c63d
00000340: 504b d6bb daf4 ac3d 1d1f 9b3b 2ae1 213d
00000350: bde2 aebb 10ab a7bd f740 d3bc 677c f3bb
00000360: 0a6b 963d 7aad d73c 9d13 903c 93f0 ae3c
00000370: d57f dfbd e230 ac3c c108 da3d a5d8 023d
00000380: be2e 1e3d b63b 4a3a 019e 743d 5d62 cbba
00000390: 31ed 33bd 2dc8 ebbc ac25 34bd 13b5 873d
000003a0: 5806 ba3c 5ac8 f63c 2de1 173e 69b4 aebd
000003b0: 3558 4ebe ac39 6cbe 4e69 18be d374 70be
000003c0: e513 8fbd 534c c3be d4f3 67be 62b4 0a3d
000003d0: b70a 15bd 9bdd 08bd 5a60 c0bc 1629 83bd
000003e0: 6b0b 1dbc 20b6 afbb c1c7 a03c f20d 6e3d
000003f0: 4c05 173e 1ddd 033d 1d0e 8c3d d169 4cbd
0.01934019 0.04057976 0.027629944 0.05117225 -0.12800004 -0.052899413 -0.026461067 0.038750708
-0.0469987 0.016820693 0.122395724 0.00061971304 -0.0139946975 -0.035623915 -0.1166455 -0.012316621
-0.031673152 -0.0098968735 -0.026565641 0.09599431 -0.043855853 -0.014490354 -0.10012088 0.046080176
0.0007652494 0.0078661125 0.051237922 0.04776642 0.002976256 0.05409325 0.017403075 -0.097148575
0.025622068 0.00388779 0.012050248 -0.034101527 0.017315214 -0.04489358 0.030666884 -0.043630686
0.021825524 -0.01528981 -0.034273323 0.050199505 0.049947206 0.018373827 0.079949476 -0.022191878
-0.13166842 0.17413379 0.051891852 -0.056030434 -0.019236654 -0.0030487312 0.038825825 -0.053877335
-0.063511476 0.13298781 0.013132424 0.08163132 -0.09094528 -0.06335973 -0.00034513764 -0.0012217712
0.04688111 0.036163308 -0.047114767 0.26906046 0.036262676 -0.21722274 -0.13607092 0.11107417
0.05974048 -0.0490937 -0.14582543 0.014813285 -0.007955488 -0.1696769 0.035128877 -0.03638226
-0.071202636 -0.10830277 -0.081088625 -0.02772721 -0.1053778 0.041109536 0.051909145 0.05584503
0.08460481 0.06325142 -0.028988138 -0.010566827 0.057046268 0.06165566 -0.0016105436 -0.029593185
-0.02864705 -0.042039894 -0.052326538 0.046160318 0.009414837 -0.027424298 0.10849895 -0.067964315
0.060988694 0.05276661 -0.023834733 0.040973525 -0.05586305 0.143216 0.08208855 -0.062480573
-0.0371895 0.0820076 -0.12670211 0.019523127 -0.025110513 -0.08829404 0.011041755 0.063878216
0.0025099337 -0.07823013 0.07141138 0.004286297 0.0012757696 -0.030660264 0.044198286 -0.009131295
-0.0551191 -0.015746914 -0.04072991 -0.091040894 -0.07881836 -0.010068263 0.0698032 0.27575296
0.12079685 -0.007226746 -0.024262166 -0.055025373 -0.13506411 0.03911895 0.06203311 0.018725244
-0.09346521 -0.05769881 0.038351305 -0.013896573 -0.044830885 0.030942932 -0.003939632 0.019398462
0.0070745638 -0.031608734 -0.054052334 -0.022543253 0.027229002 -0.036619563 0.02400791 -0.06908064
0.023881324 -0.028339691 -0.10423366 -0.007632086 0.14453351 0.09296051 -0.03970175 0.050564427
-0.036982454 -0.032115716 0.0036397371 0.08188361 -0.061101574 0.09785458 -0.18200496 -0.1141404
0.09625526 -0.021393541 0.09000003 0.07629114 -0.010244959 0.015501442 0.028997403 -0.0028530865
0.07269942 0.07040594 -0.003784872 0.018607901 0.041870177 -0.040646974 0.006297966 0.04246505
0.014361677 -0.014690545 0.039577413 0.031122996 0.013718732 -0.049984533 -0.045983978 0.026727136
-0.0071389987 0.0073361676 -0.039750155 -0.03381429 -0.025265113 0.0005634845 -0.024792261 0.09710996
-0.0065397397 0.08445139 0.0047339336 0.039521374 -0.005337088 -0.081869245 -0.025787814 -0.0074306014
0.07344635 0.026327837 0.017587477 0.02135495 -0.10913054 0.021019403 0.10646201 0.03194489
0.038618796 0.0007714586 0.059720997 -0.0015516985 -0.043927375 -0.028781975 -0.04398124 0.06626334
0.022708103 0.030124832 0.14831991 -0.08530504 -0.20150836 -0.23068875 -0.1488392 -0.23482065
-0.069862165 -0.38144168 -0.22651607 0.033863433 -0.03638717 -0.033414464 -0.023483444 -0.06404321
-0.009585242 -0.005362287 0.0196265 0.058118768 0.14748114 0.032193292 0.068386294 -0.049905602

conv3.bias f4 [64]
00000000: 4729 0e3e 6449 0d3e a5bc 903d d01b 9dbe
00000010: 227a 9f3d a33f 463d aeca 8a3d 5aaf 3a3d
00000020: 708a 9cbd d87e eabb defd cdba e9e7 79bd
00000030: 2ff6 d3bd c8f9 5fbd 3da4 233d 897d e63d
00000040: be5f ff3d 4480 a0bd 0523 0c3e d074 673d
00000050: 2f64 c8bd 2abe 8a3a 67c8 b33e 048a ae3d
00000060: a7fa e03c 930e e43d dabe f5bd 364d b7bd
00000070: 986c 79be 923c 9fbe d2dc ccbd 8d2f bcbd
00000080: b39a 403d 74d8 bd3d 431c ab3d 5566 8a3e
00000090: 5896 903d a7c8 edbd 6f84 0fbe f6a7 24bd
000000a0: 656e 253e df4a 07be 0dc3 28be 28f3 2f3d
000000b0: 607c bf3d 83d9 b43d 5480 e8bd e788 c3bd
000000c0: ce65 b13b de1b 02bd 2b5c ffbd 097b 3a3d
000000d0: 4e6a 403d ecb4 a6bd 56f9 023d 71c3 debd
000000e0: 7aba c6bd e293 2c3d d458 c3bc d4d2 37bc
000000f0: 5723 90bd 88e0 693d e347 f5bc 7ab6 5b3b
0.13882934 0.13797528 0.07067231 -0.30685282 0.07786967 0.048400532 0.06776939 0.045577385
-0.07643592 -0.0071562342 -0.0015715917 -0.061012182 -0.1034969 -0.05468157 0.03995155 0.11254413
0.12469433 -0.07836965 0.13685234 0.056507885 -0.097847335 0.0010585238 0.35113832 0.08522418
0.02746327 0.11135592 -0.11999293 -0.08950274 -0.24357831 -0.311009 -0.10003056 -0.09188757
0.047022533 0.09269801 0.08355 0.27031198 0.07059926 -0.11610537 -0.14015363 -0.040199243
0.16155393 -0.13212155 -0.16480656 0.0429565 0.093498945 0.088305496 -0.11352602 -0.095475964
0.0054137474 -0.031764857 -0.124687515 0.04552749 0.04697638 -0.08139977 0.031976067 -0.10877121
-0.09703536 0.04213322 -0.023846067 -0.011219699 -0.070379905 0.057098895 -0.029941505 0.0033525513

up1.weight f4 [64, 32, 3, 3]
00000000: 1ac5 793d 4242 b63a e744 a7bb 4347 b3bc
00000010: f4fd 973d da7b 3ebc f5a8 fdbc 87ff 163d
00000020: cea8 20bd b14a 1f3c f24e d13c 6e64 153c
00000030: 5f23 38bc 7680 273d d7d8 2dbb 23d7 17bc
00000040: c9cb ca3c 3aca cb3c 198d 24bd 4630 9abb
00000050: 61ce c3bc b7b9 26bb 8959 a43c 7243 68bc
00000060: bfab 5abd 3a05 4dba 47b2 bd3c 67ce 19bd
00000070: fcfd 173d b0a0 19bc 1266 1bbc 6dc2 1e3d
00000080: d614 a43b bba5 13bd 1a68 713d fe2f 6b3a
00000090: eeaa 92bb 9d41 9f3d 6c2b 123e 0fa7 20be
000000a0: 0b53 3ebd 1d87 89bd 9825 c0bc 40de 4abd
000000b0: 41b1 fb3d 5d60 223d 2786 263d 02d8 bf3d
000000c0: b990 c6bc f6fc 5f3d 7347 79bc 4210 2c3c
000000d0: c695 3dbc 58dd dcbd 3d30 8fbc 8775 d33b
000000e0: 384e 9d3d dfc8 89bc 5f5f 6a3d cb27 3e3d
000000f0: ba88 3ebd c79e bfbd ee6a 263c 79ad e3bc
00000100: 2284 c4bc 5b9c 20bc fe19 e4bd c8ed 7ebc
00000110: f7b3 df3d bd67 92bd 9ea9 2a3c 5887 703d
00000120: 31f3 b7bd 6641 6c3d 50cd e13d a064 bbbc
00000130: f42e 6c3d d8ac 813d cb36 89bd 7907 b3bd
00000140: 6ac7 ed39 b084 a83d e79c 263d 488f b93c
00000150: e212 c6bd 85fc 24be 182f a5bd df2d 35bb
00000160: a84d 1d3c 7e56 693c b75e 61bc 52cd db3d
00000170: d940 69bd dfe9 04be 7ace 37bd 59d0 ff3d
00000180: 8b97 41bd 6f44 733d 032e 033e 3a78 c5bd
00000190: 0843 5bbc 033d e639 2cf3 ffbd af87 e63a
000001a0: 630b 1e3d 774c 37bc b271 eb3d 6ed5 f43d
000001b0: f8d7 9c3d e0e6 3cba 0007 9e3d 7b1d 10bd
000001c0: ba01 a53d 9b5c cf3c 6c5c 353d 6118 d1bd
000001d0: 143c c8bd 48fe 573d ed81 a23c 2f1b 12bb
000001e0: 0758 53bd 29e9 9bbd 0821 8abd 52e8 c7bd
000001f0: f02c 623d f346 dc3d f5a1 acbd 53e1 83ba
00000200: 98ce 2fbd 516b 48bd 93cf 643d cfa1 b03d
00000210: 1153 0c3d 3246 993d d475 803d 2fb9 db3d
00000220: 0307 193c a887 92bd 8822 353d e235 ea3b
00000230: a7f0 81bd fa52 1dbc 3002 1bbd f99b bcbd
00000240: b1f5 013d 4b08 cd3d 27e7 ae3d 49a5 84bd
00000250: 6cf9 033e b7cd aebc 6cc1 c8bc 78a5 e9bd
00000260: d5f8 2cbd 340f 4b3b b378 c2ba 045e a53d
00000270: b92c 653c d745 98bd b2e3 babc 4c77 dcbd
00000280: 4998 49bd 015b 7a3d 33dd cdbd 68cc d2bc
00000290: d24b b53c 827a b6bc 20ce c03b 5fe9 b63d
000002a0: b8f5 d8bc 3c7f 633d e585 5d3d 93d3 853d
000002b0: 1fcc c93c 2bfe 1ebc 172b c43c 0ff1 7dbd
000002c0: eeb8 013c 423f d9bd d151 05bb 93e1 ad3d
000002d0: 6a6a 08bd 801a dfba 9247 d9bb 876c 3cbd
000002e0: ac1e e7bc 7201 fd3c 4366 71bc 867b 11bc
000002f0: 2896 083d 13b1 febd 8fea c9bd 665a 0e3d
00000300: 9d41 a63b 29ba 503d 9dbd 1e3e 7b78 c23b
00000310: 98eb 523d a52e c93d c5fd 0d3d cb0c 113d
00000320: 8922 58bc 16c7 99bd 149b b43a 9d15 8abd
00000330: 976a 123d 6adf 8cbd 044e 833b a710 a3bd
00000340: 0610 38bc 1d2d b63d ea43 d3bd ab84 453a
00000350: d618 193e bd8f edbd 4a3f 9a3d ff7d 693d
00000360: 39fb 533a 6511 0abc 0018 ed3c 6fcb ec3d
00000370: 2374 99bd 15b7 07bd 33eb 9f3d 5ed4 92bc
00000380: c8e8 15be 3f32 d4bb b321 763c b0f7 08bc
00000390: 0a30 673d 9004 c8ba f5b9 abbb 14b3 a43a
000003a0: 76ad a63c fdb3 303c 9791 19bd 6a98 0a3d
000003b0: 09b2 17bd f572 263d 4a87 263d 1de9 75bd
000003c0: 0c8b 863c d3f5 58bc 1348 873a d4c4 e8bc
000003d0: 1e0f 513d 3469 19bc 00cf 203d 1922 e53c
000003e0: 83dc 85bd b4d6 80bc bf91 75bd ee88 94bc
000003f0: 1c4c a93d 4132 b33d b329 72bc d5f5 b3bc
0.060978986 0.0013905244 -0.0051046493 -0.021884566 0.074214846 -0.011626208 -0.030964354 0.036864784
-0.039223485 0.009722398 0.02555034 0.009118183 -0.011238902 0.040893994 -0.0026526952 -0.009267601
0.024755375 0.024876703 -0.040173624 -0.0047054617 -0.02390212 -0.0025440285 0.020062225 -0.014176236
-0.053386446 -0.0007820908 0.023156298 -0.037550356 0.037107453 -0.00937669 -0.009484785 0.038759638
0.0050073666 -0.036046725 0.05893717 0.000897169 -0.004475943 0.077761866 0.14274377 -0.15688728
-0.046465915 -0.06715224 -0.023455426 -0.04952836 0.12289668 0.03964268 0.04065528 0.09367372
-0.024238931 0.0546846 -0.015214789 0.010501923 -0.011571353 -0.107844055 -0.017479056 0.0064532193
0.07680935 -0.016819416 0.05721986 0.04642467 -0.04651711 -0.09356456 0.01015733 -0.02779268
-0.023988787 -0.009802903 -0.1113777 -0.015559621 0.109229974 -0.07148693 0.010416416 0.058722824
-0.08981932 0.057679556 0.110254884 -0.02287513 0.057661965 0.063317955 -0.06699904 -0.0874166
0.00045352738 0.08228433 0.040676977 0.02265133 -0.0967157 -0.16111954 -0.08065623 -0.002764575
0.009601034 0.014241813 -0.013755492 0.10732521 -0.05694661 -0.1297984 -0.044874646 0.12490911
-0.047263663 0.059391435 0.12810521 -0.09642072 -0.013382681 0.00043914476 -0.12497553 0.0017588044
0.038585078 -0.011187664 0.11496295 0.11954771 0.0765838 -0.0007206034 0.07716179 -0.035184365
0.0805697 0.025312712 0.044277593 -0.10209728 -0.09777084 0.052732736 0.019837344 -0.0022294035
-0.05159762 -0.07612831 -0.067445815 -0.097611085 0.055218637 0.1075572 -0.08429328 -0.0010061659
-0.042921633 -0.04893047 0.05586202 0.086246125 0.034258906 0.07484092 0.06272474 0.1072868
0.009340051 -0.071547806 0.044222385 0.0071475366 -0.06344729 -0.009602303 -0.037843883 -0.09209437
0.03172845 0.100113474 0.085401826 -0.06476838 0.12888116 -0.021338327 -0.024506293 -0.11408514
-0.042229492 0.0030984404 -0.0014836997 0.08074573 0.0139877135 -0.07435196 -0.022813652 -0.107649416
-0.049217496 0.061121944 -0.10051956 -0.025732234 0.02213088 -0.022275213 0.005883947 0.08931231
-0.026484355 0.055541262 0.05408277 0.06534495 0.024633465 -0.009704153 0.023946328 -0.06199747
0.007917626 -0.106077686 -0.0020342956 0.084902905 -0.03330461 -0.0017021447 -0.0066308463 -0.046001937
-0.028212868 0.030884478 -0.014733854 -0.008879548 0.033346325 -0.12436118 -0.098591916 0.03475418
0.0050737397 0.050958786 0.15502019 0.0059347725 0.05149421 0.0982335 0.03466584 0.03541259
-0.013191828 -0.07508676 0.0013779127 -0.06742404 0.035746183 -0.0687855 0.004007103 -0.079621606
-0.011234289 0.088953234 -0.10315688 0.00075347227 0.1495088 -0.115996815 0.07531603 0.057004925
0.00080864463 -0.008426999 0.028942108 0.115622394 -0.074928544 -0.033133585 0.078085326 -0.01792353
-0.1463958 -0.0064757164 0.015022683 -0.008359835 0.056442298 -0.0015260149 -0.0052406737 0.0012565576
0.020346384 0.0107851 -0.03749236 0.03383676 -0.037035022 0.040636975 0.040656365 -0.060036767
0.016423725 -0.013242203 0.0010321162 -0.028414167 0.051039807 -0.009363461 0.03925991 0.02797036
-0.065362 -0.015727378 -0.059953447 -0.0181317 0.0826647 0.087498195 -0.01478045 -0.021967808

up1.bias f4 [32]
00000000: 1951 a23d 883f 1fbc 7a07 42bd c15e 663e
00000010: f1e1 c43a 7335 83bc daab 0b3d 1548 0c3e
00000020: 5bae aebc 000f be3c f832 9fbb 1566 6e3c
00000030: 6ef4 1ebc 5eba 6dbb 7aab 0b3d 152a 23bd
00000040: 29ef 073c eaa3 38bd 77e2 43be 2dca 773b
00000050: 4f82 203e dbf5 643c be5a 11bc 0649 833c
00000060: 186b 92bc c201 923c 51ec 023e ecd9 303e
00000070: 00e8 143b 2642 de3d 97e8 5c3e 26d7 89bc
0.079256244 -0.009719737 -0.04737041 0.22497083 0.0015020949 -0.016016698 0.034099437 0.13699372
-0.021323374 0.023200512 -0.004858371 0.014550705 -0.009701831 -0.0036274414 0.03409908 -0.039835054
0.008296766 -0.045078196 -0.19129358 0.0037809715 0.15674709 0.013974632 -0.008871732 0.016026031
-0.017873332 0.017823104 0.1278546 0.1727063 0.002272129 0.108524606 0.21573101 -0.016826224

conv4.weight f4 [32, 64, 3, 3]
00000000: 8b71 aa3d b647 20be f6eb 0c3e 5e3a c7bd
00000010: 5cb7 97be 5841 41bd 46d2 5d3e a3a7 de3d
00000020: 53cf 3a3e 6b02 ebbd 2f19 90bd 281a bbbd
00000030: 1268 2fbe f330 3dbd 8d68 97bd c044 f5bd
00000040: cee5 21be c233 36be 3789 e2bd 122b a0bd
00000050: 3143 22be 0259 03be 57f9 30be 0214 3bbe
00000060: 99f3 d0bd 3597 41be f7c7 42be 923d 96bb
00000070: 1e04 543c 2470 53bc 1293 c63c 741f 6abd
00000080: 0ffa 3dbc 77b3 2fbd 5a89 6dbd c6ec b0bc
00000090: a594 f7bb 83e9 e03c 04be 3c3c 812c e4bb
000000a0: 886c 1cbd 8929 753c 49e8 be3c 99f2 e0bc
000000b0: 83ad 2c3c 37e5 0b3b 1c95 733c 85fd bcbd
000000c0: b384 053e 9fe4 9a3d 629e a5bd 99fd b3bc
000000d0: 636b d93c 074e 07be 082d 53be 2c87 7abe
000000e0: 6b96 0abe 18f1 80bd 8963 5b3e 12c2 0b3e
000000f0: e2f3 fabd 0ca5 d4bd bee5 063d 0355 9f3e
00000100: decc f33e 4d89 3f3e 77ee 1f3f f37d 593f
00000110: 27fb af3e f49c aa3e 6d3c bb3e 9f4e f53d
00000120: dab3 553d 4cc3 ae3d a72f 123d 212f 99bc
00000130: 74d9 a53d d41e 413b e033 bdbd e9c8 5abd
00000140: 65f7 98bd d293 bf3d c34e b3bd a78a d93d
00000150: a524 0c3c 130a b7be 90f7 15be e507 1d3e
00000160: e13e ddbd c849 4c3d d013 8bbe 0735 c7be
00000170: b90e bdbe b6c8 31be 663b 42be c7dc 19be
00000180: b35d 21be 2801 e4bd 1033 f5bc 3fbc 01bd
00000190: 9895 ed3b 2282 f93c a4dd 7ebc 5b16 14bd
000001a0: 5390 843c 306c b83c 7b98 f03c c354 af3c
000001b0: fa12 c13d 1af5 9f3d 1875 21be b42f f33d
000001c0: cedc 193e 614f 91bd c54c 943c cfbd 923d
000001d0: 90b9 54bd e7ac 25bc a00c 1abe 0bef 233e
000001e0: 604f 0cbe a6f4 afbe 19d2 cb3d abac 373b
000001f0: 3b23 d2bd bd3c 2c3d 89a8 c53d bec3 cdbe
00000200: b34d 863e 4309 cfbd 010e 24bf 8f5b b13d
00000210: 95b9 a03e 8711 54bd d060 993e 69aa 32bd
00000220: 752b 6cbd ea1d cbbd 7afe 6abd 9c9a 34bd
00000230: 50de 9ebd d03d 94bd 4ff1 99bd c0b7 fbbc
00000240: 5aa7 1e3e 487d 6c3e 277b 8abd 6973 253e
00000250: f432 bdbd bd1a a2be f4d2 30bd 0b96 a5be
00000260: ed42 99be 0905 e4bf 1d19 f5bf cb25 9abf
00000270: d17e a8bf 7298 8bbf ac32 5cbf 19c7 81bf
00000280: ab8c 8dbf 78fc a4bf c2e0 2e3d 74cc 9dbe
00000290: b814 913e 2067 06be a6fc 1abf cfc1 04bd
000002a0: 3113 9f3e 6fc4 193e 45e6 663e 3b99 2cbe
000002b0: 8ef7 dfbe 575f 993d f8c8 39be 3789 2cbf
000002c0: d402 25bd e410 973d 0abe 02be b08a 1b3e
000002d0: bf8e 013e e4ad 0d3d 3a49 803d 618b d43d
000002e0: f72a 28bc 3f16 133d 531b 2bbd 7fa8 e8bd
000002f0: e1d2 86bd af11 7a3c 8b0e 663c 5676 c13a
00000300: fb74 913b 5855 023d db43 4b3c e912 26bd
00000310: 9c87 373c 600d 953b 3c73 95bc 6078 953d
00000320: b503 d43e 9c46 03bf 27b0 abbe ccd5 763e
00000330: 7ccd 79be 74cf a0bd 2447 a63e 28fe 00bf
00000340: 9e0b 273e 423d 4b3e 79bc 3a3d cd9b 333f
00000350: f646 c53e f21e 34be 56c7 8abd 0868 5cbe
00000360: f435 4e3e b4ef 6c3e b748 e03d ac28 2bbd
00000370: 5d5e 75be f7b5 0cbe 1aff 9c3d a082 08be
00000380: d018 8ebd 151e a53b d7ff 3cbd 8add 4dbd
00000390: 2bed 8bbd ca9c 57bd e50c 7fbd 5c40 3fbd
000003a0: d0f8 5dbc fd80 13bd 35d3 e43d 49c7 f93d
000003b0: eb9c 15bc 679c 5d3e 9440 bb3e c9c7 603d
000003c0: 87a3 893d d858 de3d b99c 2cbd 6af1 fbbd
000003d0: 5d35 97bd a584 23be d039 48be 26a8 3abd
000003e0: 012a a9bd 3f3e 3bbf de89 0fbf 5acf fbbe
000003f0: ab07 ef3d 93d3 8f3d caba 643e 4683 ef3c
0.08322438 -0.15652356 0.13761887 -0.097279295 -0.2963208 -0.047181457 0.21662244 0.10871818
0.1824315 -0.114750706 -0.070360534 -0.09135848 -0.17129543 -0.04618926 -0.07392988 -0.11976004
-0.1581032 -0.17793182 -0.11061328 -0.07820715 -0.15845944 -0.12826923 -0.17282616 -0.18269351
-0.102027126 -0.18905337 -0.19021593 -0.0045849765 0.012940435 -0.012905154 0.02424005 -0.057158902
-0.011595263 -0.04289576 -0.057992317 -0.021597277 -0.0075555616 0.027455097 0.011519913 -0.006963313
-0.03818944 0.014963516 0.023304122 -0.02745943 0.010539415 0.002134634 0.014867093 -0.092280425
0.13038902 0.07563137 -0.0808685 -0.02197151 0.026540464 -0.13213359 -0.20622647 -0.24465626
-0.13533942 -0.06295985 0.21424688 0.1364825 -0.12253548 -0.10383043 0.032933943 0.31119546
0.4761724 0.1870472 0.62473243 0.8495781 0.34371302 0.3332287 0.3656954 0.119778864
0.052173473 0.08533344 0.035689976 -0.01869923 0.080981165 0.0029467838 -0.0923841 -0.05341426
-0.07469062 0.09354366 -0.08755257 0.10622149 0.008553659 -0.35749874 -0.14645219 0.15335043
-0.10803009 0.04987505 -0.27163553 -0.38907644 -0.36925295 -0.17361721 -0.18967971 -0.15025626
-0.157584 -0.11133033 -0.029931575 -0.031673666 0.007250499 0.03045756 -0.015555773 -0.036154132
0.0161821 0.022512525 0.029369583 0.021402722 0.094274476 0.07810421 -0.15767324 0.11874333
0.15025637 -0.070952184 0.018103013 0.07165109 -0.05193478 -0.010112024 -0.15043879 0.16009156
-0.13702154 -0.3436634 0.09952182 0.0028026502 -0.10260626 0.042050112 0.09651286 -0.40188402
0.26231155 -0.101091884 -0.6408387 0.086600415 0.31391588 -0.051774528 0.29956675 -0.043619547
-0.05765863 -0.09917815 -0.057371594 -0.04409276 -0.077572465 -0.07238352 -0.07516729 -0.030727267
0.15493527 0.23094666 -0.06761771 0.16157307 -0.09238234 -0.31661025 -0.04316993 -0.32341036
-0.29933873 -1.7814037 -1.9148289 -1.2042783 -1.3163701 -1.0905898 -0.8601482 -1.0138885
-1.1058553 -1.2889547 0.042694815 -0.30820048 0.2833612 -0.13125277 -0.6054176 -0.032411393
0.3106933 0.1501634 0.22548778 -0.16855328 -0.43743557 0.07488888 -0.1814307 -0.67396873
-0.0402859 0.073762685 -0.12767807 0.15189624 0.1265211 0.034589663 0.06263967 0.10378147
-0.01026415 0.035909887 -0.041774105 -0.11360263 -0.06583191 0.015263005 0.014041553 0.0014759998
0.004438994 0.03181967 0.012406315 -0.040545378 0.011201765 0.0045487136 -0.018243425 0.0729835
0.41409078 -0.51279616 -0.3353283 0.24104995 -0.24394792 -0.078520685 0.3247615 -0.5038781
0.16313025 0.19847587 0.045589898 0.7015961 0.385307 -0.1758993 -0.067763016 -0.2152406
0.20137769 0.23138314 0.10951369 -0.041786835 -0.23961778 -0.13741289 0.07665844 -0.1333108
-0.06938326 0.0050389864 -0.046142425 -0.050260104 -0.068323456 -0.05263976 -0.062268157 -0.046692237
-0.013548091 -0.036011685 0.11173097 0.12196214 -0.00913165 0.21641694 0.36572707 0.05487803
0.067206435 0.10856789 -0.04214165 -0.123019055 -0.07383225 -0.15968569 -0.19553304 -0.045570515
-0.08259965 -0.73141855 -0.56069744 -0.49181634 0.116713844 0.070227765 0.2233688 0.0292374

conv4.bias f4 [32]
00000000: a95c 22be 74d2 79bd 7afb 1c3c 1adb 503d
00000010: 4ef5 e0be fd5e d5be b70e 1abd 5b0a d3bd
00000020: 2f70 f4bd 1bd4 34be 4373 88bd 17ad 51bb
00000030: c407 3d3c bf7c da3c 67dd 81be fe20 a4bd
00000040: 9d9b debe ce57 083c da43 1e3d a284 e7be
00000050: fc9c debd 1dec 6fbd 1fa0 92bd 5802 7c3d
00000060: 7ca8 223d b641 d6be 8fe6 ebbc cf8f 56bd
00000070: ab77 c8be a709 16bd a67d 90be d460 1cbe
-0.1585566 -0.06099172 0.009581441 0.0509902 -0.43937153 -0.41674033 -0.03761169 -0.103047095
-0.1193546 -0.17659037 -0.066626094 -0.0031994039 0.011537496 0.026670812 -0.2536423 -0.08014105
-0.434781 0.0083217155 0.038638927 -0.45218378 -0.10869786 -0.058574785 -0.07159447 0.061525673
0.03971146 -0.41847008 -0.028796462 -0.05238324 -0.391538 -0.0366303 -0.28220862 -0.15271312

up2.weight f4 [32, 16, 3, 3]
00000000: 810d 013e d490 09bd 0458 c33d 196e 3f3d
00000010: b863 07be 5051 d5bd e6ff 853d 332d c0bd
00000020: d17c dcbd 664a 1a3d aa61 043e 8c48 8e3d
00000030: 7826 9f3e b55a db3e 7558 9e3e b6f6 863e
00000040: ced2 5c3e be5c 173d 17f2 f9bc 9a28 05be
00000050: d119 403d 7073 cebd 9dc9 65be f043 50be
00000060: c471 28be ea74 cdbe 95b0 82be a790 443e
00000070: a418 623e 3012 9f3d 4293 263e b146 363e
00000080: cbd9 4f3e f068 90bd 3189 bc3d 9071 033e
00000090: f4ae 193e f94e 803e fe6a 2f3e 0f73 c33d
000000a0: 6f04 1a3e 6087 543e ca25 833d acbd 473e
000000b0: aeb8 093e d26b 91be a364 b9be 1659 50be
000000c0: 3785 eebe 155f 00bf 6d20 6dbe 2ee8 29be
000000d0: aa6f abbe 5fcf 6ebe edfd 04bf 498d ddbe
000000e0: 19c3 053b 8ff9 23bf b711 1abf 0311 70be
000000f0: 90d1 b2be 1fbe f2be 5176 7abe a3ee 893d
00000100: 64fd 0d3e f503 643d a7b4 9a3d f925 2f3e
00000110: 8372 3e3d 6ca8 bcbc 9a41 0f3e b3cc 173e
00000120: eda6 61be b0a6 acbe 61e8 89be f7e1 00bf
00000130: bc2c 42bf 651f 02bf 9764 c0be ca4d 0ebf
00000140: 2130 47be a310 143f 95e8 4e3f bc35 183f
00000150: 2f81 483f 11a6 533f 7090 573f 75c4 793e
00000160: bb0d 3d3f 7529 ce3e 24f7 fbbd 0811 ef3d
00000170: 9545 c03c 1b4d 433e 2f55 183e 6f36 563e
00000180: d4fc 0b3e 3ad1 1f3e 8910 3b3e d18c 6d3d
00000190: 02c4 2a3e c303 183e 581a 743d 90ed 0d3d
000001a0: 3623 b43d 886d 223e b1c5 0b3e a536 e43d
000001b0: 3ffc 673b 248f 09bd f1fc 09be 70c3 cdbd
000001c0: 1c3d 81be 3efc 24be c5e6 8cbd 23c0 56be
000001d0: 177e 1abc b06d d13d 055c 72be db9b efbd
000001e0: 8648 34be aa74 01bf 1f47 ddbe cf86 f4bd
000001f0: df89 bcbe 3e89 20be afa5 a5bd 7a23 d3bd
00000200: 4251 a63b 88fa c0bd 1b26 ad3d b546 763d
00000210: c708 8abd a322 64bc 4009 05be 0a64 233d
00000220: bb5f ab3e b04c 3c3e 405d 3c3e d83d 993e
00000230: 7682 b53d d3d0 fe3d 16d0 c83d e8d0 883d
00000240: dea3 093d 6759 90bd d129 0dbc cc63 afbd
00000250: 8dee c9bc 354f 813d bf9c 5f3d d97f 38bc
00000260: 5a4d 80bd 5a98 26bd d922 1aba ec4d 11bd
00000270: 6d7c f9bc b958 58bd 40bd a43c 2a09 b9bd
00000280: c42f 8abd 5bb7 82bc 66f9 06bc a559 45bd
00000290: 2139 633b 9b82 853c 1246 903c 0018 a63c
000002a0: 39d0 0bbb acc1 19bd 7178 82bd 2207 86bd
000002b0: 4a8a 8f3d 7891 883d 5aae 073d 340c 3d3d
000002c0: 8923 7abc 31f5 923d 643c b7bb 8921 cf3b
000002d0: 32a6 9d3c b53e f53d c222 3c3d acc0 d83d
000002e0: a497 c63d 7621 31bc 2e2e 49bd 67bb 0d3e
000002f0: f4f7 babb fed7 babc 10f3 2e3d 70ab 103d
00000300: 292f 7e3d 162e eb3d e503 6a3d 49e3 9abc
00000310: be73 73bc 423b 583d 2b33 233d 7414 bdbc
00000320: 9a7b 073d 73f1 803d bfdf acbc 630f 19bd
00000330: bef7 44bd 69d9 073c 7298 713b 8575 41bd
00000340: badd 303c fe4d 59bc 6b44 8cbb 4959 c23c
00000350: 011e 0a3d 3ee3 0f3d bc1a 2d3c 8429 b23d
00000360: 8fe8 07bc a4b3 013b 164a dd3d 711e 733d
00000370: 2ad1 96bc 7df6 a23d 0773 6f3d 8096 0a3c
00000380: d8f3 36bd 3651 24bb 9f3e 9dbd 9646 19bb
00000390: b85c 4cbd 6cd4 19bd 94b1 e8bd 47f3 853c
000003a0: ecef 3dbd 8d27 88bd f5f4 813d 1ebb cbb9
000003b0: 4ad5 38bd dc4e e2bc c44a 2e3d 0be7 4fbd
000003c0: 318f 433c 45ec 0fbd c6b3 893d 7315 7fbd
000003d0: 30be aabd 5e0f 51bb 69ac d5bd d3ab f5bc
000003e0: d2b9 e3bc 707c ce3b ca82 4c3c 77ab 633c
000003f0: 63fb 82bd 7437 5b3d ccf5 e2bc f070 48bd
0.12602808 -0.033585384 0.09538272 0.046735857 -0.13221633 -0.104159 0.065429494 -0.09383621
-0.10765994 0.037668608 0.12927881 0.06947431 0.31084037 0.4284264 0.30926862 0.263601
0.2156479 0.03695368 -0.030510945 -0.1300377 0.04689962 -0.10080612 -0.2244019 -0.20338416
-0.16449648 -0.4012826 -0.25525346 0.19195805 0.22079712 0.07767141 0.16267112 0.17800404
0.20297925 -0.07051265 0.09205855 0.1283629 0.15008146 0.2506025 0.17130658 0.0954343
0.15040754 0.20754766 0.06403692 0.19505948 0.13449356 -0.28402573 -0.36209592 -0.20346484
-0.4658601 -0.50145084 -0.231569 -0.16592476 -0.3348363 -0.23321293 -0.5194996 -0.43271855
0.0020410477 -0.6405267 -0.6018328 -0.2344399 -0.34925508 -0.47410676 -0.24459197 0.067349695
0.13866192 0.055667836 0.07553988 0.17104329 0.046495926 -0.023029529 0.13989869 0.1482418
-0.22036333 -0.33720922 -0.26935104 -0.50344795 -0.7584951 -0.50829154 -0.37576744 -0.55587447
-0.19451953 0.57837886 0.8082364 0.5945699 0.7832212 0.8267527 0.8420477 0.24391349
0.73849076 0.40266004 -0.12302998 0.1167317 0.02347068 0.19072382 0.14876245 0.20919202
0.13670665 0.15607157 0.18268026 0.05799562 0.16676334 0.14845185 0.059595436 0.034650385
0.087957785 0.15862095 0.13649632 0.11143235 0.0035398153 -0.033583775 -0.13475396 -0.10047042
-0.25241935 -0.16111848 -0.06879953 -0.20971732 -0.009429476 0.10225999 -0.23667915 -0.11699649
-0.1760579 -0.5056864 -0.43218324 -0.11939775 -0.36823937 -0.15677354 -0.08088242 -0.10309501
0.0050756047 -0.09422785 0.08454534 0.060126025 -0.067399554 -0.013924274 -0.1299181 0.039890327
0.33471474 0.18388629 0.18394947 0.29929996 0.08862774 0.12442174 0.09805314 0.06680471
0.03360354 -0.07048302 -0.008615927 -0.085639566 -0.024649883 0.06313936 0.054592844 -0.01126095
-0.06264754 -0.040672638 -0.00058798265 -0.035474703 -0.030454839 -0.052818988 0.020109773 -0.09034951
-0.06747392 -0.015956571 -0.008238172 -0.048181195 0.0034671503 0.01629763 0.017611537 0.020275116
-0.0021333827 -0.037538216 -0.063706286 -0.06544329 0.070087984 0.06668371 0.03312526 0.046154216
-0.015267261 0.07175673 -0.005591916 0.0063211364 0.019244287 0.11974851 0.045931585 0.10583624
0.09696892 -0.0108112 -0.049116306 0.1384102 -0.005705828 -0.022808071 0.04271227 0.035319746
0.062056694 0.114833996 0.05713262 -0.018907206 -0.014859138 0.052790888 0.03984372 -0.023081042
0.03307686 0.06296053 -0.021102784 -0.03736819 -0.048087828 0.008291581 0.0036864546 -0.047231216
0.010795051 -0.013263224 -0.004280617 0.023724215 0.03372002 0.035128824 0.010565456 0.08699325
-0.008295192 0.0019790912 0.108051464 0.059355203 -0.018410284 0.0795717 0.058459308 0.008458734
-0.04466614 -0.002507282 -0.0767796 -0.002338802 -0.04989311 -0.037556097 -0.11361995 0.016351355
-0.046371385 -0.06648169 0.0634555 -0.0003885859 -0.045125283 -0.027625494 0.04255177 -0.05075745
0.011935995 -0.035137434 0.06723742 -0.062276315 -0.08337057 -0.0031900029 -0.10433275 -0.029989159
-0.027798567 0.006301455 0.012482354 0.013895861 -0.063956045 0.05351968 -0.027705096 -0.04893583

up2.bias f4 [16]
00000000: 71f1 10bd b94d be3d 49e4 63bd b17e 813d
00000010: 83ed 97bd 17d5 643c 1150 07bc cf8c 13bd
00000020: 98c5 82ba 7bfa ef3c cc6d 00bd a817 f73b
00000030: 7b0e 12bc 318d 86bd 1f0f 813d 27a6 cf3d
-0.035386506 0.09292168 -0.05563763 0.063229926 -0.07418349 0.01396682 -0.008258835 -0.036022957
-0.00099771 0.029294243 -0.03135471 0.007540662 -0.008914585 -0.06569899 0.06301712 0.10139113

conv5.weight f4 [16, 32, 3, 3]
00000000: 22a0 e8bc bf53 f6ba 9c60 24bd c776 6dbb
00000010: 131c f13d fb43 1c3d 4250 a0bd 5f73 903d
00000020: 8018 333d 6d29 803d 0295 4f3d a8e5 1fbe
00000030: 238d fdbd c958 f93c d23c 523d bc3d 3b3e
00000040: 7ee8 8d3d e368 913e 68b1 bbbd 6ef2 3b3d
00000050: 6c29 0a3e 89ff 0abe 28ca ccbd 323e 143d
00000060: 1756 3dbd bd24 1cbd 10a3 44be 85f5 dcbd
00000070: 3aae 60bd 1ba0 073c c433 5dbb 4c78 113c
00000080: 2ddf 98bd 3c90 833d 2789 983c 4088 853c
00000090: bb68 70be 1b30 783b 056f 2d3e 64cb 2dbe
000000a0: f6b0 073e f5b1 373e fe3c 6bbd f55c d4bb
000000b0: 673b 573e 022a 653e 9f4e d9bd a6e4 dd3d
000000c0: be1e 343e 64b6 083d 6a95 1a3e b585 763e
000000d0: 57c1 663e 94e9 103e f9fa 763e a933 133e
000000e0: 5f3f 35be 062d ea3e c1e0 c43e 3649 0a3e
000000f0: 07f7 433e 6d72 963d d135 2f3e dae2 0a3e
00000100: 6b8a c03c 2c8f 2c3d 8456 bbbd 3242 9abc
00000110: 7846 15bd 987a 0abe 5f08 efbd 85f4 bc3d
00000120: cc7c d03d ce39 4f3d 9c37 a23a c0fd 063e
00000130: 10d3 503c d7ef c03c fca8 94bc d2c3 79bd
00000140: 20e7 6cbd 2141 803e 9051 3e3e 4b49 a03e
00000150: 8c43 1c3e c5f9 cd3e 5e0c f13e a212 f63e
00000160: af09 283f e8b4 8b3e d337 3abd 5846 ec3b
00000170: 06d5 08be 865a f5bd add8 84bd 3fe4 2dbd
00000180: 030f f5bc 2c96 f0bc 224e 32be dddb c9bc
00000190: 5e7b cebc 37d4 ab39 25df 5bbd 2688 e33a
000001a0: 833d 803d c44c 0fbd d967 2cbd 4984 9e3b
000001b0: d5fe 38bd a6dc 9c3d 89b6 6f3e 7518 81be
000001c0: f134 7dbd 296c 7e3d 5463 6a3d 3134 f13c
000001d0: f496 89bd fe0d 0c3e f69a 3e3d 23f2 eabc
000001e0: e455 ca3d ccbb 853d 6a7c 20be 1a05 a23d
000001f0: 3f00 29be 8982 bbbd 33e8 9bbd 1b1a 8f3d
00000200: d231 243e 78fb 783e 7e25 843e ef3e 5f3e
00000210: d079 f63c bab5 763e 672c 943d 8cfd f1ba
00000220: cf44 bc3d 5d42 423e b35a b23e a392 8e3e
00000230: 37ed 333e 92e1 263e 678a d33d 2301 4b3e
00000240: 59d5 bb3d 17b7 813d 3666 d83b 076b 233d
00000250: 67f3 a13d 0d4e a43d 2f12 693d 27bc 693d
00000260: 9f10 5c3d e505 c73d af99 023d cece aeba
00000270: 792c 003e 90c0 e63d 36d1 a83c 93b6 9f3d
00000280: 3e62 b03c fd3e 9b3d ca4a b63c 19c5 303d
00000290: 0d82 c63d b71c a23d 89a2 8f3b 3962 0c3d
000002a0: 8185 973d da89 ae3c 36c7 3c3c e54b 8938
000002b0: a0a3 133d c29e bfba 1fc9 763c eef8 b93c
000002c0: 83b1 013c 6509 a43b c067 5e3c d13e c3bc
000002d0: bfb1 273e 9d71 c93d 7b71 103e 1b79 223e
000002e0: 1084 403e 6e3d 2a3e a4b2 b03d e81d 2d3e
000002f0: 3791 283e 161d 103d 0f36 a3ba f43c 0d3d
00000300: d2f7 483d ffdf 633d 7bf6 173c 7f6f 1b3c
00000310: e178 913c 4b4b 103d 02de 903d e769 0e3d
00000320: 8777 b23d c7ed 323d 884d ed3d 9e20 cd3d
00000330: b67e 09bd 8e5d d03d 2192 0f3c 3d9b 0b3e
00000340: f76a 073e 751c 063e b881 433d 74d5 b43d
00000350: ec05 0e3e e8c8 a73d 5b70 143e 6c96 193e
00000360: 8257 e7bd 7904 07be e408 3b3c 4265 36be
00000370: 01f0 19be 5441 a4bd a52e 18be dd03 a1bd
00000380: 59fc 9fbd 9ae8 373d 1550 903d 440b 193d
00000390: c8c8 1bbc 3598 3cbc e4c7 673d a73a 60bd
000003a0: 1f62 173c f22e 483d 804b 8dbb 01cc 4ebb
000003b0: 8f4b 8ebb 58bd 933d a64d ec3c c155 f5bc
000003c0: d22d 763d 028c 4c3d 8fe7 a13b 53b4 18be
000003d0: 477a acbd a179 3fbd 1838 60bd a503 98bd
000003e0: 01ed 64bd dfff abbd 9ce7 02be f25f 5dbc
000003f0: 8724 87bd 4dc6 b3bc 8a7f 76bd bb49 8ebc
-0.02839667 -0.0018793269 -0.040131196 -0.0036234127 0.11772933 0.03815077 -0.07827808 0.07053255
0.043724537 0.06257901 0.050679214 -0.1561495 -0.12380435 0.030437844 0.051327534 0.18285269
0.0692911 0.28400335 -0.09164697 0.045885496 0.13492364 -0.13574041 -0.09999496 0.036192127
-0.04622468 -0.038120974 -0.19202828 -0.10789017 -0.054853655 0.008277918 -0.0033752779 0.008878779
-0.074644424 0.06423995 0.018620087 0.01630032 -0.23477452 0.003787047 0.16936882 -0.16972119
0.13251099 0.17938979 -0.057431214 -0.006480808 0.21018754 0.22379306 -0.10610699 0.10834627
0.17589852 0.033377066 0.1509606 0.24074443 0.22534691 0.14151603 0.24119176 0.14375176
-0.17699955 0.45737475 0.38452724 0.1350449 0.19137202 0.07346044 0.17110373 0.135631
0.023503503 0.042128727 -0.09147361 -0.018830393 -0.036444157 -0.13523328 -0.116715185 0.09226326
0.10180053 0.050592236 0.0012376192 0.13182735 0.012745634 0.023551865 -0.018146984 -0.060977764
-0.057837605 0.2504969 0.18585801 0.31305918 0.15260142 0.40229622 0.47079748 0.4806109
0.65639776 0.27286458 -0.045463394 0.007210534 -0.13362512 -0.119801566 -0.0648664 -0.042454
-0.029914385 -0.029368483 -0.17412618 -0.024640972 -0.02520531 0.00032773774 -0.053679604 0.0017359301
0.062617324 -0.03498532 -0.042091224 0.004837547 -0.0451649 0.07659273 0.23409475 -0.25213972
-0.061818067 0.06211487 0.057223633 0.029443832 -0.06718245 0.13677213 0.0465345 -0.028679913
0.098796636 0.0652996 -0.1567246 0.07911129 -0.16504 -0.09155757 -0.07612648 0.06987401
0.1603463 0.24314678 0.25809854 0.21801351 0.030087382 0.2409276 0.072350316 -0.0018462404
0.09192812 0.18970628 0.34834823 0.2784625 0.17570959 0.16296986 0.103291325 0.19824652
0.09171552 0.0633375 0.0066039814 0.03989699 0.079077534 0.080226995 0.056902107 0.0570642
0.05372679 0.09717921 0.031884845 -0.0013336779 0.12516965 0.11267197 0.020607572 0.07798495
0.02153122 0.075803734 0.02225246 0.043156717 0.09692774 0.07915633 0.0043833894 0.03427336
0.07398511 0.021305967 0.011522105 6.5468055e-05 0.036044717 -0.0014619457 0.015062599 0.022701707
0.007915857 0.0050060027 0.013574541 -0.023833664 0.16376399 0.09836123 0.1410579 0.1586651
0.18800378 0.16624996 0.08627823 0.1690594 0.16461645 0.03518399 -0.0012452024 0.034481958
0.049064465 0.05563354 0.009275074 0.009487032 0.017757835 0.035228055 0.07073595 0.034768965
0.08714204 0.043683793 0.115870535 0.10015987 -0.033568107 0.10174094 0.008762867 0.13633437
0.13224398 0.13096793 0.04773113 0.088297755 0.13869447 0.08192617 0.14495985 0.14998788
-0.11295988 -0.131853 0.011415694 -0.17812064 -0.1503296 -0.08020273 -0.14861543 -0.07862065
-0.07811803 0.04489956 0.070465244 0.03736426 -0.009508319 -0.011510898 0.056587115 -0.054743435
0.0092397025 0.048872896 -0.004311979 -0.0031554701 -0.0043425034 0.07213849 0.02884562 -0.029948117
0.06010229 0.04993821 0.004940934 -0.14912538 -0.0842176 -0.046746854 -0.054740995 -0.0742257
-0.055890087 -0.08398413 -0.12783664 -0.013511645 -0.06598764 -0.021945143 -0.060180224 -0.017369142

conv5.bias f4 [16]
00000000: 84a1 023e 050b 32bd 2228 6abd 8a84 98bd
00000010: 2c8d 0abd 488c 593d 63fe 42bd d9ac 073a
00000020: 6566 a0bb 3e6b 7cbc 719d 3bbd 68ce 6cbe
00000030: 2730 35bd 391b a7bd 1da9 943c 8bc5 a83d
0.12756926 -0.04346754 -0.05716718 -0.07447155 -0.03382604 0.0531123 -0.047605883 0.00051755976
-0.004895019 -0.015406428 -0.045804445 -0.23125613 -0.044235375 -0.08159489 0.018147046 0.08240803

conv6.weight f4 [3, 16, 1, 1]
00000000: 6baf ff3d be07 11be 300f a83e 9565 373e
00000010: 1175 8f3d 2520 a2be d784 d7bd 7059 e53b
00000020: 70af e03d 1cc9 50bd 61ec 753c 6c56 513e
00000030: 4f17 883e 4f69 9f3d 61ce 19be 6a33 ccbe
00000040: d6b2 89be b34b 833c fd5f 32be 13fc c3bd
00000050: 5d55 1bbd b3ae adbd 7138 9fbc 577c 4b3e
00000060: ea1c 913e 4d0d bf3d c15a 6b3d 6666 c53e
00000070: 2e82 1b3e 3835 853e 16e7 823e a18f 93be
00000080: 463f 07be afd7 093e f33c c0bd 6fa9 65be
00000090: ef6a 073e 6784 263d fb35 5a3e 7ed0 993e
000000a0: 3452 8fbe 04f5 9f3e 51f2 3b3c c344 b53e
000000b0: 7a8e 123e e43f 8c3e be30 d0be f571 ff3d
0.1248463 -0.1416311 0.32824087 0.17909844 0.070047505 -0.3166515 -0.10523384 0.006999187
0.10970962 -0.050973043 0.01500997 0.20443124 0.26580283 0.07783758 -0.15020134 -0.39882976
-0.26894253 0.016027307 -0.17419429 -0.09569564 -0.037923206 -0.08480587 -0.019436093 0.1987165
0.28342372 0.09328709 0.057459597 0.38554686 0.15186378 0.26017165 0.2556693 -0.28820518
-0.1320773 0.13461183 -0.09386625 -0.22427915 0.13224386 0.040653612 0.21309654 0.3004188
-0.27992404 0.3124162 0.011471347 0.35404024 0.14312163 0.27392495 -0.40662187 0.124729075
