save/200_decom_s_LOLset.pth (torch, 294441 bytes, 19 tensors)

conv1.weight f4 [16, 3, 3, 3]
0	0x3e3cffac	0.18456906
1	0x3da5e94b	0.08101138
2	0xbe1a120a	-0.15045944
3	0x3d5b1478	0.053486317
4	0x3d97a89f	0.07405209
5	0xbd81ba34	-0.063343436
6	0x3cbfe8b0	0.023426384
7	0x3d95583f	0.07292222
8	0x3e510138	0.20410621
9	0xbd2c4502	-0.042058
10	0xbe67fa58	-0.22654092
11	0x3dc9a6b5	0.0984625
12	0xbe05cc5b	-0.13066237
13	0xbdf7bc9d	-0.12096522
14	0x3dccce13	0.10000243
15	0x3bb88084	0.0056305546
16	0xbcd0e778	-0.025500998
17	0x3dd123a3	0.10211875
18	0x3e0b1134	0.13580781
19	0x3dbafaf1	0.091298945
20	0x3e31a7d5	0.17349179
21	0x3cbda5f0	0.023150414
22	0xbe333a56	-0.17502722
23	0x3dfc64f7	0.12323945
24	0xbd7bc283	-0.061464798
25	0xbd4a6edf	-0.04942214
26	0x3e102af9	0.14078893
27	0x3d22b83c	0.03972648
28	0xbd540401	-0.05176163
29	0x3cc6b2c0	0.024255157
30	0xbd70d673	-0.058798265
31	0x3d29329d	0.041308034
32	0xbe1332a7	-0.14374791
33	0xbca78f96	-0.02045421
34	0xbdaac637	-0.08338588
35	0x3dfd2318	0.12360209
36	0xbe3a1816	-0.1817325
37	0x3e1e0ddf	0.15434979
38	0xbc0ad670	-0.008473977
39	0x3dca6876	0.098832056
40	0xbd32dca3	-0.043667447
41	0x3e08fa60	0.1337676
42	0x3e2eefcb	0.17083661
43	0xbcca1dca	-0.024672408
44	0xbe020e45	-0.12700756
45	0xbe626e3e	-0.22112367
46	0xbd6eb5fe	-0.05827903
47	0xbe510e54	-0.20415622
48	0xbcfa7dc3	-0.030577546
49	0xbd0fced1	-0.035109345
50	0x3e18164c	0.14852256
51	0x3e229529	0.15877213
52	0xbd49911b	-0.04921065
53	0xbcc017e9	-0.023448901
54	0xbe12b181	-0.14325525
55	0xbcc76277	-0.024338944
56	0x3e01f552	0.12691239
57	0xbd3f9f20	-0.046782613
58	0x3d1c87de	0.03821551
59	0xbdda693e	-0.106646046
60	0xbe4e61c2	-0.20154479
61	0xbdd777ff	-0.10520934
62	0x3d919b8d	0.07109747
63	0xbca5d5b9	-0.020243512
64	0x3da7f81f	0.08201622
65	0xbe09950e	-0.13435766
66	0xbd774bab	-0.060374897
67	0x3e071994	0.13193351
68	0x3bea3b2c	0.007148167
69	0xbe530bd9	-0.20609988
70	0xbca8b0f0	-0.020592183
71	0x3e0502e5	0.12989385
72	0x3e819d86	0.25315493
73	0x3c1f71b7	0.009731702
74	0x3dc864b5	0.09784833
75	0xbde4f3b8	-0.11179298
76	0xbd74dafc	-0.059779152
77	0x3e62d3f5	0.22151168
78	0xbd70bf30	-0.05877608
79	0x3d133237	0.03593656
80	0x3c29f476	0.010373225
81	0x3c03cf75	0.008045067
82	0x3d999bf4	0.07500449
83	0xbdbf5382	-0.093421
84	0x3c5a7d89	0.013335594
85	0x3e5a816d	0.21338435
86	0xbd9e7817	-0.07737749
87	0x3e49cc0b	0.19706742
88	0x3e428af4	0.18998319
89	0x3e791517	0.24324451
90	0x3dffa020	0.12481713
91	0x3cffb1f6	0.031212788
92	0x3d9940a0	0.07483029
93	0x3e53b978	0.2067622
94	0xbd97c0ee	-0.07409845
95	0x3e312cbb	0.1730222
96	0xbe32a61b	-0.17446177
97	0x3e4d462a	0.20046297
98	0x3e449864	0.19198757
99	0xbe0898b7	-0.13339506
100	0xbe09bc51	-0.13450743
101	0x3d0ba85e	0.034096114
102	0x3db7b61f	0.08970284
103	0x3e215694	0.15755683
104	0xbe0e8ec5	-0.1392165
105	0xbccde3a7	-0.025132967
106	0x3e0d805a	0.13818493
107	0xbcdf167b	-0.0272324
108	0xba1c6675	-0.0005966195
109	0x3cd7d392	0.026346002
110	0x3da1f0f8	0.07907289
111	0x3d63353e	0.055470698
112	0xbc162f1a	-0.009166503
113	0x3e4889ef	0.19583867
114	0x3dc3496d	0.09535489
115	0xbdf8e2e5	-0.12152652
116	0x3e858097	0.2607467
117	0xbd5b9146	-0.05360534
118	0x3dbedd6e	0.09319578
119	0x3dfefba9	0.12450344
120	0x3db942ac	0.0904592
121	0x3ddfcaa1	0.1092732
122	0x3c640753	0.013917762
123	0xbe0c8f0d	-0.13726445
124	0x3e0432df	0.12910031
125	0x3e1ea45f	0.1549239
126	0xbe2f9d1e	-0.17149779
127	0x3da0439a	0.07825394
128	0xbe1557c6	-0.14584264
129	0xbd53a44a	-0.05167035
130	0xbe6ba1d5	-0.23010953
131	0x3e19dcb3	0.15025596
132	0xbe2d6fd7	-0.16937195
133	0xbddb66c3	-0.107129596
134	0x3e775fa9	0.24157585
135	0xbe40f722	-0.18844274
136	0xbd4f4557	-0.050603237
137	0x3e159856	0.14608893
138	0x3deaaa80	0.114583015
139	0x3e2ad334	0.1668213
140	0x3e077b9c	0.13230747
141	0xbd8015a7	-0.0625413
142	0x3c31bce3	0.010848257
143	0xbdbcfa9d	-0.09227488
144	0xbe3070b7	-0.17230497
145	0xbe4a8c6c	-0.19780129
146	0xbe3fdd8d	-0.18736859
147	0xbd40d08f	-0.047073897
148	0x3e14b1a0	0.14520884
149	0x3d2f31d4	0.04277213
150	0xbdc9e374	-0.09857836
151	0x3e19a4d3	0.15004282
152	0xbd41885a	-0.047249176
153	0x3e67a786	0.22622499
154	0x3e3084a6	0.17238101
155	0x3d79de1b	0.061002832
156	0xbe009212	-0.12555721
157	0xbdd4a6fc	-0.10383412
158	0xbe5d684a	-0.21621814
159	0xbdb2f11e	-0.08737396
160	0x3e46c2b5	0.19410212
161	0xbdf4213d	-0.11920402
162	0xbd1359be	-0.035974257
163	0x3e51e74b	0.20498388
164	0xbd9269ca	-0.07149084
165	0x3e009c03	0.12559514
166	0xbf1dba80	-0.616127
167	0xbec086ca	-0.37602836
168	0xbd112f6b	-0.035445612
169	0xbde6e06d	-0.112732746
170	0xbd994c75	-0.07485286
171	0xbd816771	-0.06318558
172	0x3d8b8921	0.06813265
173	0xbde44d80	-0.111475945
174	0x3b07dd70	0.0020731352
175	0xbe9ef002	-0.31042486
176	0xbed11407	-0.40835592
177	0x3dcfa6dc	0.10139248
178	0xbdb978db	-0.090562545
179	0xbde727d6	-0.11286895
180	0xbd8b10c9	-0.06790311
181	0x3da7912e	0.08181988
182	0x3e1de0a5	0.15417726
183	0x3dfe3a70	0.1241349
184	0xbedfe707	-0.43730947
185	0xbe2dd82e	-0.16976997
186	0x3e452e22	0.1925588
187	0xbc2389ab	-0.009981553
188	0x3e370265	0.17872007
189	0xbdae0e78	-0.084988534
190	0xbee626fc	-0.44951618
191	0xbe90fa09	-0.28315762
192	0x3e9d1cc0	0.30685997
193	0xbe600e32	-0.21880415
194	0xbe20f225	-0.15717371
195	0xbe6aa0fc	-0.22912973
196	0x3e010068	0.12597811
197	0x3edabbcd	0.42721406
198	0xbe010db6	-0.12602887
199	0x3cd98507	0.02655269
200	0x3e9014e3	0.28140935
201	0x3ea213b4	0.31655657
202	0xbcff9fdc	-0.031204157
203	0x3e2d8ce6	0.1694828
204	0x3e3cac4e	0.18425104
205	0x3e25f06b	0.16204993
206	0xbd525c25	-0.051357407
207	0x3d2330c7	0.03984144
208	0x3ec171b6	0.37782067
209	0x3cfe1d33	0.031019783
210	0xbc0160eb	-0.007896642
211	0xbe1534d8	-0.1457094
212	0x3cdd3512	0.027002845
213	0xbe3e396d	-0.18576594
214	0xbe13d0f0	-0.14435172
215	0xbe5f7e6d	-0.21825571
216	0xbe0452a9	-0.12922157
217	0x3e0aefc6	0.13568029
218	0xbe2e4493	-0.17018346
219	0x3dfd7085	0.12374977
220	0xbbf1d888	-0.007380549
221	0x3dcfec2a	0.101524666
222	0x3cef88d2	0.029240046
223	0xbd8a5d2e	-0.06756054
224	0x3de681a2	0.11255194
225	0xbca6b245	-0.020348677
226	0x3e3151d8	0.17316377
227	0x3e611ea0	0.21984339
228	0xbe2f71e3	-0.17133288
229	0xbdadd95e	-0.08488725
230	0xbcd17705	-0.025569448
231	0xbe7cab01	-0.24674608
232	0x3cbb2c04	0.022848137
233	0x3cad2b20	0.021138728
234	0x3e020f1e	0.12701079
235	0xbdf9add6	-0.1219136
236	0xbe118559	-0.14211024
237	0x3e193024	0.1495977
238	0x3e12ff79	0.14355268
239	0xbe488782	-0.19582942
240	0x3e590e41	0.21196844
241	0x3daff034	0.08590737
242	0xbe17015d	-0.14746614
243	0x3d7fb87d	0.0624318
244	0xbc95ca49	-0.018284934
245	0xbd4c9c16	-0.049953543
246	0x3d6582a3	0.056032788
247	0x3eb90c53	0.36142215
248	0xbe189ccf	-0.14903568
249	0xbe8d4274	-0.27589762
250	0x3e8651b3	0.26234207
251	0xbdbd321d	-0.09238074
252	0xbb956bea	-0.0045599835
253	0xbe834590	-0.2563901
254	0xbe1205ed	-0.14260073
255	0xbd33653b	-0.043797713

conv1.bias f4 [16]
0	0xba2bd134	-0.0006554306
1	0x3e8c9bd8	0.2746265
2	0x3e7b3bb3	0.24534492
3	0xbe26228c	-0.16224116
4	0x3c13bb5c	0.009016838
5	0x3e79d84e	0.2439892
6	0x3e4e9687	0.20174609
7	0x3d8ffff8	0.07031244
8	0x3c8b0f9b	0.016975215
9	0x3e4af1c9	0.19818796
10	0xbe39eb34	-0.18156129
11	0x3e43523b	0.19074337
12	0x3d2e4331	0.042544547
13	0x3d0626d4	0.032751873
14	0x3c908e16	0.017645877
15	0x3e43879a	0.19094697

conv2.weight f4 [32, 16, 3, 3]
0	0xbd462332	-0.04837341
1	0x3b4b69ea	0.0031038471
2	0xbdbcc61d	-0.092174746
3	0x3d21995c	0.039452896
4	0x3dceb022	0.100921884
5	0xbcb92166	-0.022598933
6	0xbd78d58c	-0.06075053
7	0xbca0c9cc	-0.019627474
8	0xbbf6804b	-0.007522618
9	0x3e00b0e6	0.12567481
10	0xba72080f	-0.0009232768
11	0x3ca91980	0.020642042
12	0xbe2703c8	-0.16310036
13	0x3b9b5647	0.0047405097
14	0x3dd63efc	0.10461232
15	0x3de66972	0.11250581
16	0x3e489042	0.1958628
17	0xbc116d2c	-0.008876126
18	0xbd586134	-0.052827075
19	0x3d34569e	0.044027917
20	0xbdce1fc3	-0.10064652
21	0xbdad8732	-0.08473052
22	0x3ddb1079	0.10696501
23	0xbdf0b9de	-0.11754201
24	0xbc989923	-0.018627709
25	0xbd54deba	-0.05197022
26	0xbdd4cdde	-0.103908285
27	0xbd18e873	-0.037331056
28	0xbb0eba1d	-0.0021778413
29	0x3c1ad6dc	0.0094506405
30	0xbe1b94e4	-0.15193516
31	0xbdc6a213	-0.09698882
32	0x3d478c10	0.04871756
33	0x3ca9c8a4	0.020725556
34	0xbd3ed743	-0.04659201
35	0x3b97f8ca	0.0046378123
36	0xbd976f56	-0.073942825
37	0xbcb04330	-0.021516412
38	0x3e0b3617	0.13594852
39	0xbe1b49fb	-0.1516494
40	0x3df8606d	0.12127767
41	0x3d8453dd	0.06461308
42	0xbdb442b7	-0.08801787
43	0x3d02643f	0.031833883
44	0xba353bfc	-0.00069135404
45	0xbd41a547	-0.04727676
46	0xbd91a27d	-0.0711107
47	0xbda6b41c	-0.08139822
48	0x3e507390	0.20356584
49	0x3d5a17a3	0.053245198
50	0xbd27a414	-0.04092796
51	0x3de761e8	0.11297971
52	0xbe2d8251	-0.16944243
53	0xbd79c554	-0.060979202
54	0x3d1eb242	0.03874422
55	0xbe73fef6	-0.23827729
56	0x3d959ea5	0.0730565
57	0xbe78e7d1	-0.24307181
58	0xbea5922f	-0.32338092
59	0x3daddff7	0.084899835
60	0x3e23d69f	0.1599984
61	0x3e0c30cb	0.13690488
62	0x3e09a813	0.13443021
63	0xbde3dcb1	-0.11126078
64	0x3d427932	0.047478862
65	0x3e13a83d	0.14419647
66	0xbcd56b21	-0.02605206
67	0x3e1e6599	0.15468444
68	0xbbf45c00	-0.0074572563
69	0xbe91fe50	-0.28514338
70	0xbd2728fb	-0.040810566
71	0xbe5d7244	-0.2162562
72	0x3d7fd6e1	0.062460784
73	0x3cb897b1	0.02253327
74	0xbea4e42e	-0.32205337
75	0x3e930de0	0.28721523
76	0x3e6aeea2	0.22942594
77	0x3bb0640e	0.005383021
78	0xbd67e192	-0.056611605
79	0xbd8a1120	-0.067415476
80	0x3d5cbd1d	0.05389129
81	0x3d8902cc	0.066899866
82	0x3cec17f1	0.02882001
83	0x3d087ad3	0.03332026
84	0xbd80db67	-0.06291848
85	0xbda2509f	-0.079255335
86	0xbc5aa193	-0.013344186
87	0xbcc7d001	-0.024391176
88	0x3dbfa118	0.09356898
89	0x3ca6a2a3	0.020341223
90	0x3e0ee13f	0.13953112
91	0xbd21cb79	-0.039500687
92	0x3bfb6923	0.0076724454
93	0xbdc1e60e	-0.094677076
94	0xbc935cec	-0.017988645
95	0xbd919266	-0.071080014
96	0x3bdc2a05	0.0067188763
97	0x3c50f7e7	0.012754417
98	0x3e07ecda	0.13273945
99	0x3be5e7e6	0.00701617
100	0x3e4412e6	0.19147834
101	0x3d836ada	0.06416865
102	0xbe892fcf	-0.26794288
103	0x3e4af267	0.19819032
104	0xbd41e1ca	-0.04733447
105	0xbd918569	-0.07105524
106	0x3d9f0e20	0.07766366
107	0xbe3e4cdd	-0.18584009
108	0x3c5f2e53	0.013621884
109	0x3d9f02bd	0.07764194
110	0x3da5e915	0.081010975
111	0xbe7871ef	-0.24262212
112	0x3e09ce8f	0.13457702
113	0x3d8058fd	0.06266973
114	0x3d80a8f3	0.062822245
115	0xbd39c454	-0.04535325
116	0x3ddaea93	0.10689273
117	0xbbff90fd	-0.0077992664
118	0x3e0d2e55	0.13787206
119	0x3e239a1e	0.1597676
120	0x3e1a8dc7	0.15093146
121	0xbe2d73b7	-0.16938673
122	0x3e17d051	0.1482556
123	0xbe08af05	-0.13348015
124	0xbda22d09	-0.07918746
125	0xbc60df3d	-0.013725099
126	0x3d90bd78	0.07067388
127	0xbe1b4c06	-0.1516572
128	0xbdbe7292	-0.09299196
129	0x3e2082fb	0.15674965
130	0x3d0dea8f	0.03464752
131	0xbdd36c6f	-0.103234164
132	0x3dce855c	0.1008403
133	0x3d877fc2	0.06616165
134	0xbc6fe0f3	-0.014641034
135	0xbc8061d7	-0.015671654
136	0xbe44d18d	-0.19220562
137	0xbdc30daf	-0.09524094
138	0x3e733dab	0.23753993
139	0x3dd7ba42	0.10533573
140	0xbd9c1fbc	-0.0762324
141	0x3e3670a1	0.17816402
142	0xbcbad9e4	-0.022808976
143	0x3c9d6b06	0.019216072
144	0x3c8dd8af	0.017315237
145	0x3d64613b	0.05575679
146	0xbc6410af	-0.013919993
147	0xbcc1aa5d	-0.023640806
148	0x3d3d3215	0.04619034
149	0x3d213a6d	0.03936236
150	0x3d09c928	0.033639103
151	0xbd95b37a	-0.07309623
152	0x3d48ad63	0.04899348
153	0x3da6b67f	0.08140277
154	0x3c4edcfd	0.01262593
155	0x3df079c6	0.117419764
156	0x3db45284	0.08804801
157	0x3d9e8858	0.07740849
158	0x3d92331e	0.07138656
159	0x3e248dbf	0.16069697
160	0x3e421969	0.18955006
161	0x3dd3b39d	0.10336993
162	0x3d4d596c	0.050134107
163	0xbc740bb0	-0.014895365
164	0x3dcc91fa	0.0998878
165	0xbd96bba9	-0.07360012
166	0x3d58db99	0.0529438
167	0x3e093c07	0.13401805
168	0x3ce6cae6	0.028172921
169	0xbdd2a221	-0.1028483
170	0xbd7b072f	-0.061286148
171	0x3c0447f3	0.008073795
172	0xbcc6e45d	-0.024278814
173	0xbd5bce15	-0.053663332
174	0xbc9544b0	-0.01822123
175	0xbe08fb51	-0.1337712
176	0xbd7df149	-0.061997686
177	0x3d276d87	0.040875938
178	0xbdaa86f6	-0.08326523
179	0xbd9d2cf0	-0.07674587
180	0x3d0833c5	0.033252496
181	0x3d058f57	0.032607403
182	0x3e59c13a	0.21265116
183	0xbd2ef4a8	-0.04271379
184	0xbba02425	-0.0048871213
185	0x3d7c32c7	0.061571863
186	0x3ca6c831	0.02035913
187	0xbc5b5cf0	-0.013388857
188	0x3debe209	0.11517722
189	0x3d361c7c	0.04446076
190	0x3cb05140	0.021523118
191	0x3e124b12	0.1428645
192	0x3c83f4b2	0.01610789
193	0xbd0b9ce4	-0.03408517
194	0xbd4a0164	-0.049317732
195	0xbce65a69	-0.028119283
196	0x3d6f3db5	0.058408458
197	0x3d9e17b8	0.07719368
198	0xbe189221	-0.14899494
199	0xbe69607d	-0.22790714
200	0xbd36ed83	-0.044660103
201	0xbe0dbecb	-0.13842313
202	0xbe7931f4	-0.24335462
203	0xbe22685c	-0.15860122
204	0xbe115621	-0.14193012
205	0xbde220c3	-0.11041405
206	0xbd52002b	-0.05126969
207	0x3d2b6af8	0.04185006
208	0xbd2d186d	-0.042259622
209	0xbcab434d	-0.020906115
210	0x3cf118ff	0.029430864
211	0x3cada2ee	0.021195855
212	0xb960fe37	-0.00021457007
213	0x3c677cbb	0.014128859
214	0x3e042e9a	0.12908402
215	0xbd90e57a	-0.07075019
216	0xbb82bfc4	-0.0039901454
217	0x3c621019	0.013797783
218	0x3ddbca91	0.10731996
219	0x3db3f972	0.08787812
220	0xbde25b27	-0.11052542
221	0x3da644ce	0.08118592
222	0x3e30a41a	0.172501
223	0xbd2deb31	-0.042460624
224	0x3dc6bad6	0.09703605
225	0xbe379fb9	-0.17932023
226	0xbe4ab9f9	-0.19797505
227	0xbd1e7787	-0.03868821
228	0xbe252f43	-0.1613131
229	0xbe7891ed	-0.24274416
230	0xbe9332a3	-0.2874957
231	0xbdf1b7b8	-0.1180262
232	0xbdbc4234	-0.09192315
233	0xbe5362ec	-0.20643204
234	0x3d43e543	0.047826063
235	0xbbe5ac82	-0.00700909
236	0xbb48c4c1	-0.0030634853
237	0xbdccb8cf	-0.09996187
238	0xbe01b216	-0.1266559
239	0x3d5037a2	0.050834306
240	0xbd3f55bd	-0.046712626
241	0xbce1a9ed	-0.027546847
242	0x3d08942f	0.033344444
243	0x3d3ac787	0.04560044
244	0xbbd18a46	-0.0063946573
245	0x3d5d96b1	0.05409879
246	0xbd32fbb2	-0.043697067
247	0x3d1515bc	0.03639768
248	0x3d7e091b	0.062020402
249	0x3ce3cf92	0.027808938
250	0xbd2b246a	-0.041782774
251	0x3d7b8fc9	0.06141642
252	0x3e055abf	0.13022898
253	0x3d98b8c1	0.07457114
254	0x3c63d74c	0.013906311
255	0x3ce2a295	0.027665416

conv2.bias f4 [32]
0	0x3d27be6a	0.040953077
1	0x3e494b04	0.19657522
2	0x3d8c9514	0.06864372
3	0xbec53795	-0.38518968
4	0xbd9a22a2	-0.07526137
5	0xbdaf5f6b	-0.085631214
6	0x3d800a15	0.06251923
7	0x3cb8d459	0.022562193
8	0x3d3cac2f	0.046062645
9	0xbdea416a	-0.11438258
10	0xbbc7b20e	-0.006094224
11	0xbea24ec9	-0.31700733
12	0xbd24ac30	-0.040203273
13	0xbd69ac76	-0.057049237
14	0x3dc15533	0.094400786
15	0x3cf62cc6	0.030050647
16	0xbdeaa056	-0.11456363
17	0x3cac344b	0.021021029
18	0xbe118dbd	-0.14214225
19	0x3d8e35d3	0.0694386
20	0x3d277303	0.040881168
21	0xbd2c606c	-0.042084143
22	0x3c8491f7	0.016182883
23	0xbd8585d9	-0.0651967
24	0xbd71491b	-0.05890761
25	0xbdc15d61	-0.09441639
26	0x3c964caa	0.018347103
27	0xbe1af89d	-0.15133901
28	0x3d87a3ad	0.066230156
29	0xbebf9699	-0.37419584
30	0x3d9eecb1	0.07759989
31	0xbe83873e	-0.2568912

conv3.weight f4 [64, 32, 3, 3]
0	0x3c8ddeb6	0.01731811
1	0x3d976f6c	0.07394299
2	0x3d305a9c	0.04305516
3	0x3e5144fc	0.20436472
4	0xbdf2e29e	-0.1185963
5	0xbbe46abb	-0.006970731
6	0x3c819d3a	0.015822042
7	0x3d4e3c43	0.05035044
8	0xbd35bbb0	-0.044368446
9	0x3cf9c828	0.03049095
10	0x3e22db97	0.1590408
11	0x3c068cd7	0.00821229
12	0xbcf9474d	-0.030429507
13	0xbcd9fb9f	-0.02660924
14	0xbe031c6a	-0.12803808
15	0x3b513376	0.0031921542
16	0xbc3627af	-0.01111786
17	0x3bde9369	0.006792475
18	0xbd7849ac	-0.060617134
19	0x3dacc174	0.08435336
20	0xbd384d7f	-0.04499578
21	0xbcd3a11b	-0.025833657
22	0xbdf3c204	-0.1190224
23	0x3d6c8401	0.057743076
24	0xbce862ef	-0.028367488
25	0xbcab93ef	-0.020944564
26	0x3d05ff49	0.032714162
27	0x3d27c220	0.040956616
28	0xbbc00e86	-0.0058611063
29	0x3d17dfef	0.037078794
30	0x3b75aea8	0.0037488136
31	0xbdf0babd	-0.117543675
32	0x3b0fb499	0.0021927713
33	0xbc392b16	-0.011301776
34	0x3b3e6dc2	0.002905712
35	0xbd3dc055	-0.046326
36	0x3c8c9173	0.0171592
37	0xbd38bc4c	-0.04510145
38	0x3cfe1cf7	0.03101967
39	0xbd33f0be	-0.04393076
40	0x3cb61b6e	0.022229876
41	0xbc7b8f8b	-0.0153540475
42	0xbd0aea19	-0.03391466
43	0x3d4d5c0f	0.050136622
44	0x3d4bd0e1	0.04975975
45	0x3c384dab	0.011248986
46	0x3d57ba9a	0.05266819
47	0x3b6568bb	0.0035005051
48	0xbdf88af8	-0.12135881
49	0x3e2f1877	0.17099176
50	0x3d97f645	0.07420019
51	0xbd872f49	-0.06600816
52	0xbd797a63	-0.060907733
53	0xbb9a81a3	-0.004715161
54	0x3d05f716	0.032706343
55	0xbd2f0af0	-0.04273504
56	0xbdac2ae1	-0.08406616
57	0x3e23f4da	0.16011372
58	0x3bcbc9e6	0.0062191365
59	0x3daf2d00	0.08553505
60	0xbddc41dd	-0.1075475
61	0xbda4e803	-0.08052065
62	0xbcabeb9b	-0.020986369
63	0x3c6a90f2	0.014316784
64	0x3d45a4de	0.048252933
65	0x3dbb1388	0.09134585
66	0xbd6e3c07	-0.058162715
67	0x3e3c88f3	0.18411617
68	0x3c5edab9	0.013601952
69	0xbe2a72d3	-0.16645364
70	0xbe1c9742	-0.15292075
71	0x3d9d0304	0.07666591
72	0x3dbd9e74	0.09258738
73	0xbd580582	-0.052739628
74	0xbe04fd34	-0.12987214
75	0x3ccd2eef	0.025046794
76	0xbb696ef9	-0.0035619123
77	0xbe32f7a3	-0.17477278
78	0x3c4f45fb	0.012650962
79	0xbd6837ec	-0.056693956
80	0xbda7c11f	-0.08191132
81	0xbd16f857	-0.03685793
82	0xbda6e1a5	-0.08148507
83	0xbcd261f3	-0.025681471
84	0xbdcd7faa	-0.100341156
85	0x3d0b71e4	0.03404416
86	0x3c51066d	0.01275788
87	0x3d8cfa18	0.06883639
88	0x3d40b464	0.047047034
89	0x3c9295c1	0.017893674
90	0xbcbc903f	-0.023018
91	0xbc5114cb	-0.012761305
92	0x3d4e3aa4	0.050348893
93	0x3db6a908	0.08918959
94	0x3ade7eb0	0.0016975012
95	0xbcb0279f	-0.021503268
96	0xbd1d869d	-0.038458455
97	0xbd3bebd3	-0.045879196
98	0xbd4cad41	-0.049969915
99	0x3cbd6bc1	0.02312267
100	0xbc5b5934	-0.013387967
101	0xbd4a283e	-0.049354784
102	0x3db8614b	0.09002932
103	0xbdb306c7	-0.08741527
104	0x3d1c4146	0.038148187
105	0x3d04ee34	0.03245373
106	0xbd3a9f79	-0.04556224
107	0x3c85e7bb	0.01634585
108	0xbd5d5b40	-0.0540421
109	0x3e2751f7	0.16339861
110	0x3d916b40	0.071005344
111	0xbde8e878	-0.11372465
112	0xbd7e07bf	-0.062019106
113	0x3d79e49a	0.061009027
114	0xbe012512	-0.12611797
115	0x3d8d986b	0.06913837
116	0xbc8a4768	-0.016879752
117	0xbca41087	-0.020027412
118	0x3ca9a6f3	0.02070949
119	0x3d58ed7a	0.05296085
120	0x3966c1c2	0.0002200669
121	0xbdc7c6d3	-0.097547196
122	0x3d65d227	0.05610862
123	0x3d3e81da	0.046510555
124	0x3c00d9bf	0.007864415
125	0xbc0ffeca	-0.008788774
126	0x3da2aeee	0.079435214
127	0x3cd8099b	0.026371768
128	0xbce7d8cb	-0.028301617
129	0x3c71b919	0.014753603
130	0xbd4b8d9d	-0.0496956
131	0xbd9ed755	-0.07755915
132	0xbce03c07	-0.027372373
133	0xbb289746	-0.0025724932
134	0x3db3245d	0.0874717
135	0x3e826cf5	0.25473753
136	0x3dec7ab5	0.11546842
137	0xbd847327	-0.06467276
138	0xbd22d964	-0.0397581
139	0xbd45de09	-0.048307452
140	0xbdbe8a0f	-0.09303676
141	0x3da79c36	0.08184092
142	0x3d9593da	0.07303591
143	0xbc9477ba	-0.018123496
144	0xbddc2cf7	-0.10750764
145	0xbd8b5b4d	-0.068045236
146	0x3cd36cf0	0.025808781
147	0xbce68a5f	-0.028142152
148	0xbd5a68ca	-0.05332259
149	0x3cf306a1	0.029666247
150	0xbc01ef5e	-0.007930605
151	0xba404e77	-0.0007335911
152	0x3c9cee94	0.019156732
153	0xbd56f342	-0.052478082
154	0xbd8fbfbe	-0.07018994
155	0xbcf9c047	-0.030487193
156	0x3c60c7a4	0.013719473
157	0xbd2b3194	-0.04179533
158	0x3cccde16	0.025008243
159	0xbd9f3909	-0.077745505
160	0x3ce5105c	0.027961902
161	0xbd003038	-0.031295985
162	0xbdb628c4	-0.08894494
163	0xbcef4b5c	-0.029210739
164	0x3dd44e9d	0.10366557
165	0x3e291412	0.16511562
166	0xbcc813b6	-0.024423461
167	0x3d1fee79	0.039045785
168	0xbd477ae9	-0.0487012
169	0xbd0bae5a	-0.03410182
170	0x3b15b1ee	0.002284165
171	0x3db57ae0	0.08861327
172	0xbdadcc51	-0.08486236
173	0x3dbb9e66	0.091610715
174	0xbe2c0edc	-0.16802543
175	0xbdf82c9d	-0.12117884
176	0x3de449ef	0.11146914
177	0xbd2ea7ec	-0.04264061
178	0x3d576b0e	0.05259233
179	0x3d4df6f3	0.050284337
180	0xbb612fb5	-0.003436071
181	0x3d719852	0.058983155
182	0x3d034a37	0.0320532
183	0x3cd9e8f8	0.026600346
184	0x3e111c37	0.1417092
185	0x3cea86c3	0.028628713
186	0xbcf89503	-0.030344492
187	0x3d02eb3c	0.03196262
188	0xbac2a28b	-0.0014849467
189	0xbd267d71	-0.040646974
190	0x3bce5f2b	0.006297966
191	0x3d2defd5	0.04246505
192	0x3c6b4d3d	0.014361677
193	0xbc70b09d	-0.014690545
194	0x3d221bed	0.039577413
195	0x3cfef5a7	0.031122996
196	0x3c60c488	0.013718732
197	0xbd4cbc95	-0.049984533
198	0xbd4a02d6	-0.04931911
199	0x3d7dd1d6	0.061967693
200	0x3bdb7bfd	0.00669813
201	0x3c4921e2	0.012276145
202	0x3cc686fe	0.024234291
203	0xbcc6bef1	-0.02426097
204	0xbb4587e4	-0.0030140812
205	0xbc6e030b	-0.014527093
206	0x3a590b0f	0.0008279541
207	0x3d8f6d82	0.07003309
208	0xbc376c56	-0.011195263
209	0x3d7a2a37	0.061075415
210	0xbcac0695	-0.020999232
211	0x3c4fcf97	0.012683771
212	0xbd1e7f30	-0.038695514
213	0xbd59dd95	-0.053189833
214	0xbd0d4269	-0.03448716
215	0x3c26c5af	0.010178967
216	0x3dd76688	0.10517603
217	0x3d24bbd4	0.04021819
218	0x3dedcaae	0.11610924
219	0x3d8003a0	0.062506914
220	0xbd88658f	-0.06659996
221	0x3d401481	0.046894554
222	0x3d2ef4a8	0.04271379
223	0x3c370356	0.011170229
224	0x3da33f1c	0.079710215
225	0x3a4a3bb6	0.0007714586
226	0x3d749e01	0.059720997
227	0xbacb625d	-0.0015516985
228	0xbd33ed31	-0.043927375
229	0xbcebc82d	-0.028781975
230	0xbd3425ac	-0.04398124
231	0x3d87b513	0.06626334
232	0x3cba0658	0.022708103
233	0x3cf6c85a	0.030124832
234	0x3e86a374	0.2629658
235	0xbd2b0e40	-0.041761637
236	0xbdde7d4b	-0.108637415
237	0xbdc90458	-0.09815282
238	0xbe905ab0	-0.2819419
239	0xbe6ad94a	-0.22934452
240	0x3cbcdaa4	0.023053475
241	0xbebc5a6f	-0.36787745
242	0xbdce46d1	-0.10072101
243	0x3d0da610	0.034582198
244	0xba6e2962	-0.0009085146
245	0xbc0286f8	-0.007966749
246	0x3c913e61	0.01772994
247	0xbd7efbad	-0.062251735
248	0x3c77074d	0.015077424
249	0xbcc2f386	-0.023797762
250	0x3cc2aaa9	0.023763018
251	0x3d7146d7	0.05890545
252	0x3e16e319	0.14735068
253	0x3d0380bc	0.032105193
254	0x3d8c03fd	0.06836698
255	0xbd4bf2b2	-0.049792

conv3.bias f4 [64]
0	0x3e1b95fd	0.15193935
1	0x3e278036	0.16357502
2	0x3d8b31c7	0.06796604
3	0xbebd017b	-0.36915192
4	0x3d8d7cea	0.06908591
5	0x3d8adb9d	0.06780169
6	0x3d94deac	0.07269034
7	0x3d6e1bda	0.05813203
8	0xbdc2464c	-0.09486064
9	0xbc4ba5ec	-0.012429696
10	0xbc634b55	-0.013872941
11	0xbdb0f422	-0.08640315
12	0xbdd1e3d8	-0.10248536
13	0xbd4b5522	-0.049641736
14	0x3d172096	0.03689631
15	0x3e047ad7	0.12937485
16	0x3e031f55	0.12804921
17	0xbdad38bd	-0.084580876
18	0x3e195cf7	0.1497687
19	0x3d7caa2f	0.061685737
20	0xbdcdb8f1	-0.100450404
21	0xbcbd282b	-0.023090443
22	0x3edb796e	0.4286608
23	0x3db30051	0.08740295
24	0x3d4ab0fa	0.049485184
25	0x3dd59468	0.10428697
26	0xbe152e58	-0.1456846
27	0xbddb1621	-0.1069758
28	0xbe935640	-0.2877674
29	0xbebd3829	-0.3695691
30	0xbdf5cdcf	-0.120021455
31	0xbde678d8	-0.11253518
32	0x3d5b9a25	0.0536138
33	0x3dbf6b28	0.0934661
34	0x3dc06e32	0.09396018
35	0x3e9eb3b1	0.3099647
36	0x3dbcc342	0.0921693
37	0xbe0deca5	-0.13859804
38	0xbe3363ae	-0.17518494
39	0xbd3f5358	-0.046710342
40	0x3e3d64e8	0.18495524
41	0xbe229041	-0.15875341
42	0xbe440640	-0.19143009
43	0x3d47e9f5	0.048807103
44	0x3dc35e4f	0.09539472
45	0x3de4f509	0.11179549
46	0xbdfe5ccf	-0.124200456
47	0xbdc2aca0	-0.09505582
48	0x3c5e955f	0.0135854175
49	0xbd695b6b	-0.05697195
50	0xbe0c040f	-0.13673423
51	0x3d6c1828	0.057640225
52	0x3d3f43c6	0.046695493
53	0xbdb0e722	-0.08637835
54	0x3d1dac56	0.03849443
55	0xbde0f367	-0.10983925
56	0xbdefdd2d	-0.11712108
57	0x3d0a3a7d	0.033747185
58	0xbd4e8911	-0.050423685
59	0x3b98cf2d	0.004663369
60	0xbdbbce1a	-0.0917017
61	0x3d7eb65a	0.062185623
62	0xbce6434c	-0.028108262
63	0xbc75a7cd	-0.01499362

up1.weight f4 [64, 32, 3, 3]
0	0x3d1c6898	0.038185686
1	0x3ac2624d	0.0014830321
2	0xbd54a05e	-0.05191075
3	0xbcab5681	-0.020915272
4	0x3d5cc780	0.053901196
5	0xbd07ef71	-0.033187333
6	0xbd226236	-0.039644442
7	0x3d456314	0.04819019
8	0xbd605c97	-0.0547758
9	0x3c152435	0.009102871
10	0x3c3d76a7	0.011563933
11	0xb9ab8913	-0.0003271779
12	0x3be650be	0.007028668
13	0x3d412d65	0.047162432
14	0x3d4e149b	0.05031262
15	0xbd0aab25	-0.033854622
16	0x3d3a0138	0.04541132
17	0x3c05d156	0.008167585
18	0xbd13d50b	-0.036091845
19	0x3abf12b6	0.001457772
20	0xbc05903e	-0.008152066
21	0x3c8b1821	0.016979279
22	0x3be95852	0.0071211243
23	0x3c8377f2	0.016048405
24	0xbd843c2a	-0.06456788
25	0x3cf25e51	0.02958599
26	0x3cce9f6a	0.025222499
27	0xbd02e85f	-0.031959888
28	0x3d1a4deb	0.037671965
29	0xbaf41123	-0.001862083
30	0xbc347b79	-0.011015766
31	0x3d1462c5	0.036227006
32	0x3b556960	0.003256403
33	0xbd203e1b	-0.03912173
34	0x3d48a824	0.048988476
35	0x3b16c648	0.0023006368
36	0xbd81472e	-0.063124046
37	0x3e0fb6dd	0.140346
38	0x3d808597	0.0627548
39	0xbde42616	-0.11140077
40	0xbd02b509	-0.03191093
41	0xbd769d5e	-0.06020867
42	0xbdb17bb3	-0.08666172
43	0xbc7f39d8	-0.015577756
44	0x3dc4f277	0.09616559
45	0x3d0657cf	0.032798585
46	0x3d5434e3	0.05180825
47	0x3da5c630	0.08094442
48	0xbce33f16	-0.027740043
49	0x3cd6ebaa	0.02623542
50	0xbaddfca4	-0.0016936255
51	0xbd0f0681	-0.034918312
52	0xbd0c7fd6	-0.0343016
53	0xbe0adef6	-0.13561615
54	0x3c9babe6	0.019002866
55	0x3cd38867	0.025821878
56	0x3dd25441	0.102699764
57	0x3bf7e7fb	0.007565496
58	0x3dc2325b	0.09482261
59	0x3d88b33c	0.06674811
60	0xbd6cb00b	-0.057785075
61	0xbe136af0	-0.14396262
62	0xbc598a11	-0.0132775465
63	0xbc47e753	-0.012201148
64	0xbc980443	-0.01855672
65	0x3c94ea4b	0.018178126
66	0xbde9bce3	-0.114129804
67	0xbd15c7f6	-0.03656765
68	0x3dfcdb72	0.12346543
69	0xbdccc73f	-0.09998941
70	0x3c94693b	0.018116584
71	0x3d9611f3	0.07327642
72	0xbda97e43	-0.08276036
73	0x3d0724b5	0.03299399
74	0x3dd383a0	0.1032784
75	0xbcaec8fb	-0.02133607
76	0x3d8e7b8f	0.06957161
77	0x3d7c0b3e	0.06153416
78	0xbd4df0db	-0.050278526
79	0xbddab7c4	-0.10679582
80	0x3c4da1e3	0.012550804
81	0x3da1b049	0.07894952
82	0x3d95734b	0.07297381
83	0x3d14b366	0.0363039
84	0xbd9c5b7b	-0.07634636
85	0xbda72f5d	-0.08163331
86	0xbd6f9a2b	-0.058496635
87	0x3d711016	0.05885323
88	0xbc1eb44e	-0.009686543
89	0x3c862336	0.016374212
90	0xbc20a40f	-0.00980474
91	0x3d8e2855	0.069412865
92	0xbd4e8acd	-0.05042534
93	0xbdfda519	-0.123850055
94	0xbc6611bd	-0.014042315
95	0x3e02de53	0.12780122
96	0xbd036d68	-0.03208676
97	0x3d6a0dd9	0.057142112
98	0x3d96e0f7	0.073671274
99	0xbdcd6eb7	-0.10030883
100	0x3c3161ef	0.010826572
101	0x3cea0ec2	0.02857149
102	0xbe2e7911	-0.1703837
103	0xbd017f15	-0.031615335
104	0x3d83ae2d	0.06429706
105	0xbd4b5d85	-0.049649734
106	0x3e02d23f	0.12775515
107	0x3ddeeb97	0.10884779
108	0x3d83ddf9	0.06438822
109	0xbcb9cd33	-0.022680854
110	0x3d4504f2	0.04810042
111	0xbca2609d	-0.01982146
112	0x3d4f0cf3	0.05054946
113	0x3cdc0637	0.026858432
114	0x3c2d2c42	0.010569634
115	0xbdb957c6	-0.090499446
116	0xbe184bdd	-0.1487269
117	0x3cc61bfb	0.024183264
118	0x3d341e72	0.043974347
119	0xbc89fcc6	-0.016844165
120	0xbc8e168f	-0.017344741
121	0xbdc1958b	-0.09452351
122	0xbdb949b4	-0.09047261
123	0xbdfaf815	-0.12254349
124	0x3dbd4ece	0.092435464
125	0x3d9f59a9	0.07780773
126	0xbd925122	-0.07144381
127	0xbcf6db1d	-0.030133778
128	0xbd39b84b	-0.04534177
129	0xbdbe871b	-0.09303113
130	0x3d4a0b3a	0.049327113
131	0x3d6f1f5f	0.058379527
132	0x3b3fdf1d	0.0029277273
133	0x3d946a6d	0.072468616
134	0x3d1bdf4b	0.038054746
135	0x3df9ac3f	0.121910565
136	0x3ce13181	0.027489426
137	0xbd3ae3f7	-0.04562756
138	0x3d71b38f	0.05900913
139	0x3c181e38	0.009284548
140	0xbd48d471	-0.049030725
141	0x3cef9d1f	0.029249726
142	0xbd27b7b2	-0.04094667
143	0xbd9c90c0	-0.07644796
144	0x3c2e4be6	0.010638213
145	0x3d9a0e29	0.07522232
146	0x3d6a5b53	0.057216
147	0xbd9ccc20	-0.07656121
148	0x3deef6f4	0.11668196
149	0xbd7f78c1	-0.06237102
150	0xbd5cf8d5	-0.053948242
151	0xbdf1e59e	-0.11811374
152	0xbd32df5b	-0.04367004
153	0xbc9d56c6	-0.019206416
154	0x3c9ad3e2	0.018899862
155	0x3d9388ea	0.07203849
156	0x3d306e80	0.04307413
157	0xbdd8ece2	-0.10592057
158	0x3aa94532	0.0012914299
159	0xbe1c7b2e	-0.15281364
160	0x3ba6f99c	0.0050956737
161	0x3da90b50	0.08254111
162	0xbdcef259	-0.10104818
163	0xbd3bfaa9	-0.045893345
164	0x3bb7030a	0.005585079
165	0xbd0572c6	-0.03258016
166	0xbb8f4403	-0.0043721213
167	0x3db11073	0.086457156
168	0xbcb5c58f	-0.02218893
169	0x3d573b1f	0.052546617
170	0x3d617d9b	0.055051427
171	0x3dae6dc5	0.085170306
172	0x3aaa8138	0.0013008481
173	0xbb936a8f	-0.0044987868
174	0x3c9b5d75	0.018965462
175	0xbb851452	-0.0040612603
176	0xbb6c9566	-0.003609979
177	0xbdd2d371	-0.102942355
178	0xbb0a643c	-0.0021116873
179	0x3d8252cd	0.06363449
180	0xbc4f3b09	-0.012648352
181	0x3c5036e7	0.012708402
182	0x3c6933d7	0.014233551
183	0xbd1544fc	-0.03644274
184	0xbca080f5	-0.019592742
185	0x3d1f7ed6	0.03893932
186	0x3b933df0	0.0044934675
187	0x3bcbbcb2	0.0062175626
188	0x3d5ebc7c	0.05437897
189	0xbdeab930	-0.11461103
190	0xbdb988b8	-0.0905928
191	0x3bdec1f6	0.0067980243
192	0x3a8786ad	0.0010339819
193	0x3d0a93ee	0.033832483
194	0x3e1963fd	0.14979549
195	0xbce7f458	-0.028314754
196	0x3c93be36	0.018035036
197	0x3dc67de9	0.09691984
198	0xbb8ccd24	-0.0042969156
199	0x3c4316c2	0.011907281
200	0xbd591bca	-0.053005017
201	0xbd050153	-0.032471966
202	0xbd804219	-0.06262607
203	0xbc82d959	-0.01597278
204	0x3bba63d1	0.0056881686
205	0xbd634241	-0.055483107
206	0x3cab11a7	0.02088244
207	0xbd718483	-0.058964264
208	0xbccb491c	-0.024815135
209	0x3dd0ecde	0.10201429
210	0xbdc8637b	-0.097845994
211	0xbd4a67ad	-0.04941528
212	0x3df6454f	0.12024938
213	0xbdcd16bc	-0.10014102
214	0x3d0e765f	0.034780856
215	0x3c373bed	0.011183721
216	0x3cca4581	0.024691345
217	0xbd155e7c	-0.03646706
218	0x3d739fdf	0.059478637
219	0x3e094320	0.13404512
220	0xbd2b11af	-0.04176491
221	0x3b996fc1	0.0046825116
222	0x3dd00175	0.10156528
223	0xbc7590fb	-0.014988179
224	0xbe0edccc	-0.13951415
225	0xbd314361	-0.04327715
226	0xbc68fd83	-0.014220598
227	0xbc6562ff	-0.014000653
228	0x3d479c73	0.048733186
229	0xbc0c36bc	-0.008557972
230	0xbd364b4f	-0.044505414
231	0xba0cccd8	-0.00053711
232	0xba739d58	-0.00092931604
233	0x3b7a0b3e	0.0038153674
234	0xbcf13f22	-0.02944905
235	0x3d19d7a3	0.037559163
236	0xbc046bb1	-0.008082316
237	0x3d779aba	0.060450293
238	0x3d1d0622	0.038335927
239	0xbd913d3b	-0.07091757
240	0x3caf60c7	0.021408452
241	0xbca0e120	-0.019638598
242	0xbc307010	-0.010768905
243	0xbc9d40d5	-0.019195953
244	0x3d5867e7	0.052833464
245	0x3b9dd9fe	0.0048172465
246	0x3d3f276b	0.04666845
247	0x3d2f89ed	0.042856146
248	0xbd8c1de8	-0.06841642
249	0x3c5b9a5f	0.013403504
250	0xbd9141f0	-0.07092655
251	0xbc353a8b	-0.011061321
252	0x3dd0dc3d	0.10198257
253	0x3de5322e	0.11191212
254	0x3d0d5063	0.03450049
255	0xbd3a728d	-0.0455194

up1.bias f4 [32]
0	0x3d76cbc2	0.060252912
1	0x3b62d80c	0.0034613637
2	0xbd442e8b	-0.04789595
3	0x3e871fcb	0.26391444
4	0x3c0687dc	0.008211102
5	0x3b2a63c5	0.0025999409
6	0x3ce19628	0.02753742
7	0x3df609d3	0.120135926
8	0xbc0bf20c	-0.008541595
9	0x3cba6efc	0.022758
10	0xbc1add45	-0.009452169
11	0x3ba43247	0.0050108763
12	0xbbb874f7	-0.0056291777
13	0x3b77a816	0.0037789396
14	0x3ccb105e	0.024788078
15	0xbcfed577	-0.031107647
16	0x3bb2b085	0.0054531717
17	0xbd212321	-0.039340142
18	0xbe4fdee3	-0.20299868
19	0xbbad3527	-0.0052858773
20	0x3e2a91f9	0.16657247
21	0x3c95f7ef	0.0183067
22	0xbc03e8ac	-0.008051079
23	0x3c2fc36f	0.010727747
24	0xbc092fb3	-0.008373189
25	0x3c6cb961	0.014448495
26	0x3dea4bd6	0.11440246
27	0x3e21c591	0.15798022
28	0x3b995469	0.004679252
29	0x3dba6a83	0.09102347
30	0x3e828d1d	0.25498286
31	0xbbd3b06c	-0.00646024

conv4.weight f4 [32, 64, 3, 3]
0	0x3d54f953	0.051995587
1	0xbdfe8a3b	-0.12428709
2	0x3e47445d	0.19459672
3	0xbe51dd36	-0.20494542
4	0xbec55371	-0.38540223
5	0xbdce8796	-0.10084455
6	0x3e4cfc58	0.20018137
7	0x3e097be6	0.1342617
8	0x3e455bc7	0.19273292
9	0xbda0f7c6	-0.07859759
10	0xbd22a52d	-0.039708305
11	0xbd9010b9	-0.070344396
12	0xbe3b8b3c	-0.18314832
13	0xbca0b3e3	-0.019617027
14	0xbd548d89	-0.05189279
15	0xbdd70052	-0.10498108
16	0xbe3282ce	-0.1743271
17	0xbe3071e6	-0.17230949
18	0xbdc15eb6	-0.09441893
19	0xbd97374d	-0.07383595
20	0xbe26415e	-0.16235873
21	0xbdef7c2e	-0.11693607
22	0xbe2ae131	-0.16687466
23	0xbe40a1ee	-0.18811771
24	0xbddfd1c5	-0.10928682
25	0xbe544085	-0.20727737
26	0xbe507c96	-0.20360026
27	0xbadaf15b	-0.001670401
28	0x3c5af809	0.0133648
29	0xbcaeafe4	-0.021324106
30	0x3cc69312	0.02424005
31	0xbd6a1f74	-0.057158902
32	0xbc3dfa0f	-0.011595263
33	0xbd2fcb02	-0.042918213
34	0xbd6d895a	-0.057992317
35	0xbccbd715	-0.024882833
36	0xbbf794a5	-0.0075555616
37	0x3ce0e983	0.027455097
38	0x3c3cbe04	0.011519913
39	0xbbe42c81	-0.006963313
40	0xbd1c6c88	-0.03818944
41	0x3c752989	0.014963516
42	0x3cbee849	0.023304122
43	0xbce0f299	-0.02745943
44	0x3c2cad83	0.010539415
45	0xbb62d25c	-0.0034610247
46	0x3ad47bff	0.001621127
47	0xbddc86eb	-0.10767921
48	0x3e0ef441	0.13960363
49	0x3da3a59d	0.079905726
50	0xbdc1a78b	-0.094557844
51	0xbcf3f629	-0.029780464
52	0x3c333e5f	0.010940163
53	0xbe127d24	-0.1430555
54	0xbe77d36a	-0.24201742
55	0xbead697c	-0.3386954
56	0xbe3afe6b	-0.18261115
57	0xbdb3e468	-0.087837994
58	0x3eb5b189	0.3548701
59	0x3e51f400	0.20503235
60	0xbe1991a0	-0.14996958
61	0xbe01e998	-0.12686765
62	0x3c60bb44	0.013716523
63	0x3e84dcc8	0.25949693
64	0x3ed5615b	0.4167584
65	0x3df31195	0.11868588
66	0x3f1e92fa	0.6194302
67	0x3f5849cc	0.84487605
68	0x3e8b6b50	0.2723031
69	0x3e97c4e6	0.2964241
70	0x3e9bb128	0.30408597
71	0x3d945001	0.07241822
72	0x3d36cec7	0.044630792
73	0x3db3f7e7	0.08787518
74	0x3c9ff4ee	0.019525971
75	0xbd1c8e49	-0.03822163
76	0x3d951782	0.072798744
77	0xbc754a77	-0.014971367
78	0xbdd4254b	-0.103586756
79	0xbd8ae876	-0.0678262
80	0xbdb94d32	-0.09047927
81	0x3da86bde	0.08223699
82	0xbdd58a49	-0.104267664
83	0x3e040aa4	0.12894684
84	0x3b24dcb8	0.0025155973
85	0xbee2760c	-0.44230688
86	0xbe247fd0	-0.16064382
87	0x3e3164cc	0.17323607
88	0xbdd323f1	-0.1030959
89	0x3d5f281a	0.054481603
90	0xbe33f9e1	-0.1757579
91	0xbecfa363	-0.40554342
92	0xbb513d2f	-0.0031927337
93	0xbe714bbb	-0.23564045
94	0xbe90e017	-0.28295967
95	0x3d9a85ee	0.07545076
96	0xbd8bb518	-0.0682165
97	0xbd8dae5c	-0.06918022
98	0x3ec6d1fe	0.38832086
99	0xbd01bc3f	-0.031673666
100	0x3bed9598	0.007250499
101	0x3cf98222	0.03045756
102	0xbc7edda4	-0.015555773
103	0xbd14165b	-0.036154132
104	0x3c849053	0.0161821
105	0x3cb86c30	0.022512525
106	0x3cf0987b	0.029369583
107	0x3caf54c3	0.021402722
108	0x3dc69ea0	0.09698224
109	0x3dbad902	0.09123422
110	0xbe2724d5	-0.16322644
111	0x3e13bfdc	0.14428657
112	0x3e444c58	0.19169748
113	0xbd9498f4	-0.07255736
114	0x3cea4d07	0.028601183
115	0x3d9ba3ec	0.07599625
116	0xbd2248c5	-0.03962018
117	0xbc0e4f01	-0.008685828
118	0xbdfbd38d	-0.122962095
119	0x3e4cecf9	0.20012273
120	0xbe357e3a	-0.17723933
121	0xbec4ecce	-0.38461918
122	0x3e0fef50	0.14056134
123	0x3c5949e1	0.013262243
124	0xbdb176fb	-0.08665272
125	0x3d6342b1	0.055483524
126	0x3e178a34	0.14798814
127	0xbed8ac27	-0.42318842
128	0x3eaa14fc	0.33219135
129	0xbd8492f4	-0.064733416
130	0xbf2eff8b	-0.6835868
131	0x3e0edf58	0.13952386
132	0x3ec40e17	0.38292
133	0x3aa24ae8	0.0012381943
134	0x3eb89b3f	0.36055943
135	0xbcba66d6	-0.022754114
136	0xbd8ee672	-0.06977548
137	0xbde3bcce	-0.11119996
138	0xbd5ec0e0	-0.05438316
139	0xbd05f4d3	-0.032704186
140	0xbd926e7c	-0.071499795
141	0xbd400376	-0.0468783
142	0xbd90c3f6	-0.070686266
143	0xbcd477a6	-0.02593596
144	0x3e765663	0.24056391
145	0x3eb4a40c	0.35281408
146	0xbc84ef71	-0.016227456
147	0x3e7fd13a	0.24982157
148	0xbd12617e	-0.035737507
149	0xbe88446f	-0.2661471
150	0x3dabc874	0.08387843
151	0xbe834200	-0.25636292
152	0xbe255017	-0.16143833
153	0xc00fe099	-2.2480834
154	0xc00b5fdc	-2.1777258
155	0xbfa24031	-1.267584
156	0xbfc581e1	-1.5430261
157	0xbf5dc2dd	-0.8662546
158	0xbf4a46bf	-0.790142
159	0xbf6b28c5	-0.91859084
160	0xbf88f9df	-1.0701255
161	0xbfb8f84c	-1.4450774
162	0x3d62430c	0.055239722
163	0xbeb14f92	-0.3463102
164	0x3ec34558	0.38138843
165	0xbe097590	-0.13423753
166	0xbf3dc53d	-0.74129087
167	0xbd0d37dd	-0.034477104
168	0x3eaf20f1	0.3420482
169	0x3e618505	0.22023399
170	0x3e62e445	0.2215739
171	0xbdd0e28c	-0.101994604
172	0xbef6a94f	-0.48176047
173	0x3e4ba2c9	0.19886316
174	0xbdf8f54c	-0.12156162
175	0xbf4d0a32	-0.8009368
176	0x3d94ea9e	0.07271312
177	0x3e1b3b15	0.15159257
178	0xbdbad8af	-0.0912336
179	0x3e611d93	0.21983938
180	0x3e1de441	0.15419103
181	0x3d82195b	0.063524924
182	0x3da9f112	0.08297934
183	0x3de75551	0.1129557
184	0x3c8592bc	0.01630532
185	0x3d542914	0.051796988
186	0xbda04782	-0.07826139
187	0xbe0e8336	-0.1391724
188	0xbda1146e	-0.07865225
189	0x3c7a11af	0.015263005
190	0x3c660e8b	0.014041553
191	0x3ac17656	0.0014759998
192	0x3b9174fb	0.004438994
193	0x3d025558	0.03181967
194	0x3c4b43db	0.012406315
195	0xbd2612e9	-0.040545378
196	0x3c37879c	0.011201765
197	0x3b950d60	0.0045487136
198	0x3db298f5	0.087205805
199	0x3e1a5000	0.1506958
200	0x3ef3b356	0.4759776
201	0xbf1104e9	-0.5664812
202	0xbebec9ef	-0.37263438
203	0x3eaf5c62	0.3425017
204	0xbe85a9c0	-0.2610607
205	0x3c328f04	0.010898355
206	0x3ec3bbcd	0.38229218
207	0xbf2b1e80	-0.66843414
208	0x3e6fde7c	0.23424715
209	0x3e502526	0.20326671
210	0x3d4a571f	0.04939949
211	0x3f6d2f6e	0.92650497
212	0x3eb9bb3c	0.3627566
213	0xbe2d0f1c	-0.16900295
214	0xbdba7825	-0.09104947
215	0xbe8bea4b	-0.2732719
216	0x3e3a8568	0.18214953
217	0x3e802099	0.2502487
218	0x3d96bcf2	0.07360257
219	0xbe085c3b	-0.13316433
220	0xbeb36635	-0.35038915
221	0xbe3f8eaa	-0.18706766
222	0x3d95f5a0	0.0732224
223	0xbe26845a	-0.16261426
224	0xbd9f4632	-0.077770606
225	0x3ba51e15	0.0050389864
226	0xbd3cffd7	-0.046142425
227	0xbd4ddd8a	-0.050260104
228	0xbd8bed2b	-0.068323456
229	0xbd579cca	-0.05263976
230	0xbd7f0ce5	-0.062268157
231	0xbd3f405c	-0.046692237
232	0xbc5df8d0	-0.013548091
233	0xbd1380fd	-0.036011685
234	0x3d23fccd	0.04003601
235	0x3d1fd1de	0.039018504
236	0xbe06aca7	-0.13151799
237	0x3e407548	0.18794739
238	0x3ec38cf7	0.38193485
239	0xbc0f24cd	-0.008736801
240	0x3a2c2f62	0.000656834
241	0x3d6ac726	0.05731883
242	0xbe068ed0	-0.13140416
243	0xbda7a263	-0.0818527
244	0xbd970c31	-0.07375372
245	0xbe64c8b8	-0.22342193
246	0xbe8e5338	-0.27797866
247	0xbd3aa826	-0.045570515
248	0xbe3fcfd1	-0.1873162
249	0xbf8a5425	-1.0806929
250	0xbf3e2d46	-0.7428783
251	0xbf21c480	-0.6319046
252	0x3def07ab	0.116713844
253	0x3d8fd353	0.07022729
254	0x3e64b59c	0.22334903
255	0x3cef8346	0.0292374

conv4.bias f4 [32]
0	0xbe3439b0	-0.17600131
1	0xbd79d274	-0.06099172
2	0xbcbd472d	-0.023105228
3	0x3d48459c	0.04889451
4	0xbf02c455	-0.5108083
5	0xbefc4292	-0.4926954
6	0xbd31cefa	-0.04341028
7	0xbe2828d1	-0.1642182
8	0xbdc137dc	-0.094344825
9	0xbe5427eb	-0.20718352
10	0xbdbd8ea9	-0.09255726
11	0x39bab354	0.00035610294
12	0x3cada1f6	0.021195393
13	0x3d29beff	0.041441914
14	0xbe8f0295	-0.27931657
15	0xbd9f80aa	-0.077882126
16	0xbf053656	-0.52036035
17	0x3c623e29	0.013808765
18	0x3cfc52c2	0.03080118
19	0xbf081f6d	-0.5317295
20	0xbe0b78ad	-0.13620253
21	0xbda2d30f	-0.079504125
22	0xbda62d9a	-0.081141666
23	0x3d8a6fc9	0.067596026
24	0x3d19450a	0.037419356
25	0xbf014221	-0.5049153
26	0xbccb1661	-0.024790945
27	0xbd910e6a	-0.070828274
28	0xbef2a219	-0.47389296
29	0xbd329ed3	-0.043608498
30	0xbea4d1e3	-0.3219138
31	0xbe2fc2fa	-0.17164221

up2.weight f4 [32, 16, 3, 3]
0	0x3e39be7a	0.18139067
1	0x3d9b92ad	0.075963356
2	0x3dc43d86	0.09582047
3	0x3e22a6c7	0.15883933
4	0xbdb39f6c	-0.08770642
5	0xbe01644b	-0.12635915
6	0x3ddc4b47	0.107565455
7	0xbc914dfb	-0.01773738
8	0xbe61fa33	-0.220681
9	0xbdbe2470	-0.09284294
10	0x3dd4f54d	0.1039835
11	0x3d2f28f5	0.04276367
12	0x3e66eeb5	0.22551997
13	0x3ede1b1a	0.43380052
14	0x3e59138f	0.21198867
15	0x3e37a24e	0.17933008
16	0x3e05e218	0.13074529
17	0xbded2041	-0.115784176
18	0x3cea6e63	0.02861709
19	0xbddbb5a4	-0.107280046
20	0x3e2ad2de	0.16682002
21	0xbde94b64	-0.11391333
22	0xbe748696	-0.23879465
23	0xbe531d9c	-0.20616764
24	0xbe60d363	-0.21955638
25	0xbef0ae28	-0.4700787
26	0xbe8d0a1e	-0.2754678
27	0x3e34e682	0.17666057
28	0x3e91489a	0.28375703
29	0xbd5d5a86	-0.054041408
30	0x3e2c9a17	0.16855656
31	0x3ea10146	0.31446284
32	0x3e39863e	0.18117616
33	0xbe56cbec	-0.20976228
34	0x3e0db536	0.13838658
35	0x3e08e1f2	0.13367441
36	0x3e140352	0.14454392
37	0x3e8d3390	0.27578402
38	0x3e357a87	0.17722522
39	0x3e36c503	0.17848592
40	0x3e277d9c	0.1635651
41	0x3e9169a3	0.28400907
42	0x3dad94e7	0.084756665
43	0x3e6dcdc3	0.23223023
44	0x3e583b78	0.21116436
45	0xbe4b8900	-0.1987648
46	0xbe9fe885	-0.31232086
47	0xbe6da1b7	-0.2320622
48	0xbed3bd86	-0.41355532
49	0xbef09fda	-0.46996957
50	0xbe41dd00	-0.18931961
51	0xbd046c70	-0.032329977
52	0xbe84e2e7	-0.25954363
53	0xbe7d7bdf	-0.24754284
54	0xbf132fd3	-0.5749485
55	0xbf08e5de	-0.5347575
56	0x3d067acd	0.032831956
57	0xbf3710d4	-0.7151005
58	0xbf51b413	-0.81915396
59	0xbe36c5a9	-0.17848839
60	0xbed4d0e0	-0.4156561
61	0xbf191b21	-0.5980702
62	0xbe7886f3	-0.24270229
63	0x3d1464bd	0.036228884
64	0x3df860b8	0.12127823
65	0x3d1b0e7f	0.03785562
66	0x3d4cfcda	0.050045826
67	0x3e327fa5	0.17431505
68	0x3dc4ecb1	0.09615458
69	0x3c5dcf0d	0.013538134
70	0x3e2f6a09	0.17130293
71	0x3e664e76	0.22490868
72	0xbdec5ac1	-0.115407474
73	0xbeab4fa1	-0.3345919
74	0xbe8109f3	-0.25202903
75	0xbe9908c5	-0.29889503
76	0xbf4058cc	-0.75135493
77	0xbef74090	-0.48291445
78	0xbeb6d354	-0.35708106
79	0xbf0e6d57	-0.5563559
80	0xbd5cf0b3	-0.053940486
81	0x3f03e367	0.51518863
82	0x3f3ec13b	0.74513596
83	0x3f1065fc	0.56405616
84	0x3f383184	0.71950555
85	0x3f5695d7	0.8382239
86	0x3f4a6709	0.7906347
87	0x3db64b2b	0.08901056
88	0x3f19d2fe	0.60087574
89	0x3e492bb1	0.19645573
90	0xbe031686	-0.12801561
91	0x3e084430	0.13307261
92	0xbdb43ce9	-0.0880068
93	0x3e75f04e	0.2401745
94	0x3e6a43e1	0.22877456
95	0x3e6b19ed	0.22959109
96	0x3e26c411	0.16285731
97	0x3e269495	0.16267617
98	0x3e2d6508	0.16933072
99	0x3cf12617	0.029437108
100	0x3e2dff63	0.16991954
101	0x3e117783	0.14205746
102	0x3da90f03	0.082548164
103	0x3b655287	0.0034991817
104	0x3dd0a24a	0.10187204
105	0x3e4ca661	0.19985344
106	0x3df9f2c2	0.122045055
107	0x3df3816a	0.11889918
108	0xbd37e2c3	-0.04489399
109	0xbd48e2d5	-0.04904445
110	0xbe3649f6	-0.17801651
111	0xbd4e9585	-0.05043556
112	0xbeaa66e2	-0.33281618
113	0xbe02e983	-0.1278439
114	0xbdc62a84	-0.09676078
115	0xbe8f0af6	-0.2793805
116	0x3d90ff4f	0.07079946
117	0x3e7935e1	0.2433696
118	0xbe1a1b44	-0.15049464
119	0xbd3f95e8	-0.04677382
120	0xbdaa2f17	-0.08309763
121	0xbee0911b	-0.43860707
122	0xbec092a0	-0.37611866
123	0x3d03c44f	0.032169636
124	0xbe74aeb0	-0.23894763
125	0xbd718996	-0.058969103
126	0xbdbe33a4	-0.092871934
127	0x3c051fc9	0.008125254
128	0x3dd86278	0.105656564
129	0xbd80900a	-0.06277473
130	0x3e4061a8	0.18787253
131	0x3e576f56	0.21038565
132	0xbd7fe084	-0.062469974
133	0x3d9d8cdd	0.07692883
134	0xbdb212cc	-0.086949915
135	0xbd94caa3	-0.072652124
136	0x3ea06ef4	0.3133465
137	0x3e0be368	0.13660967
138	0x3dae222b	0.08502611
139	0x3e7dd02c	0.24786443
140	0x3d095fc8	0.03353861
141	0x3ce8c751	0.028415354
142	0xbbd7c77c	-0.0065850597
143	0x3c3798e8	0.011205889
144	0x3d09a3de	0.03360354
145	0xbd905967	-0.07048302
146	0xbc0d29d1	-0.008615927
147	0xbdaf63cc	-0.085639566
148	0xbcc9ee8d	-0.024649883
149	0x3d814f35	0.06313936
150	0x3d5f9cbf	0.054592844
151	0xbc387fd9	-0.01126095
152	0xbd804d5a	-0.06264754
153	0xbd26985a	-0.040672638
154	0xba1a22d9	-0.00058798265
155	0xbd114dec	-0.035474703
156	0xbcf97c6d	-0.030454839
157	0xbd5858b9	-0.052818988
158	0x3ca4bd40	0.020109773
159	0xbdb9092a	-0.09034951
160	0xbd8a2fc4	-0.06747392
161	0xbc82b75b	-0.015956571
162	0xbc06f966	-0.008238172
163	0xbd4559a5	-0.048181195
164	0x3b633921	0.0034671503
165	0x3c85829b	0.01629763
166	0x3c904612	0.017611537
167	0x3ca61800	0.020275116
168	0xbb0bd039	-0.0021333827
169	0xbd19c1ac	-0.037538216
170	0xbd827871	-0.063706286
171	0xbd860722	-0.06544329
172	0x3d8f8a4a	0.070087984
173	0x3d889178	0.06668371
174	0x3d07ae5a	0.03312526
175	0x3d3d0c34	0.046154216
176	0xbc7a2389	-0.015267261
177	0x3d92f531	0.07175673
178	0xbbb73c64	-0.005591916
179	0x3bcf2189	0.0063211364
180	0x3c9da632	0.019244287
181	0x3df53eb5	0.11974851
182	0x3d3c22c2	0.045931585
183	0x3dd8c0ac	0.10583624
184	0x3dc697a4	0.09696892
185	0xbc312176	-0.0108112
186	0xbd492e2e	-0.049116306
187	0x3e0dbb67	0.1384102
188	0xbbbaf7f4	-0.005705828
189	0xbcbad7fe	-0.022808071
190	0x3d2ef310	0.04271227
191	0x3d10ab70	0.035319746
192	0x3d7e2f29	0.062056694
193	0x3deb2e16	0.114833996
194	0x3d6a03e5	0.05713262
195	0xbc9ae349	-0.018907206
196	0xbc7373be	-0.014859138
197	0x3d583b42	0.052790888
198	0x3d23332b	0.03984372
199	0xbcbd1474	-0.023081042
200	0x3d077b9a	0.03307686
201	0x3d80f173	0.06296053
202	0xbcacdfbf	-0.021102784
203	0xbd190f63	-0.03736819
204	0xbd44f7be	-0.048087828
205	0x3c07d969	0.008291581
206	0x3b719872	0.0036864546
207	0xbd417585	-0.047231216
208	0x3c30ddba	0.010795051
209	0xbc594dfe	-0.013263224
210	0xbb8c446b	-0.004280617
211	0x3cc25949	0.023724215
212	0x3d0a1e01	0.03372002
213	0x3d0fe33e	0.035128824
214	0x3c2d1abc	0.010565456
215	0x3db22984	0.08699325
216	0xbc07e88f	-0.008295192
217	0x3b01b3a4	0.0019790912
218	0x3ddd4a16	0.108051464
219	0x3d731e71	0.059355203
220	0xbc96d12a	-0.018410284
221	0x3da2f67d	0.0795717
222	0x3d6f7307	0.058459308
223	0x3c0a9680	0.008458734
224	0xbd36f3d8	-0.04466614
225	0xbb245136	-0.002507282
226	0xbd9d3e9f	-0.0767796
227	0xbb194696	-0.002338802
228	0xbd4c5cb8	-0.04989311
229	0xbd19d46c	-0.037556097
230	0xbde8b194	-0.11361995
231	0x3c85f347	0.016351355
232	0xbd3defec	-0.046371385
233	0xbd88278d	-0.06648169
234	0x3d81f4f5	0.0634555
235	0xb9cbbb1e	-0.0003885859
236	0xbd38d54a	-0.045125283
237	0xbce24edc	-0.027625494
238	0x3d2e4ac4	0.04255177
239	0xbd4fe70b	-0.05075745
240	0x3c438f31	0.011935995
241	0xbd0fec45	-0.035137434
242	0x3d89b3c6	0.06723742
243	0xbd7f1573	-0.062276315
244	0xbdaabe30	-0.08337057
245	0xbb510f5e	-0.0031900029
246	0xbdd5ac69	-0.10433275
247	0xbcf5abd3	-0.029989159
248	0xbce3b9d2	-0.027798567
249	0x3bce7c70	0.006301455
250	0x3c4c82ca	0.012482354
251	0x3c63ab77	0.013895861
252	0xbd82fb63	-0.063956045
253	0x3d5b3774	0.05351968
254	0xbce2f5cc	-0.027705096
255	0xbd4870f0	-0.04893583

up2.bias f4 [16]
0	0xbc8550f6	-0.016273957
1	0x3da5e892	0.08101
2	0xbd23664d	-0.039892484
3	0x3d3add7d	0.045621384
4	0xbd7687a4	-0.06018795
5	0x3c2936bd	0.010327992
6	0xbc1aa893	-0.009439605
7	0xbd3600ba	-0.044434287
8	0x3a517721	0.0007990469
9	0x3c4ccc31	0.012499855
10	0xbc80afbb	-0.015708795
11	0x3cb2d206	0.021828663
12	0xbbded921	-0.006800786
13	0xbd711917	-0.05886182
14	0x3d7cb513	0.061696123
15	0x3dc289a4	0.09498909
