save/200_RES_decom.pth (torch, 13399 bytes, 6 tensors)

inconv.0.weight f4 [16, 3, 3, 3]
-0.08496316 -0.08805271 0.17937452 -0.10533294 0.14460203 0.12445069 0.008705581 -0.14205293
0.16995297 -0.042201407 0.0020291049 0.0032367902 0.10429145 -0.10159086 0.016670298 0.13578145
-0.094420604 0.07946723 0.010924119 0.07582697 0.1917858 0.20763823 0.12151321 0.00831751
0.0026029046 -0.033948172 0.073501006 0.15417741 -0.10364367 0.04303731 -0.06752879 0.06737
0.014475882 -0.047015075 0.06626277 0.16726333 0.0853985 -0.14664851 0.10664361 0.14605983
0.024389727 -0.09098743 0.108119726 -0.115102515 0.145766 0.23050146 0.035742894 -0.21364675
-0.057189606 -0.004554654 -0.14774531 -0.13598888 0.03575374 -0.034979597 0.12027484 -0.10397804
-0.1400347 -0.0060375333 0.16896191 0.013442987 0.0575 -0.008619444 0.097554624 0.011828754
-0.080372535 -0.15920353 -0.02576691 0.113649614 -0.12713437 0.12010457 0.084202796 -0.12392105
0.10336 -0.038539503 -0.01789651 -0.17228642 -0.10289737 -0.061313927 0.14361687 -0.14378421
0.017242063 0.019805318 0.01788418 0.008940205 -0.11585174 0.080480754 0.0035705054 -0.045710094
-0.12604995 0.039806724 -0.104682595 -0.00426058 0.12185192 -0.100522324 -0.10973685 0.07602822
0.15640657 0.07639253 0.1578184 0.073506065 -0.024554843 0.2395785 0.18607901 -0.09066275
0.11595676 0.32759434 0.11609093 0.28697887 0.027171552 0.14095832 0.09100905 0.02308466
0.021964638 -0.04823119 -0.10364966 0.0864912 -0.16107912 -0.22135754 -0.033796817 0.12469339
-0.10038273 -0.15425159 0.082325555 -0.15809183 -0.0088106105 -0.06875014 0.04151489 -0.03917619
0.034282032 0.011589792 0.10610831 -0.03130913 -0.039272677 -0.1047383 0.14764608 -0.15225686
0.106673814 0.036691736 0.092993185 -0.045150377 -0.013818749 -0.17988913 0.025378311 -0.08024734
0.04595841 0.15507883 0.19069728 -0.00549431 0.095854364 0.21152657 -0.21774565 -0.127355
0.04483969 -0.28539658 0.03740621 0.1082466 -0.18321152 0.022770757 -0.14002013 -0.052666843
-0.08610099 0.03378014 -0.060518216 -0.07305832 -0.15912849 -0.031448837 0.022262093 -0.046554234
0.15090126 0.019076502 0.19356668 0.008216232 -0.030898575 -0.0962196 -0.12714255 -0.05311096
-0.083410725 0.029712895 -0.15453698 0.009254801 0.01975293 0.1434626 0.032777853 -0.027285678
0.19858451 -0.11441019 -0.15775965 0.18533692 -0.18887025 -0.17307411 -0.0802791 0.14155822
-0.1176331 -0.08474306 0.17352425 0.12799437 -0.18559365 -0.06920459 -0.13705552 -0.15059845
-0.12336422 0.12337699 0.125181 0.00015763893 0.010435919 0.13803202 0.08330026 -0.18281832
0.04055587 0.059696965 0.04509138 0.17696051 -0.14973034 -0.04495702 0.08819147 -0.1619244
0.056459907 0.06534779 -0.031718485 0.12284487 0.15910153 -0.11520305 0.15796304 0.09628493
0.14064007 0.015970014 -0.123747006 0.027071271 -0.17378739 0.11507526 0.027328359 -0.036282644
0.0443068 -0.18936454 0.21380183 0.24009933 0.118448846 -0.053516984 -0.097353674 -0.1040228
0.18371888 0.1541868 0.22196653 -0.14587957 0.09078247 -0.18033272 0.09888005 0.15113118
-0.011101105 0.16451362 0.075745024 -0.14394961 0.13114804 -0.12161378 0.034094807 -0.016488561
00000000: 2a01 aebd fb54 b4bd f4ad 373e ccb8 d7bd
00000010: 8e12 143e 01e0 fe3d daa1 0e3c 5376 11be
00000020: 2708 2e3e 62db 2cbd bbfa 043b 5420 543b
00000030: c196 d53d de0e d0bd 2690 883c 4b0a 0b3e
00000040: 975f c1bd b7bf a23d 13fb 323c 2c4b 9b3d
00000050: 7f63 443e 1e9f 543e ebdb f83d 2a46 083c
00000060: 7e95 2a3b 3d0d 0bbd b287 963d afe0 1d3e
00000070: 2243 d4bd e447 303d 894c 8abd 48f9 893d
00000080: 402c 6d3c e192 40bd c6b4 873d 1447 2b3e
00000090: 69e5 ae3d 072b 16be f767 da3d b590 153e
000000a0: f7cc c73c 9e57 babd e06d dd3d deba ebbd
000000b0: af43 153e 9308 6c3e 2467 123d 37c6 5abe
000000c0: a63f 6abd 353f 95bb 8c4a 17be ab40 0bbe
000000d0: 8472 123d c446 0fbd a852 f63d 70f2 d4bd
000000e0: 4265 0fbe 80d6 c5bb 5a04 2d3e f93f 5c3c
000000f0: 1f85 6b3d 9238 0dbc b8ca c73d 64cd 413c
00000100: 5b9a a4bd 4006 23be 2015 d3bc 21c1 e83d
00000110: 832f 02be 63f9 f53d 8472 ac3d 52ca fdbd
00000120: 68ae d33d 99db 1dbd b49b 92bc da6b 30be
00000130: dbbb d2bd 5024 7bbd 4d10 133e 2b3c 13be
00000140: 3a3f 8d3c c33e a23c d881 923c f079 123c
00000150: ad43 edbd 18d3 a43d 24ff 693b 823a 3bbd
00000160: 3d13 01be 600c 233d d463 d6bd 569c 8bbb
00000170: 808d f93d a6de cdbd b7bd e0bd afb4 9b3d
00000180: 0b29 203e b073 9c3d 269b 213e 598a 963d
00000190: 3d27 c9bc 1154 753e 7f8b 3e3e 64ad b9bd
000001a0: bd7a ed3d 72ba a73e 15c1 ed3d e5ee 923e
000001b0: e096 de3c 6157 103e f462 ba3d 0a1c bd3c
000001c0: 2fef b33c 118e 45bd 4646 d4bd 4c22 b13d
000001d0: edf1 24be 8dab 62be 886e 0abd 405f ff3d
000001e0: 7695 cdbd 21f4 1dbe 4d9a a83d d3e2 21be
000001f0: 615a 10bc e0cc 8cbd 840b 2a3d 3677 20bd
00000200: 516b 0c3d 1ce3 3d3c 504f d93d 013e 00bd
00000210: 63dc 20bd 0981 d6bd 8930 173e 39e9 1bbe
00000220: cd77 da3d 134a 163d 3673 be3d 9aef 38bd
00000230: 0968 62bc db34 38be 2de6 cf3c b858 a4bd
00000240: e33e 3c3d fccc 1e3e 2646 433e 9d09 b4bb
00000250: 4b4f c43d 6c9a 583e b7f8 5ebe 5969 02be
00000260: d3a9 373d 801f 92be 4137 193d 65b0 dd3d
00000270: cd9b 3bbe bd89 ba3c 7061 0fbe 30b9 57bd
00000280: b755 b0bd 0b5d 0a3d f3e1 77bd 9a9f 95bd
00000290: 94f2 22be 7fd0 00bd fe5e b63c a7af 3ebd
000002a0: dc85 1a3e 5346 9c3c 5836 463e 609d 063c
000002b0: 021f fdbc c80e c5bd a831 02be e18a 59bd
000002c0: 3ed3 aabd 7568 f33c f13e 1ebe 73a1 173c
000002d0: e6d0 a13c dce7 123e 1242 063d 3786 dfbc
000002e0: bd59 4b3e e44f eabd bf8b 21be f6c8 3d3e
000002f0: 3467 41be 573a 31be 5e69 a4bd a3f4 103e
00000300: 9fe9 f0bd c58d adbd 57b0 313e f510 033e
00000310: 430c 3ebe 23bb 8dbd 4858 0cbe 7b36 1abe
00000320: 61a6 fcbd 13ad fc3d 732f 003e e14b 2539
00000330: 6bfb 2a3c 4458 0d3e 5499 aa3d ba34 3bbe
00000340: e91d 263d ce84 743d bdb1 383d 2335 353e
00000350: e952 19be da24 38bd bb9d b43d 83cf 25be
00000360: 8142 673d 10d5 853d 3eeb 01bd 1796 fb3d
00000370: 83eb 223e 94ef ebbd 10c1 213e 0931 c53d
00000380: f303 103e 8cd3 823c 126f fdbd 92c4 dd3c
00000390: 52f5 31be 94ac eb3d b9df df3c 1c9d 14bd
000003a0: 0c7b 353d c7e8 41be deee 5a3e 99dc 753e
000003b0: 4f95 f23d a034 5bbd 5d61 c7bd e809 d5bd
000003c0: cd20 3c3e 25e3 1d3e 324b 633e 7461 15be
000003d0: 29ec b93d 24a9 38be a081 ca3d 22c2 1a3e
000003e0: 69e1 35bc 4276 283e 3520 9b3d 8767 13be
000003f0: ac4b 063e a510 f9bd ffa6 0b3d 0513 87bc

inconv.0.bias f4 [16]
-0.011619508 -0.004287957 0.27070662 -0.007861559 0.34189573 0.39178097 0.3914297 0.32549387
-0.016129019 0.34732014 0.0013956017 -0.008119863 0.24706797 0.2978185 0.10509221 -0.030359859
00000000: c05f 3ebc fe81 8cbb 0f9a 8a3e c5cd 00bc
00000010: f50c af3e 8497 c83e 7969 c83e 22a7 a63e
00000020: 0121 84bc f2d3 b13e 9fec b63a 2d09 05bc
00000030: 63ff 7c3e ab7b 983e 963a d73d 3db5 f8bc

convs.0.weight f4 [16, 16, 3, 3]
-0.11787329 -0.07889838 0.056674507 -0.03159957 -0.09012924 0.057779815 0.02758402 0.009124869
0.056382373 -0.11677622 -0.046714365 0.08782648 -0.060261108 -0.077394545 0.04062639 -0.030485444
0.0023711885 0.08431146 0.19754767 0.11496713 0.09267716 0.057162706 0.005633404 0.15557551
0.014483113 -0.042832635 0.07464886 -0.043253466 -0.049734592 -0.045170564 -0.016354267 -0.03177601
-0.03352686 -0.097892866 -0.05976404 -0.10588778 0.30201557 0.19197509 0.3570001 0.11371114
0.09055802 -0.007761167 0.0067657223 0.108984835 -0.09807518 -0.05377382 0.024857009 -0.004617606
-0.055828694 0.11688317 -0.012371197 -0.032098584 -0.010098499 0.030444682 -0.12177987 -0.20466575
-0.01943541 -0.006632703 -0.027508982 0.031060547 0.24588351 0.39448187 0.2737907 -0.005824606
0.0463623 -0.005086835 -0.044759966 0.0070895315 0.21208166 0.004340498 0.18506055 -0.080568306
0.06863953 0.11057861 -0.008981576 0.07379937 0.07820111 0.09063766 0.050933033 -0.0439465
0.13288316 -0.037778925 -0.20856608 -0.0835548 0.06402419 0.07882961 -0.23073575 0.37198493
-0.010837653 -0.03834194 -0.06756956 -0.06516387 -0.07105568 -0.052978817 -0.12039896 -0.17182994
-0.05241947 0.0093396725 -0.008464308 0.23642245 0.22480641 0.3171758 0.3406646 0.051121157
0.24782443 0.29865852 0.15330851 0.29219753 0.08131089 0.024350602 -0.056745186 0.07853541
0.0019285076 -0.00025344425 0.09897942 0.09166682 0.06685718 -0.3841372 -0.41921964 -0.37371373
-0.40183333 -0.651183 -0.42888933 -0.42496353 -0.36801216 -0.33169407 0.052350078 0.015275328
0.3327907 -0.0662154 0.054339107 0.3318204 0.10468435 0.0839904 0.1345037 0.030449515
-0.051858116 0.03186061 0.063482605 0.043668468 -0.02436873 0.07677738 -0.0028636062 0.020946871
-0.3702299 -0.19785833 -0.2886495 -0.26467904 -0.09904057 -0.22173521 -0.14837965 -0.25069997
-0.3435643 -0.26857024 -0.19450642 -0.18911308 -0.29662055 -0.45071998 -0.21866304 -0.013110128
-0.12395266 -0.22960368 0.13034673 0.10638906 0.34636152 0.06310755 0.22392927 0.1598089
-0.097493865 0.026679862 0.19745609 -0.098724894 -0.34677067 -0.38659436 -0.32709864 -0.5354996
-0.6008199 -0.24108028 -0.40304875 -0.64391613 0.37308076 0.12425896 -0.009064043 0.21725594
-0.029692503 0.036636196 0.2642841 0.1862231 0.1948483 -0.112908565 0.03629284 -0.034618508
0.100390375 -0.037938055 -0.030247044 0.14837776 0.04635248 -0.04717713 0.0677255 0.31356162
0.22241938 -0.0054575014 0.21768658 0.01695136 0.074298084 0.11531399 0.13864312 0.35280168
0.28962526 0.07975343 0.2698992 0.30975375 0.10342467 0.012363696 0.16395119 0.066180944
-0.46847817 -0.19008973 -0.21143249 -0.5035678 -0.17117567 -0.3725136 -0.5253133 -0.06950357
-0.12938079 0.12161055 0.139159 0.24627927 0.11347236 0.23893268 0.37545148 -0.09880901
0.09993841 0.30692267 -0.26492137 -0.2682593 -0.4137391 -0.20588644 -0.13006467 -0.17839807
-0.39153767 -0.051542047 -0.12525472 0.071059026 0.23128495 0.23029299 0.110051274 0.16680183
0.16399935 -0.18092105 -0.13153349 -0.010593298 -0.18438601 0.054967552 -0.015684148 0.102411225
00000000: 8d67 f1bd 7995 a1bd 8723 683d 8d6e 01bd
00000010: ae95 b8bd 87aa 6c3d e2f7 e13c 7980 153c
00000020: 34f1 663d 5f28 efbd 9057 3fbd 5fde b33d
00000030: 5ad4 76bd 0881 9ebd dc67 263d 9cbc f9bc
00000040: f165 1b3b 7dab ac3d f049 4a3e e373 eb3d
00000050: 86cd bd3d 7123 6a3d 6b98 b83b 304f 1f3e
00000060: 944a 6d3c 4671 2fbd 80e1 983d 8c2a 31bd
00000070: 80b6 4bbd c504 39bd 62f9 85bc 9027 02bd
00000080: 7653 09bd 0e7c c8bd 23cb 74bd b1db d8bd
00000090: c9a1 9a3e 1e95 443e b8c8 b63e 63e1 e83d
000000a0: 7c76 b93d 6351 febb feb2 dd3b 7133 df3d
000000b0: a4db c8bd f041 5cbd eda0 cb3c 494f 97bb
000000c0: a1ac 64bd 7260 ef3d 90b0 4abc ce79 03bd
000000d0: 2d74 25bc 2067 f93c b967 f9bd e693 51be
000000e0: 0237 9fbc 2557 d9bb 845a e1bc b072 fe3c
000000f0: e3c8 7b3e 87f9 c93e 4b2e 8c3e 56dc bebb
00000100: 65e6 3d3d 77af a6bb 3a56 37bd 4d4f e83b
00000110: ef2b 593e bc3a 8e3b 8380 3d3e ff00 a5bd
00000120: e292 8c3d 0a77 e23d 7627 13bc 2024 973d
00000130: e727 a03d 3da0 b93d 289f 503d 3f01 34bd
00000140: 8612 083e 13be 1abd 5992 55be c71e abbd
00000150: 1d1f 833d 6b71 a13d fe45 6cbe cf74 be3e
00000160: 6990 31bc 700c 1dbd e961 8abd a374 85bd
00000170: a485 91bd 5100 59bd bb93 f6bd 30f4 2fbe
00000180: ccb5 56bd 6d05 193c e2ad 0abc ba18 723e
00000190: a733 663e de64 a23e 976b ae3e 6b64 513d
000001a0: b0c5 7d3e c5e9 983e e8fc 1c3e ea9a 953e
000001b0: 5386 a63d ea7a c73c a46d 68bd 2cd7 a03d
000001c0: fac5 fc3a b6e0 84b9 b9b5 ca3d d0bb bb3d
000001d0: 6bec 883d a2ad c4be f5a3 d6be 6857 bfbe
000001e0: 19bd cdbe eeb3 26bf 6297 dbbe d294 d9be
000001f0: 176c bcbe ced3 a9be 096d 563d 5f45 7a3c
00000200: 8b63 aa3e f19b 87bd af92 5e3d 5de4 a93e
00000210: c064 d63d 2903 ac3d 57bb 093e 4371 f93c
00000220: 2d69 54bd 4580 023d 2b03 823d b5dd 323d
00000230: eea0 c7bc 763d 9d3d 57ab 3bbb c698 ab3c
00000240: c68e bdbe 609b 4abe dec9 93be 0384 87be
00000250: c8d5 cabd 8e0e 63be d6f0 17be bf5b 80be
00000260: a9e7 afbe 0a82 89be b12c 47be dca6 41be
00000270: a6de 97be c5c4 e6be 34e9 5fbe ddcb 56bc
00000280: e4da fdbd 3a1d 6bbe 9d79 053e 82e2 d93d
00000290: 4c56 b13e 883e 813d b74d 653e f2a4 233e
000002a0: ddaa c7bd ba8f da3c ee31 4a3e 4730 cabd
000002b0: ed8b b1be b2ef c5be 7979 a7be 8016 09bf
000002c0: 55cf 19bf c0dd 76be 685c cebe b0d7 24bf
000002d0: 7104 bf3e 7b7b fe3d 5a81 14bc 5778 5e3e
000002e0: b13d f3bc d60f 163d 3f50 873e 45b1 3e3e
000002f0: 5086 473e 9b3c e7bd cda7 143d 23cc 0dbd
00000300: 7899 cd3d ef64 1bbd a6c8 f7bc 57f0 173e
00000310: 19dc 3d3d ce3c 41bd abb3 8a3d 268b a03e
00000320: e8c1 633e d7d4 b2bb 3be9 5e3e 94dd 8a3c
00000330: 9829 983d be29 ec3d 76f8 0d3e 6ca2 b43e
00000340: c349 943e c455 a33d 3a30 8a3e 0b98 9e3e
00000350: 50d0 d33d 1991 4a3c d2e2 273e e089 873d
00000360: 5fdc efbe e2a6 42be c281 58be d2e9 00bf
00000370: ad48 2fbe 1aba bebe ef7a 06bf e357 8ebd
00000380: 667c 04be f40e f93d b27f 0e3e a230 7c3e
00000390: 3264 e83d c5aa 743e 2d3b c03e 615c cabd
000003a0: 82ac cc3d f824 9d3e c6a3 87be 4859 89be
000003b0: 9cd5 d3be e5d3 52be ac2f 05be fcad 36be
000003c0: a077 c8be c11d 53bd c642 00be 6587 913d
000003d0: f6d5 6c3e edd1 6b3e 9062 e13d 19ce 2a3e
000003e0: 72ef 273e 5e43 39be b7b0 06be 838f 2dbc
000003f0: b0cf 3cbe a825 613d 0b7c 80bc fabc d13d

convs.0.bias f4 [16]
-0.06509278 0.005170533 -0.15336783 0.31535995 0.2554402 -0.108626164 -0.07126842 0.1807454
0.038406618 0.20784499 0.031177524 -0.036304247 -0.027747156 0.30418167 -0.11349523 -0.09238823
00000000: 5d4f 85bd 936d a93b 750c 1dbe dc76 a13e
00000010: 0fc9 823e 6577 debd 2df5 91bd 5215 393e
00000020: 4250 1d3d 51d5 543e 0268 ff3c c3b3 14bd
00000030: 014e e3bc b3bd 9b3e 3070 e8bd 0a36 bdbd

outconv.0.weight f4 [3, 16, 1, 1]
0.25531483 -0.055299807 0.15252483 -0.382356 -0.03119123 -0.040248383 -0.110021375 -0.030240972
0.044216458 -0.22415757 0.13160488 0.17693783 0.0090450505 0.07131007 -0.09668 0.1700882
-0.116338566 -0.16249628 0.31028843 -0.19332509 -0.2254572 0.07301006 0.0032771053 0.008173697
-0.07844493 0.046515055 0.24493837 0.09761922 0.0846716 -0.23401734 0.13958478 0.051575508
0.0009619438 -0.2615684 -0.056702446 0.11175193 -0.043030284 -0.15137099 -0.14200175 -0.32363096
0.21595085 -0.29029903 0.19863822 -0.10774693 -0.062092334 -0.100211546 0.16432582 0.23935638
00000000: a0b8 823e 0d82 62bd 782f 1c3e 2ac4 c3be
00000010: c084 ffbc 7ddb 24bd e352 e1bd eabb f7bc
00000020: 511c 353d 9089 65be 6ec3 063e 312f 353e
00000030: b131 143c 040b 923d 2a00 c6bd 9a2b 2e3e
00000040: ea42 eebd 6d65 26be 20de 9e3e 03f7 45be
00000050: 41de 66be 4c86 953d b4c4 563b f8ea 053c
00000060: bca7 a0bd 9286 3e3d 20d1 7a3e 96ec c73d
00000070: 4e68 ad3d 3ea2 6fbe 50ef 0e3e d740 533d
00000080: f52a 7c3a 4bec 85be d340 68bd 32de e43d
00000090: 8640 30bd ff00 1bbe e868 11be f5b2 a5be
000000a0: 3822 5d3e 13a2 94be d167 4b3e 6caa dcbd
000000b0: 8854 7ebd b63b cdbd 0745 283e d719 753e

outconv.0.bias f4 [3]
-0.4420898 -0.2686319 -0.053373545
00000000: 9859 e2be 1f8a 89be 389e 5abd
