save/200_SCI_model_EN.pth (torch, 62581 bytes, 15 tensors)

in_conv.0.weight f4 [16, 3, 3, 3]
0	0x3e0c7d06	0.13719568
1	0xbe1db5f3	-0.1540144
2	0x3e094a69	0.13407291
3	0xbe110351	-0.14161421
4	0xbd9e7dc6	-0.07738833
5	0xbe344e89	-0.17608084
6	0xbe2333fa	-0.15937796
7	0xbdb0fcd6	-0.08641975
8	0xbe063bd6	-0.13108763
9	0x3dc7566a	0.09733279
10	0xbe10906c	-0.14117593
11	0xbe042ef5	-0.12908538
12	0xbd32664f	-0.0435546
13	0x3d37fc99	0.04491863
14	0x3dcef9f6	0.1010627
15	0x3da79daf	0.08184373
16	0x3e0173d7	0.12641846
17	0x3e2185f7	0.1577376
18	0x3d5049c3	0.050851595
19	0xbe40000e	-0.18750021
20	0xbe079aff	-0.1324272
21	0xbc268c8c	-0.010165345
22	0xbdf03008	-0.11727911
23	0xbd77a4b7	-0.06045982
24	0x3e4245e9	0.18971981
25	0x3e4122e0	0.1886096
26	0xbe2e0252	-0.16993073
27	0xbda88300	-0.08228111
28	0xbaa512f6	-0.0012594152
29	0xbe1768e7	-0.14786111
30	0x3ccd6b84	0.025075682
31	0xbdfeac4e	-0.12435208
32	0x3e15b2f1	0.14619042
33	0xbc2dc412	-0.010605829
34	0x3e00422e	0.12525246
35	0xbc7045be	-0.014665065
36	0xbce19da4	-0.02754099
37	0xbe1da200	-0.1539383
38	0xbd4f8962	-0.050668128
39	0xbd1d97f0	-0.038474977
40	0x3de8f1c1	0.11374236
41	0x3de8b65e	0.11362909
42	0xbd649781	-0.055808548
43	0xbe0b20a1	-0.13586666
44	0x3d2f4ce8	0.042797953
45	0xbe38258d	-0.17983074
46	0x3dc7feb6	0.09765379
47	0xbdb10066	-0.08642654
48	0x3dceec40	0.10103655
49	0x3db0427c	0.08606431
50	0x3d6bca67	0.057566073
51	0x3dbfcff7	0.09365838
52	0xbe22746e	-0.15864727
53	0xbc583ef1	-0.0131986
54	0xbdc9bbca	-0.09850271
55	0x3a8aea78	0.0010598442
56	0x3e18720c	0.14887255
57	0xbe114642	-0.14186957
58	0xbde94aa1	-0.113911875
59	0x3e1e873d	0.15481277
60	0x3e1123f4	0.14173871
61	0x3e354f83	0.17706113
62	0x3df1792f	0.11790692
63	0xbd525e02	-0.051359184
64	0xbcdb6b15	-0.02678446
65	0xbe0d412b	-0.13794391
66	0x3da1197a	0.078661874
67	0xbe31ce71	-0.17363907
68	0xbcf07a86	-0.029355299
69	0x3abe8b2c	0.0014537326
70	0x3e3120e0	0.17297697
71	0x3d8753d5	0.066077866
72	0x3d7d11c6	0.06178453
73	0x3c754b37	0.014971546
74	0xbe1bc928	-0.15213454
75	0x3e43c892	0.1911948
76	0xbe097b3b	-0.13425915
77	0x3da177c1	0.07884169
78	0xbdf40c1c	-0.11916372
79	0xbbbb6bbb	-0.0057196296
80	0x3abe1878	0.0014503142
81	0xbde93c69	-0.113884754
82	0xbe4468b5	-0.19180568
83	0x3e2bafb9	0.16766252
84	0x3df781fb	0.12085339
85	0x3e38b301	0.18037035
86	0xbc8cfb46	-0.01720966
87	0xbddda055	-0.108215965
88	0x3df9ebb8	0.12203163
89	0x3da784a4	0.08179596
90	0xbe035caa	-0.12828317
91	0xbd350119	-0.0441905
92	0xbe0e062a	-0.13869539
93	0xbc242b0f	-0.010020032
94	0x3bd73f14	0.006568799
95	0xbd81e966	-0.06343345
96	0x3c964bbb	0.018346658
97	0x3d8875ea	0.06663115
98	0xbc2e82e2	-0.010651322
99	0x3e3947f7	0.18093859
100	0xbda20534	-0.07911149
101	0xbd903c8f	-0.07042801
102	0xbd05daad	-0.03267925
103	0xbe0eea71	-0.1395662
104	0x3e3d61ae	0.18494293
105	0xbc9068f1	-0.017628165
106	0x3ccda57e	0.025103327
107	0x3e2634e6	0.16231117
108	0x3d9fcad5	0.07802359
109	0xbc1f091b	-0.009706761
110	0x3e348635	0.17629321
111	0xbd3846cf	-0.044989403
112	0x3d90952e	0.07059704
113	0x3e23f644	0.16011912
114	0xbdd8c288	-0.10583979
115	0xbe3b50f5	-0.18292601
116	0x3cebc567	0.028780652
117	0x3e444021	0.19165088
118	0x3e4482e6	0.19190559
119	0x3d0a628d	0.03378539
120	0x3e168206	0.14698038
121	0xbe2f68cb	-0.17129819
122	0xbd047745	-0.032340307
123	0x3ca5cd72	0.020239566
124	0x3ce41941	0.027844073
125	0x3d45b911	0.048272196
126	0xbe0af3e7	-0.13569604
127	0xbdfd81be	-0.12378262
128	0x3cd8e47f	0.026476143
129	0xbdceb4f8	-0.10093111
130	0x3e2d3520	0.16914797
131	0x3e221709	0.158291
132	0xbe0943f1	-0.13404824
133	0x3e0446b0	0.1291759
134	0x3e19ec4b	0.15031545
135	0xbe114e67	-0.14190064
136	0xbe0353e6	-0.12824973
137	0xbe35309c	-0.17694324
138	0x3e083611	0.13301875
139	0xbe106650	-0.14101529
140	0xbe28ad6c	-0.16472405
141	0x3cf7fdad	0.03027233
142	0x3cd61428	0.026132658
143	0xbe323e7e	-0.17406651
144	0x3d60ff4d	0.054930974
145	0x3c5764fe	0.013146637
146	0xbdb13e92	-0.086545125
147	0x3e3dbefb	0.18529885
148	0x3c949adc	0.018140249
149	0x3e37acf4	0.1793707
150	0x3e21ada8	0.15788901
151	0x3de1e912	0.11030783
152	0xbc562602	-0.013070585
153	0x3d73835f	0.059451457
154	0xbd4b6a72	-0.04966206
155	0xbd95e49a	-0.07318993
156	0x3e42af25	0.19012125
157	0x3d33214c	0.043732926
158	0x3dc8fa86	0.098134086
159	0x3dc0207e	0.093811974
160	0x3cdd6829	0.027027206
161	0x3e39376d	0.1808755
162	0xbdfc8499	-0.123299785
163	0x3d3a9436	0.0455515
164	0xbd5445f1	-0.051824514
165	0xbd256990	-0.040383875
166	0xbddf9cb6	-0.10918562
167	0x3c0976f1	0.008390174
168	0xbcbd8000	-0.023132324
169	0x3d893072	0.06698693
170	0xbd14c732	-0.03632278
171	0x3e3fca6c	0.18729562
172	0x3d6db57d	0.05803441
173	0x3d8f6e53	0.070034645
174	0x3d7d8f6b	0.061904352
175	0x3e295aaa	0.16538492
176	0x3ce49961	0.027905168
177	0xbe199846	-0.14999494
178	0x3e312215	0.17298158
179	0xbd257e8a	-0.04040388
180	0x3e1dd114	0.15411788
181	0x3de9ccb9	0.11416001
182	0xbd817183	-0.06320479
183	0x3e18cb52	0.1492131
184	0x3d35dd24	0.04440035
185	0xbdae281e	-0.085037455
186	0xbddeee32	-0.10885276
187	0xbbfd443e	-0.0077290824
188	0xbd4282fe	-0.047488205
189	0xbe23f7d6	-0.1601251
190	0x3cad5896	0.021160405
191	0xbe2cfe0a	-0.16893783
192	0x3cd1043f	0.02551472
193	0xbd59753e	-0.053090326
194	0x3d86922e	0.0657085
195	0xbcbeabbe	-0.023275252
196	0xbda28034	-0.07934609
197	0x3e3c341a	0.1837925
198	0x3e28269e	0.16420981
199	0xbe1b7236	-0.15180287
200	0xbe07e512	-0.13270977
201	0x3e312ce1	0.17302276
202	0x3e157ca2	0.14598325
203	0xbd9d9bb4	-0.07695714
204	0xbd7ff357	-0.062487926
205	0xbe3467a2	-0.17617658
206	0xbe27ac04	-0.16374213
207	0x3d6c9efd	0.05776881
208	0xbdf3b1e9	-0.11899168
209	0xbd6b33c4	-0.057422414
210	0xbc8cafb0	-0.017173618
211	0x3dc759c5	0.09733919
212	0x3e21ee66	0.15813598
213	0x3d5f5a95	0.054529745
214	0x3e0e7091	0.13910128
215	0xbb6252a4	-0.003453412
216	0xbe25bdc1	-0.16185667
217	0x3cd0f9c2	0.025509719
218	0xbdc85084	-0.09780982
219	0xbd309b5d	-0.043116916
220	0x3b09a161	0.002100073
221	0xbdea1ec8	-0.11431652
222	0xbce1a821	-0.02754599
223	0x3d63e532	0.0556385
224	0xbd6147b0	-0.055000007
225	0xbd328884	-0.043587223
226	0xbe068f32	-0.13140562
227	0x3df4f661	0.119610555
228	0xbe0cfebe	-0.13769051
229	0xbb8e2a3d	-0.0043385313
230	0xbcbe5df2	-0.023238156
231	0xbe1b96cd	-0.15194245
232	0x3a805c78	0.0009793183
233	0x3d5dd88d	0.054161597
234	0xbc7a1177	-0.015262953
235	0xbda54dd4	-0.08071485
236	0xbb821e08	-0.003970865
237	0x3d215710	0.03938967
238	0x3d5a83bc	0.053348288
239	0xbd1a03bb	-0.037601214
240	0xbd8fa63e	-0.0701413
241	0xbdc490a6	-0.09597902
242	0x3d6a7c3d	0.05724739
243	0x3c61b8f8	0.01377701
244	0xbe13f60a	-0.14449325
245	0x3df4ab37	0.11946719
246	0xbdd4b4d7	-0.10386055
247	0x3e3fc278	0.18726528
248	0xbd1a107b	-0.037613373
249	0x3e00f4dd	0.12593408
250	0x3e05ca26	0.13065395
251	0xbe0d489e	-0.13797233
252	0xbdfabc3a	-0.122429326
253	0x3e1f6e2e	0.15569374
254	0xbaf55a52	-0.0018718934
255	0xbc8d3fbc	-0.017242305

in_conv.0.bias f4 [16]
0	0x3e11015b	0.14160673
1	0x3dfced10	0.123499036
2	0x3e010746	0.12600431
3	0xbe2ef6a0	-0.17086267
4	0x3e152cd7	0.14567886
5	0xbd00ac7b	-0.03141449
6	0x3e1c8754	0.15285999
7	0xbdebe092	-0.11517443
8	0x3dcb3676	0.09922497
9	0x3e0afc26	0.1357275
10	0xbe432a7b	-0.19059174
11	0xbd333b78	-0.043757886
12	0xbcf963bb	-0.030443063
13	0xbdef38ed	-0.116807796
14	0x3da9f6e9	0.082990475
15	0xbc9e3aa8	-0.019315079

convs.0.0.weight f4 [16, 16, 3, 3]
0	0xbc802570	-0.015642852
1	0xbd85d0df	-0.065339796
2	0x3d9c4a62	0.07631375
3	0xbd117f30	-0.035521686
4	0xbc2b2880	-0.010446668
5	0xbd3bdb26	-0.045863293
6	0xbd02f8be	-0.0319755
7	0x3d2797c8	0.040916234
8	0x3d8d65fb	0.06904217
9	0xbda81c2c	-0.08208498
10	0x3ce88946	0.02838577
11	0x3ca4a4a0	0.02009803
12	0xbd953c8e	-0.072869405
13	0xbcdc7b80	-0.026914358
14	0xbd82e692	-0.06391634
15	0x3d46dfa0	0.04855311
16	0xbd9cf7cc	-0.07664451
17	0xbd6f6960	-0.058450103
18	0xbd7b50d3	-0.061356377
19	0xbcfd274b	-0.030902525
20	0xbda1c1fc	-0.07898328
21	0x3da7fe28	0.08202773
22	0xbc4f1e80	-0.012641549
23	0x3c7e562b	0.015523474
24	0xbd49db73	-0.04928155
25	0x3d95cb1e	0.07314132
26	0x3d09caa6	0.033640526
27	0xbd19d24b	-0.037554067
28	0xbd95569b	-0.07291909
29	0xbc96e086	-0.018417608
30	0xbcfa3d26	-0.030546736
31	0x3d498246	0.049196504
32	0x3d1a8de3	0.03773297
33	0x3d259a5b	0.040430408
34	0x3d83acb3	0.06429424
35	0xbd41bf78	-0.04730174
36	0xbca9ad7b	-0.020712605
37	0x3d7ada76	0.061243497
38	0xbd8a28eb	-0.06746086
39	0x3d49c9db	0.04926477
40	0xbc00b916	-0.007856628
41	0xbd6e25f3	-0.05814166
42	0x3cc3d100	0.02390337
43	0xbd1eda2b	-0.03878228
44	0xbccbd240	-0.024880528
45	0x3d76e9ce	0.060281567
46	0xbd2520b8	-0.040314406
47	0xbc3c24ab	-0.011483352
48	0x3cf3d6bb	0.029765477
49	0xbcf04a16	-0.029332202
50	0xbd3af44b	-0.045643132
51	0x3d4d882b	0.050178688
52	0x3d999dfa	0.07500835
53	0x3c09d18b	0.008411775
54	0x3ca19136	0.019722562
55	0x3c8e5c06	0.017377865
56	0x3d781263	0.06056441
57	0xbd7ade23	-0.061247002
58	0xbda17cbc	-0.07885119
59	0x3cc95ad0	0.024579436
60	0x3ba9ae00	0.005178213
61	0x3d1bc150	0.038026154
62	0x3d92c7ee	0.0716704
63	0x3d64b11e	0.055832975
64	0xbcbc3c60	-0.022978008
65	0xbd61acde	-0.0550965
66	0x3d3e6950	0.046487153
67	0xbcabdae0	-0.020978391
68	0x3d5ab5c6	0.05339601
69	0xbc33bfb6	-0.010971
70	0x3d593946	0.053033136
71	0xbcea517b	-0.028603306
72	0xbd9f1068	-0.07766801
73	0x3ce2b3a0	0.027673542
74	0x3d233a9b	0.039850812
75	0xbda4da57	-0.080494575
76	0x3cb85846	0.02250303
77	0x3c86e2ab	0.016465506
78	0xbd6ff903	-0.058587085
79	0xb8c02556	-9.162228e-05
80	0xbd2ec51e	-0.042668454
81	0xbc61ae36	-0.013774445
82	0x3cd79080	0.02631402
83	0x3da1618f	0.07879936
84	0x3d4abc30	0.049495876
85	0xbd3e769e	-0.04649984
86	0x3cde3476	0.027124625
87	0x3a997800	0.0011708736
88	0x3cf93f5b	0.030425718
89	0xbd39f638	-0.045400828
90	0x3c6d4ac0	0.014483154
91	0x3d54666b	0.051855486
92	0x3c9502f0	0.018189877
93	0xbda3be47	-0.07995277
94	0xbd6222d8	-0.05520901
95	0xbd63de18	-0.055631727
96	0xbcbfab20	-0.023397028
97	0xbc9dd480	-0.019266367
98	0x3b2fefab	0.0026845734
99	0xbd3ae558	-0.045628875
100	0xbd9c06f0	-0.07618511
101	0xbacd8000	-0.0015678406
102	0x3d633846	0.05547359
103	0x3d899b90	0.06719124
104	0x3d796750	0.060889542
105	0xbcef0c8b	-0.029180786
106	0x3da0b526	0.07847051
107	0xbd86a6ee	-0.06574808
108	0x3d8b9874	0.068161875
109	0xbd853418	-0.06504077
110	0x3d0e6458	0.034763664
111	0x3d4ddabe	0.050257437
112	0xbda2b0d6	-0.07943885
113	0xbd7ec6a0	-0.062201142
114	0xbd4eaca8	-0.050457627
115	0x3d45e343	0.048312437
116	0x3ccf70eb	0.025322398
117	0x3d539cc8	0.05166319
118	0xbd27b213	-0.04094131
119	0xbd97720f	-0.07394802
120	0x3c4ef740	0.012632191
121	0x3b96abab	0.004598101
122	0xbcf5b8b6	-0.029995304
123	0xbcaf1900	-0.021374226
124	0x3d216e6e	0.039411955
125	0xbba3fc56	-0.005004446
126	0xbd1fed3e	-0.03904461
127	0xbdaa5904	-0.0831776
128	0xbd8f07b8	-0.06983894
129	0x3d2b7cbe	0.04186701
130	0x3c19e0b6	0.009391954
131	0x3da0bc50	0.07848418
132	0xbbfdd700	-0.0077465773
133	0x3bc1b52b	0.0059114895
134	0xbd0c808b	-0.034302276
135	0x3c928946	0.017887723
136	0x3d9166b8	0.0709967
137	0xbca9a420	-0.020708144
138	0xbd00b1ab	-0.031419437
139	0xba8fbc00	-0.0010966063
140	0x3cdaf410	0.026727706
141	0x3d9fe5e8	0.07807523
142	0xbc8ac0e6	-0.016937684
143	0x3a970000	0.0011520386
144	0xbd5028ae	-0.050820045
145	0x3c1832e0	0.009289473
146	0xbd7a8ba0	-0.061168313
147	0xbb91f100	-0.0044537783
148	0xbd51a618	-0.05118379
149	0xbca18ee6	-0.01972146
150	0xbd045818	-0.032310575
151	0x3c565f80	0.013084292
152	0x3d77badb	0.060480934
153	0x3c637580	0.013882995
154	0x3d5df4f3	0.05418868
155	0x3d6b876b	0.05750219
156	0x3c93729b	0.017998984
157	0x3ca31700	0.019908428
158	0x3d35d0b0	0.044388473
159	0x3d25c328	0.04046932
160	0xbd8cdf2a	-0.06878503
161	0x3d377196	0.04478606
162	0xbd89b84a	-0.067246035
163	0x3d2b3a70	0.041803777
164	0xbd3f5aa8	-0.046717316
165	0x3d8c62d8	0.068547904
166	0x3d9a6324	0.07538441
167	0x3d9c82b0	0.07642114
168	0xbb668156	-0.0035172305
169	0x3d3a0b6b	0.045421045
170	0x3ce06960	0.027393997
171	0x3d637986	0.055535816
172	0x3d5c8406	0.053836845
173	0xbd90b342	-0.07065441
174	0x3b9bac16	0.004750739
175	0x3d77b640	0.06047654
176	0x3d993df7	0.07482522
177	0xbd2e4096	-0.042542063
178	0xbd81f2a4	-0.06345108
179	0xbc699f36	-0.01425915
180	0xbd6627a8	-0.056190163
181	0xbd7c526b	-0.061602037
182	0x3d86eb2c	0.06587824
183	0x3c6e4076	0.014541736
184	0xbce6c276	-0.028168898
185	0xbd7ba290	-0.06143433
186	0xbd9e2f2c	-0.07723841
187	0x3cd7322b	0.02626904
188	0x3bf3d700	0.0074414015
189	0xbd2ef04b	-0.04270963
190	0xbab385ab	-0.0013696452
191	0xbce6cc5b	-0.028173616
192	0x3c284f0b	0.010272752
193	0x3c3475f6	0.011014452
194	0xbc496cf6	-0.012294045
195	0xbcbf7370	-0.023370475
196	0xbd42814b	-0.047486585
197	0xbd6d7790	-0.05797535
198	0x3d3a2993	0.045449805
199	0xbcf2307b	-0.029564133
200	0x3d1573db	0.03648744
201	0xbd9f6453	-0.07782807
202	0x3cdc1e96	0.026870053
203	0xbc86ca56	-0.016453903
204	0xbc65640b	-0.014000903
205	0x3d31d9a6	0.043420456
206	0xbda821af	-0.0820955
207	0x3d1e332b	0.038623016
208	0x3d7e0416	0.062015615
209	0x3d3eafa3	0.04655422
210	0xbd894638	-0.06702846
211	0xbd126978	-0.035745114
212	0xbd0d518e	-0.034501605
213	0x3bc34b96	0.0059599383
214	0x3d8d075b	0.068861686
215	0x3d679b20	0.056544423
216	0x3d972a20	0.073810816
217	0x3d2cf5f0	0.04222673
218	0xbc2766cb	-0.010217379
219	0xbd9eefa3	-0.07760551
220	0xbd043588	-0.032277614
221	0xbc972e00	-0.018454552
222	0x3cc612e6	0.024178933
223	0x3d99cd36	0.07509844
224	0x3cc71a40	0.02430451
225	0x3cf73a76	0.030179244
226	0x3cef3a5b	0.02920263
227	0x3bc718ab	0.0060759387
228	0x3c80d39b	0.015725901
229	0x3adcab56	0.001683573
230	0xbda4d10c	-0.08047685
231	0x3ab96d00	0.0014146864
232	0xbd9908f7	-0.07472413
233	0xbd87f5a8	-0.06638652
234	0x3ceeb480	0.029138803
235	0xbc2fcb60	-0.010729641
236	0xbda5b99f	-0.08092045
237	0xbd93c257	-0.07214802
238	0xbd73b638	-0.05949995
239	0xbd63e4fe	-0.055638306
240	0xbd337f18	-0.043822378
241	0xbd12cdc0	-0.03584075
242	0x3d27708b	0.040878814
243	0xbd390dd6	-0.04517921
244	0x3d16b4ae	0.036793403
245	0x3d54ca33	0.051950645
246	0xbd319d68	-0.043363005
247	0xbb153256	-0.0022765598
248	0x3c4b6d60	0.012416214
249	0xbccc72bb	-0.024957052
250	0x3c167b4b	0.009184669
251	0xbd19abdb	-0.03751741
252	0x3d70d64e	0.058798127
253	0xbcd9ab10	-0.026570827
254	0xbd23867b	-0.039923172
255	0xbc6cc020	-0.014450103

convs.0.0.bias f4 [16]
0	0x3d423dfb	0.04742239
1	0x3d4d4ae6	0.050120257
2	0x3d225333	0.039630126
3	0xbd666bc0	-0.056255102
4	0x3d8f72a2	0.07004286
5	0x3d5c41d8	0.05377373
6	0xbda05308	-0.07828337
7	0x3d6c270e	0.057654433
8	0xbb87706b	-0.0041332743
9	0xbcfbb076	-0.030723792
10	0x3d814cf6	0.06313507
11	0xbd96b733	-0.07359161
12	0x3da4d3fb	0.080482446
13	0xbcacd4f6	-0.021097641
14	0xbd41e1f0	-0.04733461
15	0xbd0c9476	-0.03432127

convs.0.2.weight f4 [16, 16, 3, 3]
0	0x3d6b8500	0.057499886
1	0xbd42a473	-0.047520112
2	0x3d35b943	0.044366132
3	0xbd93f426	-0.07224302
4	0xbd618f16	-0.055068098
5	0xbc32cbe0	-0.010912865
6	0xbb54bc80	-0.0032460988
7	0x3d33cdab	0.043897312
8	0x3a2a8600	0.0006504953
9	0xbd09be46	-0.033628725
10	0x3d5fcc00	0.05463791
11	0xbd5c6166	-0.053803824
12	0x3a22e4ab	0.0006213884
13	0x3bf454d6	0.0074564023
14	0xbd18a903	-0.037270557
15	0xbd86270a	-0.06550415
16	0xbd53303b	-0.051559668
17	0xbd589d73	-0.05288453
18	0x3c5dd100	0.013538599
19	0x3d407940	0.046990633
20	0x3d0adcc3	0.03390194
21	0xbc51fd96	-0.012816807
22	0x3d170e8e	0.036879115
23	0xbd8d1033	-0.068878554
24	0xbd03814b	-0.032105725
25	0xb9253800	-0.00015756488
26	0x3d9ca338	0.07648319
27	0xbc4fa0d6	-0.012672624
28	0xbd9b7a43	-0.07591679
29	0x3d7e62a0	0.062105775
30	0x3d8f5ffb	0.07000729
31	0x3c00bd56	0.007857641
32	0x3c106760	0.008813709
33	0x3d36d006	0.04463198
34	0xbd87e4e2	-0.06635453
35	0xbda64a50	-0.08119643
36	0xbd146d20	-0.036236882
37	0x3d94ec5b	0.07271644
38	0xbda1d847	-0.0790258
39	0x3be9c416	0.007133971
40	0xbda9d2e8	-0.0829218
41	0xbd586516	-0.052830778
42	0xbd314183	-0.043275367
43	0x3da8164e	0.08207379
44	0x3d6551f0	0.055986345
45	0xbc060e80	-0.008182168
46	0xbd81a02b	-0.06329378
47	0xbce40746	-0.0278355
48	0xbbed9956	-0.007250945
49	0x3d95621b	0.07294103
50	0x3b72d82b	0.0037055116
51	0xbce526a0	-0.02797252
52	0xbd70a6a3	-0.058752667
53	0x3d7948e0	0.060860515
54	0x3d0f1e23	0.03494085
55	0xbd4c39de	-0.049859874
56	0xbd445158	-0.047929138
57	0xbad2cb00	-0.0016082227
58	0x3da03853	0.07823243
59	0xbbdfd5ab	-0.006830891
60	0x3d192260	0.0373863
61	0x3d2c8b76	0.042125188
62	0xbd916f42	-0.07101299
63	0xbd111a53	-0.035425495
64	0xbd513bc8	-0.051082402
65	0x3d9736a6	0.0738347
66	0xbd1b3bce	-0.03789883
67	0x3ce23d10	0.027617007
68	0xbd8f3504	-0.06992534
69	0xbce4b6e6	-0.027919244
70	0xbc9cb9fb	-0.019131651
71	0x3cc9cda6	0.024634194
72	0xbd677813	-0.056510996
73	0xbd2c5173	-0.042069864
74	0x3c11fd2b	0.008910458
75	0xbcd11980	-0.025524855
76	0x3d2c3146	0.04203918
77	0x3d1c38ab	0.03813998
78	0x3d2cc198	0.042176813
79	0x3cede2ab	0.029038748
80	0x3d927ec0	0.07153082
81	0xbccdd016	-0.025123637
82	0x3b0cd900	0.0021491647
83	0x3c8c8660	0.017153919
84	0xbd74819e	-0.059693925
85	0xbb854440	-0.004066974
86	0x3d7dd566	0.06197109
87	0xbd68639b	-0.056735616
88	0x3da1e47e	0.079049096
89	0xbd7f4cd3	-0.062329125
90	0xbd95db3a	-0.07317205
91	0x3c92f7cb	0.017940423
92	0xbd997eec	-0.074949116
93	0xbd2f8b80	-0.042857647
94	0x3da54e67	0.08071595
95	0xbd872aa0	-0.06599927
96	0xbd3559bb	-0.044275027
97	0xbd1885eb	-0.03723709
98	0x3d29ff80	0.04150343
99	0x3ba7ed56	0.005124728
100	0xba6fa156	-0.00091411674
101	0xbd86aabc	-0.06575534
102	0x3d0e550e	0.034749083
103	0x3cb2ced6	0.021827143
104	0x3d3e252e	0.046422176
105	0x3b56de2b	0.003278623
106	0x3d83749e	0.06418727
107	0xbd82e942	-0.06392147
108	0xbc99bb06	-0.018765938
109	0x3da0cb7e	0.07851313
110	0x3cfd04cb	0.030886075
111	0x3d071d13	0.03298671
112	0xbd97c3dc	-0.07410404
113	0xbd223320	-0.039599538
114	0x3d5838ce	0.05278855
115	0xbd2b7ac3	-0.04186512
116	0xbc379e56	-0.011207184
117	0xbd43fac6	-0.047846578
118	0x3d3ea9d8	0.046548694
119	0xbd7295f3	-0.059225034
120	0x3d300353	0.04297192
121	0xbca31a0b	-0.01990988
122	0xbcc61436	-0.02417956
123	0xbca4c6b0	-0.020114273
124	0x3c088a96	0.008333823
125	0x3b8279ab	0.003981789
126	0xbd9b37ec	-0.075790256
127	0xbd3fa5ce	-0.046788983
128	0xbcef63b0	-0.02922234
129	0xbd00b090	-0.031418383
130	0x3d9cdb06	0.07658963
131	0xbd7173c8	-0.05894831
132	0x3d805d20	0.06267762
133	0xbd9fd747	-0.07804733
134	0x3cb68386	0.022279512
135	0x3d9b9160	0.075960875
136	0x3cccc316	0.024995368
137	0x3cd087a6	0.025455307
138	0xbd356bfe	-0.044292443
139	0xbd5c1a4e	-0.053736024
140	0x3d3d785b	0.046257358
141	0x3d919203	0.07107928
142	0x3c885686	0.01664282
143	0xb94772ab	-0.00019020836
144	0x3ca9bb2b	0.020719131
145	0xbd675c20	-0.05648434
146	0xbd230c83	-0.039806854
147	0xbda934d3	-0.082620285
148	0x3bad5816	0.0052900417
149	0xba950756	-0.0011369984
150	0x3c333e36	0.010940125
151	0x3cfc3d56	0.030790966
152	0x3cb19990	0.02167967
153	0x3c1b7d0b	0.009490262
154	0xbd858372	-0.06519212
155	0x3d1ecdb6	0.0387704
156	0xbc200ab6	-0.009768179
157	0xbb10cfd6	-0.0022096536
158	0x3cf11120	0.029427111
159	0x3d5d885b	0.054085117
160	0x3d89624c	0.06708202
161	0x3d36d483	0.04463626
162	0xbd934f9e	-0.0719292
163	0xbd8661fc	-0.06561658
164	0x3c77e376	0.0151299145
165	0xbc424016	-0.0118561
166	0xbd707023	-0.058700692
167	0x3d808d20	0.062769175
168	0x3d9a6ad3	0.07539906
169	0xbda66b57	-0.08125942
170	0xbd990803	-0.07472231
171	0x3d34627b	0.04403923
172	0x3d19f700	0.037589073
173	0x3d5f9913	0.054589342
174	0xbd8786eb	-0.066175304
175	0x3d1a8503	0.037724506
176	0xbd6dea1b	-0.05808459
177	0xbd20694e	-0.039162926
178	0x3d87f653	0.066387795
179	0xbd4b6236	-0.049654208
180	0xbd59d7f0	-0.05318445
181	0xbd86deab	-0.06585439
182	0x3cd1daf6	0.025617104
183	0xbbf8d7ab	-0.007594069
184	0xbb3b8b2b	-0.0028616886
185	0x3cbf0076	0.02331565
186	0x3d4d467b	0.050116044
187	0xbd42ac5e	-0.047527663
188	0xbd46c6b8	-0.048529357
189	0xbcdc54b0	-0.02689585
190	0x3d9bb9ba	0.07603784
191	0x3d1a121e	0.037614934
192	0xbd89d7e0	-0.06730628
193	0x3b83c896	0.0040217144
194	0xbc2243a0	-0.009903818
195	0xbd870c00	-0.06594086
196	0xba385c00	-0.0007032752
197	0x3d76e990	0.060281336
198	0x3d1dd1d6	0.038530193
199	0x3ad437ab	0.0016190907
200	0x3a419356	0.00073843205
201	0x3d640ff8	0.05567929
202	0x3d473d4e	0.04864245
203	0x3d43c693	0.047796797
204	0xbd860b7c	-0.06545159
205	0xbccfc660	-0.025363147
206	0x3bba77c0	0.005690545
207	0x3b4bfcd6	0.0031126044
208	0xbccc892b	-0.02496775
209	0x3c6ab976	0.014326444
210	0x3c694556	0.014237722
211	0x3ca9e47b	0.02073883
212	0xbcbb586b	-0.02286931
213	0xbd4351ce	-0.047685437
214	0xbd6fa0be	-0.058502905
215	0x3ce431bb	0.027855745
216	0x3ba6d380	0.0050911307
217	0x3d3e8e98	0.046522707
218	0xbd0ad08b	-0.03389029
219	0x3d2dcc26	0.04243102
220	0xbd972fe8	-0.07382184
221	0xbd9753e3	-0.07389047
222	0xbd042ce0	-0.03226936
223	0xbda87fca	-0.08227499
224	0xbc8a2056	-0.016861122
225	0xbd7a83d0	-0.061160862
226	0xbd9e5547	-0.07731109
227	0x3d46b0f8	0.048508614
228	0xbc049660	-0.008092493
229	0x3cd8e0d6	0.026474398
230	0x3bd688eb	0.0065470836
231	0xbd2c348e	-0.042042308
232	0x3d2fcd43	0.042920362
233	0xbd52b803	-0.05144502
234	0xbc8a841b	-0.016908696
235	0xbd3f1a5e	-0.046656005
236	0xbbd187ab	-0.0063943467
237	0xbcb9733b	-0.022637954
238	0xbd1af816	-0.03783425
239	0x3d109f4b	0.035308164
240	0xbd48c158	-0.049012512
241	0x3da76213	0.08173003
242	0x3c41aeb6	0.0118214395
243	0x3cab5d80	0.020918608
244	0x3d50408e	0.050842814
245	0xbd2de2de	-0.042452686
246	0xb9305556	-0.00016816458
247	0x3d12d173	0.035844278
248	0xbc52e24b	-0.012871335
249	0x3d861530	0.0654701
250	0xbd8b8daa	-0.0681413
251	0xbd6effbe	-0.058349364
252	0xbda8beee	-0.08239542
253	0xbd7aabc6	-0.061198972
254	0x3d96f1fc	0.073703736
255	0x3d516dbb	0.051130038

convs.0.2.bias f4 [16]
0	0xbc81a73b	-0.015826812
1	0xbc8ac466	-0.016939353
2	0xbd62bf58	-0.05535826
3	0xbd92fcbf	-0.07177114
4	0xbd184c66	-0.037182234
5	0xbd66f290	-0.05638367
6	0xbcf7722b	-0.030205807
7	0x3d94dd7f	0.072688095
8	0x3d8bfb1a	0.06835003
9	0x3c2d90f6	0.010593643
10	0x3cd97d4b	0.026549002
11	0x3d9c8f8f	0.07644569
12	0xbd8c3a17	-0.06847017
13	0x3d412978	0.04715869
14	0xbbc57fd6	-0.006027202
15	0xbd3b543b	-0.045734625

convs.1.0.weight f4 [16, 16, 3, 3]
0	0xbda6cf12	-0.08144964
1	0xbd52703e	-0.051376574
2	0x3b7c3f56	0.00384899
3	0xbd6ee6ab	-0.05832545
4	0xbcc11b36	-0.023572545
5	0xbcbf82eb	-0.023377856
6	0xbd095498	-0.03352794
7	0xbd679aeb	-0.056544226
8	0x3d146cfb	0.036236744
9	0x3c811350	0.01575628
10	0x3d681dcb	0.056669038
11	0xbda973ca	-0.08274038
12	0xbd406173	-0.046967935
13	0x3d2ed150	0.042680085
14	0xbd679cd3	-0.056546044
15	0x3b396380	0.0028288066
16	0xbd847393	-0.064673565
17	0x3d8344d8	0.06409615
18	0xbda74bb8	-0.08168739
19	0x3d8200cc	0.06347808
20	0xbd17e256	-0.037081085
21	0xbd5be163	-0.053681742
22	0x3cbc0020	0.022949278
23	0x3d8917b8	0.06693977
24	0xbc083ac0	-0.008314788
25	0x3d8af4c8	0.067849696
26	0x3da30f8f	0.07961952
27	0x3cd9f800	0.026607513
28	0x3bdf75c0	0.006819457
29	0x3d701d66	0.058621787
30	0x3c076860	0.008264631
31	0x3da0159f	0.07816624
32	0xbc8d2170	-0.017227858
33	0x3cb1ef16	0.02172045
34	0xbcb7c160	-0.022431076
35	0xbc3807cb	-0.011232327
36	0x3d50f2f0	0.051012933
37	0x3d0dbbf0	0.03460306
38	0xbda04620	-0.07825875
39	0x3bf01e6b	0.007327845
40	0xbd177d36	-0.036984645
41	0x3d6b3df3	0.057432126
42	0xbd3039fb	-0.043024044
43	0xbd616513	-0.055028033
44	0x3d3fcbfe	0.0468254
45	0xbc947e30	-0.018126577
46	0x3d8bc818	0.06825274
47	0x3ae6b156	0.0017600458
48	0x3c3cd66b	0.011525731
49	0xbcea4de6	-0.028601598
50	0xbb8f3096	-0.0043698056
51	0xbd659ea3	-0.05605949
52	0x3ca5dbcb	0.020246407
53	0x3d751d20	0.05984223
54	0xbd17a3f0	-0.037021577
55	0xbd61eb60	-0.05515611
56	0xbd0562c8	-0.03256491
57	0x3ceaa49b	0.028642943
58	0x3d2301ae	0.039796524
59	0xbc0ad18b	-0.0084728105
60	0xbd211fae	-0.039336853
61	0xbc49a1cb	-0.012306641
62	0x3c6fc5cb	0.01463456
63	0x3d7ecb60	0.062205672
64	0xbda5f79b	-0.081038676
65	0xbda9abd4	-0.08284727
66	0x3d2808fb	0.04102419
67	0xbd8c0d3a	-0.0683846
68	0x3d807a73	0.06273355
69	0xbcc3257b	-0.023821583
70	0x3d81ca32	0.06337394
71	0x3d9e5b10	0.077322125
72	0x3d74e140	0.059785128
73	0xbd9ae848	-0.075638354
74	0xbd62c0d3	-0.055359673
75	0xbd52ae6e	-0.05143588
76	0xbda13ff8	-0.07873529
77	0x3a03baab	0.0005025069
78	0xbc13a7f6	-0.009012213
79	0x3d390e0b	0.045179408
80	0xbcd4da76	-0.025983077
81	0xbd81d874	-0.06340113
82	0x3bd90a56	0.0066235466
83	0x3d96aa2c	0.073566765
84	0x3c9275db	0.017878463
85	0x3d092e70	0.033491552
86	0xbcd53000	-0.026023865
87	0x3d26b08b	0.04069571
88	0xbcb21b26	-0.021741461
89	0x3d87c1da	0.06628771
90	0xbd858ff6	-0.06521599
91	0x3d17d6f0	0.037070215
92	0x3cecb4b0	0.028894752
93	0xbc3e08e0	-0.011598796
94	0xbda335bb	-0.07969233
95	0x3d86a862	0.06575085
96	0x3cc8e07b	0.024521103
97	0xbd77ceb6	-0.06049987
98	0x3d7a71f0	0.061143816
99	0xbcc4f370	-0.024041861
100	0x3d4d800b	0.05017094
101	0xbd07a47b	-0.033115845
102	0x3d35e22b	0.044405144
103	0x3a814256	0.0009861689
104	0xbc938cf6	-0.018011551
105	0x3d925e2e	0.071468696
106	0xbd3bb090	-0.04582268
107	0x3cb9a2e6	0.022660684
108	0xbd851586	-0.06498246
109	0x3da3763f	0.07981538
110	0xbd20f0b8	-0.039292067
111	0xbd50b898	-0.050957292
112	0xbd96944c	-0.07352504
113	0xbcf6ee76	-0.030143004
114	0x3d97e9de	0.074176535
115	0x3baacbeb	0.005212297
116	0xbc4b04d6	-0.01239129
117	0x3c13044b	0.0089731915
118	0x3d40eb68	0.0470995
119	0x3c80466b	0.015658578
120	0xbbd2aaeb	-0.0064290664
121	0x3d56a088	0.05239919
122	0xbc4e44c0	-0.012589633
123	0x3d8d54de	0.06900953
124	0x3d9aa63c	0.07551238
125	0xbd46f903	-0.04857732
126	0x3d9cf478	0.07663816
127	0xbd6363f6	-0.055515252
128	0xbd6816bb	-0.056662302
129	0x3d91347a	0.07090087
130	0x3c41b80b	0.011823664
131	0x3c8413db	0.01612275
132	0x3d138988	0.036019832
133	0x3c694340	0.014237225
134	0x3d3d628b	0.046236556
135	0xbafb8e00	-0.00191921
136	0xbd292fa0	-0.041305184
137	0xbda8e91a	-0.082475856
138	0x3d3f759b	0.046743017
139	0xbd071dbe	-0.03298735
140	0x3a46ba00	0.0007580817
141	0xbd3783e8	-0.04480353
142	0x3d7ad16e	0.061234884
143	0x3d8e5b10	0.069509625
144	0x3d44ace6	0.04801645
145	0x3c9bcbcb	0.019018074
146	0xbc09996b	-0.008398394
147	0x3da51974	0.080614954
148	0xbda692bc	-0.08133456
149	0x3d886062	0.066590086
150	0x3d4dba4b	0.05022649
151	0x3d97a9f7	0.07405465
152	0x3d57dd7e	0.052701466
153	0x3bdc34d6	0.0067201657
154	0x3b519bab	0.0031983654
155	0xbd05daa6	-0.032679223
156	0xbd7a875e	-0.061164252
157	0xbbbcf416	-0.005766402
158	0xbd677236	-0.056505404
159	0xbd6c742e	-0.057727985
160	0x3d5ce4b8	0.05392906
161	0x3c39f10b	0.011348973
162	0xbcf90e66	-0.030402374
163	0x3c94cbeb	0.018163642
164	0xbd75a4f0	-0.05997175
165	0xbd0a6220	-0.033784986
166	0x3d9d4423	0.07679012
167	0xbd9fd7f0	-0.07804859
168	0xbda88eea	-0.08230384
169	0xbd87d1f0	-0.06631839
170	0x3d9f404a	0.07775934
171	0x3cf6707b	0.030082932
172	0xbd3a6423	-0.045505654
173	0x3d8cee9f	0.06881451
174	0xbce55fe6	-0.02799983
175	0x3d67eb06	0.05662062
176	0xbd08660b	-0.03330044
177	0x3ca70380	0.020387411
178	0x3bc8202b	0.0061073503
179	0xbcdd5336	-0.027017217
180	0x3ce5e24b	0.028062006
181	0x3d867d4c	0.06566867
182	0x3c68954b	0.0141957505
183	0x3c86bf76	0.016448718
184	0xbb7494d6	-0.0037320158
185	0x3c306856	0.010767063
186	0xbc6f26b6	-0.014596632
187	0x3da7a2b4	0.0818533
188	0xbd02c91b	-0.03193007
189	0x3ca5bc7b	0.020231476
190	0xbc032b76	-0.008005967
191	0xbcd94d9b	-0.026526263
192	0xbd088643	-0.033331167
193	0x3d0c92a0	0.03431952
194	0x3d9ade12	0.07561888
195	0xbd85bb33	-0.06529846
196	0x3cbfcdab	0.0234135
197	0xbd8fe603	-0.07026293
198	0x3d38e25e	0.045137756
199	0x3cd2e300	0.025743008
200	0x3c6df940	0.014524758
201	0x3d153196	0.036424242
202	0x3c4fbfe0	0.012680024
203	0xbd9b0962	-0.07570149
204	0xbc965f56	-0.018356007
205	0x3cfec330	0.031098932
206	0xbd9ccc76	-0.07656185
207	0x3d3286b8	0.04358551
208	0xbd3c0a23	-0.045908105
209	0xbd06707b	-0.032822113
210	0x3c84a436	0.016191583
211	0x3da46568	0.08027154
212	0xbc9576e0	-0.01824516
213	0xbb8fe800	-0.00439167
214	0xbda650da	-0.0812089
215	0xbda47484	-0.08030036
216	0x3d66d3d3	0.056354355
217	0x3d62d82e	0.055381946
218	0x3d6186f8	0.055060357
219	0xbc7d3be0	-0.01545617
220	0xbd03a6d0	-0.032141507
221	0xbd88a798	-0.06672591
222	0x3c898cd0	0.016790777
223	0x3d30c923	0.04316057
224	0x3d06d7e8	0.032920748
225	0xbd724e16	-0.0591565
226	0xbd772e06	-0.060346626
227	0x3c1c8c36	0.009554913
228	0xbc6e1c36	-0.014533093
229	0xbbfa2ed6	-0.007634978
230	0x3c2c22e0	0.010506362
231	0x3c893380	0.01674819
232	0xbcb69776	-0.02228902
233	0xbd877e93	-0.06615939
234	0x3d8e492a	0.06947549
235	0x3d2d1e6e	0.042265348
236	0x3d20d02b	0.039261024
237	0x3cdd60f0	0.027023762
238	0xbd94b660	-0.07261348
239	0xbd269ffe	-0.040679924
240	0xbda0d51e	-0.07853149
241	0x3b0509ab	0.0020299952
242	0xbd3ceffe	-0.046127312
243	0xbb5ba0ab	-0.0033512514
244	0xbd269d10	-0.04067713
245	0x3d8867bb	0.0666041
246	0xbd4f2693	-0.050573897
247	0x3d582feb	0.052780073
248	0x3b3fd02b	0.0029268365
249	0x3cee3b00	0.029080868
250	0x3da7bd17	0.08190363
251	0x3d6f6bf8	0.058452576
252	0x3ca8cd6b	0.020605763
253	0xbda53267	-0.08066254
254	0x3d4bb5e8	0.049734026
255	0x3d79e6bb	0.061011057

convs.1.0.bias f4 [16]
0	0xbd48a74e	-0.04898768
1	0x3d4ea233	0.050447654
2	0xbd8b1830	-0.06791723
3	0xbd182308	-0.037142783
4	0x3d8f6594	0.07001796
5	0xbcd0e550	-0.02549997
6	0xbc68776b	-0.014188628
7	0xbd8c9f72	-0.06866349
8	0xbd199d18	-0.037503332
9	0xbc6f6aa0	-0.014612824
10	0xbd876402	-0.06610872
11	0x3d61c0b8	0.05511543
12	0xbd15820e	-0.036500983
13	0xbda7d1b3	-0.08194294
14	0xbc9d4cd6	-0.019201677
15	0x3d3eee2e	0.046613865

convs.1.2.weight f4 [16, 16, 3, 3]
0	0x3d9b27b3	0.075759314
1	0xbd351596	-0.04421004
2	0x3d52e5c0	0.051488638
3	0xbc993ea6	-0.01870663
4	0xbd179b2b	-0.037013214
5	0x3ca3a6eb	0.019977054
6	0x3c79bc4b	0.015242646
7	0x3d858d5b	0.06521102
8	0x3c0b6eb6	0.008510282
9	0xbd60733e	-0.054797404
10	0x3c96b1d0	0.018395334
11	0x3d53c72e	0.051703624
12	0x3b4e23ab	0.0031454365
13	0xbd40d9c8	-0.047082692
14	0x3d621c7b	0.055202942
15	0x3d979b9a	0.074027255
16	0xbd771f1b	-0.0603324
17	0xbda7174e	-0.08158742
18	0xbd52f36e	-0.051501684
19	0x3c7d65e0	0.015466183
20	0x3cdd9ab0	0.0270513
21	0x3d0e1fa6	0.03469815
22	0x3d9becf2	0.07613553
23	0xbd8d3a6a	-0.06895907
24	0x3d861856	0.065476105
25	0x3c464d8b	0.012103449
26	0x3c90b9d6	0.017666738
27	0xba8eb2ab	-0.0010886987
28	0x3d96cacc	0.07362899
29	0xbb505a56	-0.0031792126
30	0x3d5700fe	0.05249118
31	0x3d99c2b2	0.07507838
32	0x3da715f4	0.08158484
33	0xbc2551cb	-0.010090302
34	0x3cb98e3b	0.022650829
35	0x3cf34210	0.029694587
36	0xbd53213b	-0.051545363
37	0x3d1d6850	0.03842956
38	0xbd85cb32	-0.06532897
39	0xbc5c3aab	-0.013441722
40	0xbda8e0f4	-0.082460314
41	0xbda59368	-0.08084756
42	0x3d83dc24	0.06438473
43	0x3b464e80	0.0030259192
44	0xbbcef500	-0.0063158274
45	0xbc1e9f60	-0.009681553
46	0x3d8bdf87	0.06829744
47	0xbcc6988b	-0.02424266
48	0x3d28faf6	0.04125496
49	0xbc0c2deb	-0.00855587
50	0x3da41d8a	0.08013447
51	0xbc7ff5ab	-0.015622537
52	0x3da62b87	0.08113771
53	0x3aaad9ab	0.0013034841
54	0xbc3b0d4b	-0.0114167435
55	0xbd883d9f	-0.06652378
56	0x3c79578b	0.015218626
57	0x3c549b40	0.012976468
58	0xbcd433e0	-0.025903642
59	0x3cab0176	0.02087472
60	0x3d5fe686	0.054663204
61	0xbda27173	-0.07931795
62	0xbd6487d3	-0.055793595
63	0x3c882be0	0.016622484
64	0x3ca653e0	0.020303667
65	0xbd15a608	-0.036535293
66	0xbc46a32b	-0.012123863
67	0x3d7698e3	0.060204398
68	0x3d125288	0.03572324
69	0xbd6d8ff3	-0.05799861
70	0xbcbd2dd6	-0.023093145
71	0xbcbd6d6b	-0.023123464
72	0xbd8a6210	-0.06756985
73	0xbda5069e	-0.08057903
74	0xbbcbdb56	-0.0062212152
75	0x3d93a74e	0.07209645
76	0x3cf5fddb	0.030028274
77	0x3c3a3796	0.011365792
78	0x3d0d5c23	0.034511697
79	0xbd95af9f	-0.07308888
80	0xbd45e3c6	-0.048312925
81	0xbd846b76	-0.06465809
82	0x3bdc8f16	0.0067309244
83	0x3ad53556	0.0016266506
84	0x3d943e47	0.07238441
85	0x3d150ab8	0.036387175
86	0x3d76b570	0.060231626
87	0x3cdf2d66	0.027243327
88	0xbd9ea196	-0.07745664
89	0x3d13c788	0.03607896
90	0xbd7e05ae	-0.062017135
91	0xbd4b9036	-0.049698077
92	0x3ca28ff6	0.019844037
93	0xbd3f8c53	-0.046764683
94	0xbd91f7a7	-0.07127314
95	0x3d04eba6	0.032451294
96	0xbcb49950	-0.022045761
97	0xbc679ae0	-0.014136046
98	0xbda69c48	-0.08135277
99	0x3d61c2a3	0.05511726
100	0xbd990796	-0.0747215
101	0x39b3dd56	0.0003430645
102	0x3bce97d6	0.0063047213
103	0xbd701e63	-0.05862273
104	0x3d07b730	0.033133686
105	0xbccf8dd6	-0.025336187
106	0xbcaf84ab	-0.021425566
107	0xbc64ed80	-0.01397264
108	0xbce8c69b	-0.028415015
109	0x3da5b18f	0.08090507
110	0x3c695e8b	0.014243732
111	0x3d2a2488	0.041538745
112	0xbda38c4a	-0.079857424
113	0xbbc94b96	-0.0061430437
114	0xbc4fce8b	-0.012683521
115	0xbcb24830	-0.021762937
116	0xbbe50f40	-0.0069903433
117	0xbd2e1258	-0.042497963
118	0xbd39aede	-0.045332782
119	0xbd0daf2b	-0.03459088
120	0x3d6c1b73	0.057643365
121	0xbbfc0ad6	-0.0076917214
122	0xbd539910	-0.051659644
123	0xbc0ca82b	-0.008585016
124	0x3c45f820	0.012083083
125	0x3b174500	0.0023081899
126	0xbcfa3020	-0.030540526
127	0xbcfc2c36	-0.0307828
128	0x3d73b71e	0.059500806
129	0xbd672bf6	-0.05643841
130	0x3d4932e0	0.049120784
131	0x3d511dc0	0.051053762
132	0xb8531556	-5.032619e-05
133	0xbd4bfd40	-0.049802065
134	0xbd0e79fb	-0.0347843
135	0xbce9f77b	-0.02856039
136	0xbd539d73	-0.051663827
137	0x3d81e1fb	0.063419305
138	0xbc0d05e0	-0.008607358
139	0x3d26c5b8	0.040715903
140	0x3cd6f220	0.026238501
141	0xbca830e6	-0.02053113
142	0x3d93a406	0.07209019
143	0xbd9484b6	-0.07251875
144	0xbc6272cb	-0.013821314
145	0xbd16ed4e	-0.036847405
146	0x3d82f17f	0.06393718
147	0x3d50ad5b	0.050946575
148	0x3d24defe	0.040251724
149	0xbc28db00	-0.01030612
150	0x39ddd6ab	0.00042312345
151	0x39628556	0.00021602711
152	0xbcaae2eb	-0.020860156
153	0xba21aa00	-0.00061669946
154	0x3d8481db	0.064700805
155	0x3d851544	0.06498197
156	0xbcea8e0b	-0.028632184
157	0x3cc6d4a0	0.02427131
158	0x3ce83ed6	0.028350275
159	0xbd4a50f3	-0.049393605
160	0x3d93396e	0.07188688
161	0xbda35e23	-0.079769395
162	0xbd7cac80	-0.061687946
163	0xbc1d6ccb	-0.009608458
164	0x3c9a83b6	0.018861633
165	0xbd03dfeb	-0.032195967
166	0xbda4de5e	-0.08050226
167	0x3d6e3396	0.058154665
168	0x3d46ca80	0.048532963
169	0xbd4bfdb0	-0.049802482
170	0xbc8f5c86	-0.017500173
171	0xbd8c1c10	-0.0684129
172	0xbd751278	-0.059832066
173	0x3bd0216b	0.00635164
174	0xbc44a6b6	-0.012002638
175	0x3d7c41db	0.061586242
176	0xbd504248	-0.05084446
177	0x3d0bf353	0.0341676
178	0xbd7f7593	-0.062367987
179	0xbc878fe6	-0.016548108
180	0xbc530496	-0.012879511
181	0x3c8388f6	0.016056519
182	0xbd878252	-0.066166535
183	0xbc6f2c96	-0.014598032
184	0x3d2eb9a3	0.042657506
185	0x3c5c9a76	0.013464561
186	0xbbd020ab	-0.0063515506
187	0xbccafe3b	-0.02477943
188	0xbd74a488	-0.05972722
189	0xbc29450b	-0.0103314025
190	0x3d750b8b	0.05982546
191	0xbbed1ec0	-0.0072363317
192	0xbd9e94fe	-0.07743262
193	0xbda359f4	-0.079761416
194	0xba259eab	-0.0006317894
195	0x3b337f2b	0.002738903
196	0x3d27695b	0.04087196
197	0xbcd47406	-0.02593423
198	0xbba18516	-0.004929195
199	0xbd8ce176	-0.06878941
200	0xbd7d094b	-0.06177644
201	0xbd1f3670	-0.038870275
202	0x3d67177e	0.05641889
203	0x3c382440	0.011239111
204	0xbaa00cab	-0.0012210807
205	0x3cb0ae3b	0.021567455
206	0x3d93fe20	0.07226205
207	0xbd3868cb	-0.045021813
208	0xbd1fbf50	-0.03900081
209	0x3cb687b6	0.022281509
210	0x3d00a3fe	0.031406395
211	0xbacd4eab	-0.0015663704
212	0xbc47eb2b	-0.0122020645
213	0x3da975cc	0.08274421
214	0xbd880dd6	-0.06643264
215	0x3da5ebda	0.08101626
216	0xbd8b8f56	-0.068144485
217	0x3c6da0eb	0.014503698
218	0x3d1d38f8	0.038384408
219	0xbad47e00	-0.0016211867
220	0xbc197bc0	-0.009367883
221	0x3ccabb90	0.02474764
222	0xbd773cfb	-0.06036089
223	0xbd30c8e6	-0.04316034
224	0xbcfad4b6	-0.030619007
225	0xbd850d94	-0.064967304
226	0x3cc0c40b	0.02353098
227	0x3d74661e	0.0596677
228	0xbc82dbfb	-0.015974035
229	0x3d2e543b	0.042560797
230	0x3d94192b	0.07231363
231	0xbd04d9c0	-0.032434225
232	0x3ceae41b	0.028673222
233	0xbd877098	-0.066132724
234	0x3c4e7160	0.012600273
235	0xbc8af89b	-0.016964247
236	0xbcab92b6	-0.02094398
237	0x3da9d9a3	0.08293464
238	0x3d2a1628	0.041525036
239	0x3d9ff3a8	0.078101456
240	0x3acde256	0.0015707712
241	0xbd8816b6	-0.06644957
242	0x3bf23116	0.0073911054
243	0x3cc8e3f6	0.024522763
244	0x3d75cc5e	0.060009353
245	0x3d1eba3e	0.038751833
246	0x3d52f2ee	0.051501207
247	0xbdaa9d96	-0.083308384
248	0xbd4abb68	-0.04949513
249	0x3d02c10e	0.031922393
250	0xbd78cfa8	-0.06074491
251	0xbce5e1db	-0.028061798
252	0xbc2e6c60	-0.010645956
253	0xbd39e67e	-0.04538583
254	0xbd59bca0	-0.053158402
255	0x3addcc00	0.0016921759

convs.1.2.bias f4 [16]
0	0x3d63bfc3	0.0556028
1	0xbd2eb5c3	-0.04265381
2	0x3da9d7e3	0.0829313
3	0xbc3f0c76	-0.011660686
4	0xbd09099b	-0.033456426
5	0x3c8fc756	0.017551105
6	0x3d06d200	0.032915115
7	0xbc53200b	-0.012886058
8	0x3d9df3e8	0.07712537
9	0xbc389ec0	-0.011268318
10	0x3d9b7902	0.0759144
11	0xbcb40c80	-0.021978617
12	0x3c25fdb6	0.01013129
13	0x3d85fe5e	0.06542657
14	0x3cf2fa76	0.029660445
15	0xbd1cf230	-0.038316905

convs.2.0.weight f4 [16, 16, 3, 3]
0	0x3d4c4b63	0.049876582
1	0xbd8c24c8	-0.06842953
2	0x3cc7f4fb	0.024408808
3	0xbbda2a00	-0.006657839
4	0xba4c3200	-0.0007789433
5	0x3d3cb7ab	0.046073597
6	0xbd396ad3	-0.04526789
7	0xbd2fd26e	-0.04292529
8	0xbda302ec	-0.07959542
9	0x3d83f468	0.06443101
10	0xbd5b10e6	-0.053482912
11	0xbcd16520	-0.025560915
12	0xbc67ca56	-0.014147362
13	0x3d99e5e2	0.0751455
14	0xbae44156	-0.0017414491
15	0xbc6a18d6	-0.014288148
16	0xbd6b89a6	-0.05750432
17	0x3c7d814b	0.01547272
18	0xbca0f28b	-0.019646903
19	0x3d80febf	0.06298589
20	0x3a38c356	0.00070481503
21	0x3d5240ee	0.051331453
22	0xbd1af5cb	-0.037832063
23	0x3c68e516	0.014214775
24	0xbcd786b0	-0.026309341
25	0x3da04cdb	0.07827159
26	0x3c8edf4b	0.017440459
27	0x3da5a98f	0.08088981
28	0x3d5e498e	0.054269366
29	0x3d95f68e	0.07322417
30	0xbd695c8e	-0.056973033
31	0xbd875bfb	-0.06609341
32	0x3b0d7ad6	0.0021588109
33	0xbd8fc556	-0.07020061
34	0x3d89bea2	0.067258134
35	0xbd43e0b3	-0.04782171
36	0xbd984764	-0.07435492
37	0xbb90c800	-0.004418373
38	0xbd338deb	-0.043836515
39	0x3d0c2b1e	0.034220807
40	0x3d719a00	0.058984756
41	0xbd1fd0d0	-0.0390175
42	0xbc97be4b	-0.018523356
43	0x3da8362e	0.08213459
44	0xbc464976	-0.012102475
45	0xbd8f19de	-0.06987356
46	0x3acd5600	0.0015665889
47	0x3d9dcc22	0.07704951
48	0xbd96876c	-0.073500484
49	0x3d052e03	0.032514583
50	0xbbd6ef6b	-0.0065593026
51	0x3d33c023	0.043884408
52	0x3d9cb9e6	0.07652645
53	0x3ca90976	0.020634394
54	0xbc177076	-0.009243121
55	0xbd3fd8bb	-0.04683755
56	0x3d5a66f0	0.053320825
57	0x3cc817d6	0.024425428
58	0x3d93e94f	0.072222345
59	0xbbde7b00	-0.006789565
60	0xbc7066eb	-0.014672975
61	0x3ba1f096	0.00494201
62	0xbd4205a8	-0.047368675
63	0xbd94efe4	-0.07272318
64	0xbbe4946b	-0.0069757006
65	0xbd856637	-0.065136366
66	0xbcb92460	-0.022600353
67	0xbc253f76	-0.010085931
68	0x3c5886cb	0.013215731
69	0x3da96d74	0.0827283
70	0x3c854280	0.016267061
71	0x3da27530	0.07932508
72	0x3d869964	0.06572226
73	0xbda8b51a	-0.082376674
74	0x3d299620	0.041402936
75	0x3d81c63a	0.06336637
76	0xbd7bd536	-0.06148263
77	0x3d932ca2	0.071862474
78	0x3da10fa6	0.07864313
79	0x3d9a86a2	0.075452104
80	0xbce2e366	-0.027696323
81	0xbd455d98	-0.04818496
82	0xbd8c8e64	-0.06863096
83	0xbda6a730	-0.08137357
84	0xbd77fe80	-0.060545444
85	0x3b1f1580	0.002427429
86	0xbc422de0	-0.011851758
87	0x3c9e512b	0.019325813
88	0xbcf0e72b	-0.029407104
89	0xbc735e6b	-0.014854054
90	0xbcb6a476	-0.022295218
91	0xbd810c20	-0.06301141
92	0x3bc37596	0.005964945
93	0xbd9f0567	-0.07764702
94	0x3b4d2700	0.0031303763
95	0xbd8e3e1e	-0.06945442
96	0x3d4781c0	0.048707724
97	0xbd068b06	-0.032847427
98	0x3d660c60	0.056164145
99	0xbd5f0f9e	-0.054458253
100	0x3cf19ec0	0.029494643
101	0x3cc9f9fb	0.024655333
102	0x3d86a9d2	0.065753594
103	0xbd2a2f4b	-0.04154901
104	0x3d37f8db	0.04491506
105	0x3d6843f0	0.056705415
106	0xbba04b56	-0.0048917932
107	0xbc75d3d6	-0.015004119
108	0xbd9535aa	-0.07285626
109	0xbd4eeea6	-0.05052056
110	0x3da81a20	0.08208108
111	0xbd9432ce	-0.07236253
112	0x3d81aab0	0.06331384
113	0x3d84cedc	0.06484768
114	0x3ce36790	0.027759343
115	0x3be30440	0.006927997
116	0xbc0bf4c0	-0.00854224
117	0xbda4a3d8	-0.08039063
118	0x3d7cda03	0.06173135
119	0xbd8be020	-0.06829858
120	0x3ca628eb	0.020283183
121	0x3d00c9be	0.031442396
122	0xbd8b755b	-0.06809493
123	0xbb4ffc56	-0.0031736097
124	0x3d940cd0	0.07229006
125	0xbda46aa7	-0.08028155
126	0xbc2b4eab	-0.010455768
127	0x3d8e9746	0.06962447
128	0x3a87b856	0.0010354619
129	0x3a28ccab	0.00064391893
130	0x3b82d06b	0.0039921305
131	0x3d9313ce	0.07181512
132	0x3d88b1ae	0.06674515
133	0x3d3f9700	0.046774864
134	0xbd295f33	-0.041350555
135	0x3d907823	0.07054164
136	0xbd0c9408	-0.03432086
137	0xbd69c913	-0.057076525
138	0xbcca94c6	-0.024729144
139	0xbd78e2b0	-0.06076306
140	0xbd454e50	-0.048170388
141	0x3d316358	0.043307632
142	0x3d931c6b	0.07183155
143	0x3c9a4bf6	0.01883505
144	0x3d2948b6	0.04132911
145	0x3d80c124	0.06286839
146	0xbd8d35c6	-0.06895022
147	0xbd37a390	-0.04483372
148	0xbcc415d6	-0.023936193
149	0xbda1f85a	-0.079086974
150	0xbd1e7523	-0.03868593
151	0x3ca8bac6	0.020596873
152	0xbc75d1ab	-0.015003602
153	0xbd9de0b4	-0.07708874
154	0xbd53f246	-0.05174472
155	0xbcbe274b	-0.023212096
156	0xbc6b9220	-0.014378101
157	0x3d26e45b	0.04074512
158	0x3c58ead6	0.013239583
159	0xbd6ba70b	-0.05753235
160	0xbd80b3cc	-0.062842935
161	0x3d9d616b	0.07684597
162	0x3d8a209b	0.067445
163	0x3d5a6e2b	0.05332772
164	0xbd821b73	-0.06352892
165	0xbd64b5e8	-0.05583754
166	0xbc52ffa0	-0.012878329
167	0xbd890983	-0.06691267
168	0xbc8b9550	-0.017038971
169	0xbc21be4b	-0.00987203
170	0xbba79100	-0.005113721
171	0xbd2c29be	-0.042031996
172	0x3b12f3ab	0.002242307
173	0xbd58d7c0	-0.05294013
174	0x3b9cf280	0.0047896504
175	0x3cf4dd86	0.029890787
176	0xbb975c16	-0.004619132
177	0x3d2d37b6	0.04228946
178	0x3d8737e2	0.06602456
179	0x3c4f506b	0.0126534505
180	0x3c386156	0.011253675
181	0xbd028e3e	-0.031873934
182	0x3befab80	0.0073141456
183	0xbd9a4712	-0.07533087
184	0x3ba83080	0.005132735
185	0xbd4a9bd0	-0.049465
186	0x3da26eab	0.079312645
187	0x3d63f418	0.055652708
188	0x3d429d9e	0.047513597
189	0xbda3287e	-0.07966708
190	0x3ccac660	0.024752796
191	0x3da5f4c3	0.08103325
192	0x3ce02526	0.027361464
193	0xbc973a0b	-0.018460294
194	0xbc71cc00	-0.01475811
195	0x3d1fa118	0.03897199
196	0xbd49ca0e	-0.04926496
197	0x3d993450	0.07480681
198	0xbd2e5476	-0.042561017
199	0x3c6599a0	0.014013678
200	0xbc6a3e56	-0.014297089
201	0x3b8242ab	0.0039752326
202	0xb9c85eab	-0.00038217506
203	0x3d90cc24	0.07070187
204	0xbc258eab	-0.0101048155
205	0xbc9ae390	-0.018907338
206	0x3cd60270	0.02612421
207	0x3d0be6e3	0.034155738
208	0xbd93191b	-0.07182523
209	0x3d6d923b	0.058000784
210	0xbd6d563e	-0.057943575
211	0x3da442bc	0.08020541
212	0xbd432cf0	-0.047650278
213	0x3c10a22b	0.008827726
214	0x3cf308c6	0.02966727
215	0xbd869f1b	-0.06573316
216	0xbd4e623e	-0.05038666
217	0xbd1511a0	-0.03639376
218	0x3d1ab55e	0.03777062
219	0xbd8e7876	-0.0695657
220	0x3c90ff60	0.017699897
221	0x3ae773ab	0.0017658373
222	0xbd858f97	-0.06521528
223	0xbb74f100	-0.0037375093
224	0xbcf314bb	-0.029672971
225	0x3b812f40	0.0039424
226	0x3d4dc950	0.050240815
227	0x3d2fff66	0.042968176
228	0x3d279473	0.040913057
229	0xbda14a20	-0.07875466
230	0xbcaba9b6	-0.020954948
231	0x3cfcf86b	0.030880174
232	0x3d7e309e	0.062058084
233	0xbab1be00	-0.0013560653
234	0x3c40ad80	0.011760116
235	0xbd95fa53	-0.07323136
236	0xbc1e2f2b	-0.0096548
237	0x3d90847c	0.070565194
238	0xbd0720cb	-0.03299026
239	0x3d62fea6	0.055418633
240	0xbd93d816	-0.072189495
241	0xbb65c3ab	-0.0035059254
242	0x3b0532d6	0.002032449
243	0x3ce781a0	0.028260052
244	0x3c878386	0.016542207
245	0x3bb5d3c0	0.005548924
246	0xbcb2cb86	-0.021825563
247	0xbda5dc97	-0.08098715
248	0x3d88597a	0.06657691
249	0x3d114246	0.035463594
250	0xbb3d7080	-0.0028906167
251	0xbcd64800	-0.02615738
252	0x3d18eb63	0.037333857
253	0x3b5518d6	0.0032516024
254	0xbd9aabdb	-0.0755231
255	0xbd8056df	-0.06266569

convs.2.0.bias f4 [16]
0	0xbb28b92b	-0.0025745134
1	0x3d71b52b	0.059010666
2	0x3d65865b	0.056036334
3	0xbda26600	-0.07929611
4	0x3d995317	0.07486551
5	0x3c28796b	0.010282855
6	0x3d41958e	0.047261767
7	0x3c55860b	0.013032447
8	0xbb2bd1d6	-0.0026217601
9	0x3be8ac96	0.007100652
10	0x3d75f296	0.0600458
11	0x3d5452a3	0.05183662
12	0x3d6d6e20	0.05796635
13	0xbd2a8d5e	-0.041638725
14	0xbd741ea3	-0.05959953
15	0x3cfbd410	0.030740768
