save/200_LIME_decom.pth (torch, 117831 bytes, 9 tensors)

inconv.0.weight f4 [32, 3, 3, 3]
000000 20 1c 17 3e 1b 18 70 3e 34 ef 6f 3e 00 48 88 3d
       0.14756823 0.23446696 0.23431093 0.06654358
000010 9b 1a 63 3e a7 5e e4 3d b6 fb d4 3e 5f fa 9e 3e
       0.22178118 0.11150866 0.4159829 0.31050393
000020 0c d3 c7 3e 7e 20 86 be 04 4c 6e be c0 5a 8a be
       0.39028203 -0.26196665 -0.23271185 -0.27022362
000030 ce 1c e0 bd 55 e0 8d be f3 e1 91 be 15 ab a6 bd
       -0.10942994 -0.27710214 -0.28492698 -0.081381
000040 5a c3 0d be 65 fa 92 be 48 bf 1d bd e1 51 08 3e
       -0.13844052 -0.2870666 -0.0385125 0.13312484
000050 b8 ad 47 3e 5d 02 8e bd 74 0a 51 3b 28 eb aa bd
       0.19499862 -0.069340445 0.00318971 -0.08345634
000060 b3 25 ab 3c 1f 79 89 be 6e b2 0a bd 50 44 94 3e
       0.020892 -0.2685022 -0.03386157 0.28958368
000070 46 bf 1d 3e 1a e2 c4 3e 9b ef 01 be aa 81 a4 bd
       0.15404996 0.38453752 -0.12689058 -0.08032544
000080 c3 04 0d 3e 9e 0e e0 bc 65 75 34 3c 1b f3 e2 bc
       0.13771348 -0.02735072 0.011014317 -0.027703812
000090 7c d1 f9 3d 36 b0 08 bc 34 ae 07 3e 7a 0b 40 3d
       0.12198159 -0.008342793 0.13250047 0.046885945
0000a0 c5 7e 1c bd 5f 10 c8 bd 79 ad 0c 3d 7b 15 80 bd
       -0.038206834 -0.097687475 0.034345124 -0.06254097
0000b0 40 d0 8f 3b 78 cf ed bb 42 78 b2 be 08 92 2f be
       0.004388839 -0.007257398 -0.34857374 -0.1714555
0000c0 60 51 00 bd e6 3e 2a 3d f1 21 f7 bd f7 48 2a be
       -0.031327605 0.04156389 -0.12067021 -0.16629396
0000d0 09 9e f7 bc 31 f2 20 be 3b 7d 00 3d 6d ad 11 bb
       -0.030226724 -0.15717389 0.03136943 -0.0022228614
0000e0 f5 4c 56 bd 79 2c 9f bd 47 7c 3b 3d 16 1e 62 bd
       -0.052319486 -0.07772154 0.045772817 -0.055204473
0000f0 25 bc 85 bd ab a3 c4 3d 40 8b b2 bd 10 3e e4 bb
       -0.06530026 0.0960153 -0.08717966 -0.0069654062
000100 3d 88 27 3e 92 d5 0f be d9 ef 55 bc 6a 6e 12 be
       0.16360565 -0.14046314 -0.013057672 -0.14299932
000110 1e 2e 55 3c 50 b5 15 be c4 42 0f 3d 62 f2 9b bd
       0.0130114835 -0.14619946 0.034975782 -0.0761459
000120 17 58 db bc fd c4 0f be de 87 40 be 78 a9 2b 3e
       -0.026775403 -0.14039989 -0.18801829 0.16763866
000130 2d 75 ae bd 1e 93 79 bd 8e f8 04 3e 75 de 7c 3d
       -0.08518443 -0.060931318 0.12985441 0.06173559
000140 ff c8 88 bc 5d 4c 98 be 17 29 d1 bc 5f 17 af 3d
       -0.016697405 -0.2974576 -0.025532288 0.085493796
000150 fb 2e 5b bd 9c 13 fc 3d ca d2 1b 3e c5 2d ba 3e
       -0.0535116 0.12308428 0.15217128 0.36363044
000160 73 df 98 3e 71 7d 05 3f 43 07 d7 bd 80 2b 0c 3e
       0.29857978 0.52144533 -0.10499432 0.13688469
000170 64 73 ca bd 69 24 ef bd 69 73 f5 3d 7e 7a e3 bd
       -0.0988529 -0.116768666 0.11984903 -0.11107348
000180 06 70 50 be e8 4d c5 bd d1 30 39 bd 8a 0f 6c bd
       -0.20355234 -0.09634 -0.04521257 -0.057632007
000190 d3 21 ea 3c f2 51 69 3c 80 09 89 3d c7 f3 f9 bb
       0.028580582 0.014240729 0.06691265 -0.0076279375
0001a0 fe 10 3c 3d 4e 21 dd bd 21 a2 a2 bd 96 b0 27 be
       0.045914643 -0.10797368 -0.0794108 -0.16375956
0001b0 7d 4d 0e be 3d 08 5e 3e e8 03 5c 3e 48 62 a8 3c
       -0.13896747 0.2168283 0.21485865 0.020554677
0001c0 10 41 46 be 7e 85 4f 3e 81 ad dd be c7 d9 88 be
       -0.19360757 0.20265767 -0.43296435 -0.2672865
0001d0 e3 40 8b be 73 7b 33 bd 4e 8a 14 be 17 fe 3d be
       -0.27197942 -0.043818902 -0.14505884 -0.18553959
0001e0 e8 ec a1 be 36 1e 69 bd a8 56 ca 3c 1d 2b 6a bd
       -0.31626058 -0.056913577 0.024699524 -0.057170022
0001f0 3b 7c 6e be 69 09 2c be 4c d4 61 3e 1b 0d 36 bd
       -0.23289578 -0.16800465 0.22053641 -0.044446092
000200 bb ae 57 bd df e3 28 3e 9c 9f 91 3d 24 33 09 bd
       -0.05265687 0.16493176 0.07110521 -0.033496037
000210 6d 2f 23 3f b4 cf ae 3e aa 61 a9 3e eb 40 d0 3c
       0.6374424 0.3414284 0.33082324 0.02542158
000220 16 2d 61 3e 9d 97 3b 3e 90 f1 e2 3d 4b 87 59 bd
       0.21989855 0.18319555 0.11081231 -0.05310754
000230 87 af 8c 3d ad 67 ba 3d 39 ba f3 3d ee a2 15 bd
       0.06869417 0.09101806 0.119007535 -0.036532335
000240 6f c2 f7 3c 55 64 fd 3d 36 b4 53 3e df 97 0e 3e
       0.03024408 0.123726524 0.20674214 0.13925122
000250 1f a8 fd bd a4 d0 fa 3d 6e 01 8b 3d 41 50 03 3e
       -0.12385582 0.12246826 0.06787382 0.12823583
000260 26 66 6b 3e 47 68 a9 3d db f6 0f 3d 8b 53 d0 bd
       0.22988185 0.082718424 0.03514753 -0.101721846
000270 39 41 34 bd 76 c3 a5 bd bd c9 e3 bc 9c 80 f3 3d
       -0.044007514 -0.08093922 -0.027806157 0.11889765
000280 a8 4c 48 3d 38 49 63 3e 73 70 c9 be c5 b1 38 be
       0.04890123 0.221959 -0.39343604 -0.18036564
000290 f7 ed 48 be 54 13 c2 be e6 65 55 be df 3a 01 bd
       -0.19622026 -0.3790537 -0.20839652 -0.031550284
0002a0 25 15 af bd d7 2c 9f 3c 70 40 9e 3d 6d 9d ac 3d
       -0.08548955 0.019430561 0.07727134 0.08428464
0002b0 17 65 8b 3c 88 77 10 3c 82 57 c7 bc 03 31 86 3d
       0.017015977 0.008817561 -0.02433372 0.06552317
0002c0 db 2a 55 3e f0 10 1c 3e 1e aa ac 3d 16 ae 4b bd
       0.2081713 0.15240836 0.08430885 -0.04972657
0002d0 0d 66 bb 3e f1 ea 75 3e b1 69 03 3c a7 c6 a3 3e
       0.36601296 0.24015404 0.008020804 0.31987497
0002e0 d4 18 83 3d 5d 78 bb bc b5 19 06 3d 0c 76 dc bc
       0.0640122 -0.022884542 0.03273936 -0.026911758
0002f0 4c ec 57 bd da 87 d1 3e b7 d6 c3 3d 3d cd f7 bd
       -0.052715585 0.4092396 0.09562438 -0.12099693
000300 1c 90 22 bd 2c b5 78 3d 0f ac f9 bd 40 77 ff bd
       -0.039688215 0.060719654 -0.12191021 -0.12473917
000310 74 e6 3b be 84 60 12 be 72 00 02 3f e7 66 4d 3e
       -0.1834963 -0.1429463 0.5078193 0.20058785
000320 7a 43 c9 3d f0 77 de 3d 40 67 b1 3d 20 64 53 bd
       0.09827323 0.1086272 0.086622715 -0.05160916
000330 a6 72 80 be 94 09 51 bd 75 ef 80 be 9c bf cf 3d
       -0.2508747 -0.051034525 -0.2518269 0.101439685
000340 7a 56 0e 3e ac 0b ec bc 26 aa 11 3e c1 d4 e4 3d
       0.13900176 -0.02881416 0.14225063 0.11173392
000350 75 04 da 3c b8 8b ef bd c1 67 11 be 3a 9d b3 be
       0.026613453 -0.11696571 -0.14199735 -0.35080892
000360 ef 25 d5 3e 04 38 1f bd a9 ff d1 3e ce bf aa 3d
       0.41630504 -0.03887178 0.41015366 0.08337365
000370 f0 aa 97 be 95 f1 17 be db 09 8f 3e 78 d3 0c be
       -0.29622602 -0.1483825 0.27937207 -0.13752544
000380 02 07 6b be 85 1d b9 3d 45 3f 42 be 2e 77 04 3e
       -0.22951892 0.090388335 -0.18969448 0.12936088
000390 c8 6e 63 be 6d d2 96 bd 90 f9 d0 bd c4 41 3d 3e
       -0.22210228 -0.07364354 -0.1020385 0.18482119
0003a0 ff 66 88 bd 71 3f 29 be 02 aa 23 3e d0 8e ab 3d
       -0.0666027 -0.16528107 0.15982822 0.08376849
0003b0 ca 73 a2 3e b2 db 2c be 86 8f a5 bd a3 16 ad 3c
       0.31728965 -0.16880682 -0.080840155 0.021128958
0003c0 31 3e 7f bc 40 e1 a8 3d 06 b8 09 be c1 3b b2 3c
       -0.015578792 0.08246088 -0.13449106 0.021757009
0003d0 7d a4 37 3d 27 68 3b be 5c 03 03 be aa bc b9 bd
       0.044834603 -0.1830145 -0.1279425 -0.09069188
0003e0 5e 70 4b bd 8d 74 d2 3d 6c d0 ec bd d3 a0 26 3e
       -0.04966771 0.102761365 -0.11563191 0.16272287
0003f0 a0 93 39 3e ae 23 b6 bb ef 9b 47 3e 7c e0 8d 3e
       0.1812272 -0.0055584526 0.19493078 0.2771033

inconv.0.bias f4 [32]
000000 a5 fb 85 bd cd b4 61 bd ba cb 1f be 7e b6 85 be
       -0.06542138 -0.055104066 -0.1560506 -0.26115793
000010 bc ef e4 bc 6f 66 4d bf 0f 7c 70 bc 61 0d 9b bc
       -0.027946346 -0.80234426 -0.014678015 -0.018927278
000020 1e 44 9b bc 59 e1 bf bb c0 66 16 3b a5 84 4f 3d
       -0.01895338 -0.005855721 0.0022949427 0.05066361
000030 f1 71 c9 3b 0c 53 01 be dc 0f 0e be 7b 7a 4d bf
       0.006147616 -0.12629336 -0.13873237 -0.80265015
000040 ea d3 f4 bc 04 75 a8 be 02 cc 9a be b9 a3 3a bc
       -0.029886205 -0.32901776 -0.3023377 -0.011391574
000050 eb 6e 8e bc 0c aa 56 bf ec da 30 ba a7 34 a2 be
       -0.017386874 -0.8385322 -0.0006746489 -0.31680796
000060 2a 2d e2 bc b3 d2 34 bd 72 18 46 be c9 cd 68 bd
       -0.027609427 -0.04414625 -0.19345263 -0.056836877
000070 1b 30 92 3e 07 a4 0b be 6f e5 68 3e 75 b6 6a bb
       0.28552327 -0.1363679 0.22743772 -0.003581432

convs.0.0.weight f4 [32, 32, 3, 3]
000000 27 9f 9a bf 0d 89 a1 bf d0 7a 8a bf 58 ac 70 bf
       -1.207982 -1.261995 -1.0818729 -0.94012976
000010 0e 9c 87 bf ff 85 69 bf 7b ee 82 bf 19 4a 91 bf
       -1.0594499 -0.91220087 -1.0229028 -1.1350738
000020 ae dd 7b bf 63 a6 72 3d 95 9f 63 be f6 6c 60 bd
       -0.9838513 0.05924071 -0.22228844 -0.054791413
000030 93 e2 66 bc 8e 7d 1d be 5f c3 94 bc 79 7f 01 3e
       -0.014092105 -0.15379927 -0.018159566 0.12646283
000040 a2 66 d8 3d 09 37 5d 3e d3 e8 51 3d 0f db da 3c
       0.10566451 0.21603025 0.05124743 0.026715783
000050 ea db 47 3d c1 fb 2d 3d f6 55 3d bd 2e 30 27 bd
       0.04879371 0.04247642 -0.046224557 -0.040817432
000060 bc 75 2f bd b7 74 56 bd e4 8a 1d 3c 6d 1b 5a bd
       -0.04283689 -0.0523574 0.009615634 -0.05324881
000070 07 c5 25 3e d3 f1 8c 3e b4 c4 2a be 48 9b 3a bd
       0.16188441 0.27528247 -0.16676599 -0.045558244
000080 bb 9d bb 3d be 78 1e be 95 01 e4 bd e3 29 99 3d
       0.09160944 -0.15475747 -0.11133114 0.074786924
000090 a6 ca a2 3e a1 ae c1 3c 2e 99 54 be 89 89 69 3e
       0.31795233 0.02364284 -0.20761558 0.22806372
0000a0 f2 ce 3b bd 3e be 10 be 80 27 4d 3e e0 0e 8e bc
       -0.045851655 -0.14135072 0.200346 -0.017341077
0000b0 a9 80 8c bd e3 75 6d 3e 00 92 e9 3d e3 d2 87 3e
       -0.068604775 0.23189501 0.114048004 0.2652808
0000c0 56 6e 43 3e 6e 20 3d 3e ab 5e b8 3e c2 1b 41 3e
       0.19085059 0.18469402 0.36009726 0.18858245
0000d0 d3 cf 76 3e da ce b6 3e d3 74 89 3e 16 e3 7d bd
       0.24102716 0.3570469 0.26846942 -0.061984144
0000e0 ba 17 1c be 49 b4 c7 3b 58 1e 7e be d1 2b a0 be
       -0.15243426 0.0060944897 -0.24816263 -0.3128343
0000f0 20 51 dc 3c db ac 86 be 48 d9 8d be dd fa 84 3e
       0.026894152 -0.26303753 -0.27704835 0.25972643
000100 aa e1 2a 3d f0 27 0a bd 79 fd 22 3d 78 40 56 3b
       0.041719116 -0.033729494 0.03979251 0.0032692235
000110 21 b9 03 be de 77 92 bd 80 9e f5 3c 71 9b 6b be
       -0.1286359 -0.07151769 0.029982805 -0.23008515
000120 36 90 16 3e 59 ad 42 3d 3d cd da 3d 65 a0 98 3c
       0.1470345 0.0475286 0.10683677 0.01863117
000130 d7 bf d7 bc d9 73 0c be 2b c8 a5 bd 39 91 a0 bd
       -0.026336594 -0.13716067 -0.0809482 -0.07840199
000140 d6 85 86 be ff c1 45 3e b2 84 b5 bd 53 fb c9 bd
       -0.26273984 0.19312285 -0.088632 -0.098623894
000150 ea 59 d6 3d 8e 6c da bd af 49 3f be 16 40 a6 3e
       0.104663685 -0.106652364 -0.18680452 0.3247077
000160 1f 36 a8 3d cf 15 90 3d 8c 8b 01 3e 70 0a 18 3c
       0.08213448 0.0703541 0.12650889 0.009279832
000170 64 47 a0 be 3c 2b fb 3d cb fb 48 3d 35 8f cd be
       -0.31304467 0.12264106 0.049068253 -0.4014832
000180 89 5c 71 3e f9 0a 7f 3d b9 69 eb be c3 dd 5c 3e
       0.23570456 0.062266324 -0.45979097 0.2156897
000190 3c 8b 8e bd 4a 41 b6 bc 01 db 1c 3d 11 ca 1e be
       -0.069601506 -0.02224793 0.038294796 -0.1550677
0001a0 c8 64 bf bd 0c 52 6c 3e 26 25 3a 3e 07 27 31 3e
       -0.093453944 0.23078173 0.18178234 0.17300044
0001b0 67 e8 f7 be 22 68 a7 bc cc a0 78 3e 97 48 d6 be
       -0.48419496 -0.020435397 0.24280089 -0.41852257
0001c0 27 35 9c bd 15 d2 30 3e aa e5 92 be 4a 09 ee bc
       -0.076273255 0.1726764 -0.28690845 -0.029057164
0001d0 99 24 1c 3e bc bf 47 be 84 3a 90 be de 03 13 be
       0.15248336 -0.19506735 -0.28169644 -0.14356944
0001e0 97 44 b7 be e2 2a a4 be 54 85 96 be 62 33 9c be
       -0.35794517 -0.32063967 -0.29398596 -0.30507952
0001f0 c3 23 98 be 4e d5 7a be b5 11 04 be e3 e2 11 be
       -0.29714784 -0.24495432 -0.1289738 -0.14246707
000200 4d 8d ba 3d d4 81 75 be c7 97 2e be 5c d1 db 3d
       0.09108982 -0.23975307 -0.17050086 0.107332915
000210 84 f6 7e be 1b d6 0f be 7f ea 2c 3e 5b dd ac 3e
       -0.24898726 -0.14046519 0.16886328 0.3376263
000220 a9 59 de 3d 1b 90 28 3e db 3a 6c 3d e0 1b 62 bd
       0.10856945 0.16461222 0.057673316 -0.055202365
000230 29 67 d9 3d 2e 4d 3f 3d b3 76 be 3c 20 ac 6d 3e
       0.10615379 0.046704464 0.02324996 0.23210192
000240 fd 4b 7f 3c 76 40 2b bc 3e 0d b1 bc ef cb 98 bd
       0.015582082 -0.01045238 -0.02161276 -0.07460772
000250 2f 29 bc bd 92 13 ff bc d7 08 ad bd 31 f4 a8 bb
       -0.09187543 -0.031137262 -0.08448952 -0.005156063
000260 1b 76 96 3c 78 13 2d 3e 30 7e d6 3d 47 65 d8 be
       0.018366864 0.16901958 0.10473287 -0.42264768
000270 35 10 98 3d 33 ae 9c 3d 71 51 0c be f7 aa 0a 3e
       0.07424966 0.07650413 -0.13702942 0.1354178
000280 1b a8 fe bc 8b f0 d1 be 28 ea 0a be b6 5b f2 bd
       -0.031086018 -0.41003832 -0.13565886 -0.11833899
000290 1d 6d 55 bd f7 3f c0 bd 9f 3c 67 3d e7 55 57 3d
       -0.05210601 -0.093872 0.056454297 0.052572157
0002a0 0a 3d 96 be a5 8d 10 3c 5c 50 22 3e 38 26 c2 bd
       -0.29343444 0.008822833 0.15850967 -0.09479946
0002b0 b4 c4 a3 bd fa 13 01 be 40 14 aa bd f7 8b 99 bd
       -0.079965025 -0.12605277 -0.08304644 -0.07497399
0002c0 63 c2 a7 3c 3f 1d ef 3d 1a 55 61 3d 68 2d 58 3e
       0.020478433 0.116755 0.0550128 0.21111071
0002d0 80 56 24 3e 6c 3e 82 3d 8f 66 b4 bc f6 03 e1 bc
       0.16048622 0.06359562 -0.02202156 -0.027467709
0002e0 ed 1c 99 bd e2 d0 5b bd d0 8e 0b bd 83 11 82 bd
       -0.0747622 -0.053666003 -0.034071743 -0.06350996
0002f0 58 00 fe 3d 73 d1 2d 3e 44 31 9a 3d d5 57 bc 3d
       0.12402409 0.1697443 0.07528928 0.0919644
000300 b8 85 31 3e 38 b4 35 3e e6 e7 0f 3e b1 34 0b 3e
       0.17336166 0.17744529 0.14053306 0.13594319
000310 de 0e 31 3e 2e ba 9f 3e bb a9 0d be b3 17 a6 ba
       0.17290828 0.3119673 -0.13834278 -0.0012671858
000320 2e 48 90 bd ef 0b 8a bd 86 81 98 3a 02 fc 20 be
       -0.07045017 -0.067405574 0.0011635281 -0.15721133
000330 02 e2 59 be bb d8 6b 3d e9 62 6a bd 5c 70 e4 3d
       -0.21277621 0.057579737 -0.057223234 0.11154243
000340 7a d7 d2 3c e0 6a 15 3d 6e 42 ae 3c 16 cb 41 3c
       0.025737513 0.036478877 0.02127191 0.011828205
000350 0f 6d 16 bd 41 31 6a 3d 5c e0 94 3b 39 0e b7 3d
       -0.0367251 0.05717588 0.0045433473 0.0893826
000360 57 6d da bd 0b e3 57 bd 7c 09 64 bb 24 6b 55 be
       -0.10665386 -0.05270676 -0.0034795692 -0.20841652
000370 17 7a 37 bd a2 04 d3 bb d8 0c 5a be 26 bb ee bc
       -0.04479417 -0.0064397613 -0.21293962 -0.029141974
000380 6b ed 01 3e 0f f9 b1 bd fc 92 9d be 34 c4 e8 be
       0.12688224 -0.08690082 -0.30776203 -0.4546219
000390 61 52 f9 bd 63 f5 a4 bd 32 be ac be 19 68 3b bd
       -0.12173916 -0.08054616 -0.33738858 -0.045753572
0003a0 b5 2e 81 bd b5 db 54 be c1 df 3d bd 4c ea 87 bd
       -0.06307737 -0.20786937 -0.046355966 -0.066364855
0003b0 c1 79 22 bd be 09 aa bd 02 19 14 be b3 a1 8b bc
       -0.039666895 -0.083026394 -0.14462665 -0.017044878
0003c0 2e 10 d5 bc f9 25 c3 bd fa f9 6e bd cb f5 18 bf
       -0.026008692 -0.09528727 -0.058343865 -0.5975005
0003d0 54 f0 e4 be 67 c0 13 bf 19 ee 38 bf f3 52 1d bf
       -0.44714606 -0.5771546 -0.7223831 -0.61454695
0003e0 4c 1a b8 be f1 2c 07 bf b2 6c f1 be a8 56 2c 3c
       -0.35957563 -0.5280295 -0.4715324 0.010518707
0003f0 df 05 bb bb d7 3a 49 3e 3c 84 12 3d 65 bf 20 3e
       -0.005707487 0.19651352 0.03577064 0.15698011

convs.0.0.bias f4 [32]
000000 b7 be 5a be 80 fb c0 bd a4 20 fb bd ad d3 a1 bd
       -0.21361814 -0.0942297 -0.12262085 -0.07901702
000010 44 b9 61 be 27 c2 bf bc 13 7b 6b bd 53 19 8b bd
       -0.2204333 -0.023408009 -0.05749042 -0.067919396
000020 98 08 e2 bb f5 48 94 bb 21 8f 71 bd 52 db a2 bd
       -0.006897997 -0.0045252987 -0.05897439 -0.07951988
000030 25 aa 97 bd b2 66 80 bd 40 b6 1b bd c2 ae 36 bc
       -0.07405499 -0.062695876 -0.038015604 -0.011150064
000040 f5 8b 22 bf 6b 12 0a be dd 76 bb bb 56 e1 2c be
       -0.6349481 -0.13483588 -0.0057209567 -0.16882834
000050 b9 eb 0f be 0c 0f 93 bd 05 d2 80 bd 0d 4f 82 3c
       -0.14054765 -0.07180604 -0.06290058 0.015906835
000060 b1 0b 9f bd 4b 0b ab bc fe ff d9 bd f1 4c 9b bd
       -0.07765902 -0.020879408 -0.1064453 -0.07583035
000070 57 d0 4c 3b 6a 3e 92 bb 68 55 99 3b 85 69 eb bc
       0.003125211 -0.0044630067 0.0046793707 -0.02873684

convs.1.0.weight f4 [32, 32, 3, 3]
000000 74 67 9f bd c6 d1 dc bd 7e 85 03 3e b2 43 26 be
       -0.07783404 -0.107821986 0.12843892 -0.16236761
000010 bb 47 12 be e5 1c a9 bd 23 dc b6 bd 67 ca 04 3c
       -0.14285176 -0.08257464 -0.089287065 0.008104897
000020 cc d3 16 3e 52 e2 0c bd 24 57 4a bd c0 e0 34 3e
       0.14729232 -0.034395523 -0.04939951 0.1766386
000030 10 f5 bf bd 59 e1 c4 bd 75 00 66 3d 2c 42 1b bc
       -0.09372914 -0.09613294 0.05615278 -0.009476226
000040 d1 78 ee bc d7 b7 e6 3d f9 c8 2a 3e e5 4a 7c 3e
       -0.029110344 0.112655334 0.16678227 0.24637945
000050 17 8c a2 be bd e8 1c 3e 64 0f 1c 3e 25 8f 94 bd
       -0.31747505 0.15323158 0.15240246 -0.07253865
000060 8a dd 75 3d 96 30 b0 3d 0c a6 13 be 45 9e e2 bb
       0.06002573 0.08603017 -0.1441881 -0.00691584
000070 74 cf 8b 3c f1 c2 28 bd fa 5a 61 bd f9 0d 94 bd
       0.017066695 -0.041201536 -0.055018403 -0.072292276
000080 f4 42 6e bd e9 a6 07 bc c6 80 f2 3c e2 00 93 3c
       -0.05816932 -0.008279541 0.02960242 0.017944757
000090 b8 35 64 bc a0 b2 ee 3c 1a 6b d3 bd 89 15 7e 3b
       -0.013928823 0.02913791 -0.103231624 0.003877016
0000a0 00 73 0b 3d 04 0f b5 bd 0e 05 ba bc 87 c0 90 3d
       0.03404522 -0.08840755 -0.022707488 0.07067972
0000b0 d9 d0 2a be 77 e9 a7 3e 41 a9 52 bd 2a 09 b8 3d
       -0.16681232 0.32795307 -0.051430944 0.08986123
0000c0 ee 2b 75 3d d2 0a ac bd 44 44 70 3d cb 91 a2 be
       0.059856348 -0.08400501 0.058658853 -0.31751856
0000d0 66 90 86 bd 8a 7b 1b 3e 73 78 17 3c bb 3a 21 3d
       -0.065705106 0.15183845 0.009245026 0.03936265
0000e0 ec ba 11 3d e2 fc 63 3c 8d f9 63 bc 0e 31 d0 3b
       0.035578653 0.013915272 -0.013914478 0.006353504
0000f0 c3 63 aa bc 09 24 77 3d 0d 60 04 bd 02 be 26 3c
       -0.020799523 0.0603371 -0.032318164 0.010177137
000100 8a 17 ec bc 42 95 9c 3c 76 2d d6 3c 0e 39 17 bc
       -0.028819818 0.01911414 0.026144724 -0.0092299115
000110 c7 1c 5e 3d 3c a2 db bc cd 52 cb bc 78 bc 0c bd
       0.054226663 -0.026810758 -0.024819756 -0.034359425
000120 2d be 49 3e f4 d1 da bc 0e 4e 94 3e 29 d7 1b 3e
       0.19701453 -0.026711442 0.289658 0.15218796
000130 97 c3 8b bd 8d cc 0a 3e 94 08 a7 3d f9 b1 0b be
       -0.06824415 0.13554592 0.08155933 -0.1364211
000140 1e 32 0b 3e 2c e2 09 be a8 0a 13 bd 4a eb e9 3e
       0.13593337 -0.13465184 -0.035898834 0.45687324
000150 03 7c 0f be e2 2f 90 bd 1f 0d b0 3d fe 72 78 be
       -0.1401215 -0.07040383 0.08596253 -0.24262616
000160 25 3b c0 bd 7d 04 bd be 1f e0 7a bd cb 96 41 be
       -0.09386281 -0.36917487 -0.061248895 -0.18905179
000170 9c 84 a5 be 43 dc 9f bd d9 dc 3e be 1a 26 65 be
       -0.32327735 -0.078056835 -0.18638934 -0.22377816
000180 10 34 0e be 9c 40 3a be 8d 23 90 bd 57 f6 86 3c
       -0.13887048 -0.18188709 -0.07038031 0.016474886
000190 96 ca 8b 3d f9 3e 09 bf 92 4a 34 3c ad 26 98 bc
       0.068257496 -0.53611714 0.011004107 -0.01857313
0001a0 49 82 0f be 9a e2 68 3c 28 69 5a bd 69 a0 6d be
       -0.14014544 0.014214182 -0.05332294 -0.23205723
0001b0 8a 84 aa bd 75 4f 94 bd 12 49 28 3d 8e 5b 60 bd
       -0.08326061 -0.07241718 0.04108531 -0.054774813
0001c0 8e 37 97 bd 25 89 1e 3d bf 12 5f bd 83 c3 82 bd
       -0.07383643 0.03870501 -0.054461237 -0.06384947
0001d0 26 ef 4d 3d 3c 66 a6 3d 62 9c 14 ba df 82 db 3c
       0.050276898 0.081249684 -0.0005669055 0.026795803
0001e0 e9 0f 88 3d da da 99 3d e9 72 27 3c 97 20 34 3d
       0.066436596 0.07512446 0.010220268 0.043976393
0001f0 84 7f 09 3d 1e f8 5e 3d 6a 82 17 3d 29 50 8a bc
       0.033568874 0.05443584 0.036989607 -0.016883926
000200 fc 4b 70 3e 72 52 d8 bd a5 10 b5 bd 7f 69 11 3e
       0.23466486 -0.105626 -0.08841065 0.142004
000210 b5 dd e5 bd 4a 44 9f bd e0 ef 29 3e 50 37 c0 be
       -0.11223928 -0.07776697 0.16595411 -0.375422
000220 a1 e9 c0 3d 02 d0 82 be b3 83 2d bf 7b 5e e0 bd
       0.09419561 -0.25549322 -0.6777908 -0.10955521
000230 04 d3 85 bc bf 8c f1 be 48 7d 59 bd bb cb e7 bd
       -0.016335972 -0.47177693 -0.053097993 -0.113181554
000240 07 8d dc bd 40 1c aa 3d 74 b3 29 3e 12 db 30 3d
       -0.10769086 0.083061695 0.16572362 0.04317767
000250 85 9c 81 3e cf 61 e0 3c 58 82 31 be 61 41 d0 3d
       0.25314727 0.027390389 -0.17334878 0.1016872
000260 a3 b8 0b 3e 88 30 92 bc 67 1c 02 bd 9b 79 96 3e
       0.13644652 -0.017845407 -0.031765368 0.29389653
000270 4c 4b 34 be c0 66 8b bd 93 5d 27 3e 1a 4b 77 be
       -0.17606848 -0.068067074 0.1634429 -0.24149743
000280 40 33 30 be 8b ac 1b 3e 1d c0 49 3e b0 2c 0e be
       -0.1720705 0.15202539 0.19702192 -0.13884234
000290 5f 2f 7f bd 53 d3 53 bd ea a3 37 bd d3 4d 9c 3c
       -0.062301036 -0.051715206 -0.044834055 0.019080078
0002a0 84 3e 1a 37 90 31 06 3c e1 ff ed bd 24 6a 19 3d
       9.193671e-06 0.008190528 -0.11621071 0.03745474
0002b0 8b 0f c9 bd 24 18 94 be d0 39 ac 3d 92 0e 55 bd
       -0.09817418 -0.28924668 0.08409464 -0.05201585
0002c0 c9 b4 61 be ac b7 08 3e f1 2e 3b 3c 4a 34 bb be
       -0.2204162 0.13351315 0.011424766 -0.3656333
0002d0 e0 87 dd bd 2a 22 87 bc a1 96 be 3e 46 59 10 be
       -0.10816932 -0.016495783 0.37224296 -0.14096555
0002e0 c2 13 a1 bd 90 3d 2e 3e 85 25 5b be 02 6f 29 bd
       -0.07865097 0.17015672 -0.21401031 -0.04136563
0002f0 b7 a0 65 3d 0c 49 4b bd c5 9a 99 bd 63 7a 55 bd
       0.056061473 -0.04963021 -0.07500223 -0.05211867
000300 e1 8a 57 bd 67 03 62 bd 24 17 da 3c 37 1b 04 3d
       -0.05262268 -0.055179026 0.026622362 0.032252517
000310 83 51 7f bc c0 61 f0 3c 47 7b c8 bc df b2 d2 3c
       -0.015583399 0.029343486 -0.024472846 0.025720058
000320 8d 65 4a bd b6 1e c5 3a 5e 04 81 bc 35 91 70 bd
       -0.049413253 0.001503906 -0.015749153 -0.05873223
000330 21 87 ce 3d 2a c6 66 3c ba 06 75 bc 75 e2 31 bf
       0.100843675 0.014085332 -0.014955217 -0.6948617
000340 47 e6 82 be 64 a1 e5 be 7c 90 a6 bc 0a b1 1f 3e
       -0.25566313 -0.44849694 -0.020332567 0.15594879
000350 c4 4f 5e be 13 8f d4 bd c0 e3 34 3e 1c ee 4e bf
       -0.21710116 -0.10378852 0.17665005 -0.80832076
000360 77 fa 37 3e f7 6d 52 be c6 40 b4 bd 83 55 35 3e
       0.17966639 -0.20549761 -0.08801417 0.17708401
000370 63 c1 46 bd 36 63 1c be aa ec a2 3d 3f 27 45 bd
       -0.04852427 -0.15272221 0.07955296 -0.04813313
000380 97 10 22 be 6a 1f 44 bd 99 4e 2d bd 0f a2 d7 bc
       -0.15826641 -0.04788152 -0.042311285 -0.026322393
000390 d8 d0 25 bd 6f 1a 23 bd 18 fe f0 3d ca f7 28 be
       -0.040482372 -0.03982013 0.117672145 -0.16500774
0003a0 e6 15 08 bd d5 77 df 3e 9f 66 b7 3d c5 f9 c1 3d
       -0.03322401 0.43646112 0.0895512 0.09471468
0003b0 43 a4 32 3e 78 f1 6e bd 4d 1f ad bd 72 9a e7 bc
       0.17445473 -0.05833575 -0.08453236 -0.028271887
0003c0 e8 bd 70 bd 93 fd 21 be 52 33 2f be 38 e6 de 3c
       -0.05877486 -0.15819387 -0.17109421 0.027209386
0003d0 68 93 01 3a cb a0 ae bc 8f 4b 66 bd 55 e0 12 bd
       0.0004942925 -0.021316906 -0.056224402 -0.03585847
0003e0 fa 5c 8b bd 4c 9c 3c bd 2c 6f 8b bb 6b d4 5b bc
       -0.06804843 -0.046047494 -0.004255196 -0.013417344
0003f0 42 71 d6 3c 55 9d b2 3a f2 f3 04 3c 26 7d 13 3d
       0.026177052 0.0013627211 0.008114802 0.036008023

convs.1.0.bias f4 [32]
000000 a4 03 0c bd 36 ba c3 bb 6c 1c 2e be 3f c4 87 bd
       -0.03418316 -0.005973126 -0.1700303 -0.06629228
000010 30 c1 71 bc c5 1d 74 3e c7 60 81 3c cd f9 d7 bc
       -0.014755532 0.23839481 0.015793217 -0.026364231
000020 ac 81 3d bd 6e 5e c8 3c 67 a0 a8 bd b1 dc 83 bc
       -0.046266243 0.02445909 -0.08233719 -0.016096445
000030 90 4c 94 3e 2f a7 97 bc 99 e8 ff bc 31 d7 fc bc
       0.28964663 -0.018512337 -0.03123884 -0.03086433
000040 da e3 b7 bd e5 60 f9 bc 71 4f a2 bc 21 28 21 bc
       -0.08979006 -0.03044171 -0.019813271 -0.009836228
000050 50 74 1a be 45 82 a3 3e 51 00 cc bc 19 6c 56 bb
       -0.15083432 0.31935325 -0.024902495 -0.003271824
000060 44 4a aa bd b0 c1 f3 bd a6 77 1d bc a1 3f 30 be
       -0.08314946 -0.11902177 -0.009611046 -0.17211773
000070 5a 97 85 bd 58 3f 0b bd 25 a7 97 3c c9 e4 2d bc
       -0.06523009 -0.033995956 0.018512318 -0.010613629

convs.2.0.weight f4 [32, 32, 3, 3]
000000 d8 20 df bd 3f 4d b2 3d 32 15 ad 3e 42 77 3f be
       -0.10894936 0.0870614 0.33805233 -0.18697837
000010 49 07 65 bd 73 bd 05 3e c0 7f 35 bd 72 c1 95 bd
       -0.05591515 0.1306055 -0.044311285 -0.073122874
000020 ae 31 9b bd fa 9b a8 bc af 97 c8 bc d1 f9 bc bc
       -0.07577835 -0.020582188 -0.02448639 -0.02306834
000030 d4 59 84 3d b1 ef ad 3c 4d 78 f4 3c fa 9a 2a 3a
       0.06462446 0.021232458 0.02984252 0.00065080787
000040 f6 d5 13 3c b9 3a d8 bd 54 da c2 bd 59 f9 9a be
       0.00902318 -0.105580755 -0.09514299 -0.30268362
000050 1d 53 93 be be 97 be bd 79 45 15 be 99 35 e3 bc
       -0.28774348 -0.09306286 -0.14577283 -0.027735518
000060 a1 ee 2c 3d 55 22 09 3e 00 aa 5d 3e df 44 12 3c
       0.04221976 0.13392003 0.21646881 0.008927553
000070 63 30 7d 3d e3 0f 9c 3b fb 56 0c 3d 00 d7 73 ba
       0.061813723 0.004762636 0.03426264 -0.0009301752
000080 ea 4b 78 3d f0 34 3a 3d 8d c5 3c 3c 93 eb 01 bd
       0.060619272 0.04546064 0.011521709 -0.0317188
000090 35 02 ac 3d d7 b5 4d 3d dd a5 cc 3d db 88 3e bd
       0.083988585 0.050222244 0.099925734 -0.046517234
0000a0 7f 94 b0 bd 64 a6 9a bc 66 d6 35 3c 96 50 dc bd
       -0.086220734 -0.01887817 0.01109848 -0.10757558
0000b0 e3 d3 96 bd b1 18 2c bd 13 cb c2 3c 02 1c 13 be
       -0.07364633 -0.042015735 0.023778474 -0.14366153
0000c0 d3 a4 f1 bb 4b 58 97 3d 8d 4c 8c 3b 69 fb 2d be
       -0.007374385 0.073898874 0.0042815865 -0.16990437
0000d0 59 76 0d be 58 75 48 be e3 4d ac 3e 17 2e 4b 3e
       -0.13814677 -0.19576013 0.33653173 0.198418
0000e0 07 ed 4a 3d 0e 46 d8 3c 1b e9 72 bc 09 fa 0e be
       0.049542453 0.026400592 -0.0148260845 -0.13962568
0000f0 87 0c a5 bd b7 92 d4 bc 6e f7 8b be da 08 f3 be
       -0.0805903 -0.025948865 -0.2733721 -0.4746769
000100 91 78 bc be 9b 1b cb be da a4 8f be ee 06 6e be
       -0.36810735 -0.396695 -0.2805546 -0.23244831
000110 a9 6e d8 be e8 4b 9b be de e5 89 be b4 20 f2 be
       -0.42271927 -0.3033135 -0.26933187 -0.47290576
000120 ac 11 38 3b ee 87 7e 3c 77 63 10 3d 52 c8 94 3d
       0.0028086705 0.015535338 0.035251107 0.072647706
000130 45 9f ea bb 73 cc 95 bc 80 c2 96 bc 43 74 37 bd
       -0.0071600997 -0.018285966 -0.018403292 -0.04478861
000140 91 b8 b6 bc 09 19 95 3c 95 77 47 bd e1 3e 72 3c
       -0.022304805 0.018200414 -0.048698027 0.014785499
000150 12 46 b5 bd 3d 6b 0b be 80 b3 b8 bd 28 13 2b bc
       -0.088512555 -0.13615127 -0.09018612 -0.010441579
000160 6a 26 0c be b4 bd 9c bd 14 3a 31 bd ad 81 53 3d
       -0.13686529 -0.076533705 -0.04326828 0.05163734
000170 8a f4 1d bd b2 d0 b9 bc d1 1a 90 3c 3d dd f0 3c
       -0.03856329 -0.022682521 0.017590912 0.02940237
000180 71 cd 0a bb eb 35 50 bc df e9 24 3d 3c 07 92 3e
       -0.0021179582 -0.012708168 0.0402621 0.28521144
000190 37 82 11 3e 87 26 8e 3e d4 0d 66 3e f1 5b 48 3d
       0.1420983 0.2776377 0.22466213 0.048915807
0001a0 52 99 1a 3e 54 10 7b 3e 1a 21 da 3d a7 d5 92 3e
       0.1509755 0.24517947 0.10650845 0.2867863
0001b0 ef 5a 6a be 10 5d 5d bc d8 5d d8 3d 8f e6 54 be
       -0.22886251 -0.013510957 0.10564774 -0.20791076
0001c0 26 91 97 be 17 f5 79 be c8 3b a0 be 7d 69 59 be
       -0.29602927 -0.244099 -0.3129561 -0.21231647
0001d0 02 e1 30 bd 6a c2 96 bc 74 cf a6 ba 26 e7 08 3d
       -0.043183334 -0.01840325 -0.0012726621 0.033423565
0001e0 7f 6c ca bd 1b f3 9b bb 6f 57 bf 3c 30 b2 58 3b
       -0.09883975 -0.004759205 0.023357121 0.0033065192
0001f0 9a 1b d8 bc 6c d0 5b bc 9c 78 c9 bc bb b0 d9 bd
       -0.026380349 -0.013416391 -0.024593644 -0.10629412
000200 49 c3 71 be 7e e8 a5 bc 8c 90 bf bd 1f e7 f8 bd
       -0.23609652 -0.020252462 -0.09353742 -0.12153458
000210 dd d5 7f bd 68 78 86 bd 6c 91 19 bd a5 b0 8b 3e
       -0.062459815 -0.065659344 -0.0374922 0.27283207
000220 cc c3 7a 3e a4 56 b4 3d 34 ae 4c 3e 43 fb 08 3e
       0.24488753 0.08805588 0.19988328 0.13377099
000230 8a 43 e7 bc 3b 98 bc 3c 64 58 91 3e 0e bd 3d bc
       -0.028230447 0.023021808 0.2838775 -0.011580719
000240 13 b5 63 bd 40 ea 68 bd c3 36 12 bd 33 89 00 bd
       -0.055592608 -0.056864023 -0.035696756 -0.031380843
000250 7e c0 6e bd 2f cb a8 bc 85 64 04 bd 04 63 9c 3c
       -0.058289044 -0.020604698 -0.032322425 0.019090183
000260 97 93 01 3d d4 74 b5 3d f4 c3 d3 3d c0 08 ca 3d
       0.031634893 0.08860174 0.103401095 0.0986495
000270 41 87 de 3d 2b 21 fa 3c 3e 1f 34 3e 27 5d a0 3e
       0.108656414 0.030533394 0.17590043 0.3132107
000280 5c 6d e2 3d e7 fd 26 3d 11 8f 5c bd 53 66 20 3d
       0.11056015 0.040769484 -0.053847376 0.039160084
000290 04 ff cc 3b ff 8f 1d be 88 2f 53 bd 69 a2 ac 3d
       0.006255986 -0.15386961 -0.051559 0.08429415
0002a0 bf 8c 9e bd 2e 3c 3d be 3d b9 60 be 10 ad 70 3d
       -0.07741689 -0.18479988 -0.21945663 0.058758795
0002b0 ac 3d bc bd fd b7 8c bd 3d ff 08 3d b0 a8 51 3d
       -0.091914505 -0.068710305 0.03344654 0.051186264
0002c0 32 82 02 3e 02 c9 14 3e 70 9c df 3d 14 cf cf 3d
       0.12744978 0.14529803 0.1091851 0.10146919
0002d0 7d da 18 be 7f be 68 3d 97 ef c4 3d 1c 32 8f be
       -0.14927097 0.056822296 0.09616011 -0.27967918
0002e0 23 b6 5d 3d 4b 73 9c 3b b6 6a 84 bd 03 6c 70 3e
       0.054128777 0.004774486 -0.06465666 0.23478703
0002f0 e1 0f 0e 3e d9 51 56 3e ce f3 82 be 56 ed 3d be
       0.13873245 0.2092966 -0.25576633 -0.18547568
000300 b5 97 08 bf e1 ab 43 bf 51 0d 29 bf 15 86 6b be
       -0.53356487 -0.7643414 -0.66035944 -0.23000367
000310 90 b6 00 bf bd 92 15 3d 45 38 48 be e0 01 3f be
       -0.5027857 0.036516894 -0.19552715 -0.18653059
000320 fe 3a 74 be 95 fd 11 be 60 54 60 be e2 3a 45 be
       -0.23850629 -0.1425689 -0.21907187 -0.19260743
000330 30 f0 64 be c4 69 4b be 9d 90 9f bd 2c 6d 01 be
       -0.2235725 -0.19864565 -0.07791255 -0.12639302
000340 28 fd 2a be c7 66 91 be ad 2e 99 bd dd 85 d3 bd
       -0.16698134 -0.28398725 -0.07479606 -0.10328267
000350 d7 52 c9 bd 21 a8 21 be d0 34 19 be 9e 6b 26 be
       -0.098302536 -0.15786792 -0.14961553 -0.1625199
000360 bd ba 21 bc 27 1d 2e bd 5c ea 3f 3b 0a 9f 0c bd
       -0.009871182 -0.04250827 0.0029283976 -0.03433136
000370 4b 5b e7 3c 29 9b e3 bc 08 f7 14 3d 7e 9e fc bc
       0.028241774 -0.027783947 0.0363684 -0.030837294
000380 91 1d b3 bc 79 4e 0b be a9 ce 88 3c 14 1b f0 bd
       -0.021864684 -0.13604154 0.016700106 -0.11723915
000390 86 e2 3e bd 82 f2 8c 3d 6f 3b dc bc 89 13 da 3b
       -0.04660275 0.06882192 -0.026883809 0.006655161
0003a0 2f c3 7c bd 54 a4 95 be 5d d3 1c be 64 dd 8c 3d
       -0.06170958 -0.29226935 -0.15315004 0.068781644
0003b0 0d 1a 45 bc e0 51 8d bc 7b 45 0d 3e a0 2b 77 3e
       -0.012030137 -0.017250955 0.13796036 0.24137735
0003c0 f1 65 07 bc 71 2e 9a be a7 ea 98 3c 23 7b 09 3b
       -0.008264051 -0.30113557 0.018666578 0.0020977936
0003d0 0e 65 1c be dd cf 91 bd 00 73 71 b9 28 e4 45 3c
       -0.15272924 -0.07119725 -0.00023026392 0.0120783225
0003e0 46 39 8d bc a3 87 fa bd 32 98 2e be fe a5 31 bd
       -0.017239224 -0.12232902 -0.17050245 -0.043371193
0003f0 d1 3d 17 bd 22 e4 7d 3c e0 58 c8 bc e8 b7 1e 3c
       -0.036924187 0.015496286 -0.024456441 0.009687401

convs.2.0.bias f4 [32]
000000 fd 91 82 bd e8 dd ab 3e fa 3c 06 3f 04 5c f8 3e
       -0.06375501 0.3356774 0.5243679 0.48507702
000010 67 07 a3 3e b2 92 bb bd 4c 54 90 3e 4a 3b 42 bd
       0.31841585 -0.09158839 0.28189313 -0.047419824
000020 10 f5 19 be 61 99 5b be e2 ea 3c be 2c 2d 28 bd
       -0.1503489 -0.21445228 -0.18448976 -0.041058704
000030 9c 87 08 3f 7e 0b a9 bd c1 83 16 bc a1 29 b7 3d
       0.53331923 -0.08254145 -0.009186686 0.08943487
000040 8f d9 e6 3d 94 a8 8c bd 36 e0 5e be 8a 6e 62 bd
       0.11271965 -0.06868091 -0.21765217 -0.0552812
000050 54 ff df 3e 4d 5c f4 bd f2 15 de bd 63 23 60 be
       0.43749487 -0.119316675 -0.108440295 -0.21888499
000060 4d 0d e7 3e 80 ee b2 bd f5 9e 43 3d ea 8d 28 3c
       0.45127335 -0.087368965 0.047759015 0.010287741
000070 fa 0d f5 3b f6 3e 2e 3d 39 f7 07 bd b4 96 ec 3d
       0.007478473 0.042540513 -0.033194754 0.11552182

outconv.0.weight f4 [1, 32, 1, 1]
000000 ac 33 2f bc bd 02 a5 3b 13 ea 15 3e 96 82 2c be
       -0.010693472 0.005035727 0.14640073 -0.1684669
000010 69 09 ce 3b 87 12 48 bc 20 6d a4 3b 72 e6 87 3c
       0.006287743 -0.0122114485 0.0050178915 0.016589377
000020 6e 4d 71 bc b8 55 56 3c 06 67 9c bc ef d2 f1 3d
       -0.014727933 0.01308196 -0.019092094 0.118078105
000030 d8 91 72 be 15 09 b4 3d b7 93 da bc e7 82 a8 bd
       -0.23688447 0.08790795 -0.026681764 -0.08228093
000040 27 9f b7 bc 94 2b 8b 3d fb 2a 05 bd 38 77 c2 bc
       -0.022414757 0.06795421 -0.032511692 -0.023738489
000050 cf 97 a3 bd 3e 21 7f bc 60 03 8c bc ea 85 f3 bc
       -0.079879396 -0.01557189 -0.017091453 -0.029726941
000060 40 b9 ef bc 7d 63 33 bd 68 41 d6 bd a1 c6 b8 bc
       -0.029263139 -0.04379605 -0.10461694 -0.022555651
000070 b7 8b 99 3c 97 76 17 bd 04 e6 5c 3d cd 63 9c bc
       0.018743379 -0.03697833 0.053930297 -0.019090557
