save/2_SCI_model_EX.pth (torch, 13263 bytes, 7 tensors)

conv_L.0.weight f4 [8, 1, 3, 3]
0	0xbd930039	-0.07177777
1	0xbdadd06a	-0.084870175
2	0x3e19f94a	0.15036502
3	0xbd273519	-0.040822122
4	0x3df7feb0	0.12109125
5	0x3e05cdc7	0.13066779
6	0x3eab8428	0.33499265
7	0x3e5cf52c	0.215779
8	0x3e9c09b7	0.30476162
9	0xbe0093b4	-0.12556344
10	0x3e0467d0	0.12930226
11	0xbebdfd75	-0.37107435
12	0xbe0de9c2	-0.13858703
13	0xbe544e1e	-0.20732924
14	0xbeade259	-0.33961752
15	0xbe77c4d0	-0.24196172
16	0x3e215f52	0.15759018
17	0xbe2fa6f2	-0.17153528
18	0x3e5dad60	0.21648169
19	0x3d0f567e	0.034994595
20	0x3e38663b	0.18007748
21	0x3d7e5eab	0.062102
22	0xbe98771f	-0.29778382
23	0x3e579188	0.2105161
24	0xbde09144	-0.10965207
25	0x3e9232a6	0.28554267
26	0xbdf68074	-0.12036219
27	0x3e12f71e	0.1435208
28	0xbe79a1b2	-0.24378088
29	0x3e90b6aa	0.28264362
30	0xbd2cc0b7	-0.042175975
31	0xbc866528	-0.016405657
32	0x3eb39925	0.35077778
33	0x3e553505	0.20821007
34	0x3dd5415c	0.10412857
35	0xbe333bb9	-0.17503251
36	0xbea4b613	-0.32170162
37	0x3c516728	0.012780942
38	0x3e0e0174	0.13867742
39	0xbe7e58c4	-0.24838549
40	0xbeb3caa1	-0.3511553
41	0xbcd8d08b	-0.026466629
42	0xbe81419a	-0.25245363
43	0xbeb0474e	-0.344294
44	0xbe99f4b3	-0.30069503
45	0xbe9f42fb	-0.3110579
46	0xbd6001af	-0.054689106
47	0x3e05c3dc	0.13062996
48	0xbe2af66a	-0.16695562
49	0xbe10a7cb	-0.14126508
50	0xbc7b3f6a	-0.015334943
51	0xbe87081f	-0.26373383
52	0x3e2f191a	0.17099419
53	0x3e760bf4	0.24027997
54	0x3e827a3e	0.25483888
55	0x3e15351d	0.14571042
56	0x3e19cdc2	0.15019897
57	0x3c9f642e	0.01945695
58	0x3b7e7293	0.0038825616
59	0x3d9c700a	0.07638557
60	0x3d0f1fff	0.034942623
61	0xbe88d166	-0.26722258
62	0x3ded1ef6	0.11578171
63	0xbd864c10	-0.065574765
64	0xbeb0f515	-0.34561983
65	0xbe866621	-0.26249793
66	0xbe721687	-0.23641406
67	0xbcfcecf1	-0.030874701
68	0xbe2e87fd	-0.17044063
69	0x3e318821	0.17337085
70	0xbd982a79	-0.07429976
71	0xbe97cc76	-0.2964818

conv_L.0.bias f4 [8]
0	0x3e6c6174	0.2308405
1	0xbd235106	-0.03987219
2	0x3ea0fc53	0.31442508
3	0x3e74f651	0.23922087
4	0xbeb9b86b	-0.36273512
5	0x3e5f0486	0.2177907
6	0xbeaab9a9	-0.33344772
7	0xbe51fa66	-0.20505676

conv_R.0.weight f4 [8, 3, 3, 3]
0	0xbdc945e5	-0.098277844
1	0x3e11a1fd	0.1422195
2	0x3e04197c	0.12900347
3	0xbd8e0c30	-0.06935918
4	0xbe2812c9	-0.16413416
5	0x3e15e360	0.14637518
6	0x3d29a661	0.041418437
7	0x3dc1c574	0.09461489
8	0xbe13b50b	-0.14424531
9	0x3e005556	0.12532553
10	0xbe687efe	-0.22704694
11	0x3da08efd	0.07839773
12	0xbd9756d6	-0.073896095
13	0xbdfc0196	-0.1230499
14	0x3d423437	0.047413077
15	0xbe4d2023	-0.2003179
16	0x3cd25f82	0.025680307
17	0xbe3f8b3e	-0.1870546
18	0xbdfad09f	-0.122468226
19	0xbc4c5be1	-0.0124730775
20	0xbe45975b	-0.19296019
21	0x3c6a2b7a	0.014292592
22	0x3d04aae4	0.032389536
23	0xbccbb075	-0.024864415
24	0xbd79a19c	-0.06094514
25	0xbdfbd6b7	-0.12296813
26	0xbcccc6e4	-0.024997182
27	0xbe105c47	-0.14097701
28	0xbe5bc11e	-0.21460387
29	0x3e127352	0.14301804
30	0xbd90b828	-0.07066375
31	0x3e067763	0.1313148
32	0xbe15191c	-0.1456036
33	0xbca4c54d	-0.020113612
34	0xbc84164f	-0.016123919
35	0x3d08df0c	0.03341584
36	0xbe646803	-0.22305302
37	0xbe126792	-0.14297321
38	0xbdde02b9	-0.10840363
39	0x3d6c6e07	0.057722118
40	0xbaa7bda5	-0.0012797607
41	0x3d9c8469	0.07642443
42	0xbb82b152	-0.0039884234
43	0xbe5cd551	-0.21565749
44	0xbcb698ff	-0.022289751
45	0xbe5b4009	-0.21411146
46	0xbe2a5184	-0.16632658
47	0x3bbdf5ca	0.0057971226
48	0x3d19dfa7	0.037566807
49	0xbe525965	-0.20541914
50	0x3cd8195e	0.026379284
51	0xbe09d5f9	-0.1346053
52	0x3d4d43b2	0.050113387
53	0xbe242f49	-0.16033663
54	0xbe543e9d	-0.2072701
55	0xbe1aaf66	-0.15105972
56	0x3dfc3fc0	0.12316847
57	0x3dd2a783	0.102858566
58	0x3e0c6f4a	0.13714328
59	0xbe04f1ee	-0.12982914
60	0xbd8346ea	-0.0641001
61	0x3d0177f7	0.031608548
62	0xbe2764a8	-0.16346991
63	0xbe4ac7df	-0.19802807
64	0xbe2ca0e1	-0.16858245
65	0x3de06fbd	0.109588124
66	0x3d1341dc	0.03595148
67	0xbe0d3777	-0.1379069
68	0xbdeba1e8	-0.115054905
69	0xbdbaf6f9	-0.091291375
70	0xbdf5f8b9	-0.12010331
71	0xbd9434a1	-0.07236601
72	0xbe458363	-0.19288401
73	0x3d430378	0.04761073
74	0xbe6c67c9	-0.23086466
75	0x3e137f59	0.14404048
76	0xbe5a4efe	-0.21319196
77	0x3db93ba8	0.09044582
78	0xbcf014c9	-0.029306786
79	0xbdd6d33b	-0.10489508
80	0xbe4370f1	-0.19086052
81	0xbe27a9fd	-0.16373439
82	0x3d96cd75	0.073634066
83	0x3d3f7f07	0.046752002
84	0x3e427a18	0.18991888
85	0x3d811942	0.06303646
86	0x3e5c0300	0.2148552
87	0xbd1bf65b	-0.03807674
88	0xbdaa5ee4	-0.0831888
89	0x3e047185	0.1293393
90	0x3e560bc9	0.20902933
91	0x3d2f82db	0.042849403
92	0xbdc186aa	-0.09449513
93	0xbd9d3876	-0.07676785
94	0xbe18d9c3	-0.1492682
95	0xbdb3e6d1	-0.08784259
96	0x3ce97b03	0.02850104
97	0xbd12cb93	-0.035838675
98	0xbca4bf2f	-0.020110695
99	0xbd3aa707	-0.045569446
100	0x3e0bacfc	0.13640207
101	0x3d012cee	0.03153699
102	0x3dd22ec0	0.10262823
103	0xbc9da07d	-0.019241566
104	0x3b80549d	0.0039163367
105	0x3e1f0990	0.15530992
106	0xbd25ed91	-0.040509764
107	0x3dc1a069	0.09454424
108	0xbdf7b16f	-0.1209439
109	0xbe02e7db	-0.12783758
110	0xbd845a84	-0.06462577
111	0xbd7fc8e8	-0.06244746
112	0x3df8e470	0.12152946
113	0xbe3c076e	-0.18362209
114	0x3c96d8c6	0.018413913
115	0x3cd0848a	0.025453825
116	0xbd6b4b21	-0.057444695
117	0x3e256fb2	0.1615589
118	0x3d868b98	0.06569594
119	0x3d287a48	0.04113224
120	0xbe5c8702	-0.21535876
121	0x3d447eaf	0.047972377
122	0xbe4ba769	-0.1988808
123	0x3d71d188	0.059037715
124	0xbd3cc494	-0.04608591
125	0xbe51b8fb	-0.2048072
126	0xbe31856d	-0.17336054
127	0xbe461257	-0.19342934
128	0x3d3c7bf5	0.046016652
129	0xbdf9e655	-0.122021355
130	0xbc2e1817	-0.010625861
131	0xbd43958e	-0.04775005
132	0xbe38a3cd	-0.18031235
133	0xbd33bd13	-0.043881487
134	0xbe3e35fa	-0.18575278
135	0xbe653d77	-0.22386728
136	0xbde7e848	-0.11323601
137	0xbd799299	-0.060930822
138	0xbcbad0ab	-0.022804579
139	0x3da925e9	0.08259184
140	0xbe0b676d	-0.13613673
141	0xbe405b13	-0.18784742
142	0xbe402605	-0.18764503
143	0x3df3509c	0.118806094
144	0xbe1d46d8	-0.15359056
145	0xbd3de2de	-0.046358936
146	0x3e0df54b	0.13863103
147	0xbd74bdc4	-0.059751287
148	0xbe5d3571	-0.21602418
149	0xbe5e878b	-0.21731393
150	0x3bb8c35c	0.005638523
151	0xbe0e8f5c	-0.13921875
152	0x3d733128	0.05937305
153	0xbd37c53c	-0.04486583
154	0x3d83e7d8	0.06440705
155	0xbc8801c9	-0.016602414
156	0xbdf6d0ee	-0.12051569
157	0xbe744d5c	-0.23857635
158	0x3df64fe3	0.12026956
159	0xbe360862	-0.17776635
160	0xbdb25d58	-0.0870921
161	0xbe509d63	-0.20372538
162	0xbe0c7ce8	-0.13719523
163	0x3d4c7818	0.049919218
164	0x3daec226	0.085331246
165	0xbe00eec3	-0.1259108
166	0xbdb473cb	-0.08811148
167	0xbe76d112	-0.24103191
168	0x3dabcc52	0.083885804
169	0xbe490db2	-0.1963413
170	0x3d5c03a0	0.053714395
171	0xbe701497	-0.23445354
172	0x3dc18905	0.094499625
173	0xbe239c59	-0.1597761
174	0x3e15ca72	0.14628008
175	0xbd8ee875	-0.069779314
176	0x3d632631	0.055456344
177	0x3ca3f21d	0.02001291
178	0xbdc00b45	-0.093771495
179	0xbe633ef2	-0.2219198
180	0x3bafb5ee	0.005362264
181	0x3d36a70c	0.044592902
182	0xbe46ead6	-0.1942552
183	0xbe062ed2	-0.13103798
184	0x3de1116d	0.10989652
185	0xbe36eb71	-0.17863251
186	0x3d8c6276	0.068547174
187	0xbd74cefc	-0.05976771
188	0x3da1fe47	0.07909828
189	0x3e1d885c	0.15384048
190	0xbd894c69	-0.06704027
191	0x3e70a6cf	0.23501132
192	0xbdbc60a7	-0.091981225
193	0x3e203bcb	0.15647809
194	0x3e0a09d5	0.13480313
195	0x3e024d81	0.12724878
196	0x3e77b7e0	0.24191236
197	0xbe001c97	-0.12510906
198	0x3e2c24a5	0.16810854
199	0x3d35c129	0.044373665
200	0xbd5c034d	-0.053714085
201	0x3dd00ce4	0.10158709
202	0x3d3576f6	0.044302903
203	0xbd8aa4c2	-0.06769706
204	0x3daf8540	0.08570337
205	0xbdfd09c7	-0.123553805
206	0xbd8d6c3a	-0.06905408
207	0x3cfbd176	0.030739527
208	0x3e0877a2	0.13326886
209	0x3e6dd51d	0.23225828
210	0x3c2fb39c	0.010723975
211	0x3e4ea4f8	0.20180118
212	0x3e5b098f	0.21390365
213	0xbd8bcc60	-0.06826091
214	0x3e559678	0.2085818
215	0x3e17570a	0.14779297

conv_R.0.bias f4 [8]
0	0x3e0cedd2	0.13762596
1	0x3dec475f	0.115370505
2	0xbe01f090	-0.12689424
3	0xbe2c9e64	-0.16857296
4	0x3d83a10f	0.06427204
5	0x3dcfb637	0.101421766
6	0x3e53c499	0.20680465
7	0x3d867da6	0.06566934

out_convs.0.weight f4 [16, 16, 3, 3]
0	0x3b745518	0.0037282165
1	0x3d89132f	0.06693112
2	0x3c83d2d7	0.016091747
3	0xbcf4c1a9	-0.0298775
4	0xbd153248	-0.036424905
5	0xbd9699fb	-0.07353588
6	0xbcfd665b	-0.030932596
7	0x3d118847	0.035530355
8	0x3d6a2f18	0.05717382
9	0x3d167ff1	0.03674311
10	0x3d0dd48d	0.034626532
11	0x3b9737c8	0.004614804
12	0x3d9f46c5	0.0777717
13	0xbd8c42f4	-0.06848708
14	0xbd41ef69	-0.04734746
15	0x3daa788a	0.08323772
16	0xbd9b171b	-0.075727664
17	0x3da7fa6e	0.082020625
18	0xbd09a039	-0.033600066
19	0x3d65099e	0.055917375
20	0xbd0a8dc1	-0.033826593
21	0x3da09843	0.078415416
22	0x3d86bc95	0.06578938
23	0x3cd7d6a6	0.02634747
24	0xbd0fed98	-0.035138696
25	0x3d52c9dd	0.051462043
26	0x3d0524a3	0.032505643
27	0x3d57acc3	0.052654993
28	0x3d612caf	0.054974254
29	0xbd8fb2f5	-0.07016555
30	0xbd6482d6	-0.055788837
31	0xbd952f3b	-0.07284399
32	0x3d945e7f	0.07244586
33	0xbc89e33f	-0.016831992
34	0x3d998254	0.07495561
35	0x3be6846b	0.0070348284
36	0x3a0a84d2	0.0005284074
37	0x3d65ef70	0.05613655
38	0x3c2f48e8	0.010698535
39	0x3c9e46b0	0.019320816
40	0x3d048d7c	0.032361493
41	0x3d0d745f	0.03453481
42	0x3c94597c	0.018109076
43	0x3d8e9043	0.069611095
44	0x3d629d77	0.05532595
45	0xbd05d132	-0.032670207
46	0x3d918f06	0.07107358
47	0x3c203842	0.009779038
48	0xbd1aefe4	-0.037826434
49	0x3d3e8147	0.046510007
50	0x3d40bea7	0.04705682
51	0x3cee10e4	0.029060788
52	0x3bd1386a	0.006384899
53	0xbd884323	-0.0665343
54	0x3af692a5	0.0018812014
55	0xbd21ccdb	-0.039502006
56	0xbd81362a	-0.06309159
57	0x3d1639fb	0.03667639
58	0xbd533a57	-0.05156931
59	0x3ca4b8be	0.020107623
60	0x3c4e0b19	0.012575888
61	0x3d6a006a	0.0571293
62	0x3d64295d	0.05570351
63	0xbc45297c	-0.012033816
64	0xbd796d86	-0.060895465
65	0xbd75315e	-0.059861533
66	0x3c975411	0.018472703
67	0x3cfc7d21	0.030821385
68	0x3d276d6e	0.040875845
69	0x3d949e51	0.07256759
70	0xbcfcbc43	-0.030851489
71	0x3a3b4d8a	0.0007145038
72	0x3d1d819f	0.038453694
73	0x3bc086ea	0.005875458
74	0x3c04ac7f	0.008097767
75	0x3d970890	0.0737468
76	0x3d43fba3	0.0478474
77	0x3ccd3ed9	0.025054382
78	0x3d416f13	0.04722507
79	0x3d24cf3c	0.040236697
80	0xbd67effc	-0.05662535
81	0xbad944f8	-0.001657634
82	0x3d568c21	0.05237973
83	0xbd281efa	-0.041045167
84	0xbd557207	-0.052110698
85	0xbcc04fb2	-0.023475502
86	0x3cf572a2	0.029961888
87	0x3bc9b018	0.006155025
88	0xbd9851fb	-0.074375115
89	0xbceada26	-0.028668474
90	0xbd8e2af4	-0.069417864
91	0x3d32ec76	0.043682538
92	0x3d7d03f5	0.06177135
93	0x3d46c187	0.048524406
94	0xbcb13b0d	-0.021634603
95	0x3d647a5f	0.055780765
96	0xbd9f9f7f	-0.07794093
97	0xbce1ab34	-0.027547456
98	0xbd8e0ee6	-0.069364354
99	0x3d87847a	0.06617065
100	0x3cf715e9	0.030161815
101	0xbd9573c3	-0.072974704
102	0x3bfc5369	0.007700373
103	0x3d62955b	0.055318218
104	0x3d9b4835	0.07582132
105	0xbd8ed375	-0.06973926
106	0x3d1d9bb4	0.03847857
107	0xbcd635e4	-0.026148744
108	0xbcbae06c	-0.02281209
109	0x3cfd5a70	0.030926913
110	0x3ccd432f	0.02505645
111	0x3ce99aec	0.028516255
112	0x3d2bede2	0.04197491
113	0x3d8040ba	0.062623456
114	0xbd6cbf46	-0.0577996
115	0xbd93b874	-0.07212916
116	0x3d820ec9	0.06350476
117	0xbc8adeea	-0.016951997
118	0x3d6b1da4	0.057401314
119	0x3d8f5220	0.06998086
120	0xbd00b679	-0.03142402
121	0x3d9bbb71	0.07604111
122	0x3cf18d0f	0.029486207
123	0xbd1ea336	-0.03872987
124	0x3d666b48	0.056254655
125	0x3d16f566	0.036855124
126	0x3d8e38ac	0.06944403
127	0x3d9eb02a	0.077484444
128	0xbd4c4b6d	-0.04987662
129	0xbb26636f	-0.0025388857
130	0x3b832394	0.004002044
131	0x3d016766	0.03159275
132	0xbd9dfd91	-0.077143796
133	0x3d95715d	0.07297013
134	0xbd233fdc	-0.039855823
135	0xbdb081be	-0.08618496
136	0x3d63a4e2	0.055577166
137	0xbbdfac57	-0.0068259644
138	0x3cbe0266	0.023194503
139	0x3d3aee3b	0.04563735
140	0xbcca4ada	-0.024693895
141	0xbd7528d7	-0.0598534
142	0xbda63726	-0.081159875
143	0xbb1744a1	-0.0023081678
144	0x3d3a0ac0	0.04542041
145	0x3e16a5b8	0.14711654
146	0x3d36c33e	0.04461979
147	0x3db8f48e	0.0903102
148	0x3e04199e	0.12900397
149	0x3cf9f5cb	0.030512711
150	0xbc18985f	-0.009313672
151	0x3d86ba5a	0.065785125
152	0x3db3dd1b	0.08782407
153	0x3ca9ec35	0.020742515
154	0xbd87551c	-0.0660803
155	0x3cd84c6f	0.026403634
156	0xbcfe951b	-0.031076958
157	0xbdde7b55	-0.108633675
158	0x3bc29549	0.0059382063
159	0xbd696e35	-0.056989867
160	0xbd2453d8	-0.040119022
161	0xbdfce33e	-0.123480305
162	0x3e04bd33	0.12962799
163	0x3e135e97	0.14391552
164	0x3d9fa29b	0.077946864
165	0x3db4d6c3	0.08830025
166	0x3d08c481	0.033390526
167	0x3c4073c5	0.011746352
168	0x3e1efd49	0.15526308
169	0x3e2418cc	0.16025084
170	0x3d9df2e4	0.07712343
171	0x3d8ec238	0.06970638
172	0x3e1a2135	0.1505173
173	0x3cafd67e	0.021464583
174	0x3e029be6	0.12754783
175	0x3b883bf0	0.0041575357
176	0x3bc2dddd	0.0059468583
177	0x3b0f4762	0.0021862616
178	0x3e0ae7fe	0.1356506
179	0x3dd4c451	0.10389007
180	0xbcdaec78	-0.026724085
181	0x3bd6a01d	0.0065498487
182	0xbc1d69a0	-0.0096077025
183	0xbdf72b5d	-0.12068818
184	0xbe0f2f04	-0.13982779
185	0xbbc99634	-0.006151939
186	0x3bcd1b63	0.0062593683
187	0xbe139331	-0.14411618
188	0xbdf1707b	-0.11789032
189	0x3dd3580c	0.10319528
190	0x3d8ab58e	0.0677291
191	0x3e058c60	0.1304183
192	0x3e096ed4	0.13421184
193	0x3cc41b46	0.023938786
194	0x3da89ed8	0.08233422
195	0x3cb349a2	0.021885697
196	0x3dad17bc	0.084517926
197	0x3e2dffb5	0.16992076
198	0xbde01be6	-0.10942821
199	0xbde1e096	-0.110291645
200	0xbe5d504f	-0.21612667
201	0xbe1a13d3	-0.15046625
202	0xbd858aa2	-0.06520583
203	0xbdce5f53	-0.100767754
204	0xbe57d23e	-0.21076295
205	0xbe6c07a7	-0.23049794
206	0xbe4f22d4	-0.2022813
207	0xbd884661	-0.06654049
208	0xbe1284f8	-0.14308536
209	0xbe0bd9a1	-0.13657238
210	0xbd92bbf9	-0.07164759
211	0xbe01048e	-0.12599394
212	0xbc74034e	-0.014893366
213	0xba703ce4	-0.0009164347
214	0xbd77abe9	-0.06046668
215	0x3c70337e	0.014660714
216	0x3db632df	0.08896422
217	0x3c9f2180	0.019425154
218	0x3e385b28	0.18003523
219	0x3cf63dab	0.030058702
220	0x3e109cda	0.14122334
221	0x3d0cbc89	0.03435949
222	0x3dd766d2	0.10517658
223	0x3dd4589f	0.10368466
224	0x3e36cf6a	0.1785256
225	0x3d1d0e0a	0.038343467
226	0x3dc5b9aa	0.09654553
227	0x3c7f9d71	0.015601502
228	0x3dd3d5e5	0.103435315
229	0x3d3a2acd	0.045450974
230	0x3e01da3e	0.12680909
231	0x3db73511	0.089456685
232	0x3d5da627	0.054113533
233	0x3da52e02	0.08065416
234	0xbcf92ff9	-0.030418383
235	0x3d3c9fd3	0.046050858
236	0x3d581cf3	0.052761983
237	0xbd8d78d4	-0.06907812
238	0xbd6c824f	-0.05774146
239	0xbd811bbf	-0.0630412
240	0xbd81541d	-0.063148715
241	0x3d7f7202	0.062364586
242	0xbd771a74	-0.060327962
243	0xbdf2f592	-0.11863245
244	0xbe23cb97	-0.15995632
245	0xbdc10513	-0.09424796
246	0xbe15a2f4	-0.14612943
247	0xbded68d4	-0.1159226
248	0xbda2384f	-0.07920896
249	0xbdd253f8	-0.10269922
250	0xbe60def8	-0.21960056
251	0xbdba168d	-0.090863325
252	0x3d9c6ced	0.076379634
253	0x3bf0334d	0.0073303343
254	0x3d661d76	0.05618044
255	0x3db94db2	0.09048022

out_convs.0.bias f4 [16]
0	0xbd991b43	-0.07475903
1	0x3e2ff95a	0.17184964
2	0x3cfed58e	0.03110769
3	0x3e337f00	0.17528915
4	0xbd984123	-0.07434299
5	0x3da826ab	0.082105
6	0xbdc8a8a4	-0.09797791
7	0x3d4a7066	0.049423598
8	0xbc085059	-0.008319938
9	0xbcee4b3a	-0.029088605
10	0xbd40013b	-0.046876173
11	0xbd6840ea	-0.056702532
12	0x3e09edb9	0.1346959
13	0x3d891c96	0.066949055
14	0x3d9b9a24	0.07597759
15	0xbb7702a8	-0.0037690792

out_convs.2.weight f4 [1, 16, 1, 1]
0	0x3d9bc144	0.07605222
1	0xbe9b7ada	-0.30367166
2	0x3e5501b0	0.20801425
3	0xbe8f6f4f	-0.2801461
4	0xbcc00fe0	-0.02344507
5	0xbe463127	-0.19354688
6	0x3deb4520	0.11487794
7	0xbe270fa2	-0.16314557
8	0x3e54415f	0.20728062
9	0x3bc8d97f	0.006129443
10	0xbba04601	-0.0048911576
11	0x3e7a453e	0.24440476
12	0xbe1eafa9	-0.15496697
13	0xbe4c381a	-0.19943276
14	0xbe767cdb	-0.24071066
15	0xb9aedc69	-0.00033352085
