save/300_RES_decom.pth (torch, 13399 bytes, 6 tensors)

inconv.0.weight f4 [16, 3, 3, 3]
000000 ca 22 85 bd 87 1e 90 3b cf f3 f9 bd 0e d8 08 bd
       -0.06500776 0.0043981704 -0.12204706 -0.03340917
000010 2f e8 0b 3d 09 1e 58 bd 2e ac 33 be 49 5c 84 bb
       0.034156974 -0.05276302 -0.1754615 -0.0040393216
000020 f7 32 4d bd 21 24 fc bb 76 5f 89 3c e7 76 ae 3b
       -0.050097432 -0.0076947366 0.016769152 0.005324233
000030 00 93 df 3c 04 e4 b5 3d a6 cb 98 3d f4 64 66 bd
       0.027291775 0.08881381 0.07460718 -0.05624862
000040 5b 7a d9 3d ad 33 5c bd 77 86 60 be 43 b9 0f 3e
       0.106190406 -0.05376022 -0.21926294 0.14035515
000050 8c f0 54 be 95 4d 22 3d da 7b 27 3d c8 67 49 bd
       -0.20794886 0.03962477 0.0408896 -0.04917124
000060 a5 9d 4c be 9f 6f 0f 3d 44 a8 bc bd c8 d9 5e 3d
       -0.19982012 0.03501856 -0.092117816 0.05440691
000070 38 8d 7b 3d 4a 62 27 3f cc b7 8b be df 11 c3 bd
       0.061413974 0.6538435 -0.27288663 -0.09524893
000080 6a 0a 85 3d 1d 79 e5 bd c9 c2 e8 bc 26 ed 83 3e
       0.06496127 -0.11204741 -0.028413193 0.25766867
000090 81 1e 19 be 03 8c df bd 61 77 b1 3d c7 ac f0 bd
       -0.14953043 -0.10915377 0.08665348 -0.11751705
0000a0 17 1c d7 bd 87 42 32 be f0 b3 1d bc fe 00 cd 3d
       -0.105034046 -0.1740819 -0.00962542 0.10009955
0000b0 6b 26 13 be 8b d5 57 bd 29 df 2d bd 20 5f af 3e
       -0.14370124 -0.052693885 -0.04244915 0.34252262
0000c0 46 22 df bc 46 1d 0e be e6 6c 9d bd 11 49 26 bd
       -0.027238023 -0.13878354 -0.07686786 -0.040597025
0000d0 dc 69 a5 3c a5 e8 7b 3c 4e cc 60 bd d3 28 3a be
       0.02019208 0.015375291 -0.05488234 -0.18179636
0000e0 63 84 4e be 6b b4 2c 3b 76 a5 d5 3d 0a b6 3e be
       -0.20167689 0.0026352655 0.1043195 -0.1862413
0000f0 96 5a 24 be b0 14 bf bd 5c ba db 3c ae e4 4d 3d
       -0.16050181 -0.09330118 0.026822262 0.050266914
000100 36 7e be 3d 58 2c 07 be 12 8f 4e bd 81 48 81 bc
       0.093014166 -0.1320051 -0.05042941 -0.015781643
000110 37 0b 03 bd 3f b7 da bd 9f 50 49 bd 03 a7 c6 bd
       -0.031993117 -0.10679483 -0.049149152 -0.09699824
000120 f8 37 31 be 66 94 a0 3c c7 1a f8 bd b4 ac fe 3c
       -0.17306507 0.019602012 -0.121144824 0.03108821
000130 cb ca 32 3d d8 9f 1d be a4 50 f6 bd 6e 25 a9 bd
       0.04365043 -0.15393007 -0.120271 -0.08259092
000140 20 73 71 bd 87 82 0d bc 84 0d 13 be 49 92 6e bc
       -0.058947682 -0.008637077 -0.14360625 -0.014561244
000150 ea af af 3d 68 48 2c 3e b6 4f cd 3c bf bc ac b9
       0.08578475 0.16824496 0.025062423 -0.00032947023
000160 59 04 8d be 28 41 8a bc d6 34 8e be 51 56 09 be
       -0.2754238 -0.016876772 -0.27774686 -0.13411833
000170 e1 5a 91 bd 6c 12 79 3e 1f 5e 0f 3e 6c e1 ef bd
       -0.07097412 0.24323434 0.14000748 -0.11712918
000180 f4 24 89 be 19 af 9b be 53 99 c6 bd 95 4d 49 bd
       -0.26786005 -0.30407026 -0.09697213 -0.049146254
000190 39 43 a5 bd ac 41 dd 3d 6e 57 ab 3e 0b 27 9d 3e
       -0.08069462 0.108035415 0.3346514 0.3069385
0001a0 1a 6e 80 3e 36 0a e9 bd 5f 1c 2b 3e 0b 2c 1f 3e
       0.25084 -0.11378901 0.16710041 0.15544145
0001b0 cd 07 9a be 3e 9d 78 3d 62 03 b6 be 50 7d e2 3b
       -0.30084077 0.060696833 -0.35549456 0.006911911
0001c0 01 01 84 3e 9a a8 99 3d 73 4f 8d be d7 93 9a bc
       0.25782016 0.07502861 -0.27599677 -0.018869324
0001d0 f8 d9 a3 be 57 8b 9a be 0c b1 cb 3d 40 f9 82 be
       -0.32002234 -0.30184433 0.099458784 -0.25580788
0001e0 20 6d dc 3d c0 6c ad 3d 37 61 0f 3d 90 27 94 be
       0.107630014 0.08468008 0.03500482 -0.28936434
0001f0 dc 51 fe 3d 4b 0c 98 be a2 b3 93 be 99 81 00 3d
       0.12417957 -0.2969688 -0.28847986 0.031373594
000200 64 35 ac be 58 84 13 3d 49 72 7b 3e 07 4b 34 3d
       -0.33634484 0.036014885 0.24555315 0.044016864
000210 27 93 ae be 72 92 37 3d 0c f4 99 be 00 88 74 3d
       -0.34096643 0.044817396 -0.30069005 0.059700012
000220 e9 bf 1f bd 6b 69 0c bd c9 0d 8f bd 7e e0 8a bd
       -0.03900138 -0.034280222 -0.06985051 -0.067811
000230 35 8c 88 be 4b 1e f7 3d 17 fe 88 bd 09 f4 e1 bd
       -0.2666947 0.12066325 -0.06689089 -0.11032874
000240 f1 cb 89 be 1a a7 3e be 5d 12 86 be 65 7e 5d be
       -0.26913407 -0.18618432 -0.26185885 -0.21630247
000250 a0 be 5e be b5 4e 2a be 5b 98 78 3d b9 60 73 be
       -0.21752405 -0.16631587 0.060692172 -0.23767366
000260 cb 42 08 3d a5 b5 0d 3e 45 21 2a 3e 20 85 3c 3e
       0.033266824 0.13838823 0.16614254 0.18410158
000270 d7 83 5e 3c 0b cc 59 bd c6 17 99 3d 3d 1e 8e 3d
       0.013581238 -0.053173106 0.074752375 0.06939361
000280 67 7c e3 bd 02 2c 61 3e 64 f7 fc bc 6e b8 4c be
       -0.11107712 0.21989444 -0.030879684 -0.1999223
000290 5a c7 2e bd 71 a2 db bd 39 c4 87 be 2c c0 40 be
       -0.042670585 -0.107243426 -0.26516894 -0.18823308
0002a0 5a 27 17 be 72 56 f7 bd 76 58 7e 3d ae 0f 6c 3e
       -0.14761105 -0.12077035 0.06209608 0.23052856
0002b0 65 46 3d 3e 9b 18 71 3e f7 7d a1 3c 83 ce 19 3e
       0.18483885 0.23544542 0.019713385 0.15020184
0002c0 f3 76 43 3e fd 3a 6e 3e 34 ff e1 bc 82 2e c0 3e
       0.19088344 0.2326469 -0.02758751 0.37535483
0002d0 24 53 60 3d db 60 9b bd 99 3d 11 be d6 ff 4c be
       0.05476679 -0.07586833 -0.14183654 -0.20019469
0002e0 a9 3a 65 be e5 98 5e be 07 29 1f 3d 72 9e 21 be
       -0.22385658 -0.21738012 0.038857486 -0.15783098
0002f0 49 cb 9f 3e 4d 28 db bd d4 09 52 bc 04 f8 2e be
       0.31209782 -0.10701046 -0.012819726 -0.17086798
000300 51 94 c5 bd 29 7c 6d 3c 8b c6 43 be 1c b0 f8 3c
       -0.0964743 0.014494934 -0.19118707 0.030357413
000310 2c 8e 95 bd ae 55 46 be e1 f4 8e 3c 9c 51 59 3d
       -0.07302508 -0.19368622 0.017450752 0.053056344
000320 02 86 3c be e5 d6 b0 3d 41 de ae bd c7 0e e5 bb
       -0.18410495 0.08634738 -0.08538485 -0.006990287
000330 03 c1 d3 bd fd e3 ef 3d 22 00 95 bb b2 44 12 3e
       -0.103395484 0.11713407 -0.004547135 0.14284018
000340 56 62 d4 bd e3 db c4 bd 9b 64 2f 3d 91 39 57 be
       -0.103703186 -0.096122526 0.042820554 -0.21018054
000350 51 4c fd bd c4 0e b0 bc 18 13 00 3d 19 1c a0 3d
       -0.12368072 -0.021491416 0.03126821 0.07817859
000360 8f c0 50 bc 53 fe 79 bb ba 13 30 3c bd f3 7f 3c
       -0.012741222 -0.0038145974 0.010746891 0.015622077
000370 66 00 18 3d 51 07 e8 bb c9 b3 6f bc 5c 76 f4 bb
       0.037109755 -0.0070809503 -0.014630266 -0.0074603986
000380 22 f0 9e bc 01 ba 91 bc f7 3d 7d bc 85 6f 1f 3d
       -0.019401614 -0.017788889 -0.015456668 0.038924713
000390 09 d4 c3 3b a7 c0 11 3c ab 7f 9a bc cf 65 e2 bc
       0.0059762043 0.00889603 -0.018859705 -0.027636437
0003a0 cb de 7e 3d 21 2d 00 bd 4c 4d 06 3c 88 92 21 3c
       0.06222419 -0.03129304 0.00819714 0.009861596
0003b0 ce 3a 2d bd e1 6a b0 bc 54 f3 6d bb d5 8e 2b 3d
       -0.04229241 -0.021535339 -0.0036308365 0.041884262
0003c0 40 a4 cb 3c dc fd dd bc b5 09 d4 bb 4b 4c 15 be
       0.024858594 -0.027098589 -0.0064708837 -0.14579885
0003d0 77 7b b2 bd 1a 70 51 be f7 ee e5 bd f0 b7 07 3d
       -0.08714955 -0.2045292 -0.112272196 0.0331344
0003e0 f0 c8 a1 bd 8c 9c 39 be db 0b 20 be 8d 2d 85 bd
       -0.07899654 -0.18126124 -0.15629523 -0.06502829
0003f0 28 f9 89 3d ce 6d 2e be 30 e2 e3 bd 89 79 43 be
       0.06736976 -0.17034075 -0.11127126 -0.1908933

inconv.0.bias f4 [16]
000000 2e 42 ce 3e 05 27 c6 bd 4c b8 a3 3e 82 11 df bd
       0.40284866 -0.09675411 0.31976545 -0.10892011
000010 14 f6 a9 3e 1e b0 14 bd 93 72 b9 bd 48 2a 45 be
       0.33195555 -0.03630077 -0.090550564 -0.1925441
000020 34 0a d9 3e d5 ef 8c bd 1d e0 ef 3d e7 59 91 bd
       0.42390597 -0.06881682 0.11712668 -0.07097226
000030 04 0a b7 bd 82 3b ae 3d f3 bf fc 3e 24 e4 d0 3e
       -0.08937457 0.08507444 0.49365196 0.40799057

convs.0.weight f4 [16, 16, 3, 3]
000000 cf 08 55 3d f6 e2 6a bc 3e 7e 3c bd 1c 62 86 3d
       0.052010354 -0.014336338 -0.04601883 0.06561682
000010 77 ee c6 bb f5 9b 78 bd ce 1a 65 bd 5f 8e 7e 3b
       -0.0060709077 -0.060695607 -0.055933766 0.0038842184
000020 7f d7 0d bc a0 a7 0e bc 5e 6b 93 bd 39 f3 52 bd
       -0.008657335 -0.008706957 -0.07198213 -0.051501486
000030 2e 9c 08 bd 68 f6 f2 3c 2c 2a 67 3d b5 e7 95 3d
       -0.03335207 0.029658511 0.056436703 0.07319585
000040 9d 2c 3e 3d 62 46 70 bd 0e b9 a6 3d 6a 24 08 bd
       0.046429265 -0.058660872 0.08140765 -0.033237852
000050 ee b2 1f 3d 74 d8 08 3d e2 8a 77 bd 82 17 66 3d
       0.038989 0.03340955 -0.060435183 0.056174763
000060 89 12 0d 3d 15 ee 5a 3d b9 3d 61 bd b5 79 53 3d
       0.034441505 0.05344971 -0.054990504 0.05162974
000070 e9 18 2b bd 0e 38 b3 3b eb a1 85 3d 05 a0 22 3c
       -0.041771803 0.0054693287 0.06525024 0.009925847
000080 66 4f 9f bd bf 52 8e bd 70 4e 21 3c 52 09 20 3d
       -0.07778816 -0.06949376 0.009845361 0.03907139
000090 78 ae 97 bd 1b 1d 84 bd 7b e8 b5 bc 94 71 e0 bc
       -0.07406324 -0.06450864 -0.022205582 -0.027397908
0000a0 bc 59 3b 3d c0 cb b8 bb c0 96 47 bd 40 13 d1 bc
       0.045739874 -0.0056395233 -0.04872775 -0.025521874
0000b0 8b a0 db 3c 96 50 72 bc 0e 78 47 bd 92 67 61 3d
       0.026809951 -0.014789721 -0.048698477 0.055030413
0000c0 f4 de 8a bd 7a eb 87 bd 28 a7 a6 bd 17 15 63 bd
       -0.06780806 -0.066367105 -0.08137351 -0.055440035
0000d0 26 5b 9a 3d f2 68 99 3a ba 7c 40 3a ea 76 0b bc
       0.075369164 0.001170425 0.00073428045 -0.008512238
0000e0 b5 f5 58 bd 3a a6 37 3d cf 44 43 bd 4b 0c 93 3d
       -0.0529687 0.04483626 -0.047673043 0.07180079
0000f0 a1 d3 51 bd 78 12 31 3d 28 68 a0 3c 98 b3 8d 3d
       -0.051227216 0.043230504 0.019580916 0.069190204
000100 86 12 00 bd 8e 75 62 bd c0 ac f5 bc 68 8c 0b 3d
       -0.031267665 -0.05528789 -0.0299896 0.03406945
000110 36 7f 06 bc 6b 6c 6b bc 88 7d 87 3d 8b 3c f5 bc
       -0.00820904 -0.014369111 0.0661574 -0.029936096
000120 34 e3 35 3d 6b bc a8 3c 54 b5 e0 bd b7 16 0e 3d
       0.04440613 0.020597657 -0.109720856 0.03468963
000130 64 06 bc bd 97 83 36 bd da d3 22 bd 2e 8a e9 3c
       -0.091809064 -0.044559088 -0.03975282 0.028508272
000140 d2 af b2 bc a8 9d 4f bc d7 36 1e 3c 83 1b 2c bd
       -0.021812353 -0.0126718655 0.0096566295 -0.042018425
000150 75 f7 89 bc 07 3c a1 bd 9a 24 97 bd f8 08 35 3d
       -0.01684163 -0.078727774 -0.07380028 0.044198006
000160 d7 6c 8c 3d e7 e6 5a 3d ad 55 12 3c 23 a5 ac bd
       0.06856697 0.053442862 0.0089315595 -0.08429935
000170 79 0e b9 bd e0 28 04 3d bd 11 8f bd fc 03 c9 bd
       -0.090359636 0.032265544 -0.06985805 -0.09815213
000180 c9 64 14 bd b9 34 a4 bc b7 d5 26 3d c0 a3 58 3d
       -0.03622893 -0.020044671 0.040731158 0.05289054
000190 b5 68 90 bd 0e 59 4d bd fb 44 10 bd 54 bc a1 bd
       -0.07051221 -0.050133757 -0.035222035 -0.07897249
0001a0 71 ba 8b bd 7c a9 9e bd 84 1c ad 3c 6d 07 55 bd
       -0.0682267 -0.0774717 0.021131761 -0.052009035
0001b0 89 3d 8a 3d ca e0 7e 3d db 54 2f 3d 92 dc 89 bd
       0.06750018 0.062226094 0.042805534 -0.067315236
0001c0 dc 1a 6c bd e4 0c 70 bd c9 b9 58 3d 41 f5 84 3b
       -0.057642803 -0.058606043 0.052911554 0.004057557
0001d0 68 fb 3a bd dc dd 90 bc 38 18 a0 bd 36 74 33 bd
       -0.045649916 -0.017683916 -0.07817119 -0.043812
0001e0 4d cc 82 3c f7 90 94 3d 60 d3 7e bd cb ce 1b bd
       0.015966559 0.07254212 -0.0622133 -0.03803901
0001f0 47 44 06 bc c5 a0 8f bd b7 29 df bc 67 0f 9b 3d
       -0.0081949895 -0.07013086 -0.02724157 0.07571297
000200 53 a4 64 3b 14 10 19 bd 2b e3 51 bc 56 3b 91 3c
       0.0034887984 -0.03736885 -0.012810509 0.017728489
000210 e9 1a ee 3c ba 33 2c bd 89 e2 c3 bd 6b ee 0a bd
       0.029065566 -0.042041518 -0.095646925 -0.03391878
000220 ad 9a 90 bc 14 d4 f2 3a 8e c2 ef bc b3 2f bb bd
       -0.01765188 0.0018526339 -0.029267576 -0.09139957
000230 f6 e3 ba 3c 49 60 61 3d bd 4f 8a bd 35 6c 3e 3c
       0.022813778 0.055023465 -0.0675349 0.011622478
000240 50 5a 37 bd a1 a2 19 be 11 75 70 bd 2f 85 9e bd
       -0.044763863 -0.15003444 -0.058705393 -0.077402465
000250 39 6c fc 3c e1 d7 65 bd c0 12 71 be 4a 80 05 be
       0.030813323 -0.05611408 -0.23542309 -0.1303722
000260 e7 59 07 be eb 53 bb bd 52 64 9b be 97 3d ad 3c
       -0.13217889 -0.091468655 -0.30349976 0.021147532
000270 9a d4 3a be d9 63 af be 07 7c 19 be 07 29 ee be
       -0.18245164 -0.34255865 -0.14988719 -0.46515676
000280 8c 2b a3 be a6 75 ec 3c 6b 0c e9 be 8e 8d b6 be
       -0.3186916 0.028864693 -0.45517287 -0.35654873
000290 43 69 24 bf 72 88 7c be 38 f8 1b be 24 27 48 be
       -0.64223117 -0.24661425 -0.15231407 -0.19546181
0002a0 c3 ee 05 bf 5f 5e a6 be 75 41 fe be da b5 f1 bd
       -0.52317446 -0.32493874 -0.49659315 -0.118022636
0002b0 89 62 2c 3c 82 ca 96 bd bc 03 1d be 62 28 8d bd
       0.0105215395 -0.07362844 -0.15333456 -0.06892468
0002c0 2a f9 0c 3d ea 45 33 bc 2f cc bb bc d6 2b 91 3d
       0.03441731 -0.010941962 -0.02292451 0.07088439
0002d0 db e9 19 bf 9d 6e 4b bf 19 bf 16 bf 89 37 66 bf
       -0.6012246 -0.7946566 -0.5888534 -0.8992849
0002e0 9d 40 97 bf c6 9b 33 bf c7 02 05 bf db 67 60 bf
       -1.1816593 -0.70159566 -0.5195736 -0.8765847
0002f0 68 c2 da be 0e 7d 84 3e 29 bd 35 3e 16 84 13 3e
       -0.42726445 0.2587666 0.1774794 0.14405856
000300 f1 02 85 3e 43 c3 a6 3e ea 92 64 3e 56 61 3b 3e
       0.25978807 0.32570848 0.22321668 0.1829885
000310 ae ae 2a 3e 09 1e 4b 3e 6a 7d a2 be 76 c9 37 be
       0.16668198 0.19835676 -0.31736308 -0.17947945
000320 5b 65 08 be 11 49 54 be f5 4c eb be 4b f8 84 be
       -0.13319914 -0.20730998 -0.4595715 -0.25970683
000330 bf e9 d1 bd b5 82 10 be f3 dc 0d 3d 33 7d 81 3d
       -0.10249662 -0.14112361 0.03463454 0.06322708
000340 96 89 13 3c 2b f1 1e 3b 2e 65 62 bd 00 eb c8 3c
       0.009004971 0.0024252634 -0.055272274 0.02452612
000350 ae f2 33 bd 16 89 26 bd 2b 6f 3d bd 66 5c 19 3d
       -0.04393261 -0.04065808 -0.046248596 0.037441634
000360 6d 14 ad 3c d1 2f 78 bd d0 7d 44 bd c5 e4 42 bd
       0.021127904 -0.060592476 -0.047971547 -0.047581453
000370 0b ae 6f bc 4b 38 05 bc 46 44 a3 bd 92 41 52 bd
       -0.014628897 -0.008131097 -0.079720065 -0.051332064
000380 e3 9b ea bd 53 99 ad 3e 92 01 66 3e 37 8e 18 3d
       -0.11455514 0.3390604 0.22461537 0.037245
000390 d2 df 65 3e a1 ae ae 3d 5e 82 4b 3d d0 e1 8a 3e
       0.22448662 0.085294016 0.049684875 0.27125406
0003a0 de a3 a2 3d 40 04 99 3c cf ec 17 be cd ac b0 bd
       0.079414114 0.018678784 -0.14836429 -0.08626709
0003b0 42 b5 26 be f4 a3 00 3c 6e ee 26 3d 4d 68 2b 3e
       -0.16280082 0.0078515895 0.040754728 0.16739006
0003c0 be 87 53 bd 45 e6 6b 3e 13 51 f3 3e 3a 17 1d 3f
       -0.051643126 0.2303706 0.47522792 0.61363566
0003d0 60 64 33 bd 40 e9 02 bd 20 6e c9 3e 36 cb 4d be
       -0.043796897 -0.031960726 0.3934183 -0.2009705
0003e0 cb 8b 3a bf 8f 43 4e 3f 0d d4 af 3e 2a 7f ba 3e
       -0.7286956 0.80571836 0.3434147 0.36425143
0003f0 44 ca 0b 3e 8d 0c 8c be db 94 19 be b8 62 9b bd
       0.13651377 -0.27353325 -0.1499819 -0.075871885

convs.0.bias f4 [16]
000000 14 c6 ce bd ef 34 18 be cd 5e 34 3e 77 7c c9 bd
       -0.10096374 -0.14863943 0.17614289 -0.09838193
000010 00 47 b2 3e 5c 7e 9c 3e 7f 65 da 3c ab cf 68 3e
       0.34819794 0.30565155 0.026659725 0.22735469
000020 86 99 04 3f e4 17 00 3d 7c bd a5 3e 86 f1 97 3e
       0.5179676 0.031272784 0.32371128 0.29676455
000030 e3 d7 bb 3d 4c 84 01 3e ac 59 b2 bd 77 0c a6 3e
       0.091720365 0.12648124 -0.0870851 0.32431385

outconv.0.weight f4 [3, 16, 1, 1]
000000 63 fe cb bd 6c 4f 2c 3e 28 8a e8 bd ec 05 4c bd
       -0.0996063 0.16827172 -0.11354476 -0.049810335
000010 c4 ae a8 be 59 f0 ac bc 82 f0 93 3d 8c 57 77 bc
       -0.32945836 -0.0211107 0.072236076 -0.015096556
000020 5e f3 40 be c7 14 1f 3e 70 e3 d8 bd d2 a2 4e be
       -0.18842837 0.1553527 -0.10590255 -0.20179299
000030 c4 87 1e be a2 8b dd bd de 0c 6a be 72 0e 51 be
       -0.15481478 -0.108176485 -0.22856471 -0.20415667
000040 5a e3 17 be 9f 02 34 3e 78 3c d3 bd ad 87 87 bc
       -0.14832821 0.17579125 -0.10314268 -0.016544187
000050 b2 ea 8e be 11 bc da bd 7d 23 51 3d ab de a3 bc
       -0.27913433 -0.10680402 0.051059235 -0.020003637
000060 a0 6c 37 be 6c 7b 1d 3e ca 37 db bd f3 d8 4c be
       -0.17912531 0.15379113 -0.10704 -0.20004635
000070 d4 22 88 bd 76 fe c7 bd 14 80 30 be ce 8f 5d be
       -0.06647268 -0.097653314 -0.17236358 -0.21636888
000080 c8 d8 2f bd a2 9e 5b 3e 4b ee a5 bd 3a dd d5 3d
       -0.042931348 0.21447232 -0.081020914 0.10442586
000090 a5 3d bd bd 53 7d 73 be e5 f9 e8 3d 77 15 94 be
       -0.092402734 -0.23778276 0.113757886 -0.28922626
0000a0 eb 86 1c be 60 fc 94 bd 82 b3 de bd b4 1f 8e bd
       -0.15285842 -0.07274699 -0.10874082 -0.06939641
0000b0 a2 fe 54 bc 34 5a ba bd 91 2f 15 be 95 66 ee bd
       -0.013000162 -0.09099236 -0.14568926 -0.1164066

outconv.0.bias f4 [3]
000000 09 b1 cd bd 68 3a dd bd 6e 3d 2b be
       -0.100435324 -0.10802156 -0.16722652
