save/400_RES_decom.pth (torch, 13399 bytes, 6 tensors)

inconv.0.weight f4 [16, 3, 3, 3]
000000 90 bc aa bd 77 1e c9 3c ab db ef bd 8b 1f 06 bd
       -0.08336747 0.02455066 -0.1171182 -0.032744925
000010 91 f9 00 3d 8e a4 5c bd 07 1c 58 be 73 4f ef 3b
       0.031488005 -0.05386787 -0.21104442 0.0073031723
000020 e1 6d 4b bd 0b c0 04 bc 7a 96 14 3d 4e 72 07 3c
       -0.049665336 -0.008102427 0.036276318 0.008266998
000030 1f c4 26 3d 1d 6a 98 3d e8 0d 9b 3d 44 79 78 bd
       0.04071438 0.074421145 0.07571012 -0.060662523
000040 ad 68 f9 3d d2 f3 3e bd 35 5e 6a be 4d 8b 1b 3e
       0.121781684 -0.046619244 -0.228875 0.15189858
000050 9e 30 58 be 5a b9 42 3d 69 2e f5 3c f0 11 2f bd
       -0.21112296 0.047540046 0.029929357 -0.042741716
000060 c0 0f 62 be 47 14 29 3d 55 c6 b0 bd c3 64 33 3d
       -0.2207632 0.041279104 -0.08631579 0.043797266
000070 af 42 6c 3d 26 6a 31 3f ef 91 9a be 49 95 ec bd
       0.057680782 0.69302595 -0.30189463 -0.115519114
000080 47 c0 58 3d 02 ad a4 bd fb ef 00 bd ca 14 a3 3e
       0.052917745 -0.08040811 -0.031478863 0.31851798
000090 33 6b 33 be 99 d0 c3 bd 1c 56 ad 3d 7a c9 00 be
       -0.17521362 -0.09561271 0.0846369 -0.12576857
0000a0 13 9f a9 bd 40 74 60 be 5d c0 3c bc 52 19 b8 3d
       -0.08282294 -0.21919346 -0.011520472 0.089892045
0000b0 02 c3 07 be be 94 93 bd 85 69 32 bd a3 46 b8 3e
       -0.13257983 -0.07206105 -0.043557663 0.35991392
0000c0 46 87 7d bd 92 46 0e be d2 40 d4 bd 22 b0 ec bc
       -0.061896585 -0.13894108 -0.10363926 -0.02889258
0000d0 60 6c 5b 3c 03 76 76 3d 40 7a 6a bd 42 e6 34 be
       0.013392538 0.06017114 -0.057245493 -0.17665961
0000e0 a3 8b 60 be f4 49 b9 bc 44 2c b5 3d f8 37 4d be
       -0.21928267 -0.022618271 0.088463336 -0.20040882
0000f0 b4 53 54 be 9d 2c dd bd 76 4a 0c 3c ce 15 8b 3d
       -0.20735055 -0.10799525 0.008562675 0.06791268
000100 c0 92 c8 3d aa 3d 03 be 50 a8 49 bc c4 0d b6 3c
       0.09793615 -0.12816492 -0.012308195 0.02222336
000110 2e bb 79 bc dc 96 d2 bd 80 d7 f5 bc 87 10 90 bd
       -0.015242381 -0.102826804 -0.030009985 -0.07034402
000120 44 5b 16 be 82 8b 50 3c 87 80 22 be e4 31 56 3d
       -0.14683253 0.012728574 -0.15869342 0.052293673
000130 a9 56 f4 3c d2 9e 0a be 28 d6 19 be 40 52 65 bd
       0.029826479 -0.13537148 -0.150231 -0.055986643
000140 38 af ed bc b8 1d 70 3c 64 e3 1a be ce 85 c5 bc
       -0.029014215 0.014655523 -0.15125805 -0.024111655
000150 96 3e 4b 3d e2 51 04 3e d8 ad 88 3a 07 3f 8d 3c
       0.049620233 0.12921861 0.0010427786 0.017241968
000160 96 ca 9c be a2 1d 92 bc 62 9e 8d be f0 af 1a be
       -0.3062331 -0.017836396 -0.276599 -0.15106177
000170 51 89 7d bd 6d 1c 69 3e 3d 3e d3 3d 6d 6e 14 be
       -0.061898533 0.2276475 0.103146054 -0.14495249
000180 02 d1 8c be 38 53 ac be 82 0b 0e be 6a 83 31 bc
       -0.2750321 -0.3365724 -0.13871577 -0.010834554
000190 fc 6c 93 bd e0 88 29 3e 4b 13 b1 3e aa a3 91 3e
       -0.071985215 0.1655612 0.34585032 0.28445178
0001a0 17 47 87 3e 2c 67 9a bd 2a cb 33 3e a8 f9 41 3e
       0.26421425 -0.0753921 0.1755797 0.18942893
0001b0 2a 98 a7 be 5c f9 c3 3d 3f 9b b4 be 17 9e 28 3d
       -0.3273328 0.09569046 -0.35274693 0.04116639
0001c0 dd 7b 82 3e 8b c4 b4 3d c4 af 96 be 8a 42 8b 3c
       0.25485125 0.0882655 -0.29430974 0.016999502
0001d0 cb 19 ad be 32 7d ac be 70 22 e7 3d d3 03 99 be
       -0.3380874 -0.33689266 0.11285865 -0.2988573
0001e0 27 e9 da 3d 0c 57 80 3d 00 53 60 3d ed b4 9f be
       0.106890015 0.06266603 0.054766655 -0.31192723
0001f0 cf 3e fa 3d 07 e9 9e be b7 73 a2 be 20 0a 57 3d
       0.12219011 -0.3103716 -0.31728908 0.05249989
000200 e3 b9 b8 be 98 ab 51 3d 69 f2 72 3e 8e 8e 8e 3d
       -0.3607932 0.051189035 0.23725285 0.06960784
000210 e2 f1 b8 be 5e d3 86 3d 8d 09 a6 be 0e 36 82 3d
       -0.36122042 0.06583284 -0.32429162 0.06357966
000220 b2 3a 50 be f1 d2 c9 bd 7d 87 32 be 61 d9 54 be
       -0.2033489 -0.09854687 -0.17434497 -0.20786048
000230 dc bf b7 be 4a a3 e8 3d ae 50 8b bd 4b 90 8d bd
       -0.35888565 0.1135927 -0.06802498 -0.06912287
000240 98 3d 93 be b8 8a 7d be 20 27 8f be 6d 93 9b be
       -0.2875793 -0.24759948 -0.27959538 -0.30385914
000250 47 61 91 be 52 7e 5f be f4 5e 14 3d a4 6b 52 be
       -0.2839453 -0.21825531 0.036223367 -0.20548874
000260 63 4f 5f 3d 08 0c 23 3e 64 29 36 3e 1c e7 54 3e
       0.05451907 0.15922558 0.17789227 0.20791286
000270 07 9c ae 3b 3c 67 82 bd 27 4d 8e 3d 99 54 a0 3d
       0.0053286585 -0.06367347 0.069483094 0.07828636
000280 22 80 d4 bd 7f f8 6b 3e f3 df 1e 3d 9a d8 41 be
       -0.10376002 0.23044012 0.038787793 -0.18930283
000290 79 67 11 bd 2b 12 ba bd 57 62 91 be 14 d3 51 be
       -0.03549907 -0.090854965 -0.2839534 -0.20490676
0002a0 d5 47 06 be 90 63 08 be 38 da b4 3d 8f 90 7f 3e
       -0.13113339 -0.1331923 0.088306844 0.24957488
0002b0 90 16 1b 3e 09 a4 83 3e ea 9f 93 3b 29 16 b5 3d
       0.15145326 0.25711086 0.004505147 0.08842117
0002c0 bb 24 1e 3e 26 87 62 3e f4 3b 73 bd 7e 99 c4 3e
       0.15443699 0.22121868 -0.059383348 0.38398355
0002d0 8e f0 de 3d 40 fc c0 bd a7 cd e3 bd 8b d8 3d be
       0.10885726 -0.09423113 -0.111232094 -0.18539636
0002e0 e4 42 82 be 0b 68 64 be d8 93 82 3d 70 eb 24 be
       -0.25441658 -0.22305314 0.06375855 -0.16105437
0002f0 0b 4f b8 3e 4d 28 db bd d4 09 52 bc 04 f8 2e be
       0.35997805 -0.10701046 -0.012819726 -0.17086798
000300 51 94 c5 bd 29 7c 6d 3c 8b c6 43 be 1c b0 f8 3c
       -0.0964743 0.014494934 -0.19118707 0.030357413
000310 2c 8e 95 bd ae 55 46 be e1 f4 8e 3c 9c 51 59 3d
       -0.07302508 -0.19368622 0.017450752 0.053056344
000320 02 86 3c be e5 d6 b0 3d 41 de ae bd c7 0e e5 bb
       -0.18410495 0.08634738 -0.08538485 -0.006990287
000330 03 c1 d3 bd fd e3 ef 3d 22 00 95 bb b2 44 12 3e
       -0.103395484 0.11713407 -0.004547135 0.14284018
000340 56 62 d4 bd e3 db c4 bd 9b 64 2f 3d 91 39 57 be
       -0.103703186 -0.096122526 0.042820554 -0.21018054
000350 51 4c fd bd c4 0e b0 bc 18 13 00 3d 19 1c a0 3d
       -0.12368072 -0.021491416 0.03126821 0.07817859
000360 c6 8e 88 bc 80 ff 84 bb 3a 09 f9 bb 51 3b 9f 3b
       -0.016669642 -0.0040587783 -0.007599977 0.004859366
000370 d5 ad a6 3c 33 13 1d bc 3f 5f 76 bc bf 3a b6 bb
       0.020346561 -0.009587097 -0.015037357 -0.0055612023
000380 7a 6d a9 bb 15 9d 4b bb a2 3f 14 bc 3e 7b 89 3c
       -0.0051705213 -0.003106897 -0.009048374 0.0167824
000390 71 e1 53 3c 14 b3 1f 3b f5 02 61 bc ea b8 c7 bc
       0.012932167 0.0024368213 -0.013733615 -0.024380166
0003a0 49 0e 02 3d 87 26 45 bc 9c 11 f2 bb 7a 66 68 3c
       0.031751905 -0.012033111 -0.007387353 0.014184589
0003b0 bd bb ea bc 51 48 16 bc 16 0c 0e 3c 10 45 db 3c
       -0.028653974 -0.009172515 0.008669874 0.02676633
0003c0 7f 13 0b 3c 15 00 74 bc 66 d2 40 bc 3c 14 6a be
       0.008488535 -0.014892598 -0.011768913 -0.22859281
0003d0 fc a2 16 be 46 81 88 be bb d0 ae bd 3d 52 13 3e
       -0.14710611 -0.26661128 -0.08535906 0.1438684
0003e0 3c 4b 82 bd 70 35 97 be 1d f5 cf bd 80 c4 3f be
       -0.06362006 -0.29532957 -0.101541735 -0.18727303
0003f0 f1 0d 83 3d 47 b9 03 be d7 e4 24 bd 54 8e 0e be
       0.063991435 -0.12863646 -0.0402573 -0.13921481

inconv.0.bias f4 [16]
000000 53 9e d1 3e 5d d7 dd bd 2c c2 ab 3e 82 c6 e1 bd
       0.40941104 -0.10832093 0.3354658 -0.110241905
000010 be e9 ad 3e ee 9f 34 bd b0 87 bc bd 48 2a 45 be
       0.33967394 -0.044097833 -0.09205568 -0.1925441
000020 ce 38 b4 3e 37 72 56 bd b7 0d 90 3d 24 b6 a5 bd
       0.3519959 -0.052355018 0.07033866 -0.08091381
000030 97 df d7 bd 4b 44 b8 3d fe 81 06 3f fd b1 e5 3e
       -0.10540693 0.08997401 0.525421 0.44862357

convs.0.weight f4 [16, 16, 3, 3]
000000 5f c2 f0 3c 65 44 16 bd f8 fe 17 bd 2c 12 a7 3d
       0.029389558 -0.03668632 -0.03710839 0.08157763
000010 38 ad 2c 3c 97 13 72 bd a6 83 8d bd 44 d2 a0 3c
       0.010539345 -0.059100714 -0.069098756 0.019631512
000020 0b fd 9a 3c fc 5b 34 bd e2 b3 de bd a9 e0 ce bd
       0.018919488 -0.044033036 -0.10874154 -0.10101444
000030 4b 8c ce bc 9b 02 43 3d 61 53 9e 3d c7 e8 e0 3d
       -0.025213381 0.047609907 0.07730747 0.10981899
000040 cc 1c bd bb 7b c8 d8 bd ac dc 49 3d d2 70 82 bd
       -0.005771255 -0.105851136 0.049282715 -0.06369175
000050 6a 66 5c 3c 67 23 10 3c 15 ac b3 bd 16 1d fe 3c
       0.013452152 0.008797503 -0.087730564 0.031019729
000060 c3 72 be 3b 1e ee f2 3c 1d bc 8e bd b9 fc aa 3c
       0.0058120205 0.029654559 -0.069694735 0.02087246
000070 ce 7d 2a bd d0 0d 6a 3d 7e 33 07 3e 6a 14 73 3d
       -0.041623883 0.05714208 0.13203236 0.05934564
000080 c4 b9 fe bd 6c 7e f8 bd 4c 3f 57 bd a5 79 f0 bc
       -0.12437776 -0.12133488 -0.0525506 -0.02935488
000090 25 e8 d7 bd fd 86 c4 bd 78 91 3f bd 2c a5 6a bd
       -0.10542325 -0.095960595 -0.04676959 -0.057286426
0000a0 c7 90 2a ba d2 f8 33 bd 28 50 a3 bd fc 48 6b bd
       -0.0006506559 -0.043938465 -0.07974273 -0.05744265
0000b0 6c e8 82 ba 59 0c 73 bc 6d 8f 47 bd 55 4d 61 3d
       -0.000998748 -0.014834487 -0.048720766 0.05500539
0000c0 f4 de 8a bd b3 df 87 bd 28 a7 a6 bd 52 26 6b bd
       -0.06780806 -0.06634464 -0.08137351 -0.057409592
0000d0 79 2c 8b 3d 3a 56 3f bb 47 13 73 bc 5e fd 99 bd
       0.06795592 -0.0029195682 -0.014836139 -0.07519029
0000e0 85 de 79 bd 26 3a 6b 3d d4 bb 04 bd 95 13 0b 3d
       -0.061003227 0.0574285 -0.03240569 0.03395422
0000f0 2c 5b 0b bd 8d d9 88 3d 9b 52 45 3d 98 b3 8d 3d
       -0.034022495 0.066821195 0.04817448 0.069190204
000100 86 12 00 bd 8e 75 62 bd c0 ac f5 bc 68 8c 0b 3d
       -0.031267665 -0.05528789 -0.0299896 0.03406945
000110 36 7f 06 bc 6b 6c 6b bc 88 7d 87 3d 8b 3c f5 bc
       -0.00820904 -0.014369111 0.0661574 -0.029936096
000120 0e a3 ad 3c ca 83 ac ba 5b a5 05 be 1f b5 4b 3c
       0.021195915 -0.0013161835 -0.1305136 0.012433319
000130 48 57 ea bd 8d 65 8c bd 17 5a 85 bd c8 e3 8c 3b
       -0.11442429 -0.06855307 -0.06511324 0.0042996146
000140 14 77 38 bd 84 3a 73 bc 80 0a 98 bb 66 87 06 bd
       -0.045035437 -0.014845494 -0.0046399236 -0.03284397
000150 ec 4c a7 bc 39 2d 9a bd 7b bd 76 bd dc 0f 49 3d
       -0.020422421 -0.07528157 -0.060239296 0.04908739
000160 5a ca a3 3d 76 1b 69 3d 40 27 03 bc a4 4d 0b be
       0.0799758 0.056910954 -0.008004963 -0.13603836
000170 5a 0d 07 be 6f 65 00 bc 03 6e c6 bd 83 34 f6 bd
       -0.13188687 -0.007836684 -0.09688952 -0.120217346
000180 05 f0 82 bd 45 cc ee bc 64 1c 4d 3d 0d a5 a7 3d
       -0.06393436 -0.029150138 0.050075904 0.08185778
000190 0d cc 29 bd d2 6b 74 bd e7 f9 fb bb 73 b5 5b bd
       -0.041454364 -0.059673138 -0.007689703 -0.05363984
0001a0 6c f8 6d bd 96 8a 41 bd ca fe 69 3d 3d 99 0c 3b
       -0.05809824 -0.047251306 0.05712775 0.0021453642
0001b0 5a b4 aa 3d 99 d2 c5 3d c0 cc 81 3d 21 11 8d bd
       0.083351806 0.09659309 0.06337881 -0.06888033
0001c0 3a 6a 7b bd 47 a6 76 bc df 90 f7 3d e8 62 e2 3d
       -0.061380602 -0.015054292 0.12088179 0.11054021
0001d0 c9 27 52 3d 3d 86 52 bd 90 74 df bd bf 27 99 bd
       0.051307473 -0.05139755 -0.109109044 -0.07478284
0001e0 a2 ff b0 bc 5b 69 14 3d da c8 c2 bd 8e 7d 95 bd
       -0.02160627 0.036233287 -0.09510966 -0.07299338
0001f0 cf f5 29 bd dc 96 ce bd e9 f1 5f bd eb 2d 97 3d
       -0.041494187 -0.10087368 -0.054674063 0.07381805
000200 c2 bc ce 3c 2c 31 02 3b 6f 0d 58 3c 3a db fa 3b
       0.025236491 0.0019865735 0.013186797 0.0076555284
000210 82 67 83 bb 7e 43 87 bd 6d 89 b7 bd 0b b7 85 bd
       -0.004010142 -0.0660467 -0.08961759 -0.06529053
000220 0b 76 43 bd 4e 40 99 bb 3b a0 42 bd 08 c5 03 be
       -0.047719996 -0.004676855 -0.04751609 -0.1286813
000230 69 61 3e bc 3a e5 be 3c 8c e0 c8 bd 88 b2 11 bc
       -0.011619904 0.023302663 -0.09808454 -0.008892663
000240 6a e5 29 bc f3 6b 2b be e6 84 96 bc d6 e2 9d bd
       -0.010369638 -0.16740398 -0.018373918 -0.07709281
000250 12 fe c3 3c d8 a3 c0 3b 9c 46 98 be 0b 4d 2f be
       0.023924861 0.0058789067 -0.2974137 -0.17119233
000260 5d 21 b1 bd 04 c8 45 bd ca 40 98 be 28 f4 64 bb
       -0.08648942 -0.048286453 -0.2973693 -0.0034935568
000270 f0 98 1d be 85 1a c2 be 6e 4c cf bd 66 97 8d be
       -0.15390372 -0.37910858 -0.10122 -0.2765457
000280 6e 04 1b be 7a 21 53 3e 48 60 49 bf bc d2 f8 be
       -0.15138409 0.20618239 -0.7866254 -0.48598278
000290 03 35 7f bf ab 2d da be 97 31 94 be c1 87 ad be
       -0.99690264 -0.42612967 -0.28944084 -0.33892635
0002a0 a8 b4 6a bf 24 2f 0a bf bf 88 4f bf c9 e4 bb bc
       -0.9168191 -0.5397818 -0.8106803 -0.022936242
0002b0 7b 3b 87 3d 6c fb 30 bd de 87 f6 bd 05 02 ab bd
       0.06603142 -0.043208525 -0.12037633 -0.083499946
0002c0 79 9b f2 3b 6f 31 81 3c de 9a 50 bd 6e d9 33 3e
       0.0074037877 0.015770642 -0.050928943 0.17563412
0002d0 ae 2a 63 bf 50 73 9f bf d6 40 4b bf 64 03 b3 bf
       -0.88737 -1.2457066 -0.79395807 -1.398541
0002e0 fe 9a ea bf 91 0b 8a bf 08 b0 63 bf 44 10 a7 bf
       -1.832855 -1.078478 -0.8894048 -1.3051839
0002f0 43 70 46 bf 2b 2a 3b 3e a3 67 2c 3e 5c 27 39 3e
       -0.7751505 0.18277805 0.1683641 0.1808142
000300 0a 86 77 3e 46 dc a7 3e 3c 70 80 3e 07 cf 1e 3e
       0.24172226 0.32785243 0.25085628 0.15508662
000310 60 a9 36 3e ef f6 8d 3e 24 84 e4 bd 18 d0 f7 bb
       0.17838049 0.27727458 -0.11158016 -0.0075626485
000320 a6 3e 2d 3d 8b ca 70 be 5a 57 e3 be 3e 94 2b be
       0.042296074 -0.23514764 -0.4440258 -0.16755769
000330 47 64 51 3e d8 4b 27 3d 09 26 30 3e 33 7d 81 3d
       0.20448409 0.040843815 0.1720201 0.06322708
000340 96 89 13 3c 2b f1 1e 3b 2e 65 62 bd 00 eb c8 3c
       0.009004971 0.0024252634 -0.055272274 0.02452612
000350 ae f2 33 bd 16 89 26 bd 2b 6f 3d bd 66 5c 19 3d
       -0.04393261 -0.04065808 -0.046248596 0.037441634
000360 d2 31 62 3b 7a 3a a3 bd c1 e7 86 bd 19 5c 8a bd
       0.0034514559 -0.07970138 -0.06587172 -0.067558475
000370 78 38 07 bd 50 fa dd bc b3 7f cc bd 03 06 8c bd
       -0.033012837 -0.027096897 -0.09985294 -0.06837084
000380 4a c1 07 be 22 b7 8e 3e a3 b4 b3 3d fd ca 82 bc
       -0.13257328 0.27874094 0.08774688 -0.015965933
000390 89 42 73 3e a1 e3 93 3d c6 b6 2f 3c 49 4b a0 3e
       0.2375585 0.07221151 0.010724729 0.31307438
0003a0 21 fd cf 3d 00 15 3f 3d af f3 d0 be 27 82 31 be
       0.101557024 0.046650887 -0.40810916 -0.17334805
0003b0 e2 ba d7 be 67 24 b0 bd 93 b5 01 3d 76 a4 1c 3e
       -0.42134768 -0.08600693 0.031667303 0.15297112
0003c0 ba 3d 4f 3b be 2c a6 3e d2 88 25 3f 9b 1c 84 3e
       0.0031622485 0.3245601 0.64661896 0.25803074
0003d0 20 e6 c7 bd a4 c5 b5 3e 07 58 ff 3b f9 d0 e3 be
       -0.0976069 0.3550235 0.007792476 -0.4449537
0003e0 18 1b 48 bf 56 5a 0d 3f b4 42 ca 3c 5b 82 31 3e
       -0.7816634 0.55215967 0.02469001 0.17334883
0003f0 2b cb 05 3e fd a2 51 be 37 29 28 bd 22 bb c3 bd
       0.13065784 -0.20472331 -0.04105493 -0.09557177

convs.0.bias f4 [16]
000000 5a f6 f1 bd 71 e3 28 be 9b c3 9c 3e 77 7c c9 bd
       -0.11814566 -0.16493012 0.30617985 -0.09838193
000010 d2 3c db 3e 63 4f aa 3e 14 86 e5 3b 74 7e 77 3e
       0.4281984 0.33263692 0.0070045087 0.24169332
000020 ca a4 25 3f c0 93 ef 3c 55 41 1c 3f ee f3 bd 3e
       0.64704573 0.029245257 0.6103719 0.37100166
000030 9c 2d 00 3e c8 9a b9 3d 2b cc d9 bd 0e 58 d9 3e
       0.12517399 0.09062725 -0.10634645 0.42449993

outconv.0.weight f4 [3, 16, 1, 1]
000000 75 2a f4 bd ac 80 48 3e 4a d8 cf bd fd 79 08 bd
       -0.119221605 0.19580334 -0.10148676 -0.033319462
000010 b3 ff a8 be 66 28 22 bd 48 dc 92 3d 7d 46 b1 bc
       -0.33007583 -0.03958931 0.071709216 -0.021640057
000020 fa 24 46 be ae d6 40 3e 3b 19 02 be 5a ff 58 be
       -0.19350043 0.18831894 -0.12704937 -0.21191159
000030 37 c1 f5 bd 68 87 d5 bd 9e 0a 5b be 72 f8 5d be
       -0.119997434 -0.10426217 -0.21390769 -0.21676806
000040 1c 43 08 be 60 17 6f 3e fb 07 c7 bd 39 30 89 39
       -0.1330685 0.2334876 -0.09718319 0.00026166605
000050 a5 ef 92 be 30 f3 e2 bd d7 ed 8e 3d d4 77 11 bd
       -0.2869846 -0.110815406 0.06978958 -0.035514668
000060 c7 d8 3c be 99 38 38 3e 34 d9 ff bd 77 ad 49 be
       -0.18442069 0.1799034 -0.124926 -0.19695078
000070 7c 97 9d bd 90 82 ca bd 7a 3f 41 be ff bd 59 be
       -0.07694909 -0.09888184 -0.1887187 -0.21263884
000080 f2 25 56 bd c8 73 8b 3e c1 f3 ca bd 2d 04 df 3d
       -0.05228228 0.27236772 -0.099097736 0.10889468
000090 43 2f e5 bd e2 11 6d be 50 df fe 3d 7b a2 8e be
       -0.11190655 -0.23151353 0.12444937 -0.27858338
0000a0 ae 99 22 be 0c 33 78 bd bf 36 04 be 46 1a c9 bd
       -0.15878937 -0.060595557 -0.12911509 -0.098194644
0000b0 f7 86 27 bd de ee c2 bd 1b ac 25 be d4 35 0b be
       -0.040900197 -0.095182166 -0.16178934 -0.13594753

outconv.0.bias f4 [3]
000000 80 b0 f6 bd d8 f2 02 be 01 04 47 be
       -0.120453835 -0.1278795 -0.19435121
