save/400_RES_decom.pth (torch, 3095 bytes, 6 tensors)

inconv.0.weight f4 [3, 3, 3, 3]
0	0x3deb7a8e	0.11497985
1	0xbd436f3d	-0.047713507
2	0x3b4ba77e	0.0031075175
3	0x3dd2b5b6	0.10288565
4	0xbe0c77cc	-0.13717574
5	0x3c755b5e	0.014975397
6	0xbe3bdcad	-0.183459
7	0x3df27a60	0.118397474
8	0xbdf9194f	-0.1216303
9	0xbde02d7b	-0.10946175
10	0xbd3ab4a4	-0.04558243
11	0x3d8cf80d	0.068832494
12	0xbe355178	-0.17706859
13	0xbe34e70c	-0.17666262
14	0xbe0d52d6	-0.1380113
15	0xbe338f5f	-0.1753516
16	0x3c31c523	0.010850224
17	0xbe4fa046	-0.20275983
18	0xbe0f2bff	-0.13981627
19	0xbdd77948	-0.105211794
20	0xbe1a22be	-0.15052316
21	0xbe5e2c10	-0.21696496
22	0x3dd9884c	0.106217
23	0x3ddfb95f	0.109240286
24	0x3c92b133	0.01790676
25	0x3e16bc78	0.14720333
26	0x3bb00c9e	0.005372598
27	0xbd89db93	-0.067313336
28	0x3d978d50	0.074
29	0xbe43e6d2	-0.1913102
30	0xba29cde3	-0.0006477518
31	0x3dd686cf	0.104749314
32	0x3db9c87a	0.09071441
33	0xbcbc44be	-0.022981998
34	0xbcf28eb9	-0.029609071
35	0xbe000a8f	-0.12504028
36	0xbe4d158d	-0.20027752
37	0x3bb1325f	0.005407616
38	0x3d68e44f	0.056858357
39	0xbdbf47d7	-0.09339874
40	0xbd8f3484	-0.069924384
41	0x3d3fa33f	0.046786543
42	0xbe1148a0	-0.1418786
43	0xbda466ce	-0.08027421
44	0x3dd8e1d8	0.10589951
45	0x3d8ca260	0.06866908
46	0x3b1f2ee8	0.0024289433
47	0x3dbff15e	0.09372209
48	0xbd68850d	-0.056767512
49	0xbe340bd7	-0.17582642
50	0xbe1ba344	-0.15199
51	0x3d1c83b6	0.038211547
52	0xbd06b111	-0.032883707
53	0xbd1de558	-0.038548797
54	0xbe0798bf	-0.13241862
55	0x3e26968d	0.16268368
56	0xbdb7a76c	-0.0896748
57	0x3d3c1ed1	0.045927826
58	0xbe10038c	-0.14063853
59	0xbddbd53c	-0.107340306
60	0xbd4f06e8	-0.050543696
61	0xbdf75d61	-0.120783575
62	0xbe523fb7	-0.20532118
63	0xbcb689ba	-0.02228247
64	0xbe1455ab	-0.14485805
65	0xbe190344	-0.14942652
66	0xbb958495	-0.004562924
67	0xbc42ee33	-0.011897611
68	0x3bbf1ca9	0.005832274
69	0xbdf9b532	-0.121927634
70	0xbe356d4d	-0.17717476
71	0xbe51f932	-0.20505217
72	0xbdcef77f	-0.101058
73	0xbe2e3d33	-0.17015533
74	0xbd1812fc	-0.03712748
75	0xbd20b216	-0.039232336
76	0x3db8faeb	0.09032234
77	0xbd005bac	-0.031337425
78	0x3e0a1a54	0.13486606
79	0x3ddcd1d1	0.10782207
80	0xbde2cadf	-0.11073851

inconv.0.bias f4 [3]
0	0xbe1abee6	-0.15111884
1	0xbd9c2c5d	-0.07625649
2	0xbdc34b93	-0.09535899

convs.0.weight f4 [3, 3, 3, 3]
0	0xbba8f08a	-0.0051556276
1	0xbd2e26a1	-0.04251731
2	0xbd09d8f9	-0.033654187
3	0xbdc35685	-0.09537987
4	0xbe153118	-0.14569509
5	0xbdd1bc78	-0.10241026
6	0x3df924fe	0.12165259
7	0x3db0e0dc	0.086366385
8	0xbdc2b03b	-0.095062695
9	0x3e383198	0.17987669
10	0xbdb076f1	-0.08616436
11	0xbde90af7	-0.113790445
12	0xbd458ae8	-0.048228174
13	0x3bc2db73	0.0059465705
14	0x3da7e56e	0.08198057
15	0xbdeb5ff5	-0.11492912
16	0x3e0204d4	0.12697154
17	0xbe38f45a	-0.18061963
18	0xbe01c01e	-0.12670943
19	0xbe1f516b	-0.15558402
20	0x3d3d2599	0.046178434
21	0x3c8c6903	0.017139917
22	0xbd72eb0c	-0.05930619
23	0x3e15079b	0.14553683
24	0xbd2b8956	-0.04187902
25	0xbe3ca6dd	-0.18423028
26	0xbe186eee	-0.14886066
27	0x3bb570b1	0.0055371155
28	0x3db240e1	0.08703781
29	0x3e021e2c	0.12706822
30	0xbded556d	-0.11588559
31	0xbd04f001	-0.032455448
32	0x3e2d08a0	0.16897821
33	0xbd1b4500	-0.0379076
34	0x3c643186	0.013927823
35	0x3d08a1f2	0.033357568
36	0xbd0b2c4c	-0.03397779
37	0xbe0d8aa0	-0.13822412
38	0xbdc551a5	-0.09634713
39	0xbdf9e7a3	-0.12202384
40	0xbe19ae75	-0.15007956
41	0x3d512be0	0.051067233
42	0xbddc045a	-0.107430175
43	0x3c822513	0.015886819
44	0x3b3ac4a0	0.0028498545
45	0x3d81fc74	0.0634698
46	0x3e31837e	0.17335317
47	0xbe2346a4	-0.15944916
48	0xbe0efd0e	-0.1396372
49	0xbc738f48	-0.014865704
50	0xbc28289a	-0.010263586
51	0xbc6ce028	-0.01445774
52	0xbc47c6ea	-0.012193421
53	0xbcbfd31c	-0.023416094
54	0x3e1908ab	0.14944713
55	0xbba7ab15	-0.00511683
56	0xbdea02d2	-0.11426319
57	0x3e0796ad	0.13241072
58	0x3e09a789	0.13442816
59	0xbdbd478f	-0.09242164
60	0xbe2949b9	-0.16532029
61	0xbd779d95	-0.060453016
62	0x3e110d30	0.14165187
63	0x3b30831a	0.0026933611
64	0x3dee87f8	0.11647028
65	0xbd266c1f	-0.040630456
66	0x3cf0b505	0.029383192
67	0x3dbdf2e1	0.09274841
68	0xbb21259e	-0.0024589072
69	0x3dca23a2	0.09870078
70	0xbdfd162d	-0.12357745
71	0xbd16066d	-0.03662722
72	0xbdae661c	-0.085155696
73	0x3c0d7852	0.008634644
74	0x3e251ff2	0.16125467
75	0xbd0ba86f	-0.034096178
76	0xbd2e4283	-0.0425439
77	0x3c92e146	0.017929684
78	0x3d3dc1b7	0.04632732
79	0x3e37d756	0.17953238
80	0xbdacc135	-0.08435289

convs.0.bias f4 [3]
0	0xbddbbb4f	-0.10729086
1	0x3f3993e9	0.7249132
2	0x3f108c41	0.5646401

outconv.0.weight f4 [3, 3, 1, 1]
0	0x3ebfd150	0.3746438
1	0xbf19124f	-0.5979356
2	0xbf2d0473	-0.67584914
3	0x3dea243b	0.11432692
4	0xbf73909b	-0.95142525
5	0xbf26b521	-0.6512013
6	0xbec55006	-0.38537616
7	0xbd3f92c4	-0.046770826
8	0xbf832d91	-1.0248281

outconv.0.bias f4 [3]
0	0x3ba6da10	0.005091913
1	0x3e4ba154	0.1988576
2	0xbe9fb6a8	-0.31194043
