save/500_RES_decom.pth (torch, 3095 bytes, 6 tensors)

inconv.0.weight f4 [3, 3, 3, 3]
000000 8e 7a eb 3d 3d 6f 43 bd 7e a7 4b 3b b6 b5 d2 3d
       0.11497985 -0.047713507 0.0031075175 0.10288565
000010 cc 77 0c be 5e 5b 75 3c ad dc 3b be 60 7a f2 3d
       -0.13717574 0.014975397 -0.183459 0.118397474
000020 4f 19 f9 bd 7b 2d e0 bd a4 b4 3a bd 0d f8 8c 3d
       -0.1216303 -0.10946175 -0.04558243 0.068832494
000030 78 51 35 be 0c e7 34 be d6 52 0d be 5f 8f 33 be
       -0.17706859 -0.17666262 -0.1380113 -0.1753516
000040 23 c5 31 3c 46 a0 4f be ff 2b 0f be 48 79 d7 bd
       0.010850224 -0.20275983 -0.13981627 -0.105211794
000050 be 22 1a be 10 2c 5e be 4c 88 d9 3d 5f b9 df 3d
       -0.15052316 -0.21696496 0.106217 0.109240286
000060 33 b1 92 3c 78 bc 16 3e 9e 0c b0 3b d3 67 8a bd
       0.01790676 0.14720333 0.005372598 -0.06758084
000070 4e 4b 97 3d af fb 43 be 08 58 d2 ba 9c 04 d5 3d
       0.0738741 -0.19138978 -0.0016047964 0.1040127
000080 5d 9e b8 3d 14 9a be bc 82 bb f3 bc 0c 21 00 be
       0.090145804 -0.02326683 -0.029752497 -0.12512606
000090 f8 1a 4d be 28 7e b0 3b 2e c3 68 3d e0 90 bf bd
       -0.20029819 0.0053861327 0.056826763 -0.093538046
0000a0 9f 6d 8f bd cd 3f 3f 3d 87 4e 11 be 20 74 a4 bd
       -0.070033304 0.046691705 -0.14190112 -0.080299616
0000b0 3f cf d8 3d 60 a2 8c 3d c7 a0 1d 3b d3 da bf 3d
       0.10586404 0.06866908 0.002405213 0.09367909
0000c0 0d 85 68 bd d7 0b 34 be bb a5 1b be b6 83 1c 3d
       -0.056767512 -0.17582642 -0.1519994 0.038211547
0000d0 19 cf 06 bd 89 1a 1e bd bf 98 07 be 8d 96 26 3e
       -0.032912347 -0.038599525 -0.13241862 0.16268368
0000e0 6c a7 b7 bd d1 1e 3c 3d 8c 03 10 be 3c d5 db bd
       -0.0896748 0.045927826 -0.14063853 -0.107340306
0000f0 e8 06 4f bd 61 5d f7 bd b7 3f 52 be ba 89 b6 bc
       -0.050543696 -0.120783575 -0.20532118 -0.02228247
000100 ab 55 14 be 44 03 19 be 95 84 95 bb 33 ee 42 bc
       -0.14485805 -0.14942652 -0.004562924 -0.011897611
000110 a9 1c bf 3b 32 b5 f9 bd 4d 6d 35 be 32 f9 51 be
       0.005832274 -0.121927634 -0.17717476 -0.20505217
000120 7f f7 ce bd 33 3d 2e be fc 12 18 bd 16 b2 20 bd
       -0.101058 -0.17015533 -0.03712748 -0.039232336
000130 eb fa b8 3d ac 5b 00 bd 54 1a 0a 3e d1 d1 dc 3d
       0.09032234 -0.031337425 0.13486606 0.10782207
000140 df ca e2 bd
       -0.11073851

inconv.0.bias f4 [3]
000000 e6 be 1a be b2 15 9d bd 93 4b c3 bd
       -0.15111884 -0.07670154 -0.09535899

convs.0.weight f4 [3, 3, 3, 3]
000000 8a f0 a8 bb a1 26 2e bd f9 d8 09 bd 85 56 c3 bd
       -0.0051556276 -0.04251731 -0.033654187 -0.09537987
000010 18 31 15 be 78 bc d1 bd fe 24 f9 3d dc e0 b0 3d
       -0.14569509 -0.10241026 0.12165259 0.086366385
000020 3b b0 c2 bd 98 31 38 3e f1 76 b0 bd f7 0a e9 bd
       -0.095062695 0.17987669 -0.08616436 -0.113790445
000030 e8 8a 45 bd 73 db c2 3b 6e e5 a7 3d f5 5f eb bd
       -0.048228174 0.0059465705 0.08198057 -0.11492912
000040 d4 04 02 3e 5a f4 38 be 1e c0 01 be 6b 51 1f be
       0.12697154 -0.18061963 -0.12670943 -0.15558402
000050 99 25 3d 3d 03 69 8c 3c 0c eb 72 bd 9b 07 15 3e
       0.046178434 0.017139917 -0.05930619 0.14553683
000060 56 89 2b bd dd a6 3c be ee 6e 18 be b1 70 b5 3b
       -0.04187902 -0.18423028 -0.14886066 0.0055371155
000070 e1 40 b2 3d 2c 1e 02 3e 6d 55 ed bd 01 f0 04 bd
       0.08703781 0.12706822 -0.11588559 -0.032455448
000080 a0 08 2d 3e 00 45 1b bd 86 31 64 3c f2 a1 08 3d
       0.16897821 -0.0379076 0.013927823 0.033357568
000090 4c 2c 0b bd a0 8a 0d be a5 51 c5 bd 13 bf f9 bd
       -0.03397779 -0.13822412 -0.09634713 -0.12194648
0000a0 cf b0 19 be 81 1d 51 3d 39 00 dc bd 85 4f 82 3c
       -0.15008853 0.051053528 -0.1074223 0.015907058
0000b0 18 0f 3c 3b 74 fc 81 3d 7e 83 31 3e a4 46 23 be
       0.002869552 0.0634698 0.17335317 -0.15944916
0000c0 0e fd 0e be 48 8f 73 bc 9a 28 28 bc 28 e0 6c bc
       -0.1396372 -0.014865704 -0.010263586 -0.01445774
0000d0 ea c6 47 bc 1c d3 bf bc ab 08 19 3e 15 ab a7 bb
       -0.012193421 -0.023416094 0.14944713 -0.00511683
0000e0 d2 02 ea bd ad 96 07 3e 89 a7 09 3e 8f 47 bd bd
       -0.11426319 0.13241072 0.13442816 -0.09242164
0000f0 b9 49 29 be 95 9d 77 bd 30 0d 11 3e 1a 83 30 3b
       -0.16532029 -0.060453016 0.14165187 0.0026933611
000100 f8 87 ee 3d 1f 6c 26 bd f2 f7 f0 3c 85 c0 bd 3d
       0.11647028 -0.040630456 0.029415105 0.09265236
000110 35 7f 22 bb f1 0c ca 3d a6 b8 fc bd 23 90 15 bd
       -0.002479506 0.098657496 -0.123399064 -0.036514413
000120 1c 66 ae bd 52 78 0d 3c f2 1f 25 3e 6f a8 0b bd
       -0.085155696 0.008634644 0.16125467 -0.034096178
000130 83 42 2e bd 46 e1 92 3c b7 c1 3d 3d 56 d7 37 3e
       -0.0425439 0.017929684 0.04632732 0.17953238
000140 35 c1 ac bd
       -0.08435289

convs.0.bias f4 [3]
000000 4f bb db bd 96 4d 39 3f e4 69 10 3f
       -0.10729086 0.7238401 0.56411576

outconv.0.weight f4 [3, 3, 1, 1]
000000 50 d1 bf 3e 31 f1 18 bf 7c c8 2c bf 3b 24 ea 3d
       0.3746438 -0.5974303 -0.67493415 0.11432692
000010 71 7f 73 bf 17 8a 26 bf 06 50 c5 be bb 1f 3e bd
       -0.95116335 -0.6505446 -0.38537616 -0.04641698
000020 6c 13 83 bf
       -1.0240302

outconv.0.bias f4 [3]
000000 33 0b 6a 3b 79 4f 4a 3e 89 30 a0 be
       0.0035712242 0.19756879 -0.3128703
