save/500_RES_decom.pth (torch, 13399 bytes, 6 tensors)

inconv.0.weight f4 [16, 3, 3, 3]
0	0xbdaf19cf	-0.085498445
1	0x3cf3f95a	0.029781986
2	0xbdde7330	-0.10861814
3	0xbd28bbd6	-0.04119476
4	0x3c9fe843	0.01951993
5	0xbd3ec583	-0.04657508
6	0xbe7fc893	-0.24978857
7	0x3c815f6b	0.01579257
8	0xbd340ff1	-0.043960515
9	0x3be5d42b	0.007013818
10	0x3d32c2c3	0.04364277
11	0x3c82f27e	0.01598477
12	0x3d5294b4	0.051411346
13	0x3d5f4231	0.054506484
14	0x3da07ac1	0.078359134
15	0xbd909a17	-0.0706064
16	0x3e0e63b2	0.13905218
17	0xbd00b7c4	-0.031425253
18	0xbe64d8cd	-0.22348328
19	0x3e1bbe42	0.15209296
20	0xbe4e7f2b	-0.20165698
21	0x3d44fda1	0.048093442
22	0x3c445d75	0.0119851725
23	0xbd2f78fb	-0.042839985
24	0xbe81b202	-0.25331122
25	0x3d4a5b3d	0.049403418
26	0xbd9c88a8	-0.076432526
27	0x3ce3752f	0.027765838
28	0x3d8f4d10	0.069971204
29	0x3f3cc308	0.73735094
30	0xbeb0c8d4	-0.3452822
31	0xbe08e222	-0.13367513
32	0x3d5f65ef	0.05454057
33	0xbd75b0b3	-0.059982967
34	0xbd10fccf	-0.035397347
35	0x3ec11c20	0.3771677
36	0xbe4a5500	-0.19758987
37	0xbd963f38	-0.07336277
38	0x3d9651db	0.073398314
39	0xbe0ebacf	-0.1393845
40	0xbd5d8e60	-0.054090858
41	0xbe7e924d	-0.24860497
42	0xbcfc8152	-0.030823383
43	0x3d933dda	0.071895316
44	0xbe08c106	-0.13354883
45	0xbdac69fa	-0.08418651
46	0xbd15bc3a	-0.03655646
47	0x3eb60e24	0.35557663
48	0xbdb13b58	-0.08653897
49	0xbdf5766f	-0.1198548
50	0xbdf25f10	-0.11834538
51	0xbca5ac0d	-0.020223642
52	0x3c358b40	0.011080563
53	0x3dc1a6b3	0.094556235
54	0xbdad68cf	-0.08467256
55	0xbe2ee94a	-0.1708118
56	0xbe5e8ce7	-0.21733437
57	0xbd73cea6	-0.059523247
58	0x3d8e482a	0.06947358
59	0xbe4f9380	-0.2027111
60	0xbe70b03b	-0.23504727
61	0xbdf70827	-0.12062102
62	0xbcc144f9	-0.023592459
63	0x3db0cec0	0.086331844
64	0x3dacdba6	0.08440332
65	0xbdbf5baf	-0.09343659
66	0xbc3bd5ff	-0.011464595
67	0x3d1e82a8	0.038698822
68	0x3c356035	0.011070301
69	0xbd93e4f2	-0.07221402
70	0xbcd19f67	-0.025588704
71	0xbdaa289c	-0.08308527
72	0xbddfb6bc	-0.10923526
73	0x3cc12ddf	0.023581443
74	0xbe2f1487	-0.17097674
75	0x3d6ee61b	0.058324914
76	0x3c41a229	0.011818447
77	0xbdbcdce3	-0.09221818
78	0xbe0bbbe1	-0.13645889
79	0xbd3b18d7	-0.045677986
80	0xbd0a5d40	-0.033780336
81	0x3c7fcbab	0.015612523
82	0xbe1ae8e4	-0.15127903
83	0xbd504d22	-0.05085481
84	0x3b11d267	0.0022250654
85	0x3de839db	0.1133916
86	0xbcbb4a89	-0.02286269
87	0x3cf5e823	0.030017918
88	0xbe9b287b	-0.30304322
89	0xbc93cf9e	-0.018043336
90	0xbe923f0c	-0.28563726
91	0xbe29ac06	-0.16569528
92	0xbd99a2d5	-0.07501761
93	0x3e4b5707	0.19857417
94	0x3da4c183	0.08044722
95	0xbe2f3ef5	-0.1711386
96	0xbe9707fd	-0.29498282
97	0xbeb6627d	-0.35622016
98	0xbe3749c0	-0.17899227
99	0x3d17ecce	0.03709107
100	0xbd403e95	-0.046934683
101	0x3e575b75	0.21030982
102	0x3eba9c75	0.36447492
103	0x3e930809	0.28717068
104	0x3e910d6c	0.28330553
105	0xbd2d3ffe	-0.042297356
106	0x3e45ddf9	0.19322957
107	0x3e5ccad7	0.21561752
108	0xbeb4374f	-0.35198447
109	0x3df017ae	0.117232665
110	0xbeb00bf2	-0.34384114
111	0x3d81e4d4	0.063424736
112	0x3e78088b	0.24222009
113	0x3dc89a29	0.09795029
114	0xbe9c8794	-0.30572188
115	0x3d3fc892	0.046822138
116	0xbeba14da	-0.36344033
117	0xbec1acb5	-0.37827078
118	0x3de35f4f	0.11102163
119	0xbea79317	-0.32729408
120	0x3dc8b126	0.097994134
121	0x3d15dbc8	0.036586553
122	0x3d4ed14d	0.050492574
123	0xbeac1a0a	-0.33613616
124	0x3dfa6ea5	0.12228135
125	0xbeae6514	-0.3406149
126	0xbeb28957	-0.34870407
127	0x3d84f0a2	0.064912096
128	0xbec1b5dc	-0.3783406
129	0x3d6f4eb8	0.05842468
130	0x3e6a028e	0.22852537
131	0x3dbb2af4	0.09139052
132	0xbec1b164	-0.3783065
133	0x3da3011a	0.079591945
134	0xbeb6fa9a	-0.3573807
135	0x3e32b11e	0.17450377
136	0xbe81cfd2	-0.25353867
137	0xbcd75cde	-0.0262894
138	0xbe8ddba0	-0.27706623
139	0xbea40414	-0.3203436
140	0xbebca865	-0.36847225
141	0xbd138655	-0.03601678
142	0xbdc74509	-0.09729964
143	0xbc29518b	-0.010334383
144	0xbe566bf8	-0.20939624
145	0xbe79dbe1	-0.24400283
146	0xbe81381e	-0.25238127
147	0xbeb1fa4f	-0.34761283
148	0xbea678ad	-0.32513943
149	0xbe7980de	-0.24365565
150	0x3c537df4	0.0129084475
151	0xbe2cf7af	-0.16891359
152	0x3d9f2ad6	0.07771842
153	0x3e5418d5	0.20712598
154	0x3e563a8e	0.20920774
155	0x3e6a7e14	0.22899657
156	0x3d05de84	0.03268291
157	0xbd3bbb37	-0.04583284
158	0x3d80fe73	0.06298532
159	0x3dcd0ee3	0.10012605
160	0xbdc4e44f	-0.09613859
161	0x3e5a41ec	0.2131421
162	0x3dc264b0	0.09491861
163	0xbe3502a1	-0.17676784
164	0xbd38d6ee	-0.045126848
165	0xbdaa4b8f	-0.08315193
166	0xbe95163c	-0.29118526
167	0xbe60e414	-0.21962005
168	0xbe020539	-0.12697305
169	0xbe0a07e3	-0.13479571
170	0x3ddd7b22	0.10814501
171	0x3e87c0a0	0.2651415
172	0x3df7af05	0.12093929
173	0x3e8447f6	0.25836152
174	0xbc040143	-0.008056941
175	0x3d1efb41	0.038813833
176	0x3de9533e	0.1139283
177	0x3e54073b	0.20705883
178	0xbda4cf31	-0.08047331
179	0x3ec4e42f	0.3845534
180	0x3e286996	0.16446528
181	0xbdc81a52	-0.09770645
182	0xbdbbabef	-0.09163653
183	0xbe29a4a2	-0.16566709
184	0xbe883093	-0.2659956
185	0xbe6c64f0	-0.2308538
186	0x3da9b103	0.082857154
187	0xbe200676	-0.15627465
188	0x3ec718d4	0.3888613
189	0xbddb284d	-0.10701046
190	0xbc5209d4	-0.012819726
191	0xbe2ef804	-0.17086798
192	0xbdc59451	-0.0964743
193	0x3c6d7c29	0.014494934
194	0xbe43c68b	-0.19118707
195	0x3cf8b01c	0.030357413
196	0xbd958e2c	-0.07302508
197	0xbe4655ae	-0.19368622
198	0x3c8ef4e1	0.017450752
199	0x3d59519c	0.053056344
200	0xbe3c8602	-0.18410495
201	0x3db0d6e5	0.08634738
202	0xbdaede41	-0.08538485
203	0xbbe50ec7	-0.006990287
204	0xbdd3c103	-0.103395484
205	0x3defe3fd	0.11713407
206	0xbb950022	-0.004547135
207	0x3e1244b2	0.14284018
208	0xbdd46256	-0.103703186
209	0xbdc4dbe3	-0.096122526
210	0x3d2f649b	0.042820554
211	0xbe573991	-0.21018054
212	0xbdfd4c51	-0.12368072
213	0xbcb00ec4	-0.021491416
214	0x3d001318	0.03126821
215	0x3da01c19	0.07817859
216	0xbcf66b6d	-0.030080521
217	0xbc049b1a	-0.00809362
218	0xbc4b561b	-0.012410666
219	0xbc04a299	-0.008095407
220	0x3ba1b545	0.004934939
221	0xbc5ca3ec	-0.013466816
222	0xbc0b842f	-0.008515402
223	0xbc2749ad	-0.010210437
224	0xbc51b851	-0.012800292
225	0xbb5bc2a3	-0.003353276
226	0xbc8fca93	-0.01755265
227	0x3bc5015a	0.006012124
228	0x3b37a38b	0.0028021063
229	0xbc0a492d	-0.008440298
230	0xbc8b8754	-0.017032303
231	0x3b1d48a8	0.0023999605
232	0x3bf4ade4	0.0074670184
233	0xbb59fbc1	-0.003326163
234	0x3bddf8cd	0.006774044
235	0x3c0433e6	0.008069014
236	0xbc05ae0c	-0.008159172
237	0xbbda843c	-0.0066685956
238	0x3c9185b8	0.017763957
239	0x3cb9a441	0.02266133
240	0x3c7f05a6	0.015565312
241	0xba44ce4f	-0.0007507549
242	0x3ae5e8e4	0.001754072
243	0xbe8ca5e1	-0.27470306
244	0xbe246b02	-0.16056445
245	0xbe97a146	-0.2961523
246	0xbd9e1ff1	-0.07720936
247	0x3e306671	0.17226578
248	0xbd858656	-0.06519763
249	0xbeb7f94c	-0.35932386
250	0xbcaf3b82	-0.02139068
251	0xbe952688	-0.2913096
252	0x3d743e2a	0.059629597
253	0xbde45479	-0.111489244
254	0xbc396482	-0.011315467
255	0xbde7a743	-0.113111995

inconv.0.bias f4 [16]
0	0x3ed7eebe	0.42174333
1	0xbdf64300	-0.12024498
2	0x3eb88ce0	0.3604498
3	0xbdf3841a	-0.11890431
4	0x3eba4051	0.36377195
5	0xbc6b8378	-0.014374606
6	0xbdb1dc00	-0.0868454
7	0xbe452a48	-0.1925441
8	0x3e4e7572	0.2016199
9	0xbd2a16d0	-0.041525662
10	0x3dec21fa	0.11529918
11	0xbdaf6cf0	-0.085657
12	0xbde17699	-0.11008949
13	0x3db47b31	0.088125594
14	0x3f1167ac	0.56798816
15	0x3f014ab8	0.50504637

convs.0.weight f4 [16, 16, 3, 3]
0	0x3bb4cf7b	0.0055178977
1	0xbd91fd1b	-0.07128354
2	0xbce41b07	-0.027844919
3	0x3defbab1	0.117055304
4	0x3d48b3ba	0.048999526
5	0xbbb97e97	-0.0056608426
6	0x3cad8700	0.021182537
7	0x3de3e677	0.11127942
8	0x3dc6a2ec	0.09699044
9	0xbd14c230	-0.036318004
10	0x3d3e48a3	0.04645599
11	0xbefe6b8b	-0.49691424
12	0x3d7402dd	0.059573043
13	0x3d546282	0.051851757
14	0x3d49db92	0.049281664
15	0x3d777ba9	0.060420666
16	0x3d97d717	0.07414072
17	0x3d8d617a	0.06903358
18	0xbe333088	-0.17498982
19	0xbe050eb4	-0.1299389
20	0x3e3603ae	0.17774841
21	0xbe37def7	-0.17956148
22	0xbe0a1fac	-0.13488644
23	0x3dc5f574	0.09665957
24	0x3cce85c4	0.025210269
25	0x3de4235a	0.11139555
26	0x3e25e7b0	0.16201663
27	0x3e6d6a0f	0.2318499
28	0x3e0f4638	0.1399163
29	0x3db024ba	0.08600755
30	0x3deacb72	0.11464585
31	0x3d97e0c2	0.07415916
32	0xbe0dc3b7	-0.1384419
33	0xbe3a6710	-0.18203378
34	0xbe05249b	-0.13002245
35	0xbe6ca0ab	-0.23108165
36	0x3cee6835	0.029102424
37	0xbdc534ff	-0.09629249
38	0xbb8e9719	-0.0043515083
39	0xbe149c47	-0.1451274
40	0xbe633f02	-0.22192004
41	0xbe07e82f	-0.13272165
42	0xbe0a9f08	-0.13537228
43	0xbe11ec06	-0.14250192
44	0x3d23a92e	0.039956264
45	0xbe930c1d	-0.2872018
46	0xbe70ebc0	-0.23527431
47	0xbea54f4b	-0.32287058
48	0xbdd63674	-0.10459605
49	0xbe26a8af	-0.16275285
50	0xbdd6af26	-0.10482626
51	0xbd82f4f8	-0.0639438
52	0x3e04fe55	0.12987645
53	0x3d71d3dd	0.05903994
54	0xbd93b7a6	-0.072127625
55	0xbec7702f	-0.38952777
56	0xbe55e6fe	-0.20888898
57	0xbdc529ae	-0.096270904
58	0xbe093b8e	-0.13401625
59	0xbe0e6ca1	-0.13908626
60	0xbcb39c87	-0.021925224
61	0x3a35462e	0.00069150596
62	0xbe331795	-0.17489465
63	0x3d8db398	0.069190204
64	0xbd001286	-0.031267665
65	0xbd62758e	-0.05528789
66	0xbcf5acc0	-0.0299896
67	0x3d0b8c68	0.03406945
68	0xbc067f36	-0.00820904
69	0xbc6b6c6b	-0.014369111
70	0x3d877d88	0.0661574
71	0xbcf53c8b	-0.029936096
72	0x3c9958f0	0.018719167
73	0xbbc28615	-0.005936394
74	0xbdf3e99f	-0.11909794
75	0xbb7b9ef3	-0.0038394302
76	0xbe04af6e	-0.12957546
77	0xbd9b2e85	-0.07577232
78	0xbd836acd	-0.06416855
79	0xbb798a3a	-0.0038076774
80	0xbd4c7051	-0.0499118
81	0xbea7b006	-0.32751483
82	0xbe7981ea	-0.24365965
83	0xbe8f4630	-0.27983236
84	0xbdc3ccbd	-0.09560535
85	0xbd1c86de	-0.038214557
86	0x3d97ecbd	0.07418201
87	0x3e12c427	0.14332639
88	0x3e677d39	0.22606362
89	0x3e27a2a3	0.16370635
90	0x3daeab70	0.08528793
91	0x3defc022	0.11706568
92	0x3e92ff1b	0.28710255
93	0xbda1966a	-0.07890017
94	0x3d2d0abb	0.04224656
95	0x3df15df8	0.11785501
96	0xbec6ce6a	-0.38829356
97	0xbe1f3c5e	-0.15550372
98	0x3dd88f03	0.10574152
99	0x3d3d5a77	0.046228852
100	0x3daad442	0.08341266
101	0x3e0452c4	0.12922198
102	0x3d1f36e1	0.038870696
103	0x3d73f8f3	0.05956359
104	0xbdd0e881	-0.102005966
105	0x3c7a1fad	0.015266341
106	0x3e830204	0.25587475
107	0x3cae9bb6	0.021314483
108	0x3de0a374	0.10968676
109	0xbd886812	-0.06660475
110	0xbcf9c1ce	-0.030487921
111	0x3ccd56fc	0.025065891
112	0x3e12ba6f	0.14328931
113	0x3c793923	0.015211376
114	0xbb7fb5be	-0.003901824
115	0x3db8c9b8	0.0902285
116	0x3ddebf70	0.108763576
117	0xbbb94843	-0.005654366
118	0x3b1ff337	0.0024406442
119	0xbc109786	-0.0088251885
120	0xbd2445af	-0.040105518
121	0x3d6a6899	0.05722866
122	0xbdc4e129	-0.096132584
123	0x3b5ef779	0.0034022017
124	0x3d074442	0.03302408
125	0xbd2a67e6	-0.04160299
126	0xbcc8f45b	-0.02453058
127	0x3e040665	0.12893064
128	0x3dfb2d58	0.12264508
129	0x3d2cd88d	0.042198706
130	0x3d8a9ce8	0.06768209
131	0x3db52b45	0.08846144
132	0x3bffe5d8	0.007809382
133	0x3b2100b7	0.0024567076
134	0x3c187ae6	0.009306645
135	0xbe1a07d2	-0.15042046
136	0xbdecc0cf	-0.11560213
137	0x3dcf0cdc	0.101098746
138	0xbe4d384b	-0.20041005
139	0xbe71b357	-0.23603569
140	0x3cc2d06b	0.023781022
141	0x3cf3c860	0.029758632
142	0xbd59799b	-0.053094488
143	0x3e177ffa	0.14794913
144	0x3c459510	0.012059465
145	0xbe1b7c57	-0.1518415
146	0x3d112c7f	0.035442825
147	0xbdc5a7ea	-0.09651168
148	0x3ca2a328	0.01985319
149	0x3d8b60fd	0.068056084
150	0xbed4cb4f	-0.41561362
151	0xbe753acd	-0.23948212
152	0xbd1a4ff2	-0.037673898
153	0xbaeae51b	-0.0017921062
154	0xbe4d0307	-0.20020686
155	0xbd65d966	-0.05611553
156	0xbe0e26f6	-0.1388205
157	0xbe80cf98	-0.2515838
158	0xbd3ba254	-0.045809105
159	0xbd9d6227	-0.07684737
160	0xbda06120	-0.07831025
161	0x3e104aad	0.14090987
162	0xbf8a1be0	-1.0789757
163	0xbee899ed	-0.45429936
164	0xbf8fdcdb	-1.1239275
165	0xbf1d8abb	-0.6153981
166	0xbec09327	-0.37612268
167	0xbefece22	-0.49766642
168	0xbf93c6fe	-1.1545103
169	0xbf24ee26	-0.64425886
170	0xbf90d68f	-1.1315478
171	0xbba92fcb	-0.005163168
172	0x3d4a748d	0.049427558
173	0xbd02769e	-0.031851403
174	0xbe0bf1c8	-0.13666451
175	0xbdf2f12f	-0.11862408
176	0xbd2dbc6b	-0.042416018
177	0x3c534672	0.012895213
178	0xbdabd001	-0.08389283
179	0x3e065a4b	0.13120382
180	0xbf88584c	-1.0651946
181	0xbf9e3d3d	-1.2362438
182	0xbf4a852f	-0.7910947
183	0xbfa434df	-1.2828635
184	0xbfe3fe94	-1.7812066
185	0xbf8ab02b	-1.0835012
186	0xbf5306f9	-0.82432514
187	0xbf9c1b36	-1.2195804
188	0xbf556074	-0.833503
189	0x3e82d1ca	0.2555068
190	0x3e74b84a	0.23898426
191	0x3e8828bb	0.26593575
192	0x3ea17706	0.3153612
193	0x3ec6edcd	0.38853303
194	0x3e9a7cb0	0.30173254
195	0x3e8b9530	0.2726226
196	0x3e959722	0.29216868
197	0x3eb3182b	0.34979376
198	0xbe989ee6	-0.2980873
199	0xbe513c0e	-0.20433065
200	0xbe8b0ee2	-0.27159792
201	0x3e1aea2d	0.15128393
202	0x3d21be36	0.03948804
203	0xbd3a7d03	-0.045529377
204	0xbd4aedb7	-0.04954311
205	0x3d3238e5	0.04351129
206	0x3d894e43	0.0670438
207	0x3d817d33	0.06322708
208	0x3c138996	0.009004971
209	0x3b1ef12b	0.0024252634
210	0xbd62652e	-0.055272274
211	0x3cc8eb00	0.02452612
212	0xbd33f2ae	-0.04393261
213	0xbd268916	-0.04065808
214	0xbd3d6f2b	-0.046248596
215	0x3d195c66	0.037441634
216	0xbd4612ae	-0.048357658
217	0xbde0da16	-0.109790966
218	0xbdd1688a	-0.10225017
219	0xbdbb4019	-0.09143085
220	0xbd469e29	-0.048490677
221	0xbd690fce	-0.05689984
222	0xbe0315bf	-0.12801264
223	0xbdac858a	-0.08423908
224	0xbe2d707e	-0.16937444
225	0x3e304e7d	0.17217441
226	0xbd77f2cb	-0.06053428
227	0xbde6d657	-0.11271351
228	0x3e19455f	0.14967869
229	0xbd33d028	-0.043899685
230	0xbd92215a	-0.071352676
231	0x3e8c377e	0.27386087
232	0x3da6efc2	0.08151199
233	0x3d79d34a	0.060992517
234	0xbee4b2f4	-0.4466778
235	0xbd8a68d3	-0.06758275
236	0xbf0b2ea7	-0.5436806
237	0xbcf8a491	-0.030351909
238	0x3e316d32	0.17326811
239	0x3e194ccc	0.14970702
240	0x3e92e34b	0.28689036
241	0x3f05bcee	0.5224141
242	0x3f0c9e5e	0.5492915
243	0x3db1bfd1	0.08679164
244	0xbcf31fa2	-0.02967817
245	0x3f0c2fb7	0.5476031
246	0xbde6498c	-0.11244497
247	0xbe8531f3	-0.2601467
248	0xbec274a1	-0.37979606
249	0x3edfcfaf	0.43713138
250	0x3d715d25	0.05892672
251	0x3ea24cd7	0.3169925
252	0x3df68311	0.12036718
253	0xbe085303	-0.13312916
254	0xbce93826	-0.028469156
255	0xbda0b2e0	-0.07846618

convs.0.bias f4 [16]
0	0xbe604374	-0.21900731
1	0xbe2c7d42	-0.16844657
2	0x3e7610db	0.24029867
3	0xbdde208a	-0.1084605
4	0x3ee5920a	0.4483798
5	0x3ea67f63	0.32519063
6	0xbd4254a7	-0.047444012
7	0x3e726a79	0.23673429
8	0x3f291b2b	0.6605708
9	0xbcfd346e	-0.03090879
10	0x3f284898	0.6573577
11	0x3ebfbba8	0.37447858
12	0x3dd23485	0.102639236
13	0xbdcb583d	-0.099289395
14	0xbe4a4a47	-0.19754897
15	0x3edf88e7	0.43659136

outconv.0.weight f4 [3, 16, 1, 1]
0	0xbe02bc27	-0.12767087
1	0x3e510a16	0.20414004
2	0xbdab66ec	-0.0836924
3	0xbc3aab16	-0.011393329
4	0xbea7dc80	-0.32785416
5	0xbd4c7141	-0.049912695
6	0x3e6846df	0.22683285
7	0xbcdf3024	-0.027244635
8	0xbe47b0b7	-0.19501005
9	0x3e5b3a24	0.21408898
10	0xbe0a4c0a	-0.13505569
11	0xbe5700dc	-0.20996422
12	0xbda9aed9	-0.08285303
13	0xbda27812	-0.07933058
14	0xbe523fbb	-0.20532124
15	0xbe5f1d6a	-0.21788564
16	0xbe0491c4	-0.1294623
17	0x3e7d9856	0.24765143
18	0xbdabc939	-0.083879896
19	0x3cc84681	0.024447681
20	0xbe955563	-0.29166707
21	0xbde82757	-0.113356285
22	0x3e632bfa	0.22184744
23	0xbd32cb59	-0.04365096
24	0xbe402e0d	-0.18767567
25	0x3e53316a	0.20624319
26	0xbe0a5642	-0.13509467
27	0xbe464a87	-0.19364367
28	0xbd72db80	-0.059291363
29	0xbda25548	-0.07926422
30	0xbe479aa1	-0.1949258
31	0xbe568817	-0.20950352
32	0xbd72ad53	-0.059247326
33	0x3e8a335e	0.26992315
34	0xbd9c217c	-0.07623574
35	0x3e1130d8	0.14178789
36	0xbe030ed3	-0.12798624
37	0xbe635af8	-0.2220267
38	0x3e65e99e	0.22452399
39	0xbe89ad00	-0.268898
40	0xbe25b0ec	-0.16180772
41	0xbcee737d	-0.029107803
42	0xbe0c9601	-0.13729097
43	0xbdded0bc	-0.10879657
44	0xbd2186dd	-0.039435256
45	0xbd9f0703	-0.07765009
46	0xbe319d6a	-0.17345205
47	0xbe123c48	-0.14280808

outconv.0.bias f4 [3]
0	0xbe01cfdd	-0.1267695
1	0xbe0c5faf	-0.13708375
2	0xbe5099cf	-0.20371173
