save/50_LIME_decom.pth (torch, 118023 bytes, 9 tensors)

module.inconv.0.weight f4 [32, 3, 3, 3]
00000000: 8222 d5bd 1687 18bd d926 3a3e 1748 663e
00000010: 26e4 593e 0021 633d 016a 1f3e 383c cb3d
00000020: b9b9 103e 8d73 a5bd 937e 293e 2a9c 41bc
00000030: fab3 263e 3c6d 04be 8861 9cbd 579f bb3c
00000040: 4a5c 6dbc 15f7 e9bc f2cb 05bd 6f8d ccbd
00000050: 2d1e a8bd eb89 38bd 6fe4 57be e43e 08be
00000060: fa37 33be a8f1 38be b236 823b d661 cf3d
00000070: 4eef 12be f680 f93d 4ee6 283d 3fa3 133e
00000080: 5e32 d8bd fa79 223e 4f0a 2bbd aac2 3dbe
00000090: f054 0c3e 8048 a5bd 89be 8ebd f254 2b3e
000000a0: 07b4 c83c c6a1 0cbe e3fe 92bd 6095 86bd
000000b0: 3b92 acbc 588b 58be 2f43 51be 6a9c 8d3a
000000c0: cc6e 4bbe cec1 cd3d 2e31 ac3d 48d5 203d
000000d0: 98cb d23d c362 f13d a448 193e 7d51 5dbd
000000e0: 7cae d93d 3cf3 97bd 4ccc 7fbd 3b06 3f3d
000000f0: 1e7b aa3d 2a80 56bd 5306 8ebe 7ef7 1a3e
00000100: f84e 8e3d 8e3d b1bd 4431 f7bd 1ff3 7dbb
00000110: 0807 5bbe 8d59 6dbe 7075 d03d 210b e7bd
00000120: 0c75 c23d 73cd 153e c224 8f3d c274 bf3d
00000130: 1d28 39be 10a0 283d 004c 253d e241 4bbe
00000140: 8b48 bebd c0ab 883d 17af 08be 6994 7fbc
00000150: c062 ef3d a4c9 103d 0ce2 2dbe 881a 143e
00000160: b799 64bc 62f0 82be c304 07be 5eb8 b7bb
00000170: f3a7 34be 7e14 abbd 82c9 853d 5830 cf3d
00000180: c486 6d3d 5101 5fbd 20ac ba3d 3b18 32be
00000190: 5e5d 3c3d b46d e3bc aedf 41bc aa20 123c
000001a0: af1d 613d b58a e7bd 2b61 e5bd 3ebb f93c
000001b0: aa80 34be cc73 01bc cc3a 06be 8dde 923d
000001c0: 731f 2c3e d8d1 05be cc19 593e 29f8 6a3b
000001d0: b566 89bc bbfc 013d 1610 1ebe e2b2 a53d
000001e0: 5cbc 893d 7c23 c33a 9951 38be 05ee db3d
000001f0: 5182 47bd 8f25 213e c898 d1bd b69c b3bd
00000200: 289b dc3d d32c 3abe 1d70 213e 6d60 25bd
00000210: 4c46 5f3d 740c 3d3e 5667 9dbd a456 71bd
00000220: 4a33 35be 9cc8 013e bae0 f5bd 213a 41be
00000230: fd26 db3d 22a7 c9bd d7f8 3f3e f9c8 133e
00000240: 1bee 113d 50d1 be3d 6cb7 edbc 7f86 23be
00000250: dc05 2fbe 9ed8 c43d ec24 023e 9a49 ff3d
00000260: 70ef 363d 2612 b0bd d4a8 a7bd 1578 bf3d
00000270: 310d 8dbd cf70 1cbe 3d89 aebd 20a3 4e3e
00000280: a68a 2e3e be44 913d d85a 343d a6ba bcbb
00000290: a57a 98bd 9213 e23d e6f3 60bc aff2 0dbe
000002a0: 9306 d63d 5560 05bd 26a2 8cbc a799 c93d
000002b0: 1d15 323e f0bd 25be f5d4 e53d b809 d7bd
000002c0: 81ec 13be c7dd ec3d f9e1 133d 668a 31bd
000002d0: 2a74 173e efac 023e 5e77 33be 72d4 adbd
000002e0: 1495 113e 9f67 3abe 443a 443e 19da 893d
000002f0: f742 3dbe 94a3 9bbd fc9c 27be 3b2b 69be
00000300: b361 1ebd f35d 0b3e 47dd c1bd 7578 a13d
00000310: be5b e8bc 0a3a 293e c8fc 5bbc 10ba 0fbe
00000320: 3cb3 293d 6a0e 233e 0d64 f9bc d384 36bd
00000330: 5fd7 c1bd dfd0 c63c cb40 033e c5f8 453e
00000340: 3964 053e 11ab 623d 74fd 923d 0f5a a03d
00000350: f664 c1ba 62b2 1bbe a3cd 12be c975 923d
00000360: 209f 0dbe 4d13 b33d e612 03be a333 d7bd
00000370: 8d5a c83d e26d 803d 73c8 b33d b13c debc
00000380: 807e 2cbd 6c5e 32be dabd ce3c 33d2 0dbe
00000390: 42cc f9bb 5530 6e3d 20d3 043e db7f 01be
000003a0: d0d7 8abd fae8 afbd f981 08be 10b3 c03d
000003b0: ab5e efbd c29d 56bc 596a 2c3c e2c7 80be
000003c0: f625 88bd fd59 0ebe 618b bbbd 5308 cabd
000003d0: a6cc 05be 6528 253d 3108 163e 42f5 403e
000003e0: 1dcd 29bd 0904 873c 7e8b 08bc 897d 053b
000003f0: 4652 043d 11f7 323e 89fb 0abe 596c 0abe
-0.104069725 -0.037238203 0.18178882 0.22488438 0.21278438 0.055451393 0.15567781 0.09923595
0.14133348 -0.0807868 0.1655219 -0.011817018 0.16279593 -0.12932295 -0.0763579 0.022903128
-0.014487335 -0.0285602 -0.0326652 -0.09987914 -0.082088806 -0.045053404 -0.21083234 -0.13305241
-0.17501822 -0.18060935 0.0039738053 0.101260826 -0.143491 0.121828005 0.04123526 0.14417742
-0.10556482 0.15866843 -0.041757878 -0.1853129 0.13704276 -0.08070469 -0.069699354 0.16731623
0.024499906 -0.13733587 -0.07177522 -0.0657146 -0.021065822 -0.21146905 -0.20435785 0.0010804061
-0.19866484 0.10046731 0.08407818 0.0392659 0.10292739 0.117864154 0.14969116 -0.05403279
0.106289834 -0.0741944 -0.062450692 0.0466368 0.08324264 -0.05236832 -0.277392 0.15133473
0.06948656 -0.08654319 -0.120699435 -0.0038749648 -0.21389401 -0.23178692 0.101786494 -0.112814195
0.09494981 0.14629154 0.06989433 0.09348442 -0.18081708 0.041168272 0.040355682 -0.19849351
-0.0929118 0.06673384 -0.13348041 -0.015599349 0.11688757 0.03534855 -0.16980761 0.14463246
-0.013952664 -0.25574023 -0.1318541 -0.005606695 -0.17642193 -0.08353518 0.06532575 0.10116643
0.05798985 -0.054444615 0.091148615 -0.17392056 0.04598748 -0.027762271 -0.011833115 0.0089189205
0.05495995 -0.11305753 -0.11200174 0.030484792 -0.17627206 -0.007901143 -0.13108367 0.071713544
0.16808872 -0.1306833 0.21201247 0.0035853481 -0.016772607 0.031735163 -0.15435824 0.0809076
0.0672538 0.0014887895 -0.17999877 0.10738758 -0.048708264 0.15736984 -0.10234219 -0.087701246
0.10771781 -0.18181162 0.15765424 -0.040375162 0.0545104 0.18461782 -0.076857254 -0.058920518
-0.17695346 0.12674183 -0.12005754 -0.1886983 0.10700796 -0.09846331 0.18747269 0.14432134
0.035627466 0.09317267 -0.029018126 -0.15969275 -0.17092079 0.09611629 0.12709397 0.1246521
0.04466194 -0.085972115 -0.08186498 0.09349076 -0.06887282 -0.15277408 -0.0852227 0.20179415
0.17045078 0.0709319 0.044031948 -0.005759555 -0.074452676 0.11038889 -0.013730025 -0.13862108
0.10450473 -0.032562573 -0.017167162 0.0984376 0.17390867 -0.16185737 0.11222259 -0.104999006
-0.14445688 0.11565738 0.036104176 -0.043344878 0.14790407 0.12761281 -0.17526004 -0.08487786
0.14217025 -0.18203591 0.19162852 0.06731052 -0.18482576 -0.075995594 -0.16368479 -0.22770397
-0.038667392 0.13610058 -0.094660334 0.078843035 -0.028364059 0.16526046 -0.013426967 -0.14035821
0.041430697 0.15923467 -0.030443216 -0.044560265 -0.09464907 0.02426952 0.12817685 0.1933318
0.13026513 0.055338923 0.071772486 0.07829677 -0.001475482 -0.15204766 -0.14336257 0.07151372
-0.13830233 0.08743916 -0.12800178 -0.10507896 0.09782896 0.062709585 0.08778467 -0.02712855
-0.042112827 -0.17418832 0.025237013 -0.13849716 -0.0076232264 0.05815156 0.12971163 -0.12646429
-0.06779444 -0.08589359 -0.1333083 0.094091535 -0.11687978 -0.013099136 0.010523402 -0.25152498
-0.066478655 -0.13901515 -0.09157444 -0.09864869 -0.13066348 0.040321726 0.14651562 0.18843558
-0.041455377 0.016481416 -0.008334039 0.0020369014 0.032305025 0.17477061 -0.13572516 -0.13517894

module.inconv.0.bias f4 [32]
00000000: 3a9e 2c3c b255 333e de9e c63d 8615 1c3e
00000010: a457 183d 00f2 98bc 2fa2 133d 5ccc 63bd
00000020: 8fb1 473e 14e9 183e 222c 45bd 3189 34be
00000030: ffc4 423d f148 05bd be2f 2b3c 040b 15bd
00000040: fb0d 01be c84d 463e 701a 693d 2fe7 f2bb
00000050: 4216 15bd b73d 133e b985 43be bfa5 d8bc
00000060: abe3 0a3e 4eb0 333e 39b6 5ebd f72d 633e
00000070: 24a1 683e 9ed5 cebc f6d9 1e3e dbe0 34be
0.010535771 0.17513159 0.0969827 0.15242586 0.037192956 -0.018670082 0.036043342 -0.055614814
0.19501327 0.14932662 -0.04813779 -0.1763046 0.04755115 -0.032540265 0.010448394 -0.03638746
-0.1260299 0.19365609 0.05690998 -0.007412813 -0.03639818 0.14379011 -0.1909398 -0.026446221
0.13563411 0.17547724 -0.054373 0.22185503 0.2271772 -0.025248345 0.15512833 -0.176639

module.convs.0.0.weight f4 [32, 32, 3, 3]
00000000: b717 8e3d c0b7 d23a 16cb 493d 0d4f 363d
00000010: 7f0b a53b a2ea d6bc 95ed 943d d151 933d
00000020: e1f0 343c 05b1 56bc 90d1 cdbc 23b1 fcbb
00000030: db96 33bd 4af7 dcbc 0baf d5bc 6fa5 a53c
00000040: 250d 6bbd 6adf 6dbd 3792 a8bd 2206 63bd
00000050: ca3b e0bc 7bfe 41bc 213e 023d b835 c33c
00000060: 5bb8 6ebd df98 43b9 32d9 46bd 1496 6d3b
00000070: eb21 56bc 285d 253b 4573 cabc e596 a83c
00000080: 0fa7 9bbd 5825 453c 65bb a13a fee9 a8bd
00000090: 7007 eabc fa1f e6bb b9c4 a6bd d786 a3bd
000000a0: 2ef0 97bd c05e 1bbb 8344 08bd 3d77 e8bc
000000b0: cef8 54bd b4c4 003d e56c 4dbd d525 29bd
000000c0: 1ca6 61bd 3cc1 14bd 577b 93bd 7d43 a6bc
000000d0: c589 723c 05e2 88bd 9112 5ebd dfa7 23bd
000000e0: c7c6 67bc 5762 88bc c463 3b3c aa5d ff3b
000000f0: 60be 51bd 4491 363b b99a a9bd e135 e9bb
00000100: 460b 1bbd c176 b0bd 93dd 7dbb 62e5 cb3c
00000110: 7e54 d8bc 6a7d 05bd c6a3 a63b 9614 0fbd
00000120: bcce b73b 758d 05bd 0e43 b9bc 5fcd bf3c
00000130: 2404 123c 72e4 c5ba f7b3 febc c55b 873c
00000140: a711 fe3c aaf4 94bd 901f 82bd b543 103c
00000150: fa1e 043d 0213 81bd 87a1 c4bb 6072 d03c
00000160: 426f 56bd 1aa1 79bd e712 9abc 8a86 f33b
00000170: e1b2 02bd e433 0e3c a257 47bc a66c 763c
00000180: 6dc0 d33c 829f a63c 6809 e93c c62a 9ebd
00000190: e4f8 e33b f72c a9bd 3034 85bd afa7 32ba
000001a0: a04d 81bd 44b9 80bd 2d7f 053c 2ebc cbbc
000001b0: d5f5 cf3c c5d8 3abd 2831 3cbd 0e8b 19bd
000001c0: 5829 8cbd 96ca 91bd 56c7 1dbc 8de1 493c
000001d0: 938d 91bd 1c03 b3bc 6cf1 91bc dd9c 8e3c
000001e0: 7ba4 10bc 183f 53bd b428 163d f9a7 97bc
000001f0: 6e55 953b 966c 02bd 73e2 3b3c 6964 67bd
00000200: bec9 82bc f90d 523c bd11 63bd a267 3abb
00000210: f408 f9bc 1031 95bd 5207 a3bd 7fbc 25bd
00000220: 4053 523c 6f06 05bb 4cfe dabc 29a6 6bbb
00000230: 7186 3cbb 47d3 37bd 275b 2dbd 1a15 423c
00000240: 48e1 d33c 9e53 07bd 2890 2abd 08f9 82bd
00000250: d7e5 993a 1f52 6cbd 4c6d 9a3c 6922 d7bc
00000260: 8dd1 fb3c d97f 3c3d eb78 433d 054f 60bd
00000270: 1cf7 bfba def5 473d 8c12 84bd 144d 4b3d
00000280: de3f 5e3d c987 7abb fc52 c3bc 99ef 91bc
00000290: 2299 073d 3627 3ebc 9a15 1bbd 4783 87bc
000002a0: d8da 0abd 9a58 b63c 9e6e 9f3b bcf1 b2bd
000002b0: 52ec 9cbd 4e06 a53c f510 38bd 31b7 193b
000002c0: 12b9 1fbd 2342 91bd 10df aebd 8138 6fbd
000002d0: faf9 51bd 99aa 13bd f0ca 403c 0630 88bc
000002e0: 761f 51bd 3bee de3a e50c e73c fca3 23bb
000002f0: 4ba5 263d 8b2a 0d3d ea1e fbbc 3a29 a338
00000300: d1d6 b5bb a07e da3c 3073 f3bb e2ff 8dbb
00000310: ff3e 95bd 8072 80bc 9255 3b3d 6343 e4bc
00000320: 3b1a 2f3d d3b6 eb3c 4983 eeba 2e80 a53c
00000330: 0d3f 13bd 3569 2cbc c3fa 153c 1ad8 f1bc
00000340: 9ee7 a63d d6a0 9c3c 815d a83c 6b7f 5f3c
00000350: 0f2e 0c3d ffbc a53d ab8e 413d db3c 8e3d
00000360: b274 69bc f1ce 92bd fb0d e5bc e40f f13a
00000370: 4444 1f3d dbc2 5fbd 59f0 8f3c 9f65 a9bc
00000380: c811 a13c ca51 7fbd 3750 203d 5b8c 99bd
00000390: 20eb 333b fc69 c8bc 64f6 3dbd c74b 44bd
000003a0: 2adf 52bc 083d a5bd f9d2 eebc 659e 98bd
000003b0: 7ed3 49bc 4056 48bd 8259 80bd 8525 91bd
000003c0: 9bcd 77bd 3b55 a1bc 74ce e63c 0dbd 81bd
000003d0: 1b72 53bd 5667 7abd 1f64 97bd f63c fb3b
000003e0: 68fb 023d 8cae fbbc 9baa 86bd f379 68bd
000003f0: 6f74 76bc f104 4cbd 726d 283d 76cb 10bd
0.06938117 0.001607649 0.049265943 0.044508982 0.005036771 -0.026234929 0.07271878 0.071933396
0.011043758 -0.013103728 -0.025124341 -0.007711546 -0.04384504 -0.026973385 -0.026084444 0.020220486
-0.057385582 -0.058074392 -0.08231013 -0.05542577 -0.02737226 -0.011840458 0.031797532 0.023829326
-0.058281284 -0.00018653598 -0.048546977 0.0036252784 -0.01306961 0.0025232527 -0.024713168 0.020579765
-0.07600223 0.012032829 0.0012339173 -0.082477555 -0.028568 -0.007022855 -0.081429906 -0.07984703
-0.074188575 -0.0023707598 -0.033268463 -0.02837717 -0.05199509 0.03143759 -0.050152678 -0.041295845
-0.055090055 -0.036317095 -0.072012596 -0.020295853 0.014803355 -0.06683735 -0.054216925 -0.039955016
-0.014146513 -0.016648455 0.01143736 0.007793148 -0.051206946 0.002785758 -0.08281464 -0.0071170186
-0.037852548 -0.086164005 -0.0038736805 0.024889652 -0.026407477 -0.032590307 0.0050854413 -0.03493174
0.0056093615 -0.032605607 -0.022614982 0.023413358 0.00891212 -0.0015097989 -0.031091673 0.016523251
0.031014277 -0.072732285 -0.06353676 0.008805205 0.032256104 -0.063024536 -0.006000701 0.025445163
-0.052352197 -0.060944654 -0.018807841 0.00743181 -0.031908873 0.008679364 -0.012166889 0.015040552
0.025848592 0.020339731 0.028446868 -0.07723002 0.0069571603 -0.082605295 -0.065040946 -0.0006815148
-0.06313634 -0.062853366 0.008147997 -0.024870005 0.025385777 -0.045616884 -0.045945317 -0.03748613
-0.06843823 -0.07118718 -0.009630045 0.012321842 -0.07107081 -0.021852069 -0.017815314 0.017408783
-0.008828278 -0.051573843 0.03665991 -0.018512713 0.004557303 -0.031841837 0.011467564 -0.056492243
-0.015965339 0.012820714 -0.05543684 -0.0028443118 -0.030399777 -0.072847486 -0.079603806 -0.040462967
0.012837231 -0.0020298024 -0.026732586 -0.0035957193 -0.0028766657 -0.044879224 -0.042323258 0.011845851
0.025864258 -0.033038728 -0.041641384 -0.06395155 0.0011741471 -0.057695504 0.018850945 -0.026261525
0.03073957 0.046020363 0.04772274 -0.05476286 -0.0014645788 0.04881846 -0.0644885 0.049634054
0.054260127 -0.0038227907 -0.023843281 -0.017814444 0.033105023 -0.011606028 -0.037862398 -0.01654209
-0.033900112 0.022259045 0.0048654815 -0.087375134 -0.07662262 0.020144608 -0.044938046 0.0023455138
-0.038994856 -0.07092693 -0.085386395 -0.058403496 -0.051263787 -0.036051366 0.011767134 -0.016624462
-0.051055394 0.0017008254 0.02820439 -0.0024969568 0.04068498 0.0344644 -0.03065439 7.780125e-05
-0.0055492898 0.026671708 -0.007429503 -0.004333482 -0.07287406 -0.015679598 0.045735903 -0.027864164
0.042749625 0.0287737 -0.0018197085 0.020202722 -0.0359488 -0.01052313 0.0091540245 -0.02952199
0.08149646 0.019119661 0.020552399 0.013641219 0.034223612 0.08092689 0.0472552 0.06945201
-0.014249014 -0.07168377 -0.027960768 0.0018391577 0.038883463 -0.054629188 0.017570661 -0.02067834
0.0196618 -0.06233386 0.039139 -0.07497474 0.0027453378 -0.0244646 -0.046377555 -0.04792383
-0.012870589 -0.080682814 -0.029153334 -0.07452086 -0.01231849 -0.04891038 -0.06267072 -0.070872344
-0.060498815 -0.019693961 0.028174616 -0.06334887 -0.05162249 -0.061133705 -0.073921435 0.007667179
0.03197804 -0.030722879 -0.06575509 -0.056756925 -0.015042408 -0.0498094 0.04112 -0.035350285

module.convs.0.0.bias f4 [32]
00000000: 67de 88bd e949 20bc b6eb 5dbd 5f37 b23d
00000010: 24b4 4dbc 0212 9cbd c285 ac3d e133 85bc
00000020: eb4b 223d 7606 0dbd f3f5 573c ed4d b7bd
00000030: d456 78bd 667a b7bd c40c b3bd 8f16 983c
00000040: d2b7 933c b037 e4bc 170c 39bd b733 9b3c
00000050: 24b3 90bd 78fc 1a3d dce9 26bc 3a08 93bd
00000060: 3d1e 89bd 9bb1 143e 41eb 193d f299 de3d
00000070: 2f42 08bd 5577 d0bd aa7b b9ba 1014 f13d
-0.06683045 -0.009783247 -0.05417987 0.087019674 -0.012555156 -0.07620622 0.0842395 -0.01626009
0.039623182 -0.03442999 0.013181197 -0.0895041 -0.06062968 -0.089588925 -0.08742669 0.018565444
0.018031988 -0.027858585 -0.045177545 0.018945558 -0.07065418 0.03783843 -0.010187592 -0.071793035
-0.066952206 0.14520876 0.03757787 0.108692065 -0.033266243 -0.10179011 -0.0014151235 0.11771405

module.convs.1.0.weight f4 [32, 32, 3, 3]
00000000: 00fa 10bd c2c9 f3bc b0a9 f2bb ffdd c838
00000010: 0faf c73c d727 9cbd c054 633c da7b 0a3d
00000020: d720 23bc da23 cd3c 1998 fbbb a91f da3c
00000030: a11c 13bc 93bd ab3b a2c5 223c f896 703d
00000040: 52cc 3ebd 2e09 623c 4a79 103d 840f 62bc
00000050: cfbf 413d 60f9 59bd 26a1 093a f436 ff3c
00000060: 786b 2e3d f50b 533d 40d8 e63c 76f6 2c3d
00000070: 8e45 9fbb 81fd 0d3b 6617 69bd 2fdd 1dbd
00000080: 18a8 fc3c ad92 d9bc ac34 7bbd 3b33 5f3d
00000090: ab9f f93c cf65 3abc 853a 113d def9 c2bc
000000a0: 84ba 8ebd b084 ff3c 42b8 eb3c cd57 4e3d
000000b0: 7fc0 cd3c 00e1 bbbc 592b 653d f849 e23b
000000c0: dece ce3d 6a57 c73d 6abf 5abc 608f 4e3d
000000d0: dca4 293d 3be7 ab3d a03a 6f3d a0de 263d
000000e0: 13d3 093c 62e7 183d b6e8 f33b cbcd 50bd
000000f0: 73a8 253d b579 f43c a24c 05bd 9e2c c7bc
00000100: adf9 b3bc 7a41 35bd d9f4 4b3d b072 203d
00000110: 76cf 62bc 00d5 663d 78b5 483d f5a2 0cbd
00000120: 39c4 013d 4257 3bbd 191c 373c 8e18 f3b9
00000130: a51b 5a3c 6be9 1b3d fa36 0c3d ab14 53bd
00000140: 47fe 8a3c 0440 3ebd 88b3 48bd bb98 6ebc
00000150: 124e 3e3c 8a1e bb3c e516 98bc 19ba ed3a
00000160: 4be8 8fbd 60d6 373c 9158 d53c 6720 d6bc
00000170: 2fdd e93c 2e6e 373d c24a 55bd 16ba 35bd
00000180: 7872 8e3b 31d5 023d 01ae 913c 4a93 86bc
00000190: 0a3a a83c 4a92 22bd c727 2c3d 9b56 393d
000001a0: 0069 6a3d 5e88 0a3d 2461 0dbd 625e 1fbd
000001b0: db2f 5c3d 245d 06bd eedb 843c d98e c73c
000001c0: a1ba 143d 7a7b e4bc 30c6 21bd 4bd4 fbbc
000001d0: bd63 5ebd f260 6bbd e434 63bb 0a13 5dbc
000001e0: 0c82 6a3c 4666 f8bc 13ea 2fbc 3fd9 253d
000001f0: 03ae 293b f4a7 b13c 291e 14bd 3297 70bb
00000200: b880 c3bc 0555 cf3c 1d14 8dbc 0a6c cebb
00000210: c3c2 43bd ebd4 853d a631 f3bc 4cb6 933c
00000220: 86e4 bfbb 84dd 58bd ae2d 3cbd 348c 04bd
00000230: c257 39bc 8fc2 4a3d 24e9 dcbc 3c0a 3fbc
00000240: 7fc2 31bd 59b7 d7bc 5027 4a3d 9afb 46bd
00000250: 6d41 2abd d832 03bc 6453 eabc 9bd9 61bd
00000260: af89 29bd a910 433d b7f0 52bc 6a37 e0b9
00000270: a252 0ebd 2a97 77bd e87f 113a 049c 143d
00000280: 1254 1e3d bbd4 e5bc dd02 e0bc a671 00bd
00000290: 55d0 ec3c 2de8 6ebd 16fd 0a3d 82c0 213c
000002a0: 4b41 903c 2f8d 5f3d b646 b13b 98c7 69bd
000002b0: b5b2 de3c 05d8 8ebd 862a 20bd f46c 3cbc
000002c0: a81d 5a3c b4ae 56bd 8ba5 893c 5843 c1bc
000002d0: d8e9 2e3c 3df3 5fbd 6c5e f1bc 1a1f d2bc
000002e0: c745 02bc 3734 793d ee01 54bd 697f 593c
000002f0: fc9c 9d3d 7f57 933d cd38 87bb 9262 8e3c
00000300: 5c12 1b3d abb4 01bd 8475 9bbd e317 473d
00000310: 9aa5 23bc 1e42 2fbb 59b7 f5ba c4c4 073c
00000320: 484f fa3c 3375 48bd 5491 10bd e9e1 3fbd
00000330: d851 00bd 4814 c3bc 31ca a83c 2f27 6f3d
00000340: 142c 7c3d e545 1f3d cd3c ebbc 2c85 a43d
00000350: 8737 9e3d a4f5 153d 278a 8c3a 7805 0ebc
00000360: f4a1 3ebd 4968 3bbd 9430 593a 42ad 86bc
00000370: bc03 2a3d 5df0 223d 1481 f9bc 1634 a6bc
00000380: e142 fbbc 5427 abbb 0bcc 7f3d 37ed a43d
00000390: c147 053d 7e30 9abd 8ca6 4c3c c3e1 ccbc
000003a0: 8646 203d 4933 babc 0265 ca3c a751 ae3d
000003b0: d4a7 3b3e f563 0a3c 9718 c6bc 10ec 153d
000003c0: 1844 323d d769 2dbd 18e9 a53c 80ff 613d
000003d0: d455 b63c a674 d73c 3797 873d a885 1cbd
000003e0: b58e 53bd 0bed 28bd 3d29 e2bc c016 3fbc
000003f0: 1fa1 85bd cb7a 363c 3934 8ebc b95e 56bc
-0.03539467 -0.029759292 -0.007405482 9.578093e-05 0.024375467 -0.07624786 0.013875186 0.03380952
-0.00995656 0.02504151 -0.0076780436 0.026626425 -0.008978994 0.005241105 0.009934815 0.058737725
-0.046581574 0.013796134 0.03527192 -0.0137976445 0.047302064 -0.05321634 0.0005250148 0.031154133
0.04258296 0.051525075 0.028179288 0.04222723 -0.0048605865 0.0021665993 -0.05690708 -0.038541015
0.030841872 -0.026559198 -0.06132953 0.054492217 0.030471643 -0.011376812 0.0354562 -0.023800787
-0.06969169 0.0311912 0.028774384 0.050376702 0.025116203 -0.022934437 0.055949543 0.0069057904
0.100980505 0.0973347 -0.013351301 0.0504297 0.041416988 0.08393713 0.05840552 0.040739655
0.00841214 0.03733004 0.007443513 -0.05097751 0.04044385 0.02984319 -0.032543786 -0.024313267
-0.02196964 -0.044251896 0.04979405 0.039171875 -0.013843408 0.056355476 0.049001187 -0.034335095
0.031681273 -0.045737512 0.011176133 -0.00046366866 0.013312255 0.0380644 0.034232117 -0.051533382
0.016966952 -0.04644777 -0.04899934 -0.014562781 0.011615293 0.02284171 -0.018565604 0.0018137126
-0.07026728 0.011220545 0.026043208 -0.026138498 0.028547851 0.04478281 -0.052073248 -0.04436692
0.004347142 0.031941596 0.017783167 -0.016427655 0.020535488 -0.039690293 0.042030122 0.04524861
0.057229042 0.033821456 -0.03451647 -0.03890837 0.053756576 -0.03280367 0.016218152 0.024360107
0.036310796 -0.02789091 -0.039495647 -0.030740878 -0.054294337 -0.0574655 -0.0034668976 -0.013493309
0.014313232 -0.030322205 -0.01073696 0.040490385 0.0025891073 0.021686532 -0.036161575 -0.0036711213
-0.023865089 0.025309095 -0.017221505 -0.0062995004 -0.04779316 0.065347515 -0.02968676 0.018031262
-0.0058560995 -0.05294563 -0.045942 -0.03236027 -0.011312427 0.04950195 -0.026966639 -0.011660155
-0.043398377 -0.026332544 0.049353898 -0.04857979 -0.0415663 -0.008007728 -0.028604217 -0.055139165
-0.04139107 0.04762331 -0.012874774 -0.00042765896 -0.034746774 -0.060446896 0.00055503706 0.0362816
0.038654394 -0.02805554 -0.027345115 -0.031358384 0.028907934 -0.05832689 0.033932768 0.009872558
0.01760926 0.054578003 0.0054100407 -0.057075113 0.027184824 -0.06974796 -0.039103054 -0.011500586
0.013312735 -0.052412704 0.01680257 -0.023591682 0.01067587 -0.05467533 -0.02946397 -0.025649596
-0.0079512065 0.06084081 -0.051759653 0.013275006 0.07695958 0.07194423 -0.004126644 0.017380986
0.037859306 -0.03166644 -0.07590774 0.048606765 -0.009988213 -0.002674229 -0.0018746658 0.008286659
0.030555382 -0.048939895 -0.035294846 -0.046846304 -0.031328052 -0.023813382 0.020604225 0.058386978
0.061565474 0.038885016 -0.028715516 0.08033213 0.07725435 0.036611214 0.0010722325 -0.008668296
-0.04654117 -0.04575375 0.0008285132 -0.016440038 0.041507468 0.03978001 -0.030457057 -0.020288508
-0.030671539 -0.005223194 0.06245045 0.08053058 0.032539133 -0.075287804 0.01249088 -0.025009995
0.039129756 -0.022729533 0.024706367 0.08511668 0.1832574 0.008446683 -0.024181647 0.03660208
0.04352197 -0.042337265 0.02025275 0.055175304 0.022257723 0.02630074 0.06620639 -0.038213402
-0.051649768 -0.041241687 -0.027607555 -0.011663139 -0.06524872 0.011137675 -0.017358886 -0.013084107

module.convs.1.0.bias f4 [32]
00000000: f264 ee3d fc06 aa39 57f9 1a3c 4153 a5bb
00000010: 1831 48bd 1e7c 81bd 4095 27bd fda5 05bd
00000020: 0e4f 553c e183 f6bd 42ca bc3c d6fa 29bc
00000030: 22a9 063e 805d 1c3d e1ab dfbd 474c e6bb
00000040: ad10 483d 8b91 a2ba e0fd 8b3d e475 c2bd
00000050: 6069 98ba 6fd6 b7bc a6ba 113e 8f22 cabc
00000060: d61b 3fbd 9286 003e 3815 6dbc 98ff 89bc
00000070: a538 74bd bd6a 213c d7ff 1d3e 49a0 8ebd
0.116403475 0.0003243013 0.009458861 -0.005045325 -0.048874944 -0.063225016 -0.04091382 -0.032629002
0.013019336 -0.12036873 0.023045663 -0.010374745 0.13150457 0.038175106 -0.10921455 -0.007028136
0.04884403 -0.0012402994 0.06835532 -0.09495142 -0.0011628084 -0.022441117 0.14231357 -0.024674682
-0.046657406 0.12551335 -0.014470391 -0.01684551 -0.059624333 0.009852109 0.15429626 -0.06964166

module.convs.2.0.weight f4 [32, 32, 3, 3]
00000000: b1e7 ae3d 60a7 ebbb c43e 3fbc 0853 10bb
00000010: 16ec 0dbd 6ed1 57bb d078 9e3c b014 073d
00000020: 5fa9 e93b 4402 f93c f5cf 3f3d 2e9e bfbb
00000030: f352 bb3c 5b46 d03c fcfe f33b 8110 cc3c
00000040: 6e8a 9f3c 8ed9 25bd 248c 01bd 0863 c63c
00000050: 3e22 53bc 93a5 ab3c fba6 05bd 8232 4a3d
00000060: 273e ae3c 2715 50bd 1b5a 19bd 54ac 703d
00000070: c60a 643d b180 5dbc 4d9b 28bc 973d bb3b
00000080: b560 22bd c617 983c 4e1f 58bd d2cf 533d
00000090: cbdf b9bc 6d99 ad3a 9e7d 933c db9c 323c
000000a0: acd7 bd3c 57f4 94bc 0c8e 1dbd 19c1 eb3b
000000b0: c2b2 183d c843 753b dd1c 103d 95c5 4fbd
000000c0: b902 ec3c b33e 9b3a a486 473d 7b40 843c
000000d0: bef2 56bd dfd1 2b3c 8493 24bc 1da3 2bbc
000000e0: caa6 51bc 3ef7 b1bb 1279 2abd c1fa 053d
000000f0: d736 973c 04d4 513c c4d1 d43c 6a33 28bc
00000100: fc64 043c 72bf 1abd 111e 923b 5458 70bd
00000110: eb26 00bd 368f f03c 9284 603d ce23 f03c
00000120: 46f4 003e 9fbb 2c3e 81b2 fe3d 7b7e 103e
00000130: db01 d73d 157a f53d 7a0f 003e a61b bc3d
00000140: 84d2 b23c 05f5 e53c 3d4e 08bd 28a5 3e3d
00000150: 5e0f ab3a 4ac9 093d 2f89 30bd ab38 12bc
00000160: c226 b2bd 1734 80bd 416e 7fbe 4af1 e3bd
00000170: e7c0 03be a6dc 7dbd d13f 4abd 0f85 603c
00000180: 4116 d2bd b9be 31b9 397d 33bd eef7 5fbd
00000190: e559 603c 8d26 a73c 2fa9 9cbc f4e0 953c
000001a0: 240d d13b a1cf 0d3c 6a4d f33c 4a9d 2f3d
000001b0: bc8a b13d 5001 0b3d ade0 15bb d123 84bd
000001c0: 56f4 fe3c 7032 9fb9 7ed5 41bd 5536 d3bc
000001d0: 2951 d3bd 75b6 10bd 2d2e 243d 1608 923c
000001e0: 1474 2f3d cf2f 2dbd 7b5c 6b3c 1c19 6cbd
000001f0: 3648 3e3d 2f60 0c3d 4b8b 22bd 7e00 46bd
00000200: 2a3c 4d3d df17 bf3c ec7f dfba 3e96 663d
00000210: c557 723c d6ab a03d 17cf a93d 5c26 f3bc
00000220: 98eb 10bd 4344 793c dc1d 3ebd f85b 57bc
00000230: 38ba 993c 178a a63c 2c55 24bd 173c 2bbd
00000240: 678a 65bd b2a3 a03c 4dde 48bd 5033 05bc
00000250: 669e 9c3c 610a 953c 4a99 3cbd a9ff f2bc
00000260: b442 313d 8f37 da3b 17e9 88bc 1b25 893c
00000270: 10ff b63b 3e9c 12bd db50 393c 6f9d 46bd
00000280: 0e90 173d 098f 053d f6ce 623d f3ea 163c
00000290: cdef a03d f834 fcbd 0584 a8bd 5515 8dbd
000002a0: 01bd 1ebe e4be edbd f41d babd cc49 a3bd
000002b0: 6ddd 823c 9f0a 96bb c0eb 873c 03b7 bf3c
000002c0: 3335 fc3c 5cb0 b63c c1f5 5a3d 7c6e 563d
000002d0: cbfd 17bd c5d4 4bbc 63c5 acbd fdf7 423d
000002e0: c0a6 b33c 5373 b6bc 7325 563c 8ea0 7c3d
000002f0: bc15 71bc ca52 6cbd 4434 d03c dcad 7b3c
00000300: 3aef 18bd eb63 c73a 28fc 11bc d580 2d3d
00000310: b9e0 0fbb dd20 e43c aefd 59be 3c5e 5cbe
00000320: 4559 51be 3748 20be cbff 27be 31fc 16be
00000330: 782d 7bbe 380c 73be f102 6abe 83a1 a8bd
00000340: fbf4 5a3c 7eb3 e03d e3b5 0ebd eb7a 573d
00000350: 87c1 2b3d 9af4 2a3d 28ad c53d d8d5 2a3e
00000360: 8c4d 0cbd db0d d43c 01e8 2d3c 0b53 4bbc
00000370: 5e63 42bd 4541 9dbc a233 5abd 3d73 6a3d
00000380: 846f 793a 68c1 bd3d 5157 b33d 8275 d03c
00000390: 619d 1cbd baf0 033c 3190 41ba 9f13 cebc
000003a0: d86f efbd 6078 f7bd f4c9 a73c 7242 5abd
000003b0: 747c 4b3d 5186 56bd 78a6 34bd ad88 42bc
000003c0: 8660 9abc 8db8 053d 177c febc ceac 45ba
000003d0: acf3 193d 494d b0bc 6bb8 9e3b 07d7 39bd
000003e0: 2556 f93c 7375 13bd 4ed7 07bd c299 6fbd
000003f0: af45 fdba 431d eebc acb1 1abd ec13 60bb
0.085402854 -0.0071915835 -0.011672679 -0.0022022147 -0.034648977 -0.0032931226 0.019344717 0.032978714
0.0071307863 0.030396588 0.046829183 -0.005847714 0.022866702 0.025424173 0.007446168 0.024910213
0.019475188 -0.04049068 -0.03162779 0.024217144 -0.012886582 0.020952975 -0.032629948 0.049364574
0.02126987 -0.050801422 -0.037439447 0.058758095 0.055674337 -0.013519452 -0.010290933 0.005714129
-0.03964301 0.018566024 -0.05276423 0.051711865 -0.02268972 0.0013244577 0.018004235 0.010901655
0.02317413 -0.018182917 -0.038465545 0.00719465 0.03727985 0.0037424434 0.035183776 -0.05072554
0.028809892 0.0011844247 0.048712388 0.016144028 -0.05247759 0.010487049 -0.010044936 -0.010475901
-0.012796113 -0.005431085 -0.041619368 0.03270984 0.018458767 0.012806896 0.02597893 -0.010266164
0.008080717 -0.037780233 0.0044591506 -0.058677986 -0.031287115 0.029365163 0.05481393 0.029313948
0.12593183 0.16868447 0.12436391 0.14110748 0.10498401 0.11986176 0.12505904 0.09184961
0.021828897 0.028070936 -0.03327774 0.046544224 0.0013050844 0.03363923 -0.04309958 -0.0089246435
-0.08698799 -0.06259935 -0.24944402 -0.111300066 -0.12866555 -0.061978005 -0.049377266 0.013703599
-0.10258151 -0.00016951085 -0.043820594 -0.054679804 0.0136933075 0.020404125 -0.019123642 0.018295743
0.0063797403 0.00865546 0.0297 0.042874612 0.086690396 0.0339368 -0.0022869513 -0.06452144
0.031122368 -0.00030364422 -0.047322743 -0.025782743 -0.103182144 -0.035330255 0.0400831 0.017826121
0.04283531 -0.042281922 0.014365311 -0.057641134 0.046455584 0.034271415 -0.03968362 -0.048340313
0.050106205 0.023326812 -0.0017051673 0.056295626 0.014791434 0.07845275 0.082914524 -0.029681377
-0.03538093 0.015214029 -0.046415195 -0.013144486 0.018765554 0.020329518 -0.04012029 -0.041805353
-0.056040194 0.019609306 -0.049040128 -0.00812991 0.019118499 0.018193426 -0.046044625 -0.029662924
0.043276504 0.006659455 -0.016712708 0.016741326 0.005584605 -0.035793535 0.011310781 -0.048489984
0.037002616 0.032607112 0.055373155 0.00921129 0.07858238 -0.123147905 -0.08228306 -0.068888344
-0.15501787 -0.11608675 -0.09087744 -0.0797306 0.015974725 -0.004578903 0.016591907 0.023402696
0.030787086 0.022300892 0.053457025 0.05235146 -0.03710727 -0.012440865 -0.08436086 0.04759978
0.021930099 -0.022271788 0.013070452 0.061676554 -0.014714655 -0.05769614 0.025415547 0.0153612755
-0.03733752 0.0015212273 -0.008910216 0.042359192 -0.0021954014 0.027847702 -0.21288177 -0.21520323
-0.2044421 -0.15652548 -0.16406171 -0.14744641 -0.24529064 -0.2373513 -0.22852685 -0.08233931
0.013364072 0.109717354 -0.03484143 0.052607458 0.04193261 0.041737176 0.096521676 0.16683137
-0.034253642 0.025885513 0.010614396 -0.012409936 -0.047458045 -0.019196162 -0.053271897 0.057238806
0.00095152133 0.09265405 0.08756889 0.025446657 -0.038236026 0.008052999 -0.0007383852 -0.02515584
-0.116912544 -0.120835066 0.020482041 -0.053286023 0.049679235 -0.052374188 -0.04410407 -0.011873406
-0.018844854 0.032646704 -0.03106503 -0.00075407035 0.0375859 -0.021521227 0.0048437617 -0.04537108
0.030436585 -0.03600068 -0.033164315 -0.058496244 -0.0019323135 -0.029066687 -0.037767097 -0.0034191562

module.convs.2.0.bias f4 [32]
00000000: 5f85 dcbd c5e7 ea3d fa07 96bd 9d52 11bd
00000010: d3e8 003e 515c 75bd e06c 51bd b42f 173e
00000020: 5401 203e 0f7f 90bd 5771 68bd f82a 363c
00000030: bbe6 e63d 27b5 83bc 8dd7 663c 2812 bbbd
00000040: 3360 0b3e 0eae 5cbd 0959 cabc 16fe f5bd
00000050: 57fa 9fbc d508 f8bd ce0e 25bd b1b9 a5bc
00000060: 70dd 033e f09f 0fbd d58a 4dbe 8dbb 18bd
00000070: f736 073e b24f 0cbc ae7b 033e febc d5bc
-0.10767626 0.11469988 -0.0732574 -0.035479177 0.12588815 -0.059902493 -0.051129222 0.14764291
0.15625507 -0.070554845 -0.056748714 0.011118643 0.11274477 -0.016077591 0.014089477 -0.091343224
0.13610916 -0.05387693 -0.024700658 -0.12011354 -0.019528551 -0.121110596 -0.040297322 -0.020230146
0.1287744 -0.035064638 -0.20072491 -0.037288237 0.13204561 -0.008563923 0.12840149 -0.026091095

module.outconv.0.weight f4 [1, 32, 1, 1]
00000000: f489 a53d 9043 c4bd 18b1 f03d 2816 61bd
00000010: 4d5e f1bd 8613 6e3d 2eeb 2b3d 6d9f fabd
00000020: 210e dfbd 3a9d 07be 6b70 2ebc 569c e73d
00000030: 3b0e 10be c952 cb3d 1c55 343d 2be4 ef3d
00000040: 14c8 5abd ed78 4cbd 38e1 1ebe cb28 bf3d
00000050: 7e9c 98bb cc84 473d 0b15 c9bd 625a 9c3d
00000060: 3f5a ebbc 17a2 953d 9d43 1d3e c55c e0bd
00000070: ce80 24be de14 093d 2f15 3cbd 7072 0b3e
0.08082953 -0.09583199 0.11752528 -0.05495277 -0.117855646 0.058124088 0.04197233 -0.12237439
-0.10891367 -0.13243571 -0.01064692 0.113091156 -0.14067928 0.099278994 0.04402648 0.117134415
-0.053413466 -0.04992001 -0.15515602 0.093339525 -0.004657327 0.04871063 -0.09818467 0.07634427
-0.028729556 0.07306307 0.15357824 -0.109551944 -0.1606476 0.033467166 -0.04591864 0.13617873
