save/50_RES_decom.pth (torch, 3095 bytes, 6 tensors)

inconv.0.weight f4 [3, 3, 3, 3]
0	0x3e2b975b	0.16756956
1	0x3d8c3e10	0.06847775
2	0x3df9d337	0.12198489
3	0x3d867de0	0.065669775
4	0x3dc36d76	0.095423624
5	0x3e145b08	0.1448785
6	0x3ea6777a	0.32513028
7	0x3e13f8ce	0.1445038
8	0x3ea1e158	0.31617236
9	0x3ec72573	0.3889576
10	0x3df2e1d3	0.11859479
11	0x3e95676e	0.29180473
12	0xbd8337e4	-0.06407145
13	0x3d482fe5	0.0488738
14	0x3e3930a7	0.18084966
15	0x3e5ef85e	0.21774432
16	0x3e4ba93f	0.19888781
17	0x3d4dde67	0.050260928
18	0x3c4fd7fa	0.01268577
19	0x3e0724a4	0.13197571
20	0x3e18851c	0.14894527
21	0x3e29619f	0.16541146
22	0xbe407e39	-0.1879815
23	0x3d9c8442	0.07642414
24	0x3ddb8aa1	0.10719801
25	0x3dd5c5ee	0.10438143
26	0x3e06fec6	0.13183126
27	0xbe678ed8	-0.22613084
28	0xbe1d7ae8	-0.15378916
29	0xbe14abab	-0.14518611
30	0xbdca3ed7	-0.09875267
31	0xbdad99db	-0.08476611
32	0xbe8294e0	-0.25504208
33	0xbdb7695b	-0.08955642
34	0xbd323627	-0.043508675
35	0x3b4d69ac	0.0031343503
36	0xbe7f203e	-0.24914643
37	0x3cd5f100	0.026115894
38	0xbe406f04	-0.18792349
39	0xbd973d0f	-0.07384693
40	0xbd6d95dc	-0.058004245
41	0xbddc677f	-0.10761928
42	0x3b8f24c6	0.0043683974
43	0xbe924dfa	-0.28575116
44	0xbe2fda03	-0.17173009
45	0xbc330d3a	-0.010928446
46	0x3ca54fbc	0.020179622
47	0xbd8184aa	-0.06324132
48	0xbe844ea7	-0.25841257
49	0xbe303480	-0.17207527
50	0xbe147b9d	-0.1450028
51	0xbdef8af6	-0.116964266
52	0xbce6744f	-0.028131632
53	0xbdc5208c	-0.096253484
54	0xbe8a1760	-0.2697096
55	0xbe20ebe8	-0.15714991
56	0xbe9b29eb	-0.30305418
57	0xbe47f92f	-0.1952865
58	0xbda21bbc	-0.07915446
59	0xbe213fbd	-0.1574697
60	0xbe660ee4	-0.22466618
61	0xbe148837	-0.14505087
62	0xbe6adfde	-0.22936961
63	0xbe46ea94	-0.19425422
64	0xbe165754	-0.1468175
65	0xbe835a0c	-0.25654638
66	0xbe2eb941	-0.17062856
67	0xbdbf5ced	-0.09343896
68	0xbd736a56	-0.05942758
69	0xbe900f44	-0.28136647
70	0xbdd47f80	-0.10375881
71	0xbea25e00	-0.3171234
72	0xbeb5bd9e	-0.3549623
73	0xbe209949	-0.15683474
74	0xbe8d357a	-0.27579862
75	0xbe2c4182	-0.16821864
76	0x3cbe1668	0.023204044
77	0xbe5d4f59	-0.216123
78	0xbe9b6610	-0.30351305
79	0xbe180976	-0.14847359
80	0xbe98e7b1	-0.29864267

inconv.0.bias f4 [3]
0	0xbddd4c36	-0.10805552
1	0x3e1437f5	0.14474471
2	0x3f8987af	1.0744532

convs.0.weight f4 [3, 3, 3, 3]
0	0xbe15d3f1	-0.1463163
1	0x3e0cb67d	0.13741489
2	0xbda0cd9e	-0.07851718
3	0x3d67490b	0.056466144
4	0x3e09124c	0.13385886
5	0xbdf3c22a	-0.11902268
6	0xbe2c4825	-0.16824396
7	0xbe216526	-0.15761241
8	0x3d177efc	0.036986336
9	0xbdfcce05	-0.123439826
10	0x3d2b8436	0.041874133
11	0xbdd46a06	-0.10371785
12	0xbe2d88d1	-0.16946723
13	0xbe3b342d	-0.18281622
14	0xbdd6baf7	-0.104848795
15	0xbdb13bde	-0.08653997
16	0x3df2eafe	0.118612275
17	0x3cfff7f6	0.031246167
18	0xbd799288	-0.06093076
19	0xbd1a9504	-0.03773977
20	0x3de49eba	0.11163087
21	0x3de5a6be	0.11213444
22	0xbc9a3608	-0.018824592
23	0x3d1aa63c	0.03775619
24	0xbe2b285b	-0.16714613
25	0xbdc06cc5	-0.09395746
26	0x3e062f0a	0.13103881
27	0xbe4c593e	-0.19955918
28	0xbe6dc620	-0.2322011
29	0xbc507008	-0.012722023
30	0xbd997bf3	-0.074943446
31	0x3c9e6f4f	0.019340185
32	0x3c42cf9c	0.011890318
33	0x3dcafb7b	0.09911247
34	0x3dd2084a	0.10255487
35	0x3a0e54c8	0.00054295035
36	0x3e1e7973	0.15476017
37	0xbdfa7593	-0.12229457
38	0xbc7972fd	-0.015225169
39	0x3e1d9078	0.15387142
40	0xbe10058b	-0.14064614
41	0x3dc3b984	0.09556869
42	0x3e24b806	0.16085824
43	0xbe156884	-0.14590651
44	0xbdade7f4	-0.08491507
45	0x3d52465d	0.051336635
46	0xbd5d74d1	-0.054066483
47	0xbe742401	-0.2384186
48	0x3d3e3a24	0.046442166
49	0x3d14a621	0.036291245
50	0xbcbccd35	-0.02304707
51	0xbe252b25	-0.1612974
52	0xbe112b4d	-0.14176674
53	0xbe2b36d5	-0.16720136
54	0xbd99b022	-0.07504298
55	0x3dec48bc	0.115373105
56	0xbe2de60e	-0.1698229
57	0x3e3457c1	0.176116
58	0x3de62744	0.11237958
59	0x3dea3461	0.11435772
60	0xbe078d27	-0.13237439
61	0x3d5e02e9	0.054201994
62	0xbe612324	-0.21986061
63	0x3e4d161d	0.20027967
64	0x3e82d09e	0.25549787
65	0x3c392060	0.011299223
66	0x3e813ef5	0.25243345
67	0x3cd7ba9f	0.026334105
68	0x3e341fe3	0.17590289
69	0x3e499638	0.1968621
70	0xbcd0399b	-0.025418093
71	0x3e4df502	0.20112994
72	0x3e869c91	0.26291326
73	0x3e5336c4	0.2062636
74	0x3e66c8dd	0.22537561
75	0x3d82e048	0.063904345
76	0x3ab8b022	0.0014090578
77	0xbe1d1aa5	-0.15342195
78	0x3d60ce93	0.054884505
79	0x3dbc7efd	0.092039086
80	0x3e6fec6e	0.23430035

convs.0.bias f4 [3]
0	0xbe518de9	-0.2046429
1	0x3cdc8029	0.02691658
2	0xbd8e84c9	-0.069589205

outconv.0.weight f4 [3, 3, 1, 1]
0	0x3eb3d369	0.3512223
1	0xbe6f14f0	-0.23347831
2	0xbfb10e18	-1.3832426
3	0x3ebf6028	0.3737805
4	0xbe9f0cbc	-0.31064403
5	0xbfb802cb	-1.4375852
6	0x3e838299	0.25685576
7	0xbc744c92	-0.014910834
8	0xbfce92e2	-1.6138575

outconv.0.bias f4 [3]
0	0xbf2a7372	-0.66582406
1	0xbf473f21	-0.778307
2	0xbf08fb40	-0.5350838
