save/50_SCI_model_EX.pth (torch, 13263 bytes, 7 tensors)

conv_L.0.weight f4 [8, 1, 3, 3]
00000000: 2531 72bd 6b27 9dbd 93c6 213e fd68 edbd
00000010: fc78 203d e92b 483d ff08 aa3e d181 4c3e
00000020: 4498 923e 6d15 4cbd c1f1 443e 4772 a0be
00000030: 953c 0fbe c4f1 44be 4a90 a7be 34cc 53be
00000040: 4fcd 513e 7a8a f6bd a82d 433e 9e92 efba
00000050: 2894 0f3e c699 0f3d 9dc1 acbe 18b8 293e
00000060: 89ed 1abe e863 6c3e cc19 39be fad2 933d
00000070: 1077 a3be 1319 5b3e d234 5cbd a859 04bd
00000080: f4b7 ac3e 2112 fd3d a176 563c 5937 86be
00000090: 8d9e 98be 0b82 2e3d 041f 2a3e aadf 52be
000000a0: 6847 96be c638 fa3c a7de 67be 2f6a 9dbe
000000b0: 3e97 85be c96e b2be 75be b8bd ebc4 d33d
000000c0: eb0b 61be e663 46be 5a33 6ebd f855 a0be
000000d0: 4c70 f73d 7878 4a3e 370f a13e 3f20 593e
000000e0: 765c 5c3e 3f4e c83c 05d4 8c3c 5ff4 b83d
000000f0: 6c25 d53d 6733 43be f3f2 473e ec26 50bd
00000100: 38f1 a3be 691f 73be 61bb 51be e777 3f3c
00000110: 6b0c 05be 6fef 653e de8c 86bc bbc5 79be
-0.0591289 -0.07673534 0.15798406 -0.115922906 0.03917788 0.04887 0.33209988 0.19971396
0.28631794 -0.04982512 0.19232847 -0.31337187 -0.13987954 -0.19232851 -0.3272727 -0.20683366
0.20488475 -0.12038131 0.19060385 -0.0018277948 0.14021361 0.03505876 -0.33741465 0.16574132
-0.15129675 0.23084986 -0.18076247 0.07217975 -0.31926775 0.21396284 -0.05376131 -0.032312065
0.33734095 0.123569734 0.013089807 -0.26214102 -0.29808465 0.042604487 0.16613394 -0.20593134
-0.29351354 0.03054465 -0.22643529 -0.30745074 -0.2609195 -0.34850147 -0.09020702 0.103402935
-0.21977203 -0.19374046 -0.05815444 -0.3131559 0.12081966 0.19772518 0.3145692 0.21203707
0.21519646 0.024451373 0.017190943 0.09030985 0.10407528 -0.19062577 0.19526272 -0.05081837
-0.32019973 -0.23742451 -0.20481636 0.011686302 -0.12993018 0.22454618 -0.016424593 -0.24391834

conv_L.0.bias f4 [8]
00000000: 9e12 6a3e 37a5 9cbd 5555 a23e a18c 773e
00000010: 458d b9be c58c 6c3e bc31 afbe 519a 51be
0.22858664 -0.076487 0.31705728 0.2417474 -0.36240593 0.23100574 -0.34217632 -0.20469023

conv_R.0.weight f4 [8, 3, 3, 3]
00000000: afde 2abd 9250 433e 37a1 3f3e 9254 ffbd
00000010: de4d 69be d30d c03d b0f5 b43d 9211 083e
00000020: cfa7 c5bd 2bb6 793e 5792 f4bd d87e 413e
00000030: 8aa9 33bc 02ec 91bd d875 d53d 5179 c4bd
00000040: 8a3f f43d df4b b9bd abb3 07be 77ee fcbc
00000050: c643 51be 08e1 a63c e0f2 ec3c 6d28 b7bc
00000060: 369f a8bd 1e02 1dbe 1e69 4ebd a0d1 febd
00000070: 7953 51be 4405 273e 8733 a1bd 53bc ec3d
00000080: 7370 1abe c4db d6bb e5a8 37bc d17c 463d
00000090: 89c5 03be 2015 6abd d122 96bc d444 0b3e
000000a0: 47c6 893d 0692 193e dd22 a93d b203 0fbe
000000b0: 00e8 703d 3f09 5bbe f315 30be 7f7e c03b
000000c0: 3fac 2a3d 0ff0 56be eb9a ed3c cbed 0ebe
000000d0: a863 113d 98fd 2cbe a9fa 2a3e fb20 4f3e
000000e0: f4eb fa3e 53ab 28be bfc3 10be 4e83 d1be
000000f0: 0efa 993e e239 c63e baf7 4b3e 18fb d73c
00000100: 6ffe f13c e31a a43e d866 8dbb fbd2 45be
00000110: 53dd 2dbe 5200 f93d b341 a53d 63a0 073e
00000120: 5145 41be a529 cd3c e902 69be 3ee8 8a3e
00000130: 0662 e2bd 481d 3e3e 61e5 acbc 017e d7bd
00000140: a6ca 43be 6777 52be 922b 323d 69fc 053c
00000150: bc6e 643e 7067 df3d 417c 803e 88bc 8cbd
00000160: 2dc2 cfbd 4cb5 d13d c4db ae3d 4b24 87bd
00000170: 71a0 51be 7d05 26be ede6 5fbe 2ff7 23be
00000180: addb 9fbd 7561 02be 7372 e8bd efc1 20bd
00000190: 6b33 1f3e f282 3f3d b55c b13d 0486 a5bc
000001a0: b028 1eba 3856 353e b5db 9ebb 8cfd 013e
000001b0: b23c 81bd 56d8 9fbd beda eabb b54d c5bd
000001c0: 34cf a33d 32be 5cbe b75b 863d 5beb 853d
000001d0: 7f59 01bc 7013 923e 595a 383e 527c 1f3e
000001e0: 8066 0dbe 4248 ee3d 52fa 02be 0538 2b3e
000001f0: 9218 5c3d ee71 d1bd f173 3bbe d304 57be
00000200: fa7d 003d cc7f b6bd bffd 713c 337d a9bc
00000210: 115d 50be c1d6 96bd 0b52 59be 5e5f 50be
00000220: 2eea c4bd 61d4 05bd 783f fabc 59e3 8f3d
00000230: f0f7 08be 052e 38be 69ac 3cbe 4cf4 0a3e
00000240: 6fb1 65bd 16bf 3c3d e8c1 713e 16db 783c
00000250: 0a67 17be 20ec 0fbe 0d43 b03d a82d 86bd
00000260: 3a27 103e b14a 1fbd b1fc 893d dd5d fdbb
00000270: a420 e3bd 3094 6fbe a3ad 093e b66e 42be
00000280: 95bc d6bd 2a83 59be 95a9 e5bd 1ccf 833d
00000290: ed64 da3d 8f21 13be ed7a f1bd 75a3 86be
000002a0: 8999 ce3d a66e 43be 0f6a 863d fb4a 04be
000002b0: 546a 3f3e fb6a 88bd d354 633e de31 04bc
000002c0: 8fc1 f33d 068e e53d ee96 73bc 4ca6 11be
000002d0: 9bf5 d33b c6cc 0d3d 8f68 4ebe f799 00be
000002e0: ac64 d13d 58f7 3bbe 5bcc 6c3d 879f a9bd
000002f0: 035f 6c3d 9b99 0c3e a915 a0bd 3c7f 593e
00000300: 8a34 b7bd 95c0 283e 0df3 043e d007 dc3d
00000310: 5129 683e 48a2 1cbe 810b 843d a6a0 58bd
00000320: 25f7 1dbe c34c 413c ce8c 1cbd 1295 1fbe
00000330: 5cb7 82bc a5cd 60be a0ce 2ebe 05ad 093d
00000340: ff7a 0e3e 40e1 6f3e 0304 993b e0ab 4d3e
00000350: 4459 533e 7b9a 8abd 62c6 5a3e 6b39 163e
-0.041716274 0.19073704 0.18713842 -0.124673024 -0.2278361 0.09377637 0.08835924 0.13287953
-0.096511476 0.24385898 -0.119419746 0.18896043 -0.010965714 -0.07125093 0.104228675 -0.09593452
0.119261816 -0.090476744 -0.13252132 -0.030875428 -0.2043601 0.020370975 0.028924406 -0.022358144
-0.08233492 -0.15332839 -0.050393216 -0.124423265 -0.20441999 0.16310602 -0.07871156 0.115593575
-0.15081958 -0.00655696 -0.011209701 0.048458878 -0.12868322 -0.057149053 -0.018327149 0.13600475
0.067272715 0.1499711 0.08258603 -0.13966253 0.058815002 -0.21390246 -0.17195873 0.0058744545
0.041668173 -0.20990013 0.029004535 -0.13957898 0.03549543 -0.16893613 0.16697182 0.20227425
0.49008143 -0.16471605 -0.14137171 -0.4092049 0.3007359 0.38716036 0.19918719 0.026364848
0.029540269 0.32051763 -0.0043152384 -0.19318764 -0.1697896 0.12158264 0.08069172 0.13244776
-0.18874098 0.025044272 -0.22755016 0.27130312 -0.11053853 0.18565857 -0.02110547 -0.1052208
-0.19120273 -0.20553361 0.043498583 0.008177855 0.22307867 0.10908401 0.25094798 -0.06871897
-0.10144458 0.10239658 0.08538011 -0.06598719 -0.2047136 -0.16213031 -0.21865435 -0.16012262
-0.07805572 -0.1273249 -0.113499545 -0.03924745 0.15546958 0.04675574 0.086602606 -0.020205505
-0.00060332846 0.17708671 -0.0048479685 0.12694377 -0.06310405 -0.07804935 -0.0071671894 -0.09633962
0.07998505 -0.21556929 0.06560462 0.06539031 -0.007894873 0.28530455 0.18003215 0.15574768
-0.13808632 0.11634876 -0.12790802 0.16720589 0.05373437 -0.102268085 -0.18305947 -0.20997934
0.03137014 -0.08911094 0.01476997 -0.020689582 -0.20348002 -0.0736518 -0.21222703 -0.2034888
-0.09614979 -0.032673243 -0.030547842 0.07025785 -0.1337583 -0.17986305 -0.18425144 0.13569754
-0.056077417 0.04608067 0.23609126 0.015188953 -0.147854 -0.14054918 0.08606539 -0.06551677
0.14077464 -0.03888959 0.0673765 -0.0077321366 -0.1109021 -0.23396373 0.13445143 -0.18987545
-0.10485188 -0.21241441 -0.11213986 0.06435987 0.10663781 -0.1436827 -0.11791024 -0.26296583
0.10087878 -0.19085178 0.06563198 -0.12919228 0.18692905 -0.0666103 0.22200327 -0.00806853
0.11902153 0.112087294 -0.014867527 -0.14223593 0.0064684874 0.034619115 -0.20157073 -0.12558733
0.1022428 -0.18356073 0.057812076 -0.082823806 0.057707798 0.13730471 -0.07816631 0.21239942
-0.08945568 0.16479714 0.12983342 0.107436776 0.22672011 -0.1529628 0.06447507 -0.05288758
-0.1542631 0.011798087 -0.03822022 -0.1558421 -0.015956573 -0.21953447 -0.17071009 0.03361227
0.13914107 0.2342577 0.0046696677 0.20085096 0.20639521 -0.06767746 0.2136474 0.1467034

conv_R.0.bias f4 [8]
00000000: c59b 133e 5db5 003e 63e2 00be f743 36be
00000010: 4f4d 963d 75cb e03d a4e2 5a3e 07a0 6a3d
0.1441489 0.12569185 -0.1258636 -0.17799364 0.07338964 0.10976306 0.21375519 0.05728152

out_convs.0.weight f4 [16, 16, 3, 3]
00000000: 1855 743b 2f13 893d d7d2 833c a9c1 f4bc
00000010: 4832 15bd fb99 96bd 5b66 fdbc 4788 113d
00000020: 182f 6a3d f17f 163d 8dd4 0d3d c837 973b
00000030: c546 9f3d f442 8cbd 69ef 41bd 8a78 aa3d
00000040: 1b17 9bbd 6efa a73d 39a0 09bd 9e09 653d
00000050: c18d 0abd 4398 a03d 95bc 863d a6d6 d73c
00000060: 98ed 0fbd ddc9 523d a324 053d c3ac 573d
00000070: af2c 613d f5b2 8fbd d682 64bd 3b2f 95bd
00000080: 7f5e 943d 3fe3 89bc 5482 993d 6b84 e63b
00000090: d284 0a3a 70ef 653d e848 2f3c b046 9e3c
000000a0: 7c8d 043d 5f74 0d3d 7c59 943c 4390 8e3d
000000b0: 779d 623d 32d1 05bd 068f 913d 4238 203c
000000c0: e4ef 1abd 4781 3e3d a7be 403d e410 ee3c
000000d0: 6a38 d13b 2343 88bd a592 f63a dbcc 21bd
000000e0: 2a36 81bd fb39 163d 573a 53bd beb8 a43c
000000f0: 190b 4e3c 6a00 6a3d 5d29 643d 7c29 45bc
00000100: 866d 79bd 5e31 75bd 1154 973c 217d fc3c
00000110: 6e6d 273d 519e 943d 43bc fcbc 8a4d 3b3a
00000120: 9f81 1d3d ea86 c03b 7fac 043c 9008 973d
00000130: a3fb 433d d93e cd3c 136f 413d 3ccf 243d
00000140: fcef 67bd f844 d9ba 218c 563d fa1e 28bd
00000150: 0772 55bd b24f c0bc a272 f53c 18b0 c93b
00000160: fb51 98bd 26da eabc f42a 8ebd 76ec 323d
00000170: f503 7d3d 87c1 463d 0d3b b1bc 5f7a 643d
00000180: 7f9f 9fbd 34ab e1bc e60e 8ebd 7a84 873d
00000190: e915 f73c c373 95bd 6953 fc3b 5b95 623d
000001a0: 3548 9b3d 75d3 8ebd b49b 1d3d e435 d6bc
000001b0: 6ce0 babc 705a fd3c 2f43 cd3c ec9a e93c
000001c0: e2ed 2b3d ba40 803d 46bf 6cbd 74b8 93bd
000001d0: c90e 823d eade 8abc a41d 6b3d 2052 8f3d
000001e0: 79b6 00bd 71bb 9b3d 0f8d f13c 36a3 1ebd
000001f0: 486b 663d 66f5 163d ac38 8e3d 2ab0 9e3d
00000200: 6d4b 4cbd 6f63 26bb 9423 833b 6667 013d
00000210: 91fd 9dbd 5d71 953d dc3f 23bd be81 b0bd
00000220: e2a4 633d 57ac dfbb 6602 be3c 3bee 3a3d
00000230: da4a cabc d728 75bd 2637 a6bd a144 17bb
00000240: 29a0 85bb 72c6 c43d 328b 9bbb 974d b73d
00000250: 770b 033e 7441 0a3d c48b 68bd a56f b13c
00000260: beff 3e3d 5957 8f3c 88ed 9fbd 3e32 c83c
00000270: 40d4 2d3c 22b8 9cbd 943d 223d 8715 1bbd
00000280: f1fa 06bd 583d e9bd d0b9 df3d 0169 f33d
00000290: 5d45 693d b210 d83d b2de 7f3d fe77 033d
000002a0: bfe1 e93d 4a5e 013e 17e9 173d aa5c a93d
000002b0: e469 233e 79cc a43c f629 b93d 9f86 8abc
000002c0: 8553 adbc 5695 28bc 0e5e 133e 0bd8 d23d
000002d0: 28fa a0bb 7680 173d 9a03 983c 3b21 edbd
000002e0: eb2a f7bd 2998 6b3c 6de6 c63c aff8 e7bd
000002f0: b43a a2bd f644 7ebd b274 39bb cf13 5e3e
00000300: 2e1e 083e 72b6 153e db76 a83e d7e9 c9bc
00000310: c8af 303e 1783 cb3e 35a0 80be b64e 36be
00000320: 32d4 acbe 96dd 12be 26b1 c8bc e712 a0bd
00000330: 260a fbbe f944 05bf d5c7 01bf 0256 30bd
00000340: 59a4 00be 66ad 01be b47b 70bd 59cb eabd
00000350: 06a5 18bc da08 253d 0ab6 83bc aa0a 4c3d
00000360: b32d 063e 54aa b83d fe84 803e 7426 5ebe
00000370: 3e19 40bd 32e6 0cbe 0c7f cd3d 4aae 153e
00000380: 956b 783e 6b98 00bd 0cbb 323d 407d 27bd
00000390: 135f 523d 4f14 a23c c65d cb3d 8f87 253d
000003a0: 2f52 2a3d 7c12 903d 7ed8 343c 012b ae3d
000003b0: dbc6 a53d 9317 2ebe 96e4 1ebe fe60 2abe
000003c0: 7d7f d2bc fe0f e33d 9066 08bc 4344 c5be
000003d0: 6fef cebe ed29 b2be 3096 d4bd 329f 85bd
000003e0: 0921 09bd 764b bdbe 94a7 fbbe 1147 b4be
000003f0: aaba bb3d fece 783c 1c50 6a3d e86d 4a3d
0.0037282165 0.06693112 0.016091747 -0.0298775 -0.036424905 -0.07353588 -0.030932596 0.035530355
0.05717382 0.03674311 0.034626532 0.004614804 0.0777717 -0.06848708 -0.04734746 0.08323772
-0.075727664 0.082020625 -0.033600066 0.055917375 -0.033826593 0.078415416 0.06578938 0.02634747
-0.035138696 0.051462043 0.032505643 0.052654993 0.054974254 -0.07016555 -0.055788837 -0.07284399
0.07244586 -0.016831992 0.07495561 0.0070348284 0.0005284074 0.05613655 0.010698535 0.019320816
0.032361493 0.03453481 0.018109076 0.069611095 0.05532595 -0.032670207 0.07107358 0.009779038
-0.037826434 0.046510007 0.04705682 0.029060788 0.006384899 -0.0665343 0.0018812014 -0.039502006
-0.06309159 0.03667639 -0.05156931 0.020107623 0.012575888 0.0571293 0.05570351 -0.012033816
-0.060895465 -0.059861533 0.018472703 0.030821385 0.040875845 0.07256759 -0.030851489 0.0007145038
0.038453694 0.005875458 0.008097767 0.0737468 0.0478474 0.025054382 0.04722507 0.040236697
-0.05662535 -0.001657634 0.05237973 -0.041045167 -0.052110698 -0.023475502 0.029961888 0.006155025
-0.074375115 -0.028668474 -0.069417864 0.043682538 0.06177135 0.048524406 -0.021634603 0.055780765
-0.07794093 -0.027547456 -0.069364354 0.06617065 0.030161815 -0.072974704 0.007700373 0.055318218
0.07582132 -0.06973926 0.03847857 -0.026148744 -0.02281209 0.030926913 0.02505645 0.028516255
0.04197491 0.062623456 -0.0577996 -0.07212916 0.06350476 -0.016951997 0.057401314 0.06998086
-0.03142402 0.07604111 0.029486207 -0.03872987 0.056254655 0.036855124 0.06944403 0.077484444
-0.04987662 -0.0025388857 0.004002044 0.03159275 -0.077143796 0.07297013 -0.039855823 -0.08618496
0.055577166 -0.0068259644 0.023194503 0.04563735 -0.024693895 -0.0598534 -0.081159875 -0.0023081678
-0.0040779305 0.09608163 -0.004746818 0.08950346 0.12797342 0.033753827 -0.056773916 0.021659682
0.046630614 0.017497705 -0.07808977 0.02443802 0.010609686 -0.07652308 0.039609507 -0.037862327
-0.03295416 -0.113886535 0.10924113 0.11885262 0.056950916 0.105500594 0.06246824 0.032096855
0.11420011 0.12633625 0.037087526 0.082696274 0.15958363 0.020117031 0.090412065 -0.016909895
-0.02115799 -0.010289511 0.14391348 0.10295113 -0.0049126334 0.036987744 0.018556405 -0.11578604
-0.12068733 0.0143795395 0.024279797 -0.113267295 -0.07921353 -0.062077485 -0.0028298316 0.21687244
0.13292763 0.14620379 0.3290318 -0.024647636 0.17254555 0.3974845 -0.25122228 -0.17803463
-0.33755642 -0.14342341 -0.024498533 -0.07816105 -0.4903118 -0.5205837 -0.50695544 -0.043050773
-0.12562694 -0.12663803 -0.058711722 -0.11464567 -0.009316688 0.040291645 -0.016078014 0.049814858
0.1310337 0.090168625 0.25101465 -0.21694356 -0.046899073 -0.13759688 0.10033998 0.14617267
0.2425979 -0.031395357 0.043635413 -0.040890932 0.0513602 0.019785075 0.09929995 0.040412482
0.041582283 0.070347756 0.011037944 0.08504296 0.08094569 -0.1700118 -0.15516886 -0.16638562
-0.025695557 0.11087035 -0.008325234 -0.38528642 -0.40417048 -0.34797612 -0.103802085 -0.06524505
-0.03347877 -0.36971635 -0.4915129 -0.3521047 0.09166463 0.0151860695 0.057205305 0.04942122

out_convs.0.bias f4 [16]
00000000: 431b 99bd 86c0 383e 2000 e23c 97a3 3b3e
00000010: 2341 98bd a579 e83d e182 b0bd 6670 4a3d
00000020: e52f c03b 3a4b eebc 3b01 40bd dd50 35bd
00000030: 96ec 103e 735b 9a3d 249a 9b3d df40 7abb
-0.07475903 0.18042192 0.02758795 0.18324123 -0.07434299 0.11351327 -0.08618713 0.049423598
0.0058650845 -0.029088605 -0.046876173 -0.04426657 0.1415275 0.07536974 0.07597759 -0.003818564

out_convs.2.weight f4 [1, 16, 1, 1]
00000000: 44c1 9b3d 9c47 a8be 2d82 513e 3bef 90be
00000010: e00f c0bc 0b61 12bf a0b5 113e a20f 27be
00000020: 6093 6c3e 7fd9 c83b 0146 a0bb cead 8a3e
00000030: 840c 24be 3bff 51be db7c 76be 15e9 2c3a
0.07605222 -0.32867134 0.20459814 -0.28307518 -0.02344507 -0.57179326 0.1422944 -0.16314557
0.23103094 0.006129443 -0.0048911576 0.27085727 -0.160204 -0.20507519 -0.24071066 0.0006596011
