save/50_SCI_model_KD.pth (torch, 294441 bytes, 19 tensors)

conv1.weight f4 [16, 3, 3, 3]
000000 81 3e 06 3e 88 73 b8 3d 3d 98 1b be d1 cb 80 bc
       0.13109781 0.09006411 -0.15194793 -0.015722187
000010 19 5f 70 3d 82 4a c2 bd 6e de 02 bd ed 5e 43 3d
       0.058684442 -0.094868675 -0.031950407 0.04769795
000020 b2 9f 1b 3e a6 e5 c2 bd 7c 0b 6a be de 31 35 3d
       0.15197638 -0.09516458 -0.22855943 0.04423701
000030 9d a5 bb bd 3b 41 0e bd cc f5 07 3e 6a b3 68 bd
       -0.091624476 -0.034730177 0.13277358 -0.056811728
000040 1f 19 8b bd 99 73 95 3c 04 3c 32 3e 6c 63 24 3e
       -0.06791901 0.018243598 0.17405707 0.16053551
000050 82 8c 59 3e e0 a4 73 bd 9c f0 52 be ac bf 00 3d
       0.21245006 -0.05948341 -0.20599598 0.031432793
000060 01 ca 80 bc 41 6e 7a 3b 0b b4 29 3e 91 28 a9 3d
       -0.015721323 0.003821269 0.16572587 0.082596906
000070 05 06 8d bd b0 b0 03 3d a3 43 54 bd c6 2e b5 3c
       -0.06885914 0.032150924 -0.051822316 0.02211703
000080 64 dd 26 be b0 df 0f bd 47 b8 97 bd 27 2d 08 3e
       -0.16295391 -0.035125434 -0.07408195 0.13298474
000090 63 86 27 be 86 79 f9 3d 57 d3 87 bc 92 71 8d 3d
       -0.16359858 0.12181382 -0.016580267 0.069064274
0000a0 60 ad cc bd 8f 9e ab 3d 23 31 f7 3d 42 d3 4b bd
       -0.09994006 0.08379852 0.12069919 -0.049762018
0000b0 a5 96 27 be 84 01 04 be d3 30 c7 bc 42 8f 1d be
       -0.1636606 -0.12891203 -0.024315273 -0.1538668
0000c0 61 10 86 bc 7f 2c 13 bd c9 13 12 3e 3d cc 2b 3e
       -0.016365232 -0.035931107 0.1426536 0.1677713
0000d0 da 6f 83 bc 0c 01 a8 ba e2 52 2d be e8 61 e7 bc
       -0.016044546 -0.0012817695 -0.16926149 -0.028244928
0000e0 95 09 e9 3d 26 6b ca bd 62 b3 99 bd 39 58 2b be
       0.11378781 -0.09883718 -0.07504918 -0.16732873
0000f0 0d 75 db bd a7 a5 75 bd 89 23 05 3d 6b e1 1e be
       -0.10715685 -0.05997243 0.032504592 -0.15515678
000100 e8 62 d7 bc 63 2d 2c be 6f 8e 01 3d 37 3a 07 3e
       -0.02629228 -0.16814189 0.031629976 0.13205801
000110 19 ef a1 3d 63 43 4e be cc 9a b6 bd bd 79 2e bb
       0.079069324 -0.20142893 -0.08916244 -0.0026622855
000120 9c 3e 8a 3e 68 3e 98 3c d5 50 72 3e 6b 79 8c be
       0.27000892 0.018584445 0.23663647 -0.27436385
000130 f5 67 9a be d5 ca d2 3c 0d c1 10 3e 55 4d ba 3d
       -0.30157438 0.025731483 0.14136143 0.09096781
000140 74 51 e3 3d 67 f5 5a bc 1c 63 b2 3d aa 06 a3 bd
       0.1109952 -0.013364173 0.0871031 -0.079602554
000150 61 95 6b bb 62 01 60 3e 72 b4 5a bd 37 16 3e 3e
       -0.003594719 0.21875528 -0.053394742 0.18563162
000160 83 2f 27 3e 23 44 52 3e 57 5d e9 3d 07 38 49 3d
       0.16326718 0.20533805 0.11394756 0.049125697
000170 b1 d0 92 3d 5c 82 46 3e a5 14 8e bd 1c 2b 35 3e
       0.07168711 0.19385666 -0.069375314 0.17692226
000180 95 9e 10 be 6d 5f 52 3e 44 5f 2d 3e 00 70 18 be
       -0.14122994 0.20544215 0.16930872 -0.14886475
000190 26 b5 f2 bd f1 1d 85 3c 9f ae ba 3d ed fd 37 3e
       -0.118509576 0.016249629 0.091153376 0.17967959
0001a0 35 19 fe bd 74 de cb bc 1b a0 eb 3d 8f 7e 9d bd
       -0.124071516 -0.024886347 0.11505147 -0.07690155
0001b0 5c e5 37 3d 9d 4d 8f 3d 9f 89 87 3d dd 23 03 3e
       0.04489647 0.069972254 0.06618046 0.1280665
0001c0 b4 ab 2e 3c 2c fb 41 3e f7 e4 e7 3d dd 08 08 be
       0.010661054 0.1894347 0.113229685 -0.13284631
0001d0 c2 f6 6e 3e b5 f4 5f bd e5 5b 78 3d 24 de 6d 3d
       0.23336318 -0.05467673 0.060634512 0.058073178
0001e0 dc 1b 06 3e a1 c0 cb 3d a9 59 c5 bd bb 1c 36 be
       0.13096565 0.099488504 -0.09636242 -0.17784397
0001f0 d3 20 e2 3d 25 8f 15 3d 0a 3c c7 bd d2 94 d2 3d
       0.11041417 0.036513466 -0.097282484 0.102822915
000200 7d 2d 4b be a9 6b f9 bc b3 be 90 be 5f 58 c3 3c
       -0.19841571 -0.030446844 -0.28270492 0.02384585
000210 b8 95 1f be bf 52 14 be 89 aa 1e 3e 54 bd ed bd
       -0.15584457 -0.1448469 0.15494741 -0.11608377
000220 8d 97 22 bc 07 77 1d 3e 73 4c a0 3d ba 23 92 3d
       -0.009923828 0.15377437 0.078270815 0.071357206
000230 4e 96 a2 3d 7a 05 f2 3b 5a e7 91 bc f2 43 31 bd
       0.079388246 0.0073859068 -0.017810512 -0.04327769
000240 62 2f 11 be d0 32 33 be 27 65 3e be 73 26 dd 3c
       -0.14178231 -0.17499852 -0.18593274 0.026995873
000250 b0 50 27 3e 6f 50 ee 3d 6d 2e 9f bd 15 38 9f 3d
       0.16339374 0.11636435 -0.07772527 0.07774369
000260 85 37 01 bd 27 ea 72 3e a0 0a 4f 3e fd 2a c0 3d
       -0.03154709 0.23722135 0.20218897 0.09383199
000270 f2 46 51 be bf a5 57 be ab 11 80 be 5d 67 15 bd
       -0.2043722 -0.21059321 -0.2501348 -0.036475528
000280 81 9d 27 3e 49 99 2a bd e5 ca ff be ac dc b3 be
       0.16368677 -0.04165009 -0.49959484 -0.35129297
000290 1f 3a 04 bf c6 8b e3 be bd 88 41 bf 67 fe 1d bf
       -0.51651186 -0.44442576 -0.7559927 -0.6171631
0002a0 eb 94 02 bf 3c 84 e5 be 93 e2 f8 be 49 bb cd bf
       -0.5100848 -0.4482745 -0.48610362 -1.607278
0002b0 fd 9d c8 bf fb a8 d2 bf ce d7 bb bf c4 5d cd bf
       -1.5673214 -1.6457819 -1.4675233 -1.604424
0002c0 89 31 d4 bf 27 c6 bf bf 74 46 cf bf 9c df ce bf
       -1.6577617 -1.4982346 -1.6193376 -1.616199
0002d0 32 95 89 be 86 87 69 be 9b b8 e6 bd f1 a4 97 be
       -0.2687164 -0.22805604 -0.112656794 -0.29618028
0002e0 55 17 17 bf 24 6c cf be 34 30 db bd 20 d3 6d be
       -0.59019977 -0.40512192 -0.107025534 -0.23225069
0002f0 50 4a 93 bd 0c 8c 06 be 0d 2c 0e bf d8 9d ba be
       -0.07191908 -0.13139361 -0.55535966 -0.3644855
000300 ed 18 88 3e 35 71 b3 be 6f 98 8a be 75 f4 b8 be
       0.26581517 -0.35047308 -0.27069423 -0.36124006
000310 c9 99 98 3d 75 15 d6 3e 8e 27 ea bd 96 bd 6c 3c
       0.07451207 0.41813245 -0.11433326 0.014449498
000320 26 2a b2 3e c0 fe c4 3e 89 a6 05 bd 35 75 5c 3e
       0.34797782 0.3847561 -0.032629523 0.21529086
000330 5a b6 49 3e 26 55 25 3e 85 4a 64 bd e8 5f c5 3d
       0.19698468 0.16145763 -0.05573513 0.09637433
000340 f1 7b c5 3e 38 52 a3 3d 65 eb 15 3c 2f 9b 54 be
       0.38571122 0.07974666 0.009150361 -0.20762323
000350 90 dd e3 3c 26 21 17 be 93 98 29 be b6 88 3f be
       0.02781561 -0.14758739 -0.16562109 -0.18704495
000360 77 34 38 be 7a be 7d 3d f9 e0 77 be 61 95 21 3e
       -0.17988764 0.06194923 -0.24206914 0.1577964
000370 43 0b 46 3a f4 da e0 3d fb fb f5 bc 82 fb 12 be
       0.0007554779 0.10979262 -0.03002738 -0.14353755
000380 66 48 51 3c a1 90 d8 3d 3c 85 8b 3e 1d 8c a7 3e
       0.012773609 0.10574461 0.27250087 0.32724085
000390 ff b4 2d be ae 2e e6 bd 2e 82 33 bd d2 83 cc bd
       -0.16963576 -0.11239372 -0.04382532 -0.0998608
0003a0 3d 03 24 3e 08 4b 06 3e 49 f6 9a bb 92 ca 80 be
       0.1601686 0.1311456 -0.0047290665 -0.2515455
0003b0 9e a8 79 be 77 cf 50 3e 45 30 62 3e b7 db e4 bd
       -0.24380729 0.20391642 0.22088726 -0.1117472
0003c0 25 15 b5 3d 1f de 95 bc f6 24 83 be 3d 8e 22 bc
       0.088419236 -0.018294392 -0.25614136 -0.009921608
0003d0 bf 5f 00 be 6e 0f 13 be 26 9a 30 bd 12 b3 c2 3e
       -0.12536524 -0.14361355 -0.043115757 0.38027245
0003e0 43 fc 8f be 2a b9 fb be a1 11 43 3e 75 da 78 be
       -0.28122148 -0.49164706 0.19049694 -0.24302085
0003f0 a6 9c b3 3d d9 52 5b be b1 8b 82 bd ef 2f ab bc
       0.08770113 -0.21418323 -0.063743 -0.02089688

conv1.bias f4 [16]
000000 2a 39 a5 bb 3d bd 89 3e 64 5d 4c 3e aa 8e 39 be
       -0.005042215 0.2690219 0.199575 -0.18120828
000010 47 c1 6a 3b 84 e0 59 3e a9 b3 09 3e 44 4f 57 3d
       0.0035820769 0.21277052 0.13447441 0.052565828
000020 f4 7b 4c 3d 5b 32 ec 3d e0 49 5f be 1d 28 36 3e
       0.0499229 0.11533042 -0.21805525 0.1778874
000030 d2 f3 27 3d e2 da fe 3c 90 c4 55 bb e2 ba 15 3e
       0.04100401 0.03111023 -0.003261838 0.14622071

conv2.weight f4 [32, 16, 3, 3]
000000 3f 88 57 bd 08 c4 e2 3b 1b c2 ec bd 33 21 b8 3c
       -0.05262017 0.0069203414 -0.1156046 0.022476768
000010 33 7c d5 3d fd 1e 67 bd f4 fd 7e bd 2c 8e a9 bc
       0.1042408 -0.056426037 -0.062253907 -0.020697676
000020 35 0e 06 bd d4 c2 14 3e b2 a0 67 3c f6 7c 1b 3d
       -0.032728393 0.14527446 0.014137434 0.03796097
000030 51 88 11 be 2c 57 d5 3c 09 6e 02 3e a3 f1 04 3e
       -0.14212157 0.026042543 0.12737288 0.12982802
000040 fb 27 60 3e 59 11 49 3c 31 11 a0 bd 0c 48 38 3d
       0.21890251 0.012272202 -0.07815779 0.044990584
000050 7a d5 db bd 7a 81 f5 bd 59 9e dc 3d db da fc bd
       -0.10734077 -0.11987586 0.1077239 -0.12346431
000060 96 4c 3d bd 23 ab 40 bd 7d f4 d3 bd 58 63 1d bd
       -0.046215616 -0.04703821 -0.10349367 -0.03842482
000070 87 cf 9e bc d0 7c 80 bc 8d 79 14 be 13 9d e0 bd
       -0.019386066 -0.015684515 -0.14499493 -0.109674595
000080 52 79 e6 3c 54 c6 63 3d f4 bc 4f bd b6 7a 92 bc
       0.028134022 0.055609062 -0.05071731 -0.017880779
000090 c5 31 75 bd ce a6 74 3c de cf 1f 3e a4 ed 15 be
       -0.059861917 0.014932347 0.15606639 -0.14641434
0000a0 dc 99 25 3e fe 2d b0 3d bb 46 96 bd 57 55 80 3d
       0.16171974 0.08602522 -0.073377095 0.06266277
0000b0 95 72 be 3c fd 25 0f be f5 5c 1c be 9d f8 22 be
       0.023247996 -0.13979335 -0.15269835 -0.15915151
0000c0 8f fd db 3d f6 e8 fb bc 86 f5 f6 bd 22 c7 b2 3c
       0.10741722 -0.030750733 -0.12058549 0.02182347
0000d0 4f 54 81 be 13 97 10 be 3a e2 ec bc 79 58 a8 be
       -0.25259635 -0.1412013 -0.028916467 -0.3288
0000e0 3b 22 5d bc 86 96 a3 be 15 3b d3 be 9f a8 9d 3b
       -0.013496931 -0.31950778 -0.41256014 0.004811361
0000f0 2c 82 bf 3d d1 da 80 3d 10 f4 61 3d cf c3 ad bd
       0.09351 0.06291736 0.055164397 -0.08484613
000100 c0 a4 6d 3d 8b 89 1b 3e e5 82 46 3c a8 34 35 3e
       0.058018446 0.15189187 0.012116169 0.17695868
000110 a3 0e f9 bb 28 19 8b be 56 2d 29 bd 15 45 76 be
       -0.007600622 -0.2716763 -0.041303 -0.2404979
000120 81 38 85 be 91 b0 b6 be ab 80 2d bf 2f 18 cd bc
       -0.26019672 -0.35681584 -0.67774457 -0.025035946
000130 4c 20 27 be da 03 a9 be ea 68 b5 be 51 8c dc be
       -0.16320914 -0.3301075 -0.35431606 -0.43075803
000140 4b a7 84 be 5f 93 3e 3d a4 6a 3b ba 32 1c 91 ba
       -0.25908884 0.046527263 -0.00071493746 -0.0011071025
000150 38 2e a8 bd e4 20 d0 bd c7 aa 2e bd 5d b6 50 bd
       -0.082119405 -0.101625234 -0.042643335 -0.050955165
000160 e3 05 7c 3d ec 93 80 bc 6e eb 14 3e 46 01 80 bd
       0.06152905 -0.015695535 0.14542934 -0.06250243
000170 e5 26 e6 bc 3e 5d b3 bd d9 37 37 bd e0 80 df bd
       -0.028094718 -0.08758019 -0.044730995 -0.10913253
000180 29 b3 d6 3c e4 3b 2c bc 62 91 be 3d ef 19 e1 bc
       0.026208477 -0.010512326 0.09305073 -0.027478186
000190 be df 3b 3e 1e aa 04 3d e6 e7 9c be 8f d1 52 3e
       0.1834707 0.0323888 -0.30645674 0.20587753
0001a0 c0 f3 8c bd 1f 87 e8 bd 9a bc 82 3d ed 75 64 be
       -0.06882429 -0.11353897 0.06383629 -0.2231061
0001b0 23 18 7b 3d ea c3 d8 3d 68 11 da 3d 76 38 52 be
       0.061302315 0.10584243 0.10647851 -0.2052935
0001c0 84 bf 25 3e 58 79 e0 3d c0 75 f4 3d b9 b0 04 bd
       0.16186339 0.109606445 0.119365215 -0.0323951
0001d0 b8 9d 1d 3e 35 8f da bc 2a cb de 3d 92 64 2a 3e
       0.15392196 -0.026679615 0.10878594 0.16639927
0001e0 1c 68 02 3e ab 75 40 be 7e fe 30 3e 95 56 21 be
       0.12735027 -0.18794887 0.17284581 -0.15755685
0001f0 1d 04 bb bd 51 52 75 bc 6f 99 c2 bd 7e bd a3 be
       -0.09131644 -0.014973239 -0.095019214 -0.3198051
000200 e4 04 87 be 3d b4 86 3a cf 9b e5 bd be 94 8c be
       -0.2637092 0.0010277104 -0.11211359 -0.2745723
000210 49 6c 53 bb 86 96 3f bd 1b 00 1b be 2f d2 57 bd
       -0.0032260588 -0.04677441 -0.15136759 -0.05269068
000220 13 15 69 be 4f f8 04 be 8a 85 47 3e 05 dd 87 3d
       -0.22761945 -0.12985347 0.19484535 0.06633953
000230 b7 94 f2 bd c2 ac 05 3e 4f a5 91 bd e0 15 ea bc
       -0.11844771 0.13054183 -0.07111608 -0.028574884
000240 c6 e6 8f 3c bc 19 5a 3d ae d4 92 bc 67 1f cb bc
       0.017566096 0.0532472 -0.01792368 -0.024795247
000250 ea e2 2f 3d 78 66 0e 3d 50 68 12 3d ea 22 8f bd
       0.04294101 0.03476569 0.03574401 -0.06989081
000260 23 99 2c 3d 6d 43 c3 3d ed 0e d0 3c 60 76 06 3e
       0.04213823 0.09534345 0.025397742 0.13131094
000270 55 a7 cd 3d cb ae b5 3d 08 ad ad 3d 26 2f 30 3e
       0.10041682 0.0887123 0.08480269 0.17205486
000280 5f 30 4b 3e 48 dd ea 3d 73 87 56 3c dd 79 79 bd
       0.19842671 0.11467987 0.013093817 -0.060907234
000290 2f 37 61 3d b8 aa da bd 4a 99 48 3c 56 dc c2 3d
       0.054984268 -0.10677093 0.012243578 0.09514682
0002a0 6c 73 a1 ba 40 23 0e be fc a3 c9 bd 11 8e b6 bb
       -0.0012317724 -0.13880634 -0.09845731 -0.005571135
0002b0 74 cf 5a bd eb c6 89 bd aa 50 ee bc 5c bd 28 be
       -0.0534205 -0.06727394 -0.029091198 -0.16478485
0002c0 f5 06 9c bd 57 4e 47 3d 3e d5 ac bd 5d d5 8e bd
       -0.076185144 0.048658695 -0.0843911 -0.069742896
0002d0 33 51 3d 3d ce 99 f7 3c 4d cc 4c 3e 0f 66 c9 bc
       0.046220016 0.030224707 0.1999981 -0.024584798
0002e0 f6 f8 d6 bb 90 9b 4a 3d c6 84 82 3d d9 e6 3f 3c
       -0.00656044 0.049464762 0.06372981 0.011712753
0002f0 31 3d f5 3d 39 1d 22 3d 9b ea 4e 3c d9 42 09 3e
       0.11974562 0.03957865 0.0126291765 0.13404407
000300 1c 81 5a 3c b4 50 25 bd 62 b4 64 bd 9b 4d f8 bc
       0.013336446 -0.040360168 -0.05583609 -0.030310443
000310 a3 57 56 3d 0f b3 91 3d 45 d8 61 be 27 70 9b be
       0.05232967 0.07114231 -0.22055157 -0.30359003
000320 91 53 cb bd 04 6e 52 be 47 28 a2 be ed 2f 60 be
       -0.099280484 -0.2054978 -0.31671354 -0.21893282
000330 5f a2 4c be b2 3b 2b be 9e e1 ce bd df bc 3d 3d
       -0.19983815 -0.1672199 -0.10101627 0.0463227
000340 de d5 2e bd a5 52 80 bc da bf a7 3c bf d0 5a 3c
       -0.04268443 -0.015664408 0.020477224 0.013355433
000350 77 66 d4 3a 39 05 d4 3b ef c6 fa 3d fe 80 a0 bd
       0.0016204853 0.006470349 0.12244975 -0.07837103
000360 8d 92 a1 3c e1 f7 b5 3c 66 e5 0a 3e 2f 81 f8 3d
       0.019723201 0.022212924 0.13564071 0.12134015
000370 07 55 d4 bd 41 b4 f1 3d 7e 6e 57 3e 6d fe f8 bc
       -0.1036778 0.11801959 0.21038243 -0.030394757
000380 1c bc 18 3e b2 cc 2a be 07 0a 41 be ce 53 bd bc
       0.14915508 -0.16679648 -0.18851481 -0.02311125
000390 82 59 1b be 16 7f 74 be 13 25 8f be 0f a3 d3 bd
       -0.15170863 -0.23876604 -0.27957973 -0.10333835
0003a0 ad 4e a9 bd 95 c3 49 be 4c 67 f1 3c 36 c4 00 bd
       -0.08266959 -0.19703515 0.029468201 -0.03143712
0003b0 70 a9 73 bc 15 3e 00 be a8 53 25 be 03 7a 07 3d
       -0.01487194 -0.12523682 -0.16145194 0.033075344
0003c0 0e dd 8e bd f8 6e 5f bd 61 31 ab 3c 64 14 6b 3d
       -0.069757566 -0.054549187 0.02089757 0.057392493
0003d0 de 5b 9f 3a cf c2 7b 3d 3d a3 1e bd d1 30 2e 3d
       0.0012158116 0.06146508 -0.038729895 0.042527024
0003e0 a9 42 8d 3d 5c b9 ec 3c 67 38 0e bd 52 4c 85 3d
       0.0689748 0.02889698 -0.03472176 0.065086976
0003f0 65 f4 fa 3d 85 8a aa 3d 87 d9 bf 3c f3 5e 64 3c
       0.12253646 0.08327202 0.023419155 0.013938653

conv2.bias f4 [32]
000000 ad 1c 9d 3d 35 e3 56 3e c1 d2 2d 3d 96 96 b2 be
       0.07671485 0.2098511 0.04243732 -0.34880513
000010 6e 04 b3 bd 63 c9 83 bd f3 7b 88 3d 33 9b 92 3a
       -0.08741079 -0.06434896 0.066642664 0.0011185169
000020 81 59 a5 3c 19 03 1e be 6a b9 b8 bc 22 35 a9 be
       0.02018428 -0.15430869 -0.02254935 -0.3304835
000030 0a cb 27 bd 95 30 ba bd f2 43 bb 3d 4c 99 1e 3d
       -0.040965118 -0.090912975 0.09143819 0.038720414
000040 9b 09 a4 bd ba 6f 01 3d dc ae 9d bd 67 2b 97 3d
       -0.080096446 0.03160069 -0.076993674 0.07381325
000050 88 8d 8d 3c 6c 60 2c bd 98 99 ad 3c 0b cf 77 bd
       0.017279401 -0.042084143 0.021191403 -0.060500186
000060 9b 0a 92 bc 61 5d c1 bd 18 3b 0c 3d 4c 57 26 be
       -0.017827323 -0.09441639 0.034236044 -0.16244239
000070 28 f4 11 3d af ba c7 be c0 30 ce 3d 9f 3e 90 be
       0.035633236 -0.39009616 0.10067892 -0.28172776

conv3.weight f4 [64, 32, 3, 3]
000000 7f 8a 7a 3d b9 45 af 3d 24 86 86 3d b7 4d 5a 3e
       0.061167236 0.085582204 0.06568554 0.21318708
000010 5f 53 08 be a0 86 82 bb 9f d0 c7 3c 4a 3b 34 3d
       -0.13313054 -0.0039833337 0.02439147 0.044001855
000020 f2 cf 30 bd 26 08 e6 3c 63 07 16 3e d0 57 85 3c
       -0.043167062 0.028080057 0.14651255 0.016277224
000030 2d 47 48 bd f8 2c 53 bd 8d cc f1 bd 77 65 83 3a
       -0.048896004 -0.051556557 -0.11806593 0.0010024746
000040 3e 2c a1 bc d4 e5 90 3c d7 24 3a bd 14 5f c4 3d
       -0.019674417 0.017687716 -0.04544529 0.09588447
000050 eb f0 33 bd 6d 41 b7 bc b6 65 f8 bd b2 b4 75 3d
       -0.04393093 -0.022370065 -0.12128775 0.059986778
000060 6d d9 b7 bc 0b 5c c6 bc a3 b5 b8 3c 20 ba 2c bc
       -0.022442544 -0.024213811 0.022547549 -0.0105424225
000070 f0 8c 40 bd f9 3e 1d 3d 0d 4f c5 3d 2c 1e ef bb
       -0.04700941 0.038390134 0.09634218 -0.007297298
000080 df db 57 3d bc 58 ab 3c 51 c7 98 3c b2 4c 2f bb
       0.05269992 0.020916335 0.018649729 -0.0026748595
000090 da 11 81 3c 08 ad 3a bd 7e 3c 00 3d 93 96 38 bd
       0.015755583 -0.04557517 0.03130769 -0.045065474
0000a0 3f 4b ae 3c 79 c2 72 bc 9a 13 0d bd 58 d1 4d 3d
       0.021276115 -0.014816874 -0.03444252 0.050248474
0000b0 88 89 4e 3d e0 f3 5c 3c b9 9d 88 3c ec 81 19 bd
       0.05042413 0.013485879 0.01667677 -0.03747742
0000c0 b3 1f 13 be 1c 0d 06 3e 10 f9 44 3d 9d 8f 66 bd
       -0.14367561 0.13090938 0.048089087 -0.056289304
0000d0 30 13 74 bd bb ca b9 bb f4 18 96 3e 91 ca 0c 3e
       -0.05958861 -0.0056699193 0.29315913 0.13749148
0000e0 3b ba 18 3d 20 77 ba 3e 9a a1 01 3e ab 32 28 3e
       0.03728698 0.3641901 0.12659302 0.16425578
0000f0 8c ea 16 3e 57 b5 92 3d a9 4c b1 3d ff 54 d1 3c
       0.1473791 0.07163494 0.086572 0.025553225
000100 d3 3c 79 3d c8 80 d0 3d cf 5f 42 bd 9a fc 49 3e
       0.060849022 0.10180813 -0.04745465 0.19725266
000110 ca e6 c4 3c 3d b0 1d be 1f ff 0e be 18 f2 b3 3d
       0.02403583 -0.15399261 -0.13964508 0.0878641
000120 f1 77 be 3d 35 93 6a bd de 26 0a be 5e e5 80 3c
       0.09300221 -0.057269294 -0.13491389 0.01573437
000130 5f 8a 8c bc ca d6 3b be 30 be 40 3c 07 6c 76 bd
       -0.017155824 -0.18343654 0.011764094 -0.060161617
000140 dd 53 b5 bd 8d 90 1a bd f6 13 43 bd 0a a1 11 3d
       -0.08853886 -0.03773551 -0.047626458 0.03555397
000150 85 a8 9c bd 8d af b8 3d dd 06 a8 3d e0 7c c7 3d
       -0.0764933 0.09017859 0.08204434 0.09740615
000160 f5 58 cb 3d ed 59 a8 3d a8 06 53 bc 96 45 4c bd
       0.099290766 0.08220277 -0.012880005 -0.04987105
000170 bf 9f 94 3d 78 c7 90 3d ce 30 50 bd 0f 99 51 bd
       0.07257032 0.07069296 -0.050827794 -0.05117136
000180 83 f2 39 bb 0e bf b3 bd 26 48 a4 bd 54 67 bd 3c
       -0.0028373308 -0.08776675 -0.08021574 0.02312056
000190 72 9f 5b bc 65 26 4a bd 00 53 b8 3d 0a 03 b3 bd
       -0.013404714 -0.049353022 0.09000206 -0.08740814
0001a0 9a 4b 1c 3d 39 b5 04 3d 63 cb 3a bd ed dc 85 3c
       0.038158037 0.03239939 -0.04560412 0.016340697
0001b0 64 e3 87 bd dd 7f 24 3e f3 27 84 3d 5e e5 fc bd
       -0.06635168 0.16064401 0.06452932 -0.12348436
0001c0 6f 88 58 bd 7d ee 7e 3d 43 97 00 be cd df a1 3d
       -0.05286449 0.06223916 -0.12557702 0.07904015
0001d0 bd ff 7e bc d7 11 6b bd e3 03 99 bc 25 3b 9c 3c
       -0.015563902 -0.05739006 -0.018678611 0.019071171
0001e0 66 e6 07 bd 11 34 0a be 10 46 f6 3c dd da ce 3c
       -0.03317871 -0.13496424 0.030062705 0.025250847
0001f0 dd 1d 8e bc d3 ab 24 bd 4c 85 a6 3d 7e 90 ec bc
       -0.017348224 -0.040202927 0.08130893 -0.028877493
000200 87 aa cb bd ba c8 79 3c 3b 63 d9 bd 3d c2 24 be
       -0.09944635 0.015245611 -0.1061463 -0.16089721
000210 1b 3c 45 bb 61 2b 20 bd a8 0d d1 3c c2 06 83 3e
       -0.003009564 -0.03910387 0.025519207 0.25591093
000220 09 c1 e1 3d a5 ca 9d bd c5 b9 58 bd 4f 68 99 bd
       0.11023147 -0.07704667 -0.05291154 -0.074905984
000230 fc 0a dc bd 7c e9 a7 3d 3e e7 7f 3d 67 10 0a bd
       -0.107442826 0.081988305 0.06247639 -0.03370705
000240 25 ec 08 be 3e 47 a4 bd fa 64 54 3c ab 06 7b bd
       -0.13371332 -0.08021401 0.012963528 -0.061285656
000250 5d 1f 94 bd ec 02 bd 3c 2b 52 24 bd c4 fc 7b bc
       -0.072325446 0.023072682 -0.040117424 -0.015380088
000260 a2 7c e9 3b 6b 2b 79 bd ee 75 ac bd 32 2c 18 bd
       0.007125453 -0.060832422 -0.08420931 -0.037151523
000270 e1 35 59 3c cd 68 4d bd 8d ff 71 3c a9 f9 8b bd
       0.013257475 -0.050148774 0.014770401 -0.06834728
000280 5c a8 cf 3c d4 56 0c bd ec 3b 8e bd 5e 7a 22 bd
       0.025348835 -0.034262493 -0.06945023 -0.03966748
000290 d2 8c ee 3d 33 d8 34 3e 65 74 19 bd 09 2d be 3c
       0.11647953 0.17660598 -0.037464518 0.023214834
0002a0 4d af 83 bc 94 cc 17 bd c1 b9 ea 3b e3 bf 8f 3d
       -0.0160748 -0.037060335 0.007163257 0.07019021
0002b0 e5 ca eb bd 20 e9 8d 3d 10 1e 44 be c1 a5 22 be
       -0.115133084 0.06929231 -0.19152093 -0.15883543
0002c0 d5 61 b1 3d 12 1b 89 bd da 13 b1 3c 2e 84 c8 3c
       0.08661238 -0.066946164 0.021615911 0.02447709
0002d0 cd e8 e2 3c f8 ed aa 3d 65 eb 6c 3d 72 ff b1 3c
       0.027698899 0.0834617 0.057841677 0.021728251
0002e0 1f 2c 01 3e c3 40 b2 3c f6 04 d6 bc 62 8c d8 3c
       0.12614487 0.021759396 -0.026125412 0.026434127
0002f0 6b 83 a7 bb 71 7d 26 bd 2b 5f ce 3b d5 ef 2d 3d
       -0.005112102 -0.040646974 0.006297966 0.04246505
000300 3d 4d 6b 3c 9d b0 70 bc ed 1b 22 3d a7 f5 fe 3c
       0.014361677 -0.014690545 0.039577413 0.031122996
000310 88 c4 60 3c 95 bc 4c bd 30 b9 24 bd d4 63 66 3d
       0.013718732 -0.049984533 -0.04021567 0.056247547
000320 37 62 63 3d b5 2b 4f 3c 03 97 fb bc c7 06 42 bc
       0.055513587 0.012644698 -0.030711656 -0.011842436
000330 ee 0e c7 3c 59 55 43 bd 7e 69 96 3b 5c f3 2e 3d
       0.024299111 -0.047688816 0.0045902124 0.042712554
000340 26 28 9e bd 9f 69 db 3b 25 b8 08 bd 7c 80 61 bd
       -0.077225015 0.0066959406 -0.03337874 -0.055054173
000350 aa a1 56 3b 96 65 9c bd 3c ff 17 bd a6 5f 31 3d
       0.0032750168 -0.076365635 -0.037108645 0.043304108
000360 68 b5 b3 3d 36 4c 19 bc fe 2e ab 3d 2e b2 ac 3d
       0.08774835 -0.009356549 0.083585724 0.084324226
000370 c5 bf c9 bd b2 6f e1 bc 55 64 79 3d 9b 43 28 bd
       -0.0985103 -0.02751908 0.0608867 -0.0410801
000380 b0 ce 44 3d b6 3b 4a 3a 01 9e 74 3d 5d 62 cb ba
       0.048048675 0.0007714586 0.059720997 -0.0015516985
000390 31 ed 33 bd 2d c8 eb bc ac 25 34 bd 13 b5 87 3d
       -0.043927375 -0.028781975 -0.04398124 0.06626334
0003a0 58 06 ba 3c 5a c8 f6 3c 07 33 a5 3e 00 f5 ce bb
       0.022708103 0.030124832 0.32265493 -0.0063158274
0003b0 96 78 9f bd 16 28 7f bd 40 4e 96 be f8 1e 75 be
       -0.07786672 -0.06229409 -0.29356575 -0.23937595
0003c0 39 14 0d 3d c5 9a c3 be 77 be fe bd 44 76 af bc
       0.034443114 -0.38204017 -0.12438672 -0.021418698
0003d0 ca ab 46 bd bd 6c 20 bb 52 78 f8 3c 59 ac be bb
       -0.048503675 -0.0024478876 0.03033081 -0.0058188853
0003e0 7e b2 0b 3d 1c d4 4d 39 bc a3 95 3d b4 ad c0 3d
       0.03410577 0.0001962934 0.073066205 0.09408131
0003f0 b8 a8 16 3e f8 b8 02 3d 28 e2 8b 3d 1b af 4b bd
       0.14712799 0.03191468 0.06830245 -0.04972754

conv3.bias f4 [64]
000000 a7 96 01 3e c8 9c 0e 3e 76 1c 8c 3d 3c d4 ca be
       0.12655126 0.13926995 0.06841366 -0.39615047
000010 f1 a1 8e 3d 5b f9 7a 3d b3 e5 b7 3d 43 ac 4e 3d
       0.069644816 0.06127296 0.089793585 0.05045725
000020 e3 e8 e8 bd 6e 72 1b bd 9c e8 52 3c b1 26 a6 bd
       -0.113725446 -0.037950926 0.012872841 -0.081128486
000030 9e 91 c8 bd ce 99 7f bd 95 5d 92 3d 36 e0 0b 3e
       -0.09793399 -0.06240254 0.071467556 0.13659748
000040 c8 ab 0d 3e 5b 74 b5 bd eb c5 0c 3e 31 eb 3f 3d
       0.1383506 -0.08860084 0.13747375 0.046855155
000050 07 1e a2 bd 1a 4b 9e bc 02 0a d5 3e 79 4b a6 3d
       -0.079158835 -0.01932292 0.41609198 0.08119864
000060 bb 28 33 3d 0e ed c9 3d c2 c0 04 be 0b 45 bc bd
       0.043740015 0.09859668 -0.12964156 -0.091928564
000070 ec a7 a1 be 68 0f b7 be b4 c4 df bd 69 ca e5 bd
       -0.31573427 -0.35753942 -0.1092619 -0.11220247
000080 2a 75 63 3d d3 a4 c5 3d 78 9d ca 3d b8 0c af 3e
       0.05553166 0.09650578 0.09893316 0.3418939
000090 39 f0 b9 3d df ce e3 bd 92 0b 40 be ef 7f 93 bd
       0.09079022 -0.11123442 -0.18754414 -0.07202136
0000a0 3a bf 43 3e e9 b4 1e be 06 ba 4d be bc 20 90 3d
       0.19115916 -0.15498699 -0.20090494 0.070374936
0000b0 b9 41 cb 3d 3e 59 cd 3d 66 13 f7 bd 71 a4 d7 bd
       0.09924645 0.10026787 -0.12064247 -0.105294116
0000c0 ec 0b 8f 3c bf b3 2d bd 1e 50 0a be 19 72 f5 3c
       0.01746174 -0.042407747 -0.13507125 0.029961633
0000d0 a8 c1 6e 3d a4 d5 9b bd 91 38 f5 bb a9 7f 01 be
       0.058290154 -0.07609108 -0.00748355 -0.12646355
0000e0 e3 99 be bd 30 d2 4c 3d fb 7d 68 bd 7f 08 cb bb
       -0.09306695 0.050005138 -0.05676077 -0.006196081
0000f0 12 75 b3 bd 62 28 86 3d 7f 04 2e bd 7d 02 d7 3b
       -0.08762564 0.06550671 -0.042484757 0.006561576

up1.weight f4 [64, 32, 3, 3]
000000 07 6b 9a 3c f6 ff 95 bc 58 76 af bd e8 aa 5c bd
       0.018849863 -0.018310528 -0.08567494 -0.053873926
000010 c6 e6 12 3d 75 0e fd bc e2 cd 34 bd 5e 8a 61 3d
       0.035864614 -0.030890683 -0.044141658 0.055063598
000020 43 ee 80 bd 5a 4f a9 3c 27 50 52 3d 01 c5 b1 3a
       -0.06295445 0.02066772 0.05134597 0.001356274
000030 57 bd 23 3d 5a 4a 8a 3d 4c 14 86 3d 57 73 46 bd
       0.03997549 0.06752463 0.0654684 -0.04844984
000040 1c aa 22 3d 2c 55 2c ba 3d 92 18 bd d7 69 4a 3c
       0.03971301 -0.0006573971 -0.03724884 0.012354336
000050 c6 3c 30 bc 21 09 ff 3c 9c 30 cd 3c 81 4b 37 3d
       -0.010756677 0.031132283 0.025047593 0.04474974
000060 69 e1 5d bd b3 c1 5d 3d 52 eb 18 3d 4d f1 e0 bc
       -0.054170046 0.054139804 0.037333794 -0.027458811
000070 65 61 b0 3c 7b 1b d7 bb 56 a1 03 bc 29 d4 33 3d
       0.021530816 -0.006564555 -0.008034071 0.043903504
000080 68 0b 7c bb 41 e4 c2 bc 65 50 86 3d de d9 55 3c
       -0.0038458947 -0.02379048 0.06558303 0.013052432
000090 f0 d8 8a bd dc ee 0a 3e ed 62 78 3d d2 4a d1 bd
       -0.06779659 0.1356768 0.060641218 -0.10219349
0000a0 ef 81 f3 bc b9 f1 40 bd f9 a4 94 bd fd 35 5a 3c
       -0.029725043 -0.047105525 -0.072580285 0.013318536
0000b0 4d f5 0b 3e 88 68 e2 3c 36 b9 f8 3c 6d 85 35 3d
       0.13667794 0.027637735 0.030361753 0.044316698
0000c0 fe f7 ad bc 55 47 94 bc 28 21 9b 3b fa 38 cb bc
       -0.021236416 -0.01810042 0.004734177 -0.024807442
0000d0 71 05 5d bc cc fd 26 be 93 fe 12 3d d4 d7 67 3d
       -0.013490067 -0.16307753 0.035887312 0.056602314
0000e0 b6 a2 f4 3d a4 96 ae 3c 80 a6 e2 3d ed 6a f0 3d
       0.11945097 0.021312065 0.110669136 0.117391445
0000f0 ce c6 88 bd 2f f4 0c be 85 43 ad bb 63 c1 d4 3a
       -0.06678544 -0.13765024 -0.00528759 0.001623195
000100 6e 9e f3 bb dd 53 13 3d b5 b7 8c bd 36 bd ea bc
       -0.007434658 0.03596865 -0.06870977 -0.028654676
000110 2f fc 3e 3e 1e 32 ac bd fe ee 7d 3d 9c 76 a9 3d
       0.18650888 -0.084079966 0.0619955 0.08274576
000120 f9 21 55 bd dd 43 9f 3d 39 7f 10 3e a0 c6 8c bc
       -0.052034352 0.07776616 0.14111032 -0.017184556
000130 f5 6d a8 3d 3e 95 dc 3d dd 72 dd bc 62 69 95 bd
       0.08224098 0.10770653 -0.02703231 -0.07295491
000140 d8 a2 26 3d 44 9e b7 3d 4c ce 88 3d c4 b0 43 3d
       0.040682644 0.08965734 0.06679973 0.047776
000150 29 ff b6 bd 38 f6 ee bd 2e 18 8a bd b7 ed 1a 3c
       -0.08935387 -0.11668056 -0.06742893 0.00945609
000160 8b 33 b8 bc ba a5 34 bd 96 16 82 bd 5d b9 e6 3c
       -0.022485515 -0.04410336 -0.06351964 0.02816456
000170 1d df b1 bd 4c 0b 28 be 2e fc e6 bc 51 d4 1c 3d
       -0.086851336 -0.1641056 -0.02819642 0.03828842
000180 54 d5 61 bd 1c 63 c1 bc 7b 43 0d 3d 2d df bd bd
       -0.055135086 -0.02360683 0.034488183 -0.09271083
000190 4c 6f 38 3d 43 7c 53 3d c2 a5 07 be 11 6f 8a bc
       0.045028016 0.051632177 -0.13246825 -0.016898664
0001a0 34 ab ec 3d 8e 9d af bc 4f 9a 35 3e 55 a6 2a 3e
       0.11556092 -0.021437433 0.17734645 0.16665013
0001b0 e0 ac 8e 3d 0f 9a b6 bc 0e b9 d5 3c 45 68 4a bd
       0.06966567 -0.022290258 0.026089218 -0.049415845
0001c0 23 46 1e 3d 9e cc a6 bc d6 69 b4 bb 74 67 eb bd
       0.038641106 -0.020361241 -0.0055057807 -0.114943415
0001d0 1f c9 4d be d8 68 0d 3d 1d 0e 7f 3d b8 09 a7 bb
       -0.20096253 0.034523815 0.06226932 -0.005097594
0001e0 50 2d bf 3a 15 18 18 bd 69 54 5f bd 44 30 0a be
       0.0014585648 -0.03713234 -0.05452386 -0.13494974
0001f0 3b 6d ee 3d af db a5 3d e1 02 4a bd 8b 54 0a bd
       0.11641928 0.08098542 -0.04931915 -0.033772033
000200 5d 3c a0 bd 4e 7a bc bd 0a 22 a7 3c fd 75 05 3d
       -0.078240134 -0.09203015 0.020401973 0.032583226
000210 e4 dc 48 bc f3 50 58 3d 7d ab 04 bd b1 28 33 3e
       -0.012259696 0.052811574 -0.032390106 0.17495991
000220 7a 30 62 3d f1 76 b5 bc 29 30 a3 3d b5 7e 68 3d
       0.055222012 -0.022151442 0.0796817 0.056761462
000230 2b d9 67 bd 91 5a 61 3d 56 7b 9d bd b6 06 90 bd
       -0.056603592 0.05501801 -0.0768954 -0.0703253
000240 47 11 0b 3d 66 17 f1 3d 13 b1 3b 3d 77 5a 94 bd
       0.033952024 0.11772041 0.045823168 -0.07243817
000250 2f b5 aa 3d 81 6d 60 bd 73 ad 44 bd ec 1c 08 be
       0.08335339 -0.05479193 -0.048016977 -0.13292283
000260 fc 21 5a bd 42 16 18 bc eb c1 57 3c 46 35 8c 3d
       -0.053255066 -0.00928265 0.013168792 0.068460986
000270 1e 59 63 3d 4f 0b c9 bd 3f 91 78 3c e6 5e 16 be
       0.05550491 -0.0981661 0.015171348 -0.14684638
000280 1e 2b 29 3d a1 69 8b 3d 8d 08 e9 bd 83 dc 16 bd
       0.041300885 0.068072565 -0.11378584 -0.03683139
000290 73 2a 3e 3b 23 b3 0b bd 43 c4 91 bc bf d5 b0 3d
       0.0029017 -0.034106385 -0.01779378 0.08634519
0002a0 b8 60 38 bd 63 0c 4a 3d b0 5a 3c 3d 0c 25 d1 3d
       -0.045014113 0.04932822 0.045984924 0.10212144
0002b0 3a 47 04 3d 5b 9b 21 bc c8 5e 62 3d fc 58 45 3d
       0.03229449 -0.0098637 0.05526617 0.048180565
0002c0 c0 2e 8b 3b 1d f6 6a bd db 55 78 3c a9 73 95 3d
       0.0042475164 -0.05736362 0.015157188 0.07297451
0002d0 77 10 81 bb 33 4c fe 3b 4e 70 dd 3c 7b dd 90 bc
       -0.0039387303 0.0077605485 0.02703109 -0.017683735
0002e0 83 38 9e bc 98 b4 86 3d 04 bf 9e 3a 30 7c 7f 3c
       -0.019314056 0.06577414 0.001211137 0.015593573
0002f0 b4 f6 48 3d 67 41 88 bd 1e cb ae bb 0c da 1c 3d
       0.0490634 -0.066530995 -0.005334272 0.038293883
000300 a2 a7 1a 3d 4c 26 98 3d 0d 96 03 3e 10 42 99 3c
       0.037757523 0.074291795 0.12850209 0.018708259
000310 a5 a2 4d 3c f5 f0 05 3e c7 8a 33 bd 34 26 8a 3c
       0.0125509845 0.13080199 -0.04383352 0.01686392
000320 ce 08 a4 bd 65 86 83 bc 0b 8e 14 bd a9 08 b9 3a
       -0.08009492 -0.016055295 -0.036268275 0.0014116961
000330 7a c4 59 3d 65 d3 54 bd 4d cf 54 3d c4 14 49 bd
       0.05316589 -0.051959414 0.05195551 -0.04909207
000340 ae 3d 02 3d 30 68 02 3e 56 29 99 bd 44 05 01 bd
       0.031797104 0.12735057 -0.07478587 -0.031499162
000350 9a b5 30 3e fb f9 9d bd 1f 03 9c 3d f5 50 7e 3d
       0.17256775 -0.077136956 0.07617783 0.062088925
000360 6b 1e b7 3c d3 32 19 bd 88 f2 4c bc 7f ed 0b 3e
       0.022353372 -0.037401985 -0.012508996 0.13664816
000370 8c ea 72 bd 5b 2f f7 bc ab 3c aa 3d ef e5 a3 3b
       -0.059305713 -0.030173948 0.08312353 0.0050017755
000380 6d 4a 3e be 2e ef 2c bd f3 75 90 bc 37 f1 5f bd
       -0.18583079 -0.042220287 -0.017634368 -0.0546734
000390 31 13 68 3d 0e 20 82 3c 11 9f 12 bd dc 69 99 3c
       0.056658927 0.015884425 -0.03579623 0.018727235
0003a0 38 a1 b0 3c 33 d2 58 bc a0 3e 70 bd 21 09 c5 3c
       0.02156125 -0.013233709 -0.058653474 0.024052205
0003b0 e9 11 bf bc 52 9b 6f 3d f6 91 38 3d b4 ac a7 bd
       -0.02332397 0.058497734 0.045061074 -0.081872374
0003c0 52 db 26 3b a4 d3 d2 bc 81 35 0e bc cc c7 15 bd
       0.0025460315 -0.025735684 -0.0086797485 -0.036567494
0003d0 d4 53 d3 3c e8 b7 30 bb 04 5d f9 3c 0e 33 84 3d
       0.025796808 -0.0026965085 0.030439861 0.064550504
0003e0 d9 45 e1 bd e1 9c f1 3c d8 39 d9 bd 80 cb 4c 3c
       -0.109996505 0.029493751 -0.10606736 0.01249969
0003f0 53 0c df 3d 62 51 f9 3d 8b c0 49 3d 47 6b 4e bd
       0.108910225 0.12173726 0.04925589 -0.050395276

up1.bias f4 [32]
000000 b4 7d 64 3c 66 57 c1 3a ee 56 21 bd 91 79 88 3e
       0.013945986 0.0014750778 -0.039389543 0.26655248
000010 6c 2b a6 3c 96 b6 9c 3c 9c ad f3 3c a5 cb f4 3d
       0.020284377 0.019130033 0.02974587 0.119529046
000020 c2 80 db b9 e4 bd 5d 3c ed 61 15 bd af f9 c1 bc
       -0.00041866867 0.013534043 -0.036470342 -0.023678629
000030 45 01 84 3c 6e cc 12 bb 24 a6 cd 3d 14 b7 d5 bc
       0.016113887 -0.0022399682 0.100414544 -0.026088275
000040 97 b1 c0 bc 83 c2 dd 3b 30 a5 35 be 85 33 ab 3c
       -0.023522181 0.0067675724 -0.17738795 0.02089859
000050 dc 30 fa 3d 56 e3 1d bb 47 d3 df bc 2b 10 11 bd
       0.122163504 -0.0024091802 -0.027322425 -0.03541581
000060 b1 3b 50 3b d1 9b f2 bb 4a 61 01 3e d2 c1 ff 3d
       0.003177386 -0.0074038287 0.12634769 0.1248814
000070 21 99 62 3c b0 25 92 3d 82 be a2 3e 2d c7 68 3c
       0.013830454 0.071360946 0.3178597 0.014207643

conv4.weight f4 [32, 64, 3, 3]
000000 34 ec 3c 3d 24 36 05 be d7 f0 41 3e 3a 78 57 be
       0.0461237 -0.13008934 0.1893953 -0.21041957
000010 27 15 c8 be 49 c9 d9 bd 05 f8 46 3e 24 8c 03 3e
       -0.39078638 -0.10634095 0.1943055 0.12846428
000020 cd 1d 3f 3e a3 df 18 be 1c ad e9 bd b2 71 18 be
       0.18663712 -0.1492906 -0.11409971 -0.14887121
000030 66 9b 82 be 43 38 c0 bd 49 83 04 be 9a 69 35 be
       -0.25509185 -0.09385731 -0.12940706 -0.17716065
000040 4e 41 7e be 6a b7 7e be eb d0 e6 bd 3c 50 c1 bd
       -0.248296 -0.24874654 -0.11270317 -0.094391316
000050 70 63 3c be 30 5a 0c be 54 29 41 be 7e 54 57 be
       -0.18397307 -0.13706279 -0.18863422 -0.21028325
000060 4d aa 04 be 22 35 6a be cc af 66 be 61 8e 54 ba
       -0.1295559 -0.22871831 -0.22527999 -0.00081083743
000070 8e 5d 7e 3c 5a af b2 bc f4 9b c8 3c 40 35 66 bd
       0.015525235 -0.02181213 0.024488427 -0.056203127
000080 14 98 18 bc 60 63 2f bd 06 47 6a bd db 27 d1 bc
       -0.009313602 -0.04281938 -0.05719664 -0.0255317
000090 a5 94 f7 bb 83 e9 e0 3c 04 be 3c 3c 81 2c e4 bb
       -0.0075555616 0.027455097 0.011519913 -0.006963313
0000a0 88 6c 1c bd 89 29 75 3c 49 e8 be 3c 99 f2 e0 bc
       -0.03818944 0.014963516 0.023304122 -0.02745943
0000b0 83 ad 2c 3c b6 9a 2a bc 09 9c b0 bb 30 72 ea bd
       0.010539415 -0.0104128625 -0.0053896946 -0.11447561
0000c0 c5 c1 07 3e 85 1b 95 3d df a4 cf bd f2 53 16 bd
       0.13257511 0.072806396 -0.101388685 -0.03670115
0000d0 ae e3 82 3b 28 67 19 be b2 4f ab be dd 91 dc be
       0.0039944267 -0.14980757 -0.3345924 -0.43080035
0000e0 57 10 8d be af 4d 3a be 94 61 86 3e fa 48 e4 3d
       -0.2755153 -0.18193696 0.2624632 0.11146732
0000f0 7b 67 7a be d0 3a 61 be 8c 86 a3 bd 3c ac 80 3e
       -0.24453537 -0.21995091 -0.07984647 0.25131404
000100 70 31 d1 3e 42 5c e2 3d c9 79 1c 3f a4 30 56 3f
       0.4085803 0.11052753 0.6112333 0.8366797
000110 d3 3b 87 3e db 97 93 3e 1e 84 97 3e 83 9e 83 3d
       0.2641283 0.28826794 0.29592985 0.06426718
000120 f4 e2 26 3b fa 21 3b 3d 52 20 b8 bc c2 82 a0 bd
       0.0025464864 0.0456867 -0.022476349 -0.0783744
000130 64 33 fa 3c 5d 6f 61 bd 1c 2a 13 be 9b 20 dd bd
       0.030542083 -0.055037845 -0.14371532 -0.107972346
000140 8f 92 05 be 15 c5 30 3d 89 22 12 be e2 d0 b8 3d
       -0.13044189 0.043156702 -0.14270987 0.09024216
000150 92 ca 14 bd bf fa f5 be a8 91 4b be b4 7f 09 3e
       -0.036326 -0.48042867 -0.19879782 0.13427621
000160 fe f1 10 be 12 13 83 3c 88 33 34 be 28 ec ce be
       -0.14154813 0.016000304 -0.17597783 -0.40414548
000170 0a 6e 5e 3d fa 60 71 be 5a cc 90 be 06 fa ee 3d
       0.05430416 -0.2357215 -0.28280908 0.11668782
000180 15 d0 9f bd fb 8c 9e bd bd 8f c6 3e 3f bc 01 bd
       -0.078033604 -0.07741734 0.3878154 -0.031673666
000190 98 95 ed 3b 22 82 f9 3c a4 dd 7e bc 5b 16 14 bd
       0.007250499 0.03045756 -0.015555773 -0.036154132
0001a0 53 90 84 3c 30 6c b8 3c 7b 98 f0 3c c3 54 af 3c
       0.0161821 0.022512525 0.029369583 0.021402722
0001b0 fc 77 aa 3d 4f 92 9e 3d 9b 79 35 be 40 a4 05 3e
       0.083236665 0.0774275 -0.1772217 0.13050938
0001c0 84 1d 36 3e eb 41 b1 bd 71 f8 70 3c eb 28 7e 3d
       0.17784697 -0.08655151 0.014707671 0.06205074
0001d0 22 03 5c bd 32 f6 92 bc 07 6e 07 be 0a 2c 42 3e
       -0.053713925 -0.01793966 -0.13225566 0.18962112
0001e0 27 fa 3e be bb ad c9 be a5 75 05 3e 35 8d 7c 3b
       -0.18650113 -0.39390358 0.13033159 0.0038536314
0001f0 2a b5 c4 bd 48 36 39 3d 50 1d e1 3d 9b 13 eb be
       -0.09604867 0.045217782 0.10991919 -0.45913395
000200 cf dd 96 3e 9a 90 d0 bd 1f f3 37 bf 44 c2 d3 3d
       0.29466102 -0.101838306 -0.7185535 0.103397876
000210 57 fa af 3e c0 aa 10 bd db 96 a5 3e 50 32 b1 bd
       0.34370682 -0.03531909 0.32341656 -0.086521745
000220 c8 a8 0a be e8 bd 35 be 7e 96 f3 bd e5 ec c9 bd
       -0.13540947 -0.17748225 -0.118939385 -0.09859637
000230 ce ee 0d be 56 38 e4 bd b9 45 0b be 94 f4 bc bd
       -0.13860628 -0.11143558 -0.13600816 -0.09226337
000240 b4 b9 50 3e ca 8d a2 3e 35 06 4c bd 8f 9a 5b 3e
       0.2038334 0.317488 -0.049810607 0.21445678
000250 74 a4 8f bd 22 74 99 be d6 f4 45 3d 55 ff 94 be
       -0.07013789 -0.29971415 0.048329197 -0.29101053
000260 c6 ea 47 be ac 96 15 c0 67 af 10 c0 86 79 a3 bf
       -0.19523153 -2.3373213 -2.2607057 -1.2771461
000270 25 e0 d0 bf c2 a1 73 bf bc a7 58 bf 64 6b 81 bf
       -1.6318403 -0.951687 -0.8463094 -1.0110898
000280 ed 1c 93 bf 54 25 c4 bf dd e2 f3 3a e1 9d cc be
       -1.1493202 -1.5323892 0.0018607039 -0.39964202
000290 e3 2a a7 3e 9d 7b 40 be 1b 2c 4b bf 33 f1 b9 bd
       0.32649907 -0.18797155 -0.79364175 -0.09079208
0002a0 96 17 93 3e b8 4d 28 3e fb 4b 28 3e e5 22 2e be
       0.28728932 0.16435897 0.16435234 -0.17005499
0002b0 fe 2f 0e bf fc 4a fa 3d 65 4f 49 be 09 2f 61 bf
       -0.5554198 0.122213334 -0.19659193 -0.87962395
0002c0 86 c9 08 bc c7 b8 9a 3d 68 b2 2e be 9f 3e 0d 3e
       -0.008348828 0.07554775 -0.17060244 0.1379342
0002d0 43 0f 18 3e 2e d3 6c 3d e5 45 9e 3d e2 b1 db 3d
       0.14849572 0.057818584 0.07728175 0.10727288
0002e0 1d d5 2d 3c 9f d8 3c 3d 42 cc ab bd 16 46 14 be
       0.010609892 0.046105023 -0.083885685 -0.1447986
0002f0 63 9f ac bd af 11 7a 3c 8b 0e 66 3c 56 76 c1 3a
       -0.08428838 0.015263005 0.014041553 0.0014759998
000300 fb 74 91 3b 58 55 02 3d db 43 4b 3c e9 12 26 bd
       0.004438994 0.03181967 0.012406315 -0.040545378
000310 9c 87 37 3c 60 0d 95 3b 34 14 90 3d 6c 1b 06 3e
       0.011201765 0.0045487136 0.070351034 0.13096398
000320 f5 18 e6 3e 82 b6 13 bf 3d 33 c6 be 76 b1 a4 3e
       0.44940916 -0.5770036 -0.38710967 0.32166642
000330 31 77 8c be 6b 06 85 bb ed f8 b8 3e cd 8e 2d bf
       -0.27434686 -0.004059603 0.36127415 -0.6779602
000340 7a 94 65 3e 3f 6a 45 3e c9 09 22 3d 5a 7f 6a 3f
       0.2241992 0.19278811 0.039560113 0.91600573
000350 58 29 b4 3e 35 28 37 be 54 72 cf bd 68 4a 91 be
       0.35187793 -0.17886432 -0.10129228 -0.2837708
000360 49 0d 34 3e ae c8 79 3e c4 c1 89 3d ec cb 0e be
       0.17583193 0.2439296 0.06726411 -0.13944978
000370 8e 9d b6 be 89 ff 45 be b5 16 89 3d 90 f1 2c be
       -0.3566708 -0.1933576 0.06693784 -0.16889024
000380 27 2f ac bd 15 1e a5 3b d7 ff 3c bd 8a dd 4d bd
       -0.08407431 0.0050389864 -0.046142425 -0.050260104
000390 2b ed 8b bd ca 9c 57 bd e5 0c 7f bd 5c 40 3f bd
       -0.068323456 -0.05263976 -0.062268157 -0.046692237
0003a0 d0 f8 5d bc fd 80 13 bd 24 ff 0b 3d cf 6a 07 3d
       -0.013548091 -0.036011685 0.034178868 0.033060845
0003b0 04 be 0c be 8c 6f 3a 3e db 78 c0 3e 0a 41 71 bc
       -0.1374436 0.18206614 0.37592205 -0.014724979
0003c0 5c ff a8 bb e7 81 52 3d d1 a9 0c be 60 1a 54 bd
       -0.0051573943 0.051393416 -0.13736655 -0.051782966
0003d0 7d 52 3a bd b4 36 27 be 7c ee 60 be ce 0d ab 3c
       -0.045488823 -0.16329461 -0.21965975 0.020880606
0003e0 9e dd 0a be b4 43 87 bf e8 89 34 bf bd 1d 17 bf
       -0.13561103 -1.0567536 -0.7052293 -0.5902975
0003f0 ab 07 ef 3d 53 d3 8f 3d 9c b5 64 3e 46 83 ef 3c
       0.116713844 0.07022729 0.22334903 0.0292374

conv4.bias f4 [32]
000000 5c 20 64 be 36 79 22 be ac 26 99 bd 8b 54 e7 3d
       -0.22277969 -0.15866551 -0.07478079 0.11295422
000010 ab 55 08 bf 91 59 06 bf 23 50 30 bc 05 1a 83 be
       -0.5325572 -0.5248042 -0.010761294 -0.2560579
000020 b2 85 b5 bd 97 ea 5a be d9 8c ed bd 3c e5 0e bc
       -0.08863391 -0.21378551 -0.1159913 -0.008721646
000030 ae 26 53 bd 27 ed 48 3d cf 55 c6 be fa c8 21 bd
       -0.05155056 0.04905429 -0.38737342 -0.039498307
000040 aa 5b 13 bf 2d 14 5b bd 11 28 d9 3d 6f f9 1c bf
       -0.57561743 -0.053486038 0.10603345 -0.61318105
000050 4d 06 26 be f4 d0 20 be d9 21 bc bd cc 6f 44 3e
       -0.16213341 -0.1570471 -0.091861434 0.19183272
000060 c0 57 81 bd f2 c1 13 bf 47 86 f3 bd f0 67 05 bd
       -0.06315565 -0.5771781 -0.11890846 -0.032569826
000070 97 0c 07 bf bf cc 54 3c 9e ef 90 be 38 d5 62 be
       -0.52753586 0.012988268 -0.28307813 -0.22151649

up2.weight f4 [32, 16, 3, 3]
000000 97 d6 60 3e d5 5f ef 3d ec 6b 0e 3e 49 72 4e 3e
       0.2195686 0.116882004 0.13908356 0.20160784
000010 40 85 34 bd fd cc 88 bd 1b fb 17 3e a5 3a f0 3c
       -0.04407239 -0.066797234 0.14841883 0.029324839
000020 97 1b 31 be 74 a7 d0 bd 43 9b a4 3d d9 79 de 3c
       -0.17295681 -0.10188189 0.08037426 0.02715771
000030 f7 88 35 3e bf 7a bf 3e e5 63 1f 3e 5c bd 29 3e
       0.17728029 0.37398335 0.1556545 0.16576141
000040 fb 0f ca 3d 74 e6 0c be 6e dd 0b 3c e8 b4 08 be
       0.09866329 -0.13759786 0.00853668 -0.1335026
000050 6c 82 13 3e f5 59 87 bd 44 bd 57 be 20 24 26 be
       0.14405221 -0.06608955 -0.21068293 -0.16224718
000060 8f 09 72 be ea 24 fc be d3 62 95 be b0 92 15 3e
       -0.23636459 -0.49246913 -0.2917696 0.14606738
000070 73 a6 4b 3e c5 03 ea bd 0e a2 f2 3d 2d 6f 85 3e
       0.19887714 -0.114265 0.11847316 0.26061383
000080 78 1a 00 3e 63 a1 59 be ab 9d 8f 3d 9b ed b9 3d
       0.12510097 -0.2125297 0.07012495 0.09078523
000090 39 d5 ed 3d f7 67 75 3e 28 65 08 3e 3b ea 07 3e
       0.116129346 0.2396544 0.13319838 0.13272946
0000a0 b4 1a e0 3d bc e2 63 3e 32 a5 5c 3d 10 4f 46 3e
       0.10942593 0.22254461 0.05386848 0.19366097
0000b0 18 48 27 3e 9d 77 1d be 57 08 8d be 6b 60 40 be
       0.16336095 -0.1537766 -0.27545425 -0.1878678
0000c0 a6 79 c7 be d2 74 f0 be c1 8b 30 be 5d f1 2e 3c
       -0.38959998 -0.46964127 -0.17240812 0.010677663
0000d0 c2 9e 5c be 59 53 53 be 15 f5 1c bf 0d bd 11 bf
       -0.21544936 -0.20637263 -0.61311466 -0.56929094
0000e0 7d b2 8c bc 7c a0 46 bf f3 b6 62 bf 0a 42 7e be
       -0.017174954 -0.7758863 -0.8856041 -0.2482988
0000f0 80 d1 e7 be 8e b7 20 bf 24 ae 95 be 7c 7c 36 3c
       -0.45277023 -0.6278008 -0.2923442 0.011138078
000100 4d e7 c3 3d 98 bb e9 3b d4 93 6d 3c 56 65 08 3e
       0.095656015 0.0071329586 0.014500577 0.13319907
000110 26 32 65 3d fb 85 89 bc c6 d1 0d 3e cc 4e 41 3e
       0.05595603 -0.01678752 0.13849553 0.18877715
000120 db 9d bf bd bd 9f 9e be 59 05 72 be 13 0b 71 be
       -0.093562804 -0.30981246 -0.23634852 -0.2353938
000130 0c 2c 2f bf ef c8 d8 be 95 b7 ab be dd 04 08 bf
       -0.68426585 -0.423408 -0.335385 -0.5313242
000140 b2 48 2c bd 05 41 e5 3e a6 e9 2b 3f 81 18 f7 3e
       -0.042061515 0.44776168 0.67153394 0.48260882
000150 b6 68 2e 3f d0 be 4a 3f e7 55 3e 3f 69 d6 1f 3d
       0.68128526 0.79197407 0.74349827 0.039022837
000160 f1 fc 08 3f b5 6d 01 3e e3 ac d2 bd 0a d3 1e 3e
       0.5351096 0.12639506 -0.10286882 0.15510193
000170 68 fa 5f bd 8a 24 34 3e 61 13 27 3e df 2b 2d 3e
       -0.054682165 0.17592064 0.16315986 0.16911267
000180 b0 f0 34 3e 06 5b 30 3e 39 5a 42 3e ef 95 c9 3c
       0.1766994 0.17222223 0.1897973 0.024607627
000190 48 a2 36 3e d4 ea 0d 3e e0 96 eb 3d 81 b3 21 3d
       0.17835343 0.13859111 0.115033865 0.03947783
0001a0 5a 6e 08 3e cc 8e 49 3e e5 de 07 3e 66 1d dd 3d
       0.13323346 0.19683379 0.13268621 0.10796623
0001b0 65 31 36 bd 17 6d 04 bb 16 ad 3e be fc a6 a3 bd
       -0.0444807 -0.0020206624 -0.18620715 -0.07990834
0001c0 de 29 ba be 39 b5 22 be f7 9c e7 bd 0a 24 65 be
       -0.36360067 -0.15889443 -0.113092355 -0.22377029
0001d0 b5 fa 58 3d 21 66 85 3e 3f 71 f7 bd 05 7f 0c bc
       0.052973468 0.2605448 -0.12082147 -0.008575206
0001e0 b0 d7 c3 bc 95 ee b9 be e5 49 94 be 7b ed 62 3d
       -0.023906559 -0.36314836 -0.28962627 0.05540226
0001f0 bc 69 4f be 44 1c 7d bc 4d bd 0c be fd ba 2f bd
       -0.20255178 -0.015448634 -0.13744088 -0.042902935
000200 50 cc 37 3d 55 f9 05 be 03 b1 d7 3d 6f c7 eb 3d
       0.044872582 -0.13083394 0.10531809 0.11512648
000210 6a bc db bd c6 45 c6 3c 10 6b 19 be 24 1e 8b bd
       -0.107292965 0.024203192 -0.14982247 -0.06792858
000220 a6 05 a1 3e b3 ad 08 3e 80 d6 80 3d 1d 04 5e 3e
       0.31449622 0.13347511 0.06290913 0.21681257
000230 1a 18 0d 3c 90 3c e8 3c ae 56 8e bc 97 73 04 3c
       0.008611703 0.028349191 -0.017375316 0.008084199
000240 6e 32 5c 3d d8 31 1b bd 3d 87 a6 3d ae 27 a4 bd
       0.05375903 -0.03788933 0.081312634 -0.08015381
000250 a8 27 0a bc 34 29 f3 3d 4a ee 8e 3d b6 2c b4 bb
       -0.008432306 0.11873093 0.06979044 -0.005498494
000260 cc ea f9 3c cd e9 91 bd fd 3a 16 bd da 92 81 bd
       0.030507468 -0.07124672 -0.03667735 -0.06326838
000270 11 fd 94 bd 87 2d d4 bd 03 5a cb bc eb cb f0 bd
       -0.07274831 -0.10360246 -0.024823194 -0.11757644
000280 79 2f de bd 04 79 35 bd 82 08 c2 3c 7d 53 79 bd
       -0.108488984 -0.044304863 0.023685697 -0.060870636
000290 81 7a ae 3b 51 dd 9c 3d 40 27 a7 3c e7 51 58 3d
       0.005324662 0.076594 0.020404458 0.052812483
0002a0 16 b3 4f 3b 0d 82 b2 bd e4 bd 9d bd a9 66 81 bd
       0.0031692437 -0.087162115 -0.077022344 -0.06318409
0002b0 61 a2 8c 3d 03 38 ad 3d 3e a8 fd 3c 4b 5d 01 3d
       0.06866909 0.08457949 0.030964013 0.03158311
0002c0 e9 5e a0 bb ce 7d c7 3d 39 7b 32 3b ed 77 ab 3c
       -0.0048941267 0.09740792 0.002723409 0.020931209
0002d0 cf 47 4d 3d 88 4b 06 3e 53 73 98 3d 9d 62 01 3e
       0.05011731 0.1311475 0.07443871 0.12635274
0002e0 b1 99 d2 3d f2 80 79 3c 8e 36 96 bc 2a 15 1c 3e
       0.102832206 0.015228497 -0.01833656 0.15242448
0002f0 d3 0a ca 3c 58 dc 3d 3c 3c a7 27 3d 6e 23 84 3d
       0.024663365 0.011588179 0.04093097 0.0645207
000300 6a 9c 98 3d 21 4c 9d 3d 1f 94 92 3d 63 9a 4a 3c
       0.074517086 0.07680536 0.07157158 0.01236591
000310 4d a1 ce bc 60 fb b4 3d 26 e1 86 3d 97 39 ee bb
       -0.025223399 0.088370085 0.065859124 -0.007270049
000320 2c 4a 68 3d 4b ca 94 3d 15 2f 76 bc 7a d3 d3 bc
       0.05671136 0.07265147 -0.015025874 -0.025857676
000330 28 7a b1 bc b8 62 c1 3c d3 cf c6 3c a0 8a 7b bd
       -0.021664694 0.023606643 0.02426902 -0.0614115
000340 ec 3c d5 bc 3e 93 00 bd 1b 4d 37 bd 47 cd bc bc
       -0.026030026 -0.03139042 -0.044751268 -0.023047103
000350 66 8a 7a bb 5a 43 bb 3c cd 33 a4 bc ff b8 8b 3d
       -0.0038229465 0.022859264 -0.020044232 0.068223946
000360 13 0e f4 ba 65 18 12 bc 4f 70 d3 3d 73 9c 87 3d
       -0.0018619917 -0.008916949 0.103241555 0.06621637
000370 3b 25 49 bc d0 3a 88 3d 90 bf 71 3d 77 ea 97 3c
       -0.012276943 0.066518426 0.05902058 0.018544419
000380 2c 6a ad bd 8c e0 b8 bd 56 8e 22 be fb 08 a9 bd
       -0.08467516 -0.09027204 -0.1587461 -0.08253666
000390 ed 04 89 bd e3 4b f9 bc 4d d3 7a bd de 70 f8 bc
       -0.06690393 -0.030431693 -0.06123667 -0.030327257
0003a0 b9 61 cc bd 9d 04 18 be 19 9c 33 3d 39 3a 13 bd
       -0.099795766 -0.1484551 0.04385004 -0.035944197
0003b0 33 66 23 bd 5f 59 8d bd 6e 2a 8f 3c d1 62 81 bd
       -0.039892387 -0.06901812 0.017476287 -0.06317676
0003c0 10 95 d3 3c fd 02 b2 bc a1 bc c0 3d f1 4b 7d bd
       0.025827914 -0.02172994 0.09410978 -0.06184
0003d0 95 2e a8 bd 35 22 d3 bc b8 4b b5 bd f3 ff a3 bc
       -0.0821201 -0.025773147 -0.08852333 -0.020019507
0003e0 de 40 f7 bc c9 36 54 3c ea 7c 0a 3d 58 f8 4a 3c
       -0.030182298 0.012952515 0.033810534 0.012388311
0003f0 f5 86 6e bd 2e 9c 6a 3d 0b e8 2b bd 8d b1 54 bd
       -0.058234174 0.05727785 -0.04196934 -0.051927138

up2.bias f4 [16]
000000 c4 16 e5 ba d0 be d8 3d 5f 5f fc ba 84 48 b2 3c
       -0.0017478098 0.105832696 -0.0019254497 0.021763094
000010 68 1d 87 bc 53 dd b0 3c 29 a6 20 bd 4d 6f bb bc
       -0.016493514 0.02158991 -0.039220963 -0.02288022
000020 3c 65 98 bc 5d a3 30 bd 9a 63 0e bd ba 19 34 ba
       -0.01860296 -0.043124545 -0.034762956 -0.00068702886
000030 02 d4 92 3a 34 c1 87 bd eb 96 07 3d 3a af 00 3e
       0.0011202099 -0.066286474 0.03310291 0.12566844
