save/50_SCI_model_EN.pth (torch, 62581 bytes, 15 tensors)

in_conv.0.weight f4 [16, 3, 3, 3]
00000000: 1045 26bd 99aa 89bb 2d02 223e 7c12 f8bd
00000010: d66f 56bc 0945 1c3d 755f 03be 2750 a8bd
00000020: d8b5 253e 7509 22bd 1526 423c 5f5b 3fbe
00000030: dd77 3e3e 719e 11be 8fcb da3d 2abc acbd
00000040: e0cc 80bd 1184 bfbd b50b 93bd 7441 13be
00000050: 9e3c ed3d c756 58bc 9da2 b9bd cc93 173c
00000060: edc0 30be 0d76 5bbd 67c5 143e d9e2 81bd
00000070: e09a e93c ed05 773d e113 a83d 9257 e63d
00000080: 100c 0fbe 2c25 8b39 e5bc b7bd 1947 22be
00000090: 61c9 cb3c e7ec 48bd e775 8ebd 5ce7 a1bd
000000a0: bfdf 34be 1ee6 0f3e 2124 46bd 053d 273d
000000b0: 7e73 b5bd cac7 fe3d c674 b2bd 84af 1ebd
000000c0: 07eb 39be da05 a83d 5a9c f6bd 85e8 113e
000000d0: 21a4 afbc a02b 0bbe 0c86 4ebd bcc6 3fbd
000000e0: b07b 0dbe 1c16 813d f1ac 2fbe 9202 39be
000000f0: c070 e83d 8e33 a2bd 5041 24be 2f99 423d
00000100: a873 26be dfb2 60bd a334 c13d 1ee8 15bb
00000110: d385 6f3c 4324 293e d0f9 143e 57ae 17be
00000120: bc56 dfbd e51b bf3d b126 2dbe edc6 373d
00000130: 308f b73d 9f25 ab3d 621f 1ebc 2f74 a03c
00000140: 8a8b 043d f365 b3bd 5a1c d0bd b189 093d
00000150: 1141 19bd 50bf e03d 6ff4 a23d 14db a13c
00000160: 79f4 213e 176b 9b3d 5d40 06bd 1d93 1f3e
00000170: 2d0c 9dbd 8818 c73b 4401 ee3d 7ac0 04bc
00000180: 2147 3e3d e1f0 46be 3db6 13be 0417 b1bd
00000190: c880 e43c ae61 cdbd dcce 91bd 5d4b 3ebe
000001a0: e10f 1d3e 7273 05be e5d8 07be c762 0c3e
000001b0: e1f3 8e3d bd20 b63d 5fcb 81bd a130 403d
000001c0: a200 4bbe 39e4 933d 7b03 1dbe 5524 8cbd
000001d0: 89ad 9e3d e4ac febd 708c 8d3c 550b 213e
000001e0: f2ba cbba e87f a4bc f64f 263c 5828 f9bd
000001f0: cb5f 5ebc 8725 a43d 1015 133d 4a6f 73bd
00000200: 673d 273b fa62 053e 654a be3c 08ad 753c
00000210: 4139 5fbc 03e6 eb3b de19 f8bd ac98 47be
00000220: b908 26be e19e 93bd df6b 093d 8747 90bd
00000230: b2a8 183e 05f2 e23d 7452 8ebc dbe3 273d
00000240: 6c5d 92bd 3bd4 4c3d a710 2bbe 33f0 293d
00000250: 9b8a 0dbd cadb 323e aff5 f6bd fdb2 03bd
00000260: c1ba 2ebe 9ddc 1dbe b0f3 203e 87f6 42bd
00000270: 8d04 603d e2e2 bc3c b8e2 8c3d 004b 30be
00000280: 104b 09bd aced 00bd f8d0 bf3d 109e 093d
00000290: 3461 063e 28fe 0c3e 7c9e 543e 099b d2bd
000002a0: 56db 0d3d ef22 f63c 98d4 f03c 3e0e d4bd
000002b0: 3218 463d a0bf 7e3c 7062 503e e108 f63d
000002c0: 1212 dd3d a5ba 383d f4ff 36bd f4d6 4a3e
000002d0: c51b 47bd a466 4a3e 0ccc eb3d 3777 51bd
000002e0: 9a06 8c3d a76b b0bc c40d 2d3d 0e18 d33c
000002f0: 1b3a 9dbc b8ba 98bd 51db 13bd 7767 15bd
00000300: 6e09 ff3d f51e 6dbd 4a5f 70bc ed08 2dbe
00000310: b728 f53d 9708 e0bd 5b40 14be 57fd 32be
00000320: 1db6 77bd 407d 31be 315c e2bd 21a9 32be
00000330: f566 e83d 8631 243d 74c8 d33d 34ec 293e
00000340: 0fb6 e23d f694 923d 2ed5 21be 2e53 0d3e
00000350: 7455 01bc 6f3a 083c 57e0 bdbd cf04 a73d
00000360: 84e9 1dbe 44c1 ea3d 6551 963d e893 ed3d
00000370: 9088 4fbd 0bbe c7bd 740d 283e d44b 893d
00000380: 447b 20be cdb2 a0bd e634 d7bb 0385 c33d
00000390: fe89 063e 3782 49be 5c50 cdbd 27ec cfbc
000003a0: f304 a7bc 4bf1 40be a884 e93c ea17 d9bd
000003b0: 8ed5 d13d d1ce cb3d 9e90 0cbd efd3 813d
000003c0: a72f 183e 63cb 2e3e d7dc d1bd b9b1 5a3e
000003d0: 3e0c 81bb b3a9 b83b 0f8c 533e cdbe 033e
000003e0: ac1c 2a3c 7474 acbd 67d6 a2bd 139e 32bd
000003f0: 25f8 393e b034 273e 6c1d 4a3e ab78 2bbe
-0.040593207 -0.004201245 0.15821142 -0.121129006 -0.013088187 0.038151775 -0.12829383 -0.08218413
0.16182649 -0.0395598 0.0118499 -0.18687199 0.18600412 -0.14220597 0.10683357 -0.08434327
-0.06289077 -0.093513615 -0.07179967 -0.14380437 0.115838274 -0.013204283 -0.09064219 0.009251546
-0.17261095 -0.05357938 0.14528428 -0.06342096 0.028516233 0.060308386 0.082069166 0.112471715
-0.13969445 0.0002653984 -0.08971576 -0.15847434 0.024876298 -0.049054053 -0.06956082 -0.079054564
-0.17663477 0.14052626 -0.0483743 0.040829677 -0.08859919 0.124404505 -0.08713679 -0.038741603
-0.18156062 0.08204241 -0.120415404 0.14248855 -0.021440567 -0.1359086 -0.050420806 -0.046820387
-0.13816714 0.06303045 -0.17155816 -0.18067387 0.1134963 -0.079199895 -0.1604054 0.04750937
-0.16255057 -0.054858085 0.09433868 -0.0022873948 0.0146193085 0.16517739 0.14548421 -0.14812599
-0.10905215 0.09331492 -0.16909291 0.044867445 0.08962858 0.08356785 -0.009651037 0.01958665
0.032359637 -0.0875968 -0.10161658 0.03357858 -0.037415568 0.1097399 0.07956778 0.019757785
0.15815915 0.07588785 -0.032776225 0.15583463 -0.07668338 0.0060759224 0.11621335 -0.008102531
0.046454553 -0.19427826 -0.14424987 -0.08646968 0.027893439 -0.100283965 -0.071195334 -0.18583436
0.15338089 -0.1303232 -0.13266332 0.13709556 0.0698011 0.08892963 -0.06337618 0.046921376
-0.1982446 0.072212644 -0.15333359 -0.06842867 0.07747943 -0.1243532 0.01727888 0.15726979
-0.0015543385 -0.020080522 0.0101509 -0.12165898 -0.0135726435 0.0801497 0.03590876 -0.059432305
0.0025518776 0.13026038 0.023228833 0.014994867 -0.01362449 0.0071990504 -0.12114309 -0.19491833
-0.16214265 -0.07208038 0.03355014 -0.07044893 0.14908102 0.11081318 -0.017373301 0.040988784
-0.07146725 0.050007086 -0.16705571 0.041488837 -0.034556013 0.17466655 -0.12058579 -0.03215312
-0.17063428 -0.15416189 0.1571796 -0.047598388 0.05469184 0.023057405 0.06879181 -0.1721611
-0.03351885 -0.03147666 0.093660295 0.033598006 0.13123018 0.13768828 0.20763582 -0.10283477
0.034633003 0.030045955 0.029398248 -0.10354279 0.04836292 0.015548617 0.20350051 0.12013412
0.10794462 0.045099873 -0.04467769 0.1980856 -0.048610467 0.19765717 0.11513528 -0.051139083
0.06837197 -0.021535708 0.042249456 0.025768306 -0.019192746 -0.07457489 -0.03609783 -0.036475625
0.124529704 -0.05789085 -0.014671156 -0.16897936 0.11970656 -0.109391384 -0.14477675 -0.17479454
-0.06047641 -0.17332935 -0.1105274 -0.1744733 0.113477625 0.04008629 0.10340968 0.1659401
0.11069881 0.07157318 -0.15803978 0.13801262 -0.007893909 0.008314713 -0.09271305 0.08155214
-0.1542111 0.11462644 0.073397435 0.116004765 -0.050667346 -0.09753045 0.16411382 0.06703916
-0.15672022 -0.078466035 -0.0065675853 0.09546854 0.13138577 -0.1967858 -0.10025093 -0.02538116
-0.020388102 -0.18842046 0.028505638 -0.10600264 0.102458104 0.099515565 -0.034317605 0.06339251
0.14861928 0.17069773 -0.102472 0.21356858 -0.003938227 0.005635464 0.20658897 0.12865753
0.0103828125 -0.08420649 -0.0795105 -0.043607783 0.18161066 0.16328692 0.19737786 -0.1674525

in_conv.0.bias f4 [16]
00000000: 51a4 41be 80c4 293e 09fa b0bd 43a3 e0bd
00000010: eedd df3c c241 a63d a8d3 9b3d a115 e83c
00000020: 5dc6 32be 4c26 0d3e e6a3 adbd 8fb0 4f3d
00000030: 454c 07be 9fe2 0dbe d22d ccbd b9b4 3e3d
-0.18910338 0.16578865 -0.086414404 -0.1096864 0.027327504 0.08118011 0.076087296 0.028330626
-0.17458482 0.1378414 -0.08478527 0.05070549 -0.13212688 -0.1385598 -0.09969677 0.04655907

convs.0.0.weight f4 [16, 16, 3, 3]
00000000: 457c 1c3c 0fae 4fbd e96e 70bd 4159 8f3d
00000010: 3339 053d 8236 a3bd f2c5 3f3d 0509 93bd
00000020: 26d8 0fbc 78bf 2a3d be31 063c 769a 9ebd
00000030: a9ef d6bb 39ec 89bd 3ad5 a1bc ca39 903d
00000040: fd96 683d 9a90 9dbd 5983 393d ee69 05bd
00000050: e32f 85bc 6632 f1bc cf9a 47bd 530e 8f3a
00000060: 6319 973c 0949 d53b b641 5bbd 8b74 b8bc
00000070: bedb 2b3c cbcc 68bc e99d 1ebd abed 4ebc
00000080: df9e 573c 9bdb b43d 7121 8dbc 0f84 943c
00000090: f4a6 393d 4eca 78bd b068 8ebd 1477 04bd
000000a0: c711 86bd baec b13d bdc0 573c 0199 9abc
000000b0: f1cb c63c fe0c 57bc b583 bdbd 81db 173c
000000c0: c423 6b3d cfe7 863d ba92 b5bd 4095 bcbd
000000d0: 688e 5e3d 32a8 0b3b 2bea 8c3d 3355 1f3d
000000e0: c658 07bc 4a3e ad3d 822f 983d 021d da3c
000000f0: 7a48 66bd 0ff7 26bd 377f 683d ac09 68bd
00000100: 131d 5abc 24da 873d ec43 083d 954e 25bc
00000110: 4999 81bd d675 2abd 2880 97bd 1487 86bd
00000120: ea74 35bc b3f9 323c 239f 30bd b64a 633d
00000130: 1180 713c dbc0 91bd 7b69 693d 7d39 57bd
00000140: 3de0 2dbd 43cd a63d f386 163d f1ef 1f3c
00000150: 00e0 dfbc 59ae f93a 6ffb 5d3d 5925 a33d
00000160: 7a4b c33d 1f65 a43a 8809 843d 134e 8cbd
00000170: ad14 2a3d a3de 883d a56e 86bb fe17 f5bc
00000180: 897f 603d 6400 3c3d 7958 f63b bc55 84bc
00000190: 17c0 34bd 2266 96bd 260d 55bd f5d2 a2bd
000001a0: 9a20 84bb f317 90bd e1e0 52ba d1bf aabd
000001b0: 6938 81bd 84c3 853c f65d 593d 41f9 b43d
000001c0: 521a 87bd fff4 a83d 7b6b 403d 8e3f 0abc
000001d0: 71b3 adbc c6e5 06bd 6b82 913c 9e2d 033d
000001e0: d7b7 8f3c e9f5 833d a48b 6fbd 3a47 c73d
000001f0: 47fc c33d c561 053c 1012 a33c cc4b 513d
00000200: 6e1d d73c 31e7 533d 327a d53d 25ca babc
00000210: af30 12bd 2980 153d 8346 c8bc 3f05 553b
00000220: 560a 0e3d cd36 103d e6b6 a33d 5ad9 f93b
00000230: 883a 803d cc43 923d 5d8a be3d 99ba 543d
00000240: da36 9b3d 962f 90bd d6f8 96bb 6819 473d
00000250: 3393 15bd abb5 3bbb 7849 103d a829 6abd
00000260: 1465 88bd 7845 a4bc 8304 aabc fd2c 473d
00000270: 48dc 763d b1c0 cabc 4fa8 74bc 0f42 713d
00000280: cc5d 6d3d 519f 68bc 6ff9 34bd 7f61 a63d
00000290: cb17 7cbc 5cbd c4bc 9ea4 1f3d 3a98 91bd
000002a0: 1160 34bd d610 27bd d67a 08bd 801c 4ebc
000002b0: 3677 663d 88cf 363d 4b56 e6bc 88ed 863d
000002c0: 96dc a1bc 58be 273d 0e31 5b3d aec9 133d
000002d0: 514c 9dbc d32e 51bd 375f edbb 08c5 60bd
000002e0: e1c1 44b7 e8d4 803d 8b6e 2a3d cee7 7f3d
000002f0: e5b0 9e3d 6bf4 5fbd 67a9 a73d 0c63 c73b
00000300: c227 a83c 7100 f23c f434 c33c 5783 963d
00000310: ffb1 3b3d 17fc 1dbc 771d 23bd 5b77 1bbd
00000320: 2931 563d aabe a0bd 8df7 bbba 4b6a 11bc
00000330: 940c acbd 2aaf 3dbd ff90 463d 984c 693d
00000340: f866 333c fec6 48bd ae2d 893d 4228 923d
00000350: 74da 983d f733 a63c 581c 49bd fab7 513d
00000360: e840 ee3c 6647 203d 7f32 2ebd ab1a 7abd
00000370: 60c3 e43c d94c 17bd 96b8 fb3b 1a70 863d
00000380: 0edd e63c 4c20 653d e3d7 483c f5c1 7abd
00000390: 54f8 67bd 673a 9c3d 1cd2 fdbc a563 593d
000003a0: 7eae a03d 246d 3fbd 0644 8dbd fb33 4f3c
000003b0: 7425 5ebb 5324 933d 7db1 9c3d 2254 ffbb
000003c0: c721 7ebd 8137 5d3d f629 debc 6431 94bb
000003d0: 2155 62bd 4042 583c 2bf3 a03d f953 7a3d
000003e0: a28f 92bc c1bf 79bd 0418 813d 1fe3 543c
000003f0: 5675 c73b 8e2e 8f3d b8d1 823d 2bf5 21bc
0.009551113 -0.050703105 -0.058699522 0.06999446 0.032525253 -0.07969381 0.046819635 -0.07179455
-0.008779561 0.041686505 0.00819057 -0.07744305 -0.0065593314 -0.06734509 -0.019754995 0.070422724
0.05678462 -0.07693596 0.04529128 -0.032571726 -0.016258186 -0.029442977 -0.04873162 0.0010914303
0.018444723 0.0065089506 -0.053529464 -0.02251651 0.010489402 -0.014208983 -0.038724814 -0.012629907
0.013160436 0.08830949 -0.01722786 0.018129377 0.045325235 -0.060739808 -0.06953561 -0.032340124
-0.065463595 0.0868773 0.013168511 -0.018871786 0.024267169 -0.013125656 -0.09253637 0.009268642
0.057407156 0.06587183 -0.088658765 -0.09208155 0.054335028 0.002130997 0.068806015 0.03889961
-0.008260911 0.08459146 0.074309364 0.02662516 -0.056221463 -0.040762957 0.056761947 -0.05664985
-0.013312596 0.06633404 0.0332679 -0.010089536 -0.06328065 -0.041616283 -0.07397491 -0.06568733
-0.011075238 0.010923791 -0.043120515 0.05549117 0.014740006 -0.071168624 0.05698536 -0.05254506
-0.04245018 0.08144619 0.03674979 0.009761796 -0.027328491 0.0019049152 0.054194864 0.07966108
0.095358804 0.0012542343 0.064471304 -0.06850829 0.041523624 0.066830896 -0.0041025453 -0.029918667
0.054809127 0.04589881 0.007517871 -0.016154163 -0.044128504 -0.07343699 -0.052014492 -0.07950393
-0.0040322067 -0.07035818 -0.0008044374 -0.08337367 -0.063095875 0.01632858 0.053068124 0.08836604
-0.06596817 0.08249854 0.0469775 -0.008438004 -0.021203728 -0.032933973 0.017762383 0.032025926
0.017543716 0.06443388 -0.05848278 0.09730382 0.095696025 0.008140986 0.019906074 0.051097676
0.02625915 0.051734153 0.104236975 -0.022801468 -0.03569096 0.036499176 -0.024447685 0.0032504348
0.034677826 0.035208512 0.079938695 0.0076247873 0.06261164 0.071418375 0.093037345 0.051935766
0.075788215 -0.07040326 -0.0046073003 0.048608214 -0.036517333 -0.0028642218 0.035226315 -0.057168633
-0.06659904 -0.020052657 -0.020754104 0.04862689 0.06026867 -0.024750086 -0.014932706 0.05890089
0.05795078 -0.01419814 -0.04418319 0.08124065 -0.015386532 -0.024016075 0.03897535 -0.07109113
-0.04403693 -0.04078754 -0.03332027 -0.012580037 0.056266032 0.04463151 -0.02811732 0.06588274
-0.019758504 0.04095301 0.05351358 0.03608101 -0.01920143 -0.051070046 -0.0072440165 -0.054875404
-1.1727651e-05 0.06290609 0.04160933 0.062476926 0.07748584 -0.054676455 0.08186608 0.0060848054
0.02052677 0.029541226 0.023828961 0.0734927 0.045824047 -0.009642622 -0.03982302 -0.037955623
0.052292977 -0.07848866 -0.0014340744 -0.00887544 -0.084008366 -0.046309628 0.048478123 0.05695781
0.010949843 -0.0490179 0.06698166 0.07136585 0.074635416 0.02028845 -0.049099296 0.051200844
0.029083684 0.03913059 -0.042528626 -0.06106059 0.027925193 -0.036938522 0.0076819165 0.065643504
0.028181579 0.055939004 0.012258503 -0.061220128 -0.05663331 0.07628327 -0.030983977 0.053073544
0.07845782 -0.046734944 -0.0689774 0.01264667 -0.0033896836 0.07184663 0.07651041 -0.007792012
-0.06204393 0.05400801 -0.027119618 -0.0045224894 -0.055256967 0.013199389 0.078588806 0.06111524
-0.017890755 -0.060973886 0.06303409 0.012993603 0.0060869856 0.069913015 0.06387657 -0.009885113

convs.0.0.bias f4 [16]
00000000: 45d2 ac3d 37d0 9bbd 6b70 e03b 86e0 be3c
00000010: eec0 953a 50db 4d3d 0630 3abc 84d5 80bd
00000020: e52f 34bc ccdb 9d3c 1b9e 263d 656e aabc
00000030: 9053 d03c f31f 3d3d ce50 ba3d 3aa5 b83c
0.08438543 -0.07608073 0.0068493388 0.02330042 0.0011425295 0.05025798 -0.011363989 -0.06290725
-0.010997747 0.019269846 0.040678125 -0.020804593 0.02543047 0.046173047 0.090974435 0.022539724

convs.0.2.weight f4 [16, 16, 3, 3]
00000000: 22c8 6f3c fc85 8c3d e006 c63c f05f ce3d
00000010: 2f86 45bd 2aac 8f3d c909 6b3d c931 603d
00000020: e488 8bbc 45a2 2abd 5b97 553d 2903 783d
00000030: b6dd c1bc 7211 f5bc f13d 68bd 776d c0bc
00000040: a614 043d 9750 213d e674 8f3d 8607 e9bc
00000050: 3ae0 96bd 30f5 9c3d ab64 58ba 7657 2cbd
00000060: 8821 42bd eb57 943b 3056 50bd 374f 53bd
00000070: 8bd5 81bb a4e6 803d 9c4d e43c 3a97 ac3c
00000080: db26 0fbd 72c1 efbc 268c 8e3d 15e0 5b3d
00000090: 79f6 65bd a9dd bf3d 82f1 5fbc af2b 263d
000000a0: 8e3d b83d 55cd 67bd a1ef 9a3d f669 c73d
000000b0: 9008 983d f505 8f3c 1b71 2b3b adcc a3bd
000000c0: d4c8 323b 5c19 2cbc 9a54 063d 86dd babd
000000d0: ff04 863d 8b1a 9a3b 2d81 953c 10b6 74bd
000000e0: 4b1d 8abb 3866 db3c 08ef c33d 5b51 013d
000000f0: 3d24 51bc dc2f 1c3c bd22 1bbd 1b66 163d
00000100: fc09 b63a 12da c03d 6139 823c 69ec 27bd
00000110: 0c49 29bc 795f 2d3d 4130 fd3a 0013 8b3d
00000120: 8dc0 39bd f837 d03c deeb d33d 269b b03d
00000130: 6d73 febc 4c78 c43d 7420 bc3d 28b7 963c
00000140: 69ec 52bc 22f3 69bd 6693 7ebc f416 ae3d
00000150: 9c77 e63c 79ef 8abc 2869 8a3d e12b 973d
00000160: a14c 443d 74a3 12bd d11e 99bd b1eb 8d3d
00000170: bdba 7bbd 9e77 e43b c76c 0d3d 3222 81bc
00000180: bb4e 9dbd 1ee3 3ebc a664 95bc ce78 55bd
00000190: 63dd 903d c83e 6abd f7f0 56bc 89a8 ac3d
000001a0: e437 4ebd 9ec5 8e3d 7dc5 40bc 2041 6d3d
000001b0: 0150 873d 7df4 e03c f2d9 bc3c 6cc4 61bd
000001c0: 08e5 4dbd a5af 993d 1e61 683d d7e4 6ebc
000001d0: 722c 80bc db93 443d 912e f2bc 0248 dabc
000001e0: d406 c23d bd25 693d 9d74 153d dab5 1bbd
000001f0: ccb5 9a3c 8597 c239 1daa 533d 8d0c 93bc
00000200: b77c 1a3d 938b 04ba 8329 893d 5abb 313d
00000210: 1788 083d 2493 fa3c cdc1 ad3d 4b8a 57bb
00000220: 5afd 8f3d a271 6e3d b742 a53c dfd8 87bd
00000230: ba96 933d a2a5 4ebd 3a24 f73b 8568 883c
00000240: 23a9 93bc 9232 9b3c b8f2 54bd 3683 32bb
00000250: cc43 9a3d 4dba 2e3c 0eff 1bbd 8258 b7bb
00000260: 8be0 8abd d359 0ebd 66ae d53c 5e2a e7bc
00000270: 9838 0cbc e8cc 233d e240 2a3c 8430 cc3c
00000280: 90f7 3bbd ba24 2d3a 06c8 90bc 30b5 713d
00000290: 46e3 51bd 702f 30bd 1620 9bbb ff3c 9ebd
000002a0: 6bea 94bc 0a76 a1bd 58ff 543d 2f80 a7bd
000002b0: 5b20 11bd 3202 8f3d 1a10 a2bd 3841 ac3b
000002c0: c4b0 9fbd 6d78 733d 41c9 453d f460 553c
000002d0: e760 b4bd cca5 573d 08ff 313d 68b3 c73b
000002e0: 6d0c 503c 10e2 d83c ab43 0f3d f0da 143d
000002f0: fc06 963c 1c8f 58bc 4852 83bd f152 7d3d
00000300: 3c78 4c3d 5614 933d 549d af3c 0d49 373c
00000310: e696 a83d 25ea a13d a55e 18bd 53cc b0bd
00000320: 80bb 8838 cfc7 acbd 9cf0 403d 11dd 813c
00000330: 9d3b 773d 9106 a5bd 6b0a 8e3d 4943 c0bd
00000340: 023a f93c 8da1 f3bc 6f84 53bd 1b4a 3bbd
00000350: b72e 0f3d 8ad0 833d 5a82 813d 7dbc a9bd
00000360: ebeb a3bd a206 4c3d f93d c7bc e904 58bd
00000370: 2a53 393d ae34 91bd b0d0 a53c 6369 593d
00000380: 08f5 b9bd 80ea 35bc 49be b3bd 5721 593d
00000390: f872 64bd 2200 2e3c 7ad3 62bc 68c6 dd3c
000003a0: 77e7 90bc 4e9a 54bc b5a1 4d3d 1255 3c3b
000003b0: 338b 403d 95cf 7e3d b4f8 403d 55c4 75bd
000003c0: 1fbf 9abc f3c9 443d 2024 2ebd 180d b13c
000003d0: ff71 adbd 57ea 77bb d26c 6ebd b5b0 80bd
000003e0: f09f 5d3d aee1 3cbd f0f9 e63c a901 233d
000003f0: 81f6 1cbd 18be 1fbd 5cab 953d 4a07 7b3d
0.014635118 0.06861493 0.0241732 0.100768924 -0.04822367 0.070152596 0.05738238 0.05473498
-0.017033048 -0.04165866 0.052146297 0.06054989 -0.02366529 -0.029915545 -0.056699697 -0.023489697
0.032246254 0.039383497 0.070047185 -0.02844597 -0.073669866 0.07663953 -0.0008254747 -0.042075597
-0.04739526 0.004527082 -0.050863445 -0.051589217 -0.003962224 0.06293991 0.027869038 0.021068204
-0.034949165 -0.029267047 0.06960325 0.0536805 -0.056143258 0.0936845 -0.01366842 0.040569004
0.089961156 -0.056592304 0.07565237 0.09737007 0.07423508 0.017458895 0.0026159945 -0.07998023
0.0027280347 -0.010504093 0.032795526 -0.091242835 0.06543922 0.004702871 0.018250072 -0.05974394
-0.004214918 0.02678214 0.09567076 0.031571727 -0.012764988 0.009532895 -0.037874926 0.03671847
0.0013888474 0.094165936 0.015896501 -0.040996943 -0.010332357 0.042327378 0.0019316749 0.06790733
-0.045349646 0.025417313 0.103477225 0.08623342 -0.031060899 0.09593257 0.091858774 0.018397883
-0.012873747 -0.057116635 -0.015538072 0.08500472 0.028133206 -0.016959893 0.06758338 0.07381416
0.04792464 -0.035800412 -0.07476581 0.0692972 -0.061457384 0.0069722673 0.034527566 -0.015763376
-0.07681032 -0.011650829 -0.01823647 -0.05211716 0.07073476 -0.05718878 -0.013118974 0.08430583
-0.05034627 0.06971286 -0.011765835 0.057923436 0.066070564 0.027460331 0.023053143 -0.055118963
-0.05026725 0.07504205 0.056733243 -0.014580927 -0.015646193 0.04799257 -0.02956322 -0.026645664
0.094739586 0.056920756 0.036488164 -0.038015224 0.018885516 0.00037115454 0.051675905 -0.01795032
0.037716594 -0.00050561986 0.06697371 0.043391563 0.03333291 0.03058774 0.0848423 -0.0032888826
0.07030745 0.058213837 0.020173414 -0.06633162 0.07206483 -0.05045093 0.0075421603 0.016651401
-0.018024987 0.018945012 -0.051989287 -0.0027238852 0.075324625 0.010664535 -0.038085036 -0.0055952678
-0.067811094 -0.03475363 0.026084136 -0.028218444 -0.008558415 0.039990336 0.010391446 0.024925478
-0.04589039 0.0006604899 -0.017673504 0.059010684 -0.051242135 -0.04301399 -0.0047340496 -0.07726478
-0.018178185 -0.07883842 0.052001327 -0.08178746 -0.035431247 0.069828406 -0.079132274 0.005256798
-0.07797387 0.05944102 0.048287634 0.013023604 -0.08807545 0.05264835 0.043456107 0.006094385
0.012698275 0.026474983 0.034976643 0.036341608 0.018313877 -0.013217714 -0.06412178 0.061846677
0.049919352 0.07181613 0.021437325 0.01118685 0.082319066 0.07905988 -0.037199635 -0.08632722
6.51991e-05 -0.08436548 0.047104463 0.015852483 0.060359586 -0.08057893 0.06935581 -0.093878336
0.030423168 -0.02974012 -0.05163997 -0.04572497 0.03495666 0.0643626 0.06323691 -0.082879044
-0.08003982 0.049811013 -0.024321543 -0.052739058 0.045245327 -0.07090126 0.020241112 0.05307902
-0.09079939 -0.011103272 -0.087765284 0.05301031 -0.055773705 0.010620149 -0.013844365 0.027072147
-0.017688496 -0.012976242 0.050203044 0.002873723 0.04700775 0.062209684 0.04711218 -0.06000169
-0.018889962 0.048044156 -0.04251492 0.021612689 -0.08469009 -0.0037828886 -0.058209248 -0.06283704
0.054107606 -0.046113662 0.028195351 0.039796505 -0.038321022 -0.038999647 0.07308075 0.06128625

convs.0.2.bias f4 [16]
00000000: 8c99 8e3c 1593 9b3d 1151 113d 4b20 6bbd
00000010: 166b 48bd f81d 21bd 9518 45bd d655 643c
00000020: f721 b73a 2999 e4bc 6570 a23c a4c0 49bc
00000030: f80a 0bbd 6b7f 963d de51 be3c 02c0 b33d
0.017407201 0.07596413 0.0354777 -0.057403844 -0.04893025 -0.03933522 -0.048119146 0.0139364805
0.0013971914 -0.027905064 0.019828985 -0.0123139955 -0.033946007 0.07348522 0.023232397 0.08776857

convs.1.0.weight f4 [16, 16, 3, 3]
00000000: 32d3 d83d a387 973c 5f3c 27bc 1854 de3d
00000010: 0b51 b73c 1b14 5c3c e1ce 2a3d 8024 b93c
00000020: aaf6 06bc 125d 03bd db33 0bbd 2b0a 82bd
00000030: 15b0 1c3d 4d93 3b3d 4168 b1bd c6f9 85bd
00000040: ea34 89bd 9ee9 4c3d 0ed7 49bc 96fc 10bc
00000050: dbc6 b63c 07fc ec3c dd1f e23d 3f41 283d
00000060: bc67 5f3d fe00 9c3d 0322 583c f53f 8abc
00000070: 7472 49bd c84e 193d e141 9dbc a62d 29bd
00000080: d4dd 8e3d 21d0 b23d 551b cf3d b697 913d
00000090: 82e8 92bd 4dcb 303d 0959 8e39 5114 c23d
000000a0: ce24 243d 9861 713d 0ec1 84bd 817e 8ebd
000000b0: 4ac6 b23d 12de 9fbd 0eef 0ebd b5cf babc
000000c0: 9bbb bbbd ace6 46bd 1693 113d 8df3 63bd
000000d0: 0578 33bd bf42 28bd 36ef b93b dd09 a23d
000000e0: 2aad 7dbc 8ef7 773d e92a 2dbd 02b1 993d
000000f0: 17da d23c cc59 53bd 502e 133d 251f ff3c
00000100: 1b20 fb3c d7ca e3bc a2ba 713c a96b a73d
00000110: 9da3 9c3d 7b4b 9d3d 91d1 a23d 704a 593d
00000120: ff93 d8bc 3dcb 25bd 306b 5bbc e1e9 35bc
00000130: c4bd 403d 9317 9a3c f76d 403c 1089 b63b
00000140: 006e 933d b2d1 ad3d 132d 43bd 9dc6 e53c
00000150: d8ac 993d c370 973d 6bc9 963d ca9b a83d
00000160: cdc6 7c3d 02e0 d5bc 38eb fc3b 96a5 e43c
00000170: bc81 c23d 8115 2c3d 431f 213d a82c cb3d
00000180: c6ce 8c3d 72e3 003d e992 d03c dbac 99bb
00000190: 7189 b53d 68a5 b53d 72ec 5cbd e22f 2f3d
000001a0: f555 833d 09eb f73c e8db 10bd da08 dc3c
000001b0: 9161 5e3d 2690 3abd 6be7 a83d 5f35 0b3d
000001c0: aa1b 913d ed5f 41bc 281a afbc e56a a4bc
000001d0: dec3 55bd 89f7 cf3d 7961 b73d a3e6 3bbd
000001e0: 15d3 2a3a c5cd 763d 2c03 6d3b b15e 993d
000001f0: f8e5 dc3d e3fd b43d ee79 dd3d b8a3 783c
00000200: e986 a83d 67be 3dbc ed76 bebc 28e0 31bc
00000210: 93a3 1abd 0362 873d 83c8 8b3c bcb4 3f3d
00000220: 5df5 0a3d d4a9 16bd af00 e43c bdba d7bc
00000230: c098 203d cf66 353d 65cb 473c 51e5 823d
00000240: 8997 dabb 7d68 9cbc 460a 963d f9b3 2c3d
00000250: 2c1f 903d 50e9 ac3d d054 da3c 23f2 dc3c
00000260: 3b18 cd3d 85da 71bd 49e0 94bb 4d99 783d
00000270: 7034 f1bc b0e9 3bbc 42ab f7bc f0be d63c
00000280: 2b2f 42bc d0e6 ff3c f951 57bc ab37 443d
00000290: d79c 073c 8a38 803d 27a4 b43d 13e8 68bb
000002a0: f404 b53c 536a eb3d 25b5 21bd b3ea e7b7
000002b0: c324 4fbd a25b f63c c06d b83d 90be 943d
000002c0: 4844 b3b9 aea9 c93d 9e4b 36bd fb88 543d
000002d0: e548 3abc de30 7ebc e8f5 41bc e523 433d
000002e0: a4aa d03c 43bc 8d3d 621b 1e3c bd40 1dbd
000002f0: 1d0e a53b ca09 633d b761 09bd f7d4 803d
00000300: 162a 8c3d c320 dbbc cfc7 fabc 2ede f73c
00000310: 9929 663d 6681 713d f10b 303d 8ff2 453a
00000320: 0a98 a03d 91ec 3f3d 9b09 0cbd b21c b93d
00000330: d83b db3c 07b0 903d 2ac3 ebbc ac19 6f3c
00000340: b12e d7bc a529 df3d b0fb 8a3d 6ba6 7c3d
00000350: ba71 aa3d 8ead bc3d 11b4 b63d 4c3b 49bd
00000360: 1438 973d da14 9b3d bbea f53c 2696 983c
00000370: 7a83 d33c 7df9 8fbd 71d8 85bd a030 4fbd
00000380: f107 5ebd 2432 bf3c b637 0b3d 97e3 3abd
00000390: 85b2 7b3d 8df0 ff3c 144e c23d 868b 4c3c
000003a0: 75f0 333d 2d69 8b3d 6a85 dabc 9957 133c
000003b0: 0686 8b3d f3f2 893d 8651 cf3c c057 a23d
000003c0: 5bba 04bd 7e08 643d 90e5 2dbc cc9a ae3d
000003d0: 94d2 aebc 5927 7c3b e520 2bbc f4d0 853d
000003e0: f8be 643d e82b 313c 21fa 473d 0e86 17bd
000003f0: 9367 a43c e84d 8f3d 2507 6abd 8bbc 653d
0.10587157 0.018497294 -0.010207265 0.10855883 0.022377511 0.013432528 0.0417012 0.022600412
-0.00823752 -0.03207118 -0.033985 -0.06349596 0.038253862 0.045794774 -0.08662463 -0.06541781
-0.06699546 0.050027482 -0.012319339 -0.008849284 0.022311619 0.02892877 0.11041234 0.04107785
0.05454229 0.07617377 0.013191703 -0.0168762 -0.049181417 0.037428647 -0.019196453 -0.0413033
0.06975904 0.08731104 0.10112635 0.07109015 -0.071732536 0.043162633 0.00027150687 0.09476531
0.040074162 0.058930963 -0.06482135 -0.069577225 0.08729227 -0.078060284 -0.03489595 -0.02280412
-0.09166642 -0.04855983 0.035540663 -0.05565219 -0.04381563 -0.04107928 0.005674268 0.079120375
-0.01548318 0.06053882 -0.04227725 0.07504465 0.025738759 -0.05159931 0.03593284 0.03114278
0.030654958 -0.027806683 0.014753969 0.081748314 0.07648394 0.076804124 0.07950128 0.053049505
-0.026437758 -0.040477026 -0.013392255 -0.011103124 0.047055975 0.01881007 0.011744968 0.0055705383
0.07198715 0.08487262 -0.047650408 0.028048808 0.075036705 0.073945545 0.07362636 0.082328394
0.06171303 -0.026107792 0.00771847 0.027910989 0.09497401 0.042012695 0.039336454 0.09920627
0.068753764 0.03146691 0.025460677 -0.0046897954 0.088641055 0.08869439 -0.05393643 0.042770274
0.064128794 0.03026344 -0.03536597 0.02685969 0.054292265 -0.045547627 0.082472645 0.033986446
0.070853546 -0.011802656 -0.021374777 -0.020070503 -0.052188747 0.101546355 0.08954138 -0.04587425
0.0006516439 0.06025483 0.003616522 0.07488764 0.107860506 0.088374875 0.10814272 0.015175752
0.08228857 -0.01158104 -0.023250068 -0.010856666 -0.037753653 0.06610491 0.017063385 0.04680322
0.033925403 -0.036783054 0.027832357 -0.026334161 0.039208174 0.0442875 0.012194489 0.06391395
-0.0066708964 -0.019092793 0.07326178 0.042163823 0.070371956 0.08442938 0.02665177 0.026970929
0.10014387 -0.059046287 -0.0045433384 0.060693074 -0.02944395 -0.01146929 -0.03023303 0.026214093
-0.011852066 0.03123799 -0.013142102 0.04790465 0.00827714 0.06260784 0.08820372 -0.0035538718
0.022097088 0.11494889 -0.039479394 -2.7646636e-05 -0.050572168 0.03007299 0.09005308 0.072629094
-0.00034192414 0.09846817 -0.044505708 0.051888447 -0.0113699185 -0.0155145805 -0.011838414 0.047641654
0.025471993 0.06920674 0.009650083 -0.038391817 0.005037083 0.055429257 -0.033540454 0.0629062
0.06843965 -0.02674902 -0.030612854 0.03025731 0.056192014 0.058961295 0.04298014 0.00075510977
0.07841499 0.046856467 -0.034188848 0.09038676 0.026761934 0.070648246 -0.028779585 0.014593523
-0.026267381 0.10896615 0.06786287 0.061682146 0.08322473 0.092127904 0.08921064 -0.049128816
0.07383743 0.075723365 0.030019155 0.018626284 0.025819529 -0.07030008 -0.065354235 -0.05058348
-0.054206792 0.023339339 0.033988677 -0.045627203 0.061449546 0.031242633 0.094875485 0.012484437
0.04393049 0.0680717 -0.026674945 0.008993053 0.06812672 0.06735792 0.025307428 0.07926893
-0.032404285 0.05567216 -0.010613814 0.08525619 -0.021340646 0.0038475601 -0.010444854 0.06533995
0.055846184 0.010813691 0.048822526 -0.03699308 0.02006892 0.06997281 -0.05713572 0.05608801

convs.1.0.bias f4 [16]
00000000: 10a0 8cbb dd55 8f3d cc06 4b3d 431d 1dbd
00000010: 9851 41bd 3d31 cc3c b830 0a3c 2e7f 48bd
00000020: b93c d53d d23d 523c 0845 19bd 7698 82bc
00000030: 1631 1439 93c8 49bc e8ea 943d af07 1fbd
-0.004291542 0.06998799 0.04956703 -0.038357984 -0.047196954 0.024925822 0.008434467 -0.048949413
0.104119726 0.012832122 -0.03741935 -0.01594184 0.00014132666 -0.012315887 0.07271367 -0.038825687

convs.1.2.weight f4 [16, 16, 3, 3]
00000000: d020 613d 2aa4 c03d 2290 0c3d 0f96 ed3c
00000010: 11fa d53b 9ce8 cf3d 5d11 b73d f7f1 023d
00000020: 2de0 a9bb 213e 5dbd 94f7 8d3c 5be8 ab3d
00000030: 3c1a 8b3d 4be4 873d 0f53 5a3c c72f 67bb
00000040: f2da 2abd 60ad 453d bf75 cd3d 6801 d13d
00000050: 7d14 d53d b79e 963d 507e 24bd 67ef 823c
00000060: 987a a93d f439 8f3d 887f 0f3d d6f3 c4bc
00000070: 6b6d 243d 7e7d 93bd 9638 9abc d610 48bd
00000080: 8b02 363d 1616 bb3b c0bb 27bc 967a e53c
00000090: c53c a63d e8a5 bc3d be3d c83d a013 abbb
000000a0: 2dc9 b0bc 9605 11bd f45d 603d 0cd6 a43c
000000b0: cd9e c439 c7f9 b83d 137a b83d ada2 b4bc
000000c0: 9b8d 573c 4274 bd3c f523 103d e7db a73d
000000d0: 6c7a 23bd 8132 c7bc b851 01bd 1d91 86bd
000000e0: f5b7 54bc 192a 9dbd 05ba 62bd b652 8cbd
000000f0: cbe0 f4bc 8fb8 7fbd f7b0 8b3c ab72 a2bc
00000100: ae42 7dbd 482b 42bd 3717 96bd fa0a a33d
00000110: 800a 303b 63d6 2d3d 2c3f 90bd 1a4d a4bd
00000120: f443 31bc e3ff 1cbd 599e 15bd 2f6d 53bc
00000130: 1a2b 95bc f9e6 893d 9a01 0bbd 2881 f7bc
00000140: f291 be3d eeef 7b3d 9a18 5dbc 072d 3e3d
00000150: c2b4 92bd 4389 6abd 5284 883d 6ebb 5e3d
00000160: 01b2 95bd 94a0 393d ae34 a3bd 1e17 503c
00000170: c7c7 8abd 09e4 623d 3adb 05bd bb73 803d
00000180: 2117 ff3a 5dca 89bb 3f7a 553d 8bf6 073c
00000190: d675 8e3b a3a6 34bd 4885 05bd d8b2 863d
000001a0: f0cf 0f3d fb1d 64bd f327 1dbd 5bfa dcbc
000001b0: 2305 873c 3bbe 08bc 8321 a63d fe22 433c
000001c0: df39 34bd ddce 90bd 90f3 283b e137 223c
000001d0: 7b95 173d 0d55 6f3d a615 bd3b 57c8 323d
000001e0: 623c 67bd a936 d23d 3334 eabc 65a7 a7bc
000001f0: be4a d23d 7a79 e73b 4c40 413d ce57 ccbc
00000200: 5981 6a3d 3717 86bc b75c b53c 7c13 d4bc
00000210: f857 a13d 40a7 253d a732 4bbd 91f6 3ebc
00000220: 7f40 653c 9f19 753d 466b 943c e37c 7abb
00000230: 77b0 703d db7a 533d 200f 81bd aadf 973d
00000240: 3ebd 033d be8a a63d d4ac a7bd 26e2 ae3c
00000250: ae18 843d 5ba8 ce3c 4639 a33d 5bff 853d
00000260: dc1c a0bd bbfc fdbc 8064 b4bb 56c0 a93c
00000270: e6b9 0c3d 96d0 70bc 6b55 fdbb 8baf 5a3c
00000280: 936e 3b3d 84f2 8b3d 53be a4bd f690 0abd
00000290: a0cb a93d 1b8a a4bc 0e13 67bd 9c21 803d
000002a0: db00 a1bc d641 293d 5ba7 523d 800d 843b
000002b0: 8090 02bd f675 8d3c ab78 f73c 9380 0d3d
000002c0: da47 9cbd 80c7 ce3b dba7 5b3d ab73 f53c
000002d0: 003b e9bc 13b0 88bd 5242 a6bd 764d 1d3d
000002e0: ab9a 813a 3b99 0f3d c37d 35bd be9e 99bd
000002f0: 0629 e23c 0bb7 dbbc e650 943d 90ab 663d
00000300: 4b91 97bc 1b70 3cbd bcd1 84bd 9c47 883d
00000310: 7b48 c13c b3fc 003d 9238 8ebd 236f 9dbd
00000320: 0013 2fbb f611 97bd 33ff 493d 30ac 9a3d
00000330: c8d1 53bd de71 903d ab7e 6cbb 00be 313a
00000340: 1f6c 8c3d b6d3 c5bc 26c5 59bd f6ff c83c
00000350: 467f 80bc d630 6dbc d061 b4bc 8e48 38bd
00000360: d6ca 7e3c ee52 63bd 7b87 18bd eea7 353d
00000370: 88ac 63bd 9e6d 3cbd 2ba9 493d 1b26 c9bc
00000380: b325 6cbd a0c0 143d 3803 69bd 23b8 4abd
00000390: ab72 2bb9 1415 93bd de89 113d 4394 933d
000003a0: 5302 2fbd 6643 c53c e05f 093d 8893 833d
000003b0: ab93 f4bc e3ca 2b3d 00fb 763c aedc 583d
000003c0: d789 9e3d e0d2 023d c862 4c3d c0c3 973d
000003d0: 4e67 09bd 7fb2 883d 8aa8 9fbd 38cb a4bd
000003e0: ee6e 2b3d 1665 bc3c e3e6 a7bd 3bcc 62bd
000003f0: 0b82 203c cbbf 593c f279 853d 70fc 8bbc
0.054962933 0.09406312 0.034317143 0.029002218 0.0065300544 0.101517886 0.08938859 0.031969037
-0.0051841945 -0.05401433 0.017329969 0.08393928 0.06792113 0.0663534 0.013325467 -0.003527628
-0.04171271 0.048261046 0.10032224 0.10205346 0.104042985 0.07354491 -0.040159523 0.015983297
0.08275336 0.069934756 0.035033733 -0.024042051 0.04014341 -0.0720167 -0.01882581 -0.04884418
0.04443602 0.00570942 -0.010237634 0.028012555 0.081170596 0.092113316 0.097774014 -0.0052208453
-0.021580303 -0.035405718 0.0547771 0.020121597 0.0003750235 0.09032016 0.09007659 -0.022050226
0.01315632 0.023126725 0.03519054 0.0819624 -0.039911672 -0.024316074 -0.031572074 -0.06570647
-0.012983312 -0.07674045 -0.055353183 -0.06851713 -0.029892346 -0.06243187 0.017052157 -0.019830069
-0.06183117 -0.047404557 -0.07328647 0.07961078 0.0026861727 0.042440783 -0.07043299 -0.080225185
-0.010819424 -0.03832997 -0.036527965 -0.012904449 -0.018209029 0.06733508 -0.033937074 -0.030212954
0.093051806 0.06150811 -0.013494635 0.04642966 -0.07163383 -0.05725981 0.06665863 0.054377966
-0.07309342 0.045319155 -0.07969032 0.012700824 -0.06776386 0.055393253 -0.032679774 0.06272074
0.0019461849 -0.004205032 0.052118536 0.0082985265 0.004347543 -0.04410423 -0.03259781 0.065770805
0.035110414 -0.055692654 -0.038368177 -0.026974848 0.016481942 -0.008346136 0.081118606 0.011910198
-0.044000503 -0.07070706 0.002577994 0.009901018 0.03700779 0.05843072 0.005770403 0.04364809
-0.05645407 0.10264332 -0.028589344 -0.020465562 0.10268162 0.0070640417 0.04718046 -0.024944212
0.05725226 -0.016368492 0.022138936 -0.025888197 0.07878107 0.040442705 -0.049608853 -0.011655466
0.013992428 0.059838887 0.018117558 -0.003822141 0.05876204 0.051630836 -0.06301713 0.074157074
0.032162897 0.08131932 -0.08187261 0.02134807 0.0645002 0.025226763 0.079699084 0.06542846
-0.078180045 -0.0310043 -0.0055051446 0.020721596 0.034356974 -0.014698168 -0.00773113 0.013347517
0.04575975 0.068333656 -0.08044114 -0.03382965 0.082907915 -0.020085385 -0.056414656 0.062564105
-0.019653728 0.04132255 0.051429134 0.0040299296 -0.031876087 0.017268162 0.030208906 0.034546446
-0.07630892 0.0063104033 0.053626876 0.029962381 -0.028470516 -0.066742085 -0.08118118 0.03840395
0.0009888014 0.03505824 -0.04430939 -0.07500981 0.027607452 -0.02682068 0.07241993 0.05631596
-0.018501898 -0.04600535 -0.06485316 0.066542834 0.023594132 0.031490993 -0.06944384 -0.07687213
-0.0026714206 -0.07376473 0.049315643 0.075523734 -0.051713735 0.070529684 -0.0036086242 0.00067803264
0.0685656 -0.024148803 -0.05316653 0.024536114 -0.015685689 -0.014476975 -0.022019297 -0.04499107
0.01555129 -0.05549901 -0.03723858 0.044349603 -0.05558446 -0.046002977 0.049233597 -0.024554303
-0.05765314 0.036316514 -0.056887835 -0.049492013 -0.00016350548 -0.07181755 0.03553187 0.07206013
-0.042726826 0.02407999 0.0335387 0.06424624 -0.02985557 0.041941535 0.0150744915 0.05294483
0.077411346 0.031939387 0.049898893 0.07410383 -0.033545785 0.066746704 -0.07795818 -0.080465734
0.041853838 0.02299742 -0.08198335 -0.05537055 0.00979663 0.013290356 0.065174 -0.017088145

convs.1.2.bias f4 [16]
00000000: 10da 88bb 805c 93bd b293 ad3b 0aab a6bd
00000010: 806c d3bc 4807 bb3d aa67 fb3b 6bc8 b6bb
00000020: 6e97 0ebd 78eb 953d cb15 56bd 3b51 41bd
00000030: 1c7c 323b 761a 64bd 09c3 6ebd d34f fa3c
-0.0041763857 -0.07195377 0.0052971477 -0.08138092 -0.025808573 0.09132248 0.00767227 -0.005578091
-0.034812383 0.07320303 -0.052266877 -0.047196608 0.002723462 -0.055689298 -0.05829147 0.030555641

convs.2.0.weight f4 [16, 16, 3, 3]
00000000: a236 3ebd 45b4 a6bc fd13 a53d ed40 e5bc
00000010: c33f c3bc ed1b 7bbd 0fcc 56bd 2b5f ce3d
00000020: 3165 39bc faff 4e3d faca 38bb 2cd6 38bd
00000030: 99ca 8bbb fc9a b6bc ce18 403d 94a2 673d
00000040: 4d76 9c3d ba2c 433d 1e62 4dbd 6421 1f3c
00000050: 3239 7f3d 5114 2a3d 01fb a43d 83f4 6fbd
00000060: 8f04 9b3b c056 993d b082 2cbb 2110 fdbb
00000070: 55c1 333c 97e5 b33d bafc 7bbb 6625 7a3c
00000080: 1d8d b8bb bcbb c7bc 383e 703b d190 60bd
00000090: f471 57bc 5b1c 203d f65f 4dbd 8130 a3bd
000000a0: 15da a6bd e5b6 a9bc 79be 9f3d 76f1 9fbd
000000b0: cabc 96bd fd68 20bd 1c4a 78bd c30f 4abd
000000c0: 80a0 273b 264c 04bd 5cbb 30bd 76b2 9abc
000000d0: 54ce 453d d918 2d3d b50f 1c3d 5b71 203d
000000e0: 32b0 43bd 19ba db3d d889 5cbd 334d 203d
000000f0: 8246 b43d d946 e93c 9702 8bbc 0889 ab3d
00000100: d79b 2b3d aba6 c93d 9ea7 553d e32b 783d
00000110: bf3f aa3d 07bf 47bb cf5d aa3c 1bec aebc
00000120: 8a9c d13d 70a9 653d 3cdc cb3c 181b 873d
00000130: 3cb1 6f3b 79dc 1a3d 9ede be3d 0d34 733d
00000140: 64f8 2fbc 68aa c4bc 6887 28bd cfa0 80bb
00000150: 0cdd cf3d 71a0 ddbc d725 5c3d d638 12bd
00000160: 60e3 7ebc 79f3 a93d e2ed 563d fb1b 793d
00000170: 8533 863d 0d94 2e3d f2fb a93d b5d2 68bd
00000180: c1eb 6fbd 6c0d febb 1484 30bd 1aef 26bd
00000190: b625 a43d bba4 b33d ad1f e13c ba3d be3c
000001a0: 754d c4bc 9ad3 bf3c 670c e83c a8c7 9e3c
000001b0: 3231 eabc f745 ba3b fc41 933d 9590 8b3c
000001c0: e601 24bd 83d5 863d b04a ae3d 77da 333d
000001d0: 977c ea3b 1bc7 313c e191 613d 3ca6 893d
000001e0: dc3c 6abd b899 8c3d 3660 3f3d 124e ab3d
000001f0: e185 cb3d 462a 4cbd 3a12 4d3c d490 7dbc
00000200: af22 4dbc 04b9 a03d a3a9 35bc 4b2b 893d
00000210: 0cd3 b63d 84b1 963d 5d19 db3c 5590 a63d
00000220: c692 863d 2dd1 7cbd aec8 c33b 2474 82bd
00000230: f23a 113c c542 84bc 33dd 61bd 6108 b43d
00000240: d8a2 023d 0faa 81bd 1d7e fc3b e016 743d
00000250: ce65 ef3b 6fd9 8abc e437 81bd ec77 e73c
00000260: eb85 1abd 1767 7cbc 354e 3e3c 126a 43bd
00000270: fd46 133d 3fc4 893d cd97 d2bc ebc2 39bd
00000280: 2adb 913c 3294 33bd d399 743c e4f0 4dbd
00000290: 0926 e73c 852e 6dbd 2984 873d 8ba4 c63c
000002a0: 53a0 c1bc 4d0f e8bb b3fa 933d 626e 903d
000002b0: 0358 5b3d 2e94 97bd eb7a 8ebd 9730 943d
000002c0: 7d49 1b3b 910a 003d c794 3dbd 44b0 1f3d
000002d0: 1416 6abd 4311 dfbc d73d 5bbd bf0d 95bd
000002e0: 20f6 80bd d7e7 92bd 5c28 733c fe59 a0bd
000002f0: ec6d 3f3c d643 693d 0a07 453d 97fb 163d
00000300: a2b1 903d cb3c 713d 5487 30bd ef6c cebb
00000310: 50f7 873d 7229 39bd 689c 49bb ed28 90bd
00000320: 135a 123c 0691 fb3b 2832 a83c c738 17bd
00000330: c77a 9ebd 4bb1 013b cd2a a7bd 6f8c 84bd
00000340: edb5 053d 905b 273c a0ed 753d c73f 953c
00000350: 8ab3 53bd 5ee6 cf3c f1da 18bd 2256 463c
00000360: de5e 993d 05ad 9fbd fe1e 8f3d e291 60bd
00000370: 525a 25bd 4566 173d c912 74bd b2f9 4b3d
00000380: 1aab 383d 679c 8b3c 7d38 a4bd 7609 e1bc
00000390: f1bc 3fbd d75d 2f3d 52f9 90bd 9abe 46bd
000003a0: 38a2 5c3c 87cd 793c db9c 73bd 3624 4a3d
000003b0: 50b9 a0bc a335 2a3d 4633 c9bc a242 a1bd
000003c0: 6ae7 903d cef4 893d 1783 97bd 167b c03b
000003d0: 4fc2 8abd f4ef 6dbd 9d54 acbd d06f 91bd
000003e0: ce59 703d 79df 0ebd 1844 5abc f537 e13c
000003f0: 6144 26bc 7c09 ce3c 9679 2f3d fbbf 6dbd
-0.04643882 -0.020349631 0.08060453 -0.02798506 -0.023834115 -0.06130593 -0.0524407 0.100767456
-0.01131563 0.050537087 -0.0028197155 -0.045126125 -0.004266095 -0.0222907 0.046898656 0.05655153
0.076397516 0.047650076 -0.0501424 0.009712551 0.062310405 0.04152328 0.08055688 -0.058582794
0.004730768 0.074872494 -0.0026323013 -0.00772287 0.010971387 0.08784025 -0.0038450197 0.015267706
-0.0056320564 -0.02438151 0.003665818 -0.054825608 -0.013149727 0.039089542 -0.050140344 -0.07968236
-0.081470646 -0.020717094 0.07800002 -0.07809727 -0.073602274 -0.039162625 -0.06061755 -0.049331438
0.0025577843 -0.032299183 -0.04314743 -0.018883925 0.048292473 0.042260025 0.038100917 0.039170604
-0.047775455 0.10728855 -0.053842396 0.039136123 0.08802511 0.028476166 -0.016969008 0.08375746
0.041896667 0.098462425 0.052161805 0.06058873 0.0831294 -0.0030478851 0.020796685 -0.021352818
0.102349356 0.05606979 0.02488529 0.065969646 0.0036574146 0.037807915 0.093198046 0.05937581
-0.010740373 -0.024007037 -0.04114476 -0.00392542 0.10149583 -0.027054043 0.053747024 -0.035698734
-0.01555714 0.08298392 0.052472956 0.0608177 0.06552795 0.04262166 0.08300008 -0.05684157
-0.05857444 -0.007753065 -0.04309471 -0.04075537 0.08015005 0.08771654 0.027480925 0.023222793
-0.023962716 0.02341633 0.028326226 0.019382313 -0.028587911 0.00568461 0.0719032 0.017036716
-0.040040873 0.06583693 0.08510339 0.043909516 0.0071559655 0.010850693 0.05507076 0.0672116
-0.057186946 0.06865257 0.046722613 0.083645 0.09937645 -0.049845003 0.012516553 -0.015476424
-0.012520476 0.07847789 -0.011087808 0.066977106 0.08926973 0.07358077 0.026745493 0.08132998
0.065709636 -0.061722923 0.0059748506 -0.06369808 0.008864151 -0.01614512 -0.055142593 0.08790661
0.03189358 -0.06331264 0.0077054636 0.059592128 0.0073058372 -0.016949384 -0.063094884 0.028255425
-0.03772537 -0.015405438 0.011615326 -0.04770858 0.03595637 0.06726884 -0.02570715 -0.045351904
0.0178047 -0.043842502 0.014929253 -0.05027856 0.028216379 -0.057905693 0.066170044 0.024248382
-0.023636019 -0.007081902 0.072255515 0.07052304 0.05355073 -0.0740131 -0.069570385 0.0723583
0.0023694925 0.031260077 -0.046284463 0.03898646 -0.05714996 -0.02722991 -0.053525772 -0.072780125
-0.062969446 -0.07173126 0.014841165 -0.07829665 0.011683922 0.05694946 0.048102416 0.03686103
0.07065131 0.058895867 -0.04309781 -0.006299607 0.06638968 -0.04520554 -0.0030763391 -0.07039056
0.008932608 0.0076772003 0.020531729 -0.03691938 -0.07738262 0.0019789513 -0.081624605 -0.06472098
0.0326442 0.010214701 0.06004107 0.018218888 -0.051684894 0.025378402 -0.037318174 0.012105497
0.074887976 -0.07796673 0.06988333 -0.054826625 -0.04036934 0.036962766 -0.059588227 0.049798675
0.04508505 0.017042352 -0.08018587 -0.027470332 -0.046811048 0.042814102 -0.07078804 -0.048521616
0.01346641 0.015246755 -0.05947576 0.04935094 -0.019619614 0.04155506 -0.024560582 -0.07874037
0.07075389 0.06736146 -0.0739805 0.005874048 -0.06775343 -0.058090165 -0.08414576 -0.07101405
0.058679394 -0.03488109 -0.013321899 0.027492503 -0.010148139 0.025151007 0.042840563 -0.058044415

convs.2.0.bias f4 [16]
00000000: 43e8 193d 11fd 553d fd1e 47bd d309 67bd
00000010: 9307 783b 188f 493c c23b b0bc b8f8 a8bc
00000020: d62e 5abd 22e2 cc3d c66c bc3c d230 9d3c
00000030: 1a89 45bd 97d3 743d 7417 dd3c bb9e 3ebd
0.037575018 0.052243296 -0.048613537 -0.056405853 0.0037846311 0.012302183 -0.02151287 -0.02062641
-0.053267322 0.10004069 0.023001086 0.019188318 -0.048226453 0.0597721 0.026988722 -0.046538096

convs.2.2.weight f4 [16, 16, 3, 3]
00000000: fb99 4abb 5c5f 5fbb 71ed a63c ea12 1b3d
00000010: 9aaa 6dbd b966 503d e7fc 683d 42d7 2c3c
00000020: 5364 39bd 72fd 8ebd e6d7 49bc 1fac 03bd
00000030: 7546 0dbd c1cd 98bc cae0 9e3d d15b 51bc
00000040: 4824 acbc 2160 803d 5cd7 8bbd 3ef7 793b
00000050: dc14 cbbb c5b2 15bd 2981 0b3c bddc 93bd
00000060: 1f4f 9f3d 4daf c23c f61f 8cbd 769b 68bc
00000070: 5066 8a3c a0f3 a8bc 20c3 3d3d 98a5 05bd
00000080: b0e3 e4bc 777d 8dbd ceba 68bd e0dd 793d
00000090: 8aaf b3bd 63bc 70bc d89d 81bc fdaa 7c3b
000000a0: e6b3 c0bc 5a51 a3bd 55b4 9fbb b66c dcbc
000000b0: f93c c33c 5a73 9ebd 1827 d13c 3aee a7bd
000000c0: c09e 9bbd d74b 143d 1ec1 2e3d 120e b2bd
000000d0: e20e bc3c 0df2 9e3c 478a 2abd 7c68 9d3d
000000e0: 8ffd 47bd ad61 02bd 02fc 14bd ef37 773c
000000f0: 1769 963d b363 a73d 0d05 983d c4c1 99bd
00000100: f6b9 8f3d 556a a3bd 0749 303d d454 aa3d
00000110: f3c8 26bd de06 1bbb 91b8 0e3b a402 5dbd
00000120: 2bf4 2e3b 1b3e 4c3d 2b60 aa3c ab3c 2fbc
00000130: 46f6 3fbd 23ae 4a3d daef 82bd e26c a6bd
00000140: 2b5a 343c f06a 963c 4e06 36bd 3471 043c
00000150: 81c9 d6bc 710b 94bd 071a 93bd 3f0c b8bc
00000160: cd30 993d 3cb6 4cbd 87bb 99bd db91 35bd
00000170: 5bc7 c23c e676 abbc 1609 50bc bb58 82bd
00000180: a6e4 a8bd 0ba5 7e3c 68cb 63bd 46ce e139
00000190: 11d7 f7bc 7c36 853d 772c 91bc 8a90 c1bc
000001a0: b40c 54bc 9c46 dabc ef8d 9b3d f13f 08bc
000001b0: ca9d 59bd fec4 30bd 776f ce3c f943 4c3d
000001c0: 2bb7 183d 526e 55bd b0d5 a3bd b9e0 3c3d
000001d0: c613 d7bc e103 6dbd b9ab 44bc 1444 47bc
000001e0: 8af9 5b3d 6b85 933d 0f20 13bd e3ef ee3c
000001f0: 6562 683d 1903 073d f8a8 dbbc 823e 62bd
00000200: 11de 893d 61bc 633b ad67 99bd 9bc2 26bd
00000210: d439 a3bc 231a f2bc 03e9 4a3d 266b 8dbd
00000220: fb15 5cbd 7629 cd3c 9bb2 793a bc55 aa3d
00000230: f3e4 b03c 599e 70bc 3d61 85bd 1834 3ebd
00000240: 0018 3d3c ae8f 98bd cb29 7abc 3268 8dbd
00000250: 0054 8cba ce02 603d 7a02 81bd 73c5 79bd
00000260: 4b8e 7e3c 8c73 a23d 2b3e 153d 67a5 a0bd
00000270: 16ba 9cbc a7fa 8abd fe0f 5ebd 0052 49bd
00000280: e329 373d 807c 703d fbcd a4bd 7b64 87bc
00000290: a052 453d ebb5 d8bc 80cb 543c bef4 243d
000002a0: c3d8 21bd fbf8 923c baea a4bd ab19 423d
000002b0: 6085 e9bc d61d 45bc 90da 1e3d 5a75 853d
000002c0: 7428 86bd 8b3d cbbc fbf6 59bd f663 0d3c
000002d0: 9016 8dbd 966c 6c3d 4044 cd3b 6b1d 9bbd
000002e0: 9e79 1f3d 74e5 a9bd 40d0 343d 9bfb b03c
000002f0: 769d 5b3d 16c8 143d 2b38 28bb 16a9 a83d
00000300: d0f4 863d e36b 383d 1382 7e3d a3fb 243d
00000310: 4330 803d 133a 353d 239f 493d 0b79 f33c
00000320: 0a5e aa3d 508b 14bd 56db e83a 56cc 403d
00000330: 6b96 9fbc 2baa 89bb 9b08 1b3d 4a23 843d
00000340: 0a84 913d 76fe 153d eb43 38bc 40ac 9b3c
00000350: c3e3 11bd 0bf2 083d 3815 74bd 2bd5 703b
00000360: 02a7 93bd 6002 983d 4b5f 103d 26ac 373d
00000370: 36b6 853d bed8 58bd 56e5 883c 7e5d 9b3d
00000380: 63f0 293d dbb5 93bd 668b 4abd 8a89 a2bd
00000390: e085 05bd c063 8bbd 6c84 8b3d 0872 01bd
000003a0: 9efe 5a3d 9680 a8bc e01c 163d 96f3 66bd
000003b0: 7ecd 453d e060 3dbd 4bab 38bc 1b4e cabc
000003c0: a01b edbc 7380 7ebd fb5b 253d 98ab 00bd
000003d0: 001b 56bb a070 ed3c 809d 4ebc c89a 28bd
000003e0: eb46 ed3b 8b52 a83d 9ea3 4fbd 002c 173b
000003f0: 331d 0abd 5b84 9fbc 2be6 82bd c624 eb3c
-0.0030914533 -0.0034083938 0.020376893 0.037859835 -0.058024026 0.050879214 0.05688181 0.010549368
-0.045261692 -0.069819346 -0.012319541 -0.03214657 -0.03449102 -0.018652799 0.07757719 -0.012778238
-0.021013394 0.06268335 -0.06828186 0.0038141753 -0.006197555 -0.03654744 0.008514681 -0.07219837
0.07778763 0.02376523 -0.068420336 -0.014197221 0.01689449 -0.020623982 0.046328664 -0.032628626
-0.027940601 -0.06908696 -0.056818776 0.061002612 -0.08773716 -0.014693352 -0.015822336 0.0038554065
-0.023523282 -0.07974501 -0.004873792 -0.026907306 0.023832785 -0.07736845 0.025531337 -0.08199735
-0.075986385 0.03620514 0.04266464 -0.0869409 0.022956315 0.019402528 -0.041635778 0.076859444
-0.048825797 -0.031831432 -0.036373146 0.015089019 0.07344263 0.08173313 0.07422838 -0.07507661
0.07017891 -0.079792656 0.043038394 0.08316961 -0.040718984 -0.0023655216 0.002177749 -0.053957596
0.0026695828 0.049863916 0.02079781 -0.010695617 -0.046865724 0.049482476 -0.06393404 -0.081262365
0.011007826 0.018361539 -0.044439606 0.00808363 -0.026219131 -0.07228745 -0.07182699 -0.022466777
0.07480011 -0.04997848 -0.07506471 -0.04432855 0.0237767 -0.020930719 -0.012697479 -0.0636458
-0.08246736 0.015542279 -0.055613905 0.0004306903 -0.030253919 0.06504533 -0.017721398 -0.023628492
-0.012942482 -0.026644997 0.07595431 -0.008316026 -0.053128995 -0.043156616 0.025199635 0.04986951
0.037284058 -0.052107163 -0.07999742 0.04611275 -0.026254546 -0.057865027 -0.0120038325 -0.012162227
0.053704776 0.07203182 -0.035919245 0.029167121 0.05673446 0.03296194 -0.026813969 -0.055235393
0.06731809 0.0034749734 -0.07490478 -0.040712934 -0.019925036 -0.029553479 0.049538624 -0.069052026
-0.0537319 0.025044184 0.00095252105 0.08317134 0.021593546 -0.0146861905 -0.06512687 -0.0464364
0.011541367 -0.0744928 -0.015268753 -0.06904639 -0.0010706186 0.054690175 -0.062993005 -0.060979318
0.015536855 0.07932195 0.03643624 -0.07844048 -0.019131701 -0.067860894 -0.05421447 -0.049150467
0.04471768 0.058712482 -0.080471 -0.016527405 0.0481745 -0.026453933 0.012987971 0.040272467
-0.03951336 0.017940989 -0.08052583 0.04738776 -0.028505981 -0.012031039 0.038782656 0.06516524
-0.065506846 -0.02480962 -0.053214055 0.00862979 -0.06889069 0.057720743 0.0062642395 -0.075739704
0.038934343 -0.08295718 0.044143915 0.02160435 0.053616963 0.03632363 -0.0025668244 0.082353756
0.06589663 0.045024764 0.062135767 0.040279042 0.06259205 0.044244837 0.04922403 0.029720804
0.08318718 -0.03626567 0.0017765563 0.04706987 -0.019480905 -0.004201194 0.037850004 0.06452043
0.071052626 0.036619626 -0.011246662 0.019003034 -0.0356176 0.033433955 -0.05959055 0.0036748152
-0.072095886 0.07422328 0.03524713 0.044841908 0.065288946 -0.052941076 0.016710918 0.075861916
0.041489016 -0.072124206 -0.049449347 -0.0793639 -0.032598376 -0.06806135 0.06812367 -0.03160289
0.053465478 -0.020569127 0.03664863 -0.056384645 0.048291676 -0.046234965 -0.011271308 -0.024695447
-0.028943837 -0.062134217 0.040370923 -0.031413645 -0.0032669902 0.028984368 -0.012610793 -0.041163236
0.00724112 0.08218869 -0.050693147 0.0023066998 -0.033719253 -0.019472292 -0.06391557 0.028704058

convs.2.2.bias f4 [16]
00000000: 3b6b 983c bb29 eabc 1fdf d63c 8b58 01bc
00000010: 4056 7c3d 1744 d7bc 900d d63c a4fb 3d3d
00000020: 2c13 e1bc 96c5 ad3d 3260 a3bd 0320 3f3d
00000030: 3eb4 1e3d f460 6ebd f9f9 73bd 1c27 2b3d
0.018605819 -0.028584352 0.02622944 -0.007894645 0.061605692 -0.026277585 0.026129514 0.04638256
-0.027474962 0.08484952 -0.07977332 0.046661388 0.03874611 -0.05819793 -0.059564564 0.041785344

out_convs.0.weight f4 [1, 16, 1, 1]
00000000: 856e 10be 9003 6f3e b88a 0bbe 3555 023b
00000010: f94e a73d a91e 67be 3fe0 983d a3e7 33be
00000020: 160c 0f3d 78c5 efbd 6874 493d ffb8 5cbe
00000030: 73d4 f93c 273d e7bd b029 52be d136 ae3d
-0.1410466 0.23341203 -0.13627136 0.0019887213 0.0816936 -0.2257029 0.074646465 -0.17568831
0.034923635 -0.11707586 0.04918328 -0.21554945 0.030496811 -0.11290961 -0.20523715 0.08506549
