save/60_model_EX.pth (torch, 13335 bytes, 5 tensors)

convs.0.0.weight f4 [16, 3, 3, 3]
0	0x3e885846	0.26629847
1	0x3decef5f	0.11569094
2	0xbd45d11a	-0.048295118
3	0xbaa7d216	-0.0012803699
4	0x3d98e1fd	0.07464979
5	0xbc9e5e1d	-0.019331986
6	0x3e70f277	0.23529993
7	0x3e31bbc4	0.17356783
8	0x3db3ab56	0.08772914
9	0xbd186679	-0.0372071
10	0x3e4083d7	0.18800293
11	0xbd4f9896	-0.050682627
12	0x3e3c4c5d	0.18388505
13	0x3a9c5fa1	0.0011930355
14	0x3e3d7201	0.1850052
15	0xbda71fbf	-0.08160352
16	0x3d98badf	0.07457518
17	0xbcaaf4b6	-0.02086864
18	0x3e905242	0.28187758
19	0x3e725d84	0.23668486
20	0x3d466fba	0.048446395
21	0x3e8437cf	0.2582383
22	0x3d84a6d0	0.064771295
23	0xbca622aa	-0.020280201
24	0x3e10c001	0.14135744
25	0x3e04cf7d	0.12969775
26	0x3e31f38d	0.17378063
27	0xbe12d2c5	-0.14338215
28	0xbd5adc05	-0.053432483
29	0x3e21ae78	0.15789211
30	0x3d74155f	0.059590694
31	0x3c1a6a57	0.009424767
32	0xbd06122d	-0.032732178
33	0x3dd87a94	0.10570255
34	0xbe1dc05a	-0.15405408
35	0x3cf951b5	0.030434469
36	0xbe2aec37	-0.16691671
37	0xbd345de8	-0.04403487
38	0x3e021b3e	0.12705705
39	0xbe3614bc	-0.17781347
40	0x3e281526	0.16414317
41	0xbe0057ba	-0.12533465
42	0xbd8a302f	-0.067474715
43	0x3c8a59e5	0.016888568
44	0xbada001e	-0.0016632115
45	0xbda4117c	-0.080111474
46	0xbe1aad32	-0.15105131
47	0x3c87ab2a	0.01656111
48	0x3e1ce116	0.15320238
49	0xbdb50810	-0.088394284
50	0xbcb811c7	-0.022469414
51	0xbd559ec0	-0.05215335
52	0xbe276b7b	-0.16349594
53	0xbdf40bb3	-0.11916294
54	0x3e26c5d7	0.16286407
55	0x3e39234e	0.18079874
56	0x3e98e025	0.2985851
57	0x3e695686	0.22786912
58	0xbd4f6ec5	-0.050642747
59	0x3caea8e5	0.02132077
60	0x3e90b9e4	0.28266823
61	0x3c4d77f2	0.012540804
62	0xbd8b7fff	-0.06811523
63	0x3e5c7953	0.21530657
64	0x3e995209	0.299454
65	0x3da60124	0.08105686
66	0x3e6d7f04	0.23192984
67	0x3e89a1a9	0.2688115
68	0x3d04a506	0.03238394
69	0x3dc801a1	0.09765936
70	0x3d14c356	0.0363191
71	0x38114db6	3.4643068e-05
72	0x3bf80fb4	0.0075702313
73	0x3dbd4c3d	0.09243057
74	0x3d5075ff	0.05089378
75	0xbcb8ca3e	-0.022557374
76	0x3e05f4fd	0.13081737
77	0x3e34c927	0.17654859
78	0x3e94b970	0.29047728
79	0x3e3ee3fa	0.18641654
80	0x3d12fed5	0.035887558
81	0xbd68d2a4	-0.056841508
82	0x3dd19ef3	0.10235395
83	0x3e5ed7c3	0.21761994
84	0x3e2f7395	0.17133935
85	0x3ddfd043	0.10928395
86	0x3e5ccf8d	0.2156355
87	0xbc152f69	-0.009105542
88	0x3dff0b35	0.124533094
89	0x3e0f8dfe	0.1401901
90	0x3e725f2f	0.23669122
91	0x3e0a5930	0.13510585
92	0xbd505741	-0.05086446
93	0x3e8d1e6c	0.27562273
94	0x3e2ead61	0.17058326
95	0x3e8f659c	0.2800721
96	0x3e88d63d	0.2672595
97	0x3d4a9370	0.049457014
98	0xbcfc3f6c	-0.03079196
99	0x3daac530	0.08338392
100	0x3b08838a	0.0020830357
101	0xbd8377a8	-0.06419307
102	0x3d56c152	0.05243046
103	0x3d4e8350	0.050418198
104	0x3dba3774	0.09092608
105	0x3e36697f	0.17813681
106	0x3e39b1be	0.1813421
107	0xbd6e3930	-0.058160007
108	0x3d8b8804	0.06813052
109	0x3d7b8181	0.0614028
110	0x3e829cbc	0.25510204
111	0x3ca146ea	0.019687135
112	0x3e081b6e	0.13291714
113	0x3c12e37a	0.008965367
114	0xbd5a58db	-0.053307395
115	0x3e0fd944	0.14047724
116	0x3e041a2e	0.12900612
117	0x3e48df73	0.19616489
118	0x3e36ec48	0.17863572
119	0x3d7f2199	0.0622879
120	0x3ded6997	0.11592405
121	0xbaf94d39	-0.0019020207
122	0x3e7ed897	0.2488731
123	0xbc1a5eb7	-0.009421996
124	0x3dc8582f	0.09782445
125	0x3e58007e	0.21093938
126	0x3e7feff1	0.24993874
127	0x3e8383ba	0.25686437
128	0xbdb60ae0	-0.08888793
129	0xbd528101	-0.05139256
130	0x3dbdb8b5	0.09263746
131	0x3e1186ea	0.14211622
132	0x3da99be6	0.082816884
133	0x3e63c453	0.2224286
134	0xbc01f12f	-0.007931038
135	0x3e1b9136	0.15192112
136	0x3ddb8545	0.107187785
137	0x3d7c0d9e	0.061536424
138	0x3e286bbc	0.16447347
139	0x3e2cb0ca	0.16864315
140	0xbdac609d	-0.08416865
141	0xbd300458	-0.042972893
142	0xbcf00475	-0.029299
143	0xbd584105	-0.052796382
144	0xbdeaa638	-0.11457485
145	0x3c4b44a6	0.012406504
146	0xbb9d2ea5	-0.00479682
147	0xbdc9144a	-0.09818323
148	0x3e3ca9b5	0.18424113
149	0x3c1e4fcc	0.00966258
150	0xbd9c264a	-0.076244906
151	0xbdc2f922	-0.095201746
152	0xbe4155c8	-0.18880379
153	0x3d3369ef	0.043802198
154	0xbc42018a	-0.011841187
155	0xbdbac845	-0.0912023
156	0x3e2c6d36	0.16838536
157	0x3db37349	0.08762223
158	0xbe2b64a8	-0.16737616
159	0x3dd9b7b4	0.10630742
160	0xbe14364b	-0.14473836
161	0x3e1ed54b	0.15511052
162	0x3f096bdb	0.536802
163	0x3f0601b8	0.5234637
164	0x3f2d7a7d	0.6776503
165	0x3f2761a1	0.65383345
166	0x3ec63542	0.38712507
167	0x3f02249c	0.5083711
168	0x3ef3cbfb	0.47616562
169	0x3f248e75	0.6427987
170	0x3ed6a793	0.41924724
171	0x3eccddba	0.40012914
172	0x3f2f6b2d	0.6852291
173	0x3eae5fd3	0.34057483
174	0x3f0f1434	0.558902
175	0x3ed79174	0.4210316
176	0x3eee4078	0.4653356
177	0x3f0c2b66	0.5475372
178	0x3f31b30f	0.69413847
179	0x3eb69998	0.35664058
180	0x3ebb0d1a	0.36533433
181	0x3f0b3bf8	0.5438838
182	0x3f0f5e03	0.56002825
183	0x3f2e9bcf	0.68206495
184	0x3ee20f45	0.44152275
185	0x3ef07869	0.46966866
186	0x3f28b2d4	0.6589787
187	0x3f116490	0.5679407
188	0x3f293f1e	0.66111934
189	0xbd628e14	-0.055311278
190	0x3e475d06	0.1946908
191	0x3df48998	0.119403064
192	0x3e931ed7	0.28734466
193	0xbd382f07	-0.044966724
194	0x3e80373f	0.2504215
195	0x3d374c64	0.044750586
196	0x3e35a7f3	0.17739849
197	0xbcaadb41	-0.020856502
198	0x3e678d41	0.22612478
199	0x3e314729	0.17312302
200	0x3db3de00	0.087825775
201	0x3e84c5b1	0.25932077
202	0x3e09b319	0.13447227
203	0x3e6b01b1	0.22949864
204	0x3df24e1e	0.11831306
205	0x3e94b472	0.2904392
206	0x3cf0dbd5	0.0294017
207	0x3d1d3a4a	0.038385667
208	0xbc8c016f	-0.017090527
209	0x3db08eda	0.08620997
210	0xbd8912b5	-0.06693021
211	0x3d9b8f38	0.07595676
212	0xbd3344eb	-0.043766897
213	0x3e42cb24	0.19022804
214	0x3e9515fa	0.2911833
215	0x3dc8f60b	0.09812554
216	0xbd9e1fed	-0.07720933
217	0x3d1ff7c1	0.039054636
218	0xbdb15d72	-0.086604014
219	0x3dca8907	0.09889417
220	0x3e12355c	0.14278167
221	0xbd81c482	-0.06336309
222	0x3d25fca3	0.040524136
223	0xbcd15837	-0.02555476
224	0x3de0bd8b	0.109736525
225	0x3ded7634	0.11594811
226	0x3e05ace5	0.13054235
227	0xbd7d5eb5	-0.061857898
228	0x3df5f1e5	0.12009028
229	0xbdd9b700	-0.106306076
230	0x3db4b467	0.088234715
231	0xbdea02a2	-0.114262834
232	0xbe5462de	-0.2074084
233	0x3db2d451	0.087319024
234	0x3e0447a2	0.12917951
235	0xbd261359	-0.040545795
236	0xbe0e06ef	-0.13869832
237	0xbd12504d	-0.035721112
238	0x3b0c0ff6	0.0021371818
239	0x3e2ce216	0.1688312
240	0xbe478c15	-0.19487031
241	0xbd57a7dc	-0.052650318
242	0x3d0bc16c	0.03412001
243	0x3e572b97	0.21012722
244	0x3e2e0d5d	0.16997285
245	0x3e92d515	0.28678194
246	0x3e0ccbf6	0.1374968
247	0x3d0e1179	0.034684632
248	0x3e8b9598	0.27262568
249	0x3da2d944	0.079515964
250	0xbd4a97fc	-0.04946135
251	0x3dade6d3	0.08491292
252	0x3e6784c2	0.22609237
253	0x3d66458a	0.05621866
254	0x3e897629	0.26847962
255	0x3e80154f	0.25016257

convs.0.0.bias f4 [16]
0	0x3e5556ec	0.2083394
1	0xbe2c269c	-0.16811603
2	0x3e31d48c	0.17366236
3	0x3e15fe2c	0.1464774
4	0x3e3c15e8	0.18367732
5	0xbe473ed5	-0.19457562
6	0x3f3b1e14	0.7309277
7	0x3e722dd6	0.23650298
8	0xbde07fc7	-0.109618716
9	0x3e10d912	0.14145306
10	0x3e362251	0.17786528
11	0x3ea76ead	0.32701626
12	0x3e964a05	0.29353347
13	0x3e4de2bf	0.20106028
14	0x3e214a66	0.15751037
15	0x3e24fdd8	0.16112459

convs.0.2.weight f4 [16, 16, 3, 3]
0	0xbdb5b079	-0.0887155
1	0x3d8f96d7	0.07011192
2	0x3d28c46b	0.041202944
3	0xbd493cad	-0.04913013
4	0x3c67a492	0.014138358
5	0x3b822ad2	0.0039723897
6	0xbd1b9780	-0.03798628
7	0x3d0853b0	0.033282936
8	0x3cdc7c22	0.02691466
9	0x3d64d26d	0.05586474
10	0x3d781b46	0.060572885
11	0x3d6340e3	0.055481803
12	0xbd9a7c2e	-0.07543217
13	0x3d3412ef	0.04396337
14	0xbb7ac556	-0.0038264594
15	0xbd157856	-0.036491714
16	0xbc48bb7d	-0.012251732
17	0xbc5d2256	-0.013496956
18	0x3d49bbc7	0.049251344
19	0xbb0edad0	-0.0021797903
20	0x3cedfcbf	0.029051183
21	0x3db08a47	0.08620124
22	0x3c1c43cd	0.009537649
23	0x3c428512	0.011872547
24	0xbc24dbd3	-0.010062176
25	0xbc289ec8	-0.010291763
26	0xbc9f704f	-0.019462733
27	0xbd88ca8c	-0.06679258
28	0xbd819042	-0.06326343
29	0x3c929588	0.017893568
30	0x3ccd582c	0.025066458
31	0xbd418b78	-0.04725215
32	0x3c1e5b41	0.009665311
33	0xbc8b1b1b	-0.016980698
34	0xbb6400c5	-0.0034790498
35	0xbd724d1a	-0.05915556
36	0x3d25f336	0.040515147
37	0x3cdb16b3	0.026744222
38	0xbd0a66db	-0.033789497
39	0xb91912b0	-0.00014598179
40	0x3d836ce1	0.064172514
41	0x3d12b77a	0.035819508
42	0xbd39cad6	-0.045359455
43	0xbd61fff1	-0.055175725
44	0x3d4dc159	0.05023322
45	0xbd9e981e	-0.07743858
46	0x3b9bcb9f	0.004754498
47	0xbca0f773	-0.019649243
48	0xbd096101	-0.033539776
49	0xbd410435	-0.047123153
50	0xbd706ce4	-0.058697596
51	0xbbadbde8	-0.0053021796
52	0xbd8fc35f	-0.07019686
53	0xbd9c9fa8	-0.076476395
54	0xbd8a0fa6	-0.06741266
55	0x3d9ce1fc	0.076602906
56	0x3d96a9c8	0.07356602
57	0xbd9122dd	-0.07086728
58	0xbd48e488	-0.04904607
59	0x3c0309c3	0.007997933
60	0xbd59f6ad	-0.053213764
61	0xbd44b6d6	-0.04802593
62	0x3c43a9b7	0.011942319
63	0xbd5f56ba	-0.05452607
64	0x3d7e7e81	0.062132362
65	0x3d27ba27	0.040949013
66	0xbce2628f	-0.027634887
67	0x3c9f9cf7	0.019484026
68	0xbd3aec07	-0.04563525
69	0xbd2b080c	-0.04175572
70	0x3d5388ce	0.05164414
71	0x3ce1da66	0.02756996
72	0x3d835da8	0.06414348
73	0x3d0ece59	0.034864757
74	0x3c5c140d	0.013432515
75	0xbca9e4df	-0.020739017
76	0x3d384911	0.044991557
77	0xbb60aa3a	-0.003428115
78	0x3d29ced8	0.041457027
79	0x3d8baf1d	0.068205096
80	0xbda29348	-0.07938248
81	0xbb725224	-0.003697523
82	0x3d434e12	0.047681876
83	0xbd7323e7	-0.05936041
84	0xba878fdb	-0.0010342555
85	0x3c85141c	0.01624494
86	0x3d31693f	0.04331326
87	0xbda5d52e	-0.080973014
88	0xbd187c7a	-0.037228085
89	0xbd264e57	-0.040602054
90	0x3d3e6f6f	0.04649299
91	0x3c282ca8	0.010264553
92	0xbcf579a6	-0.029965233
93	0xbd4f9e85	-0.050688285
94	0xbd93dab4	-0.07219449
95	0x3d47dbd4	0.04879363
96	0xbdaeab3b	-0.08528753
97	0xbd930603	-0.07178881
98	0xbd6c884c	-0.05774717
99	0xbc8ef20a	-0.017449398
100	0xbc973fe1	-0.018463077
101	0xbd02a201	-0.03189278
102	0xbcb862e0	-0.022508085
103	0xbd56b1ac	-0.052415535
104	0xbd40f232	-0.047105975
105	0xbcaaef14	-0.020865954
106	0xbd2f0a52	-0.04273445
107	0x3c984909	0.018589513
108	0xbd8f6dc3	-0.07003357
109	0xbcb5ebb7	-0.022207124
110	0x3d6617e8	0.056175143
111	0xbc7c8d85	-0.0154146
112	0xbd8ccc6a	-0.068749264
113	0xbd9bcd5d	-0.07607529
114	0x3d406f1a	0.046980955
115	0xbcc52197	-0.024063868
116	0xbc3e6f39	-0.011623197
117	0xbc7d7144	-0.015468899
118	0x3cbfa895	0.023395816
119	0x3d8270ef	0.063691966
120	0xbda44e91	-0.08022798
121	0x3cf82832	0.030292604
122	0x3d89a207	0.067203574
123	0x3d8256eb	0.063642345
124	0x3aad2bf9	0.0013211957
125	0xbd872273	-0.065983675
126	0xbd27535a	-0.040850975
127	0x3d1ee787	0.03879502
128	0xbc8b20fe	-0.016983505
129	0xbd01a540	-0.031651735
130	0x3dbbec09	0.091758795
131	0x3dca50c9	0.0987869
132	0x3d07979a	0.033103563
133	0xbd69f8d3	-0.057122063
134	0xbd9d2a15	-0.07674042
135	0xbc7d0ba9	-0.0154446745
136	0x3d5d8526	0.05408206
137	0xbc53d12c	-0.012928288
138	0x3d5d8140	0.05407834
139	0x3d91583d	0.07096908
140	0x3d1e0e30	0.03858775
141	0xbd314487	-0.043278243
142	0x3d06bacd	0.03289299
143	0xbd95dbe6	-0.07317333
144	0xbcd5a4be	-0.026079532
145	0xbcf0b02e	-0.029380884
146	0xbda495c7	-0.0803638
147	0xbd9180ec	-0.07104668
148	0xbda508d9	-0.08058328
149	0xbcfa7224	-0.030572005
150	0xbd121002	-0.035659797
151	0xbdad3c51	-0.0845877
152	0x3cfbd9d2	0.030743513
153	0xbcdbbb9b	-0.026822856
154	0xbd47d201	-0.04878426
155	0x3da209fb	0.0791206
156	0xbd615080	-0.05500841
157	0xbd0730b9	-0.03300545
158	0x3cd0462d	0.025424087
159	0xbd517f33	-0.051146697
160	0x3cdbb68f	0.02682045
161	0x3d4b7475	0.04967161
162	0x3afb15d8	0.001915629
163	0xbda9e560	-0.08295703
164	0x3d7fcb34	0.06244965
165	0xbd4ebb74	-0.050471738
166	0xbd91cf9a	-0.07119675
167	0xbced5904	-0.02897311
168	0xbd1814d1	-0.037129227
169	0x3d5cbb75	0.05388971
170	0xbd1c499f	-0.038156148
171	0xbd7d010a	-0.06176857
172	0x3d4ff4dc	0.050770625
173	0xbd6e5539	-0.058186743
174	0xbcd99d4c	-0.026564263
175	0x3d1c8671	0.03821415
176	0x3cfad383	0.030618435
177	0xbd829d0c	-0.063776106
178	0x3d590087	0.05297902
179	0x3d2cbb29	0.042170677
180	0x3d81c57a	0.06336494
181	0x3d8054d5	0.062661804
182	0xbd1f9eb8	-0.038969725
183	0x3cb9f411	0.022699388
184	0xbc117f96	-0.0088805165
185	0x3cd1d448	0.025613919
186	0xbdbe7eb8	-0.093015134
187	0x3cf63e19	0.030058907
188	0xbcf2cb26	-0.029637884
189	0x3d1e219a	0.038606264
190	0xbd384dfe	-0.044996254
191	0x3c059269	0.008152583
192	0x3da440f8	0.08020204
193	0xbd1fbda2	-0.038999207
194	0xbb86867d	-0.0041053877
195	0xbc98e675	-0.018664578
196	0xbd28fa57	-0.041254368
197	0x3cafb29f	0.021447478
198	0xbd15a44e	-0.036533646
199	0x3b208c22	0.0024497588
200	0x3caca9ea	0.021077115
201	0x3d9f0a35	0.07765619
202	0xbd3073a2	-0.043079026
203	0xbd3bbc6a	-0.045833983
204	0x3cdff630	0.027339071
205	0x3b18f98c	0.00233421
206	0x3c365007	0.011127478
207	0xbd19219b	-0.037385564
208	0xbdb9e5f1	-0.09077061
209	0x3c955b0a	0.018231887
210	0x3d3e1eba	0.046416022
211	0xbb47d4bb	-0.0030491787
212	0x3d44cd3f	0.0480473
213	0x3d352ea3	0.04423393
214	0xbc56add8	-0.013102971
215	0xbda8e244	-0.08246282
216	0x3cb9a1c4	0.022660144
217	0xbc6f948c	-0.014622819
218	0xbd843565	-0.06455497
219	0xbd4a831f	-0.049441453
220	0x3d1ed6b9	0.038778994
221	0x3cdfef3e	0.02733576
222	0x3d5e354e	0.054250054
223	0xbd2f85de	-0.042852275
224	0xbd2e7333	-0.04259033
225	0xbd9a8225	-0.07544354
226	0x3c8a4c40	0.016882062
227	0xbd1351ef	-0.03596681
228	0xbdc078b5	-0.09398023
229	0xbcc38ae2	-0.023869935
230	0xbd0a39c5	-0.0337465
231	0x3d209f00	0.039214134
232	0xbd78e938	-0.06076929
233	0xbca66b0e	-0.02031472
234	0x3d867101	0.065645225
235	0xbcf8b71b	-0.030360749
236	0xbcdade7e	-0.02671742
237	0xbd893ebb	-0.06701418
238	0x3ca825d0	0.020525843
239	0xbd72cfc1	-0.05928016
240	0x3d58babe	0.052912466
241	0xbc570d35	-0.013125707
242	0xba8b427e	-0.0010624675
243	0xbdc6ac23	-0.09700801
244	0x3d1a82d1	0.037722412
245	0xbdb027e0	-0.086013556
246	0xbce7d9ee	-0.02830216
247	0xbc551449	-0.013005325
248	0x3d0671ef	0.0328235
249	0x3bd0ae09	0.006368403
250	0x3bce18be	0.0062895706
251	0xbab61760	-0.0013892464
252	0xbd854fef	-0.06509387
253	0xbdbec04f	-0.09314024
254	0xbcf98c97	-0.030462546
255	0x3d746c0d	0.059673358

convs.0.2.bias f4 [16]
0	0xbdb0c630	-0.08631551
1	0x3c3b3fd6	0.011428794
2	0x3c8563cc	0.016282938
3	0xbca8910e	-0.02057698
4	0x3c8ee8ff	0.017445086
5	0x3e538944	0.20657831
6	0x3caa0480	0.020754099
7	0x3e167fdf	0.14697216
8	0xbd738938	-0.059457034
9	0x3e3303c3	0.17481904
10	0x3b83d45b	0.0040231175
11	0x3d6b3221	0.057420854
12	0x3e0edfff	0.13952635
13	0xbb46f7c6	-0.0030360087
14	0x3d60d038	0.054886073
15	0x3e304e0e	0.17217276

convs.0.4.weight f4 [1, 16, 1, 1]
0	0x3d5dde3a	0.05416701
1	0xbda1bead	-0.07897697
2	0xbde0c93e	-0.10975884
3	0xbe648e09	-0.22319807
4	0xbaceca29	-0.0015776801
5	0x3e49f464	0.19722134
6	0xbdaed3b1	-0.08536471
7	0x3e575c66	0.21031341
8	0xbe5ecf27	-0.2175871
9	0x3e51c44f	0.20485042
10	0xbbcb6c7c	-0.0062080007
11	0x3ebcbe51	0.3686395
12	0x3eadd9e9	0.33955315
13	0xbc96995f	-0.01838368
14	0x3a9a924c	0.0011792867
15	0x3eab5b5c	0.3346814
