save/60_RES_decom.pth (torch, 13271 bytes, 5 tensors)

inconv.0.weight f4 [16, 3, 3, 3]
00000000: a5d4 5e3e 4975 6c3e 0c10 cabd 869b 793c
00000010: 1ce9 f0bd 7ab8 e4bd 0a22 783e dad4 65bb
00000020: 2609 353e a5b5 1dbe a069 0d3e dcc9 c83d
00000030: 3e21 023e f987 0c3d ddbe 1b3e a145 a4bd
00000040: 9c7a 00be 21df 28bc a3c9 583c f309 053e
00000050: 73c8 053d 081b eb3d 7833 133e 3b55 053e
00000060: 534d 0bbe 1b5b 973d 7b8d 61bc 29f2 e63d
00000070: 592d f2bd c2c5 eabc b4e5 e1bd fde9 193e
00000080: 68b2 4bbe 6812 d53d f877 333e c91b f83c
00000090: 749e 13be 997b 483e 34f5 47be 2267 273e
000000a0: 0331 8d3d b79e 02be b4a0 33be 0d72 933d
000000b0: f17b 30be 9296 b7bd 55bc e8bd cb7d cebc
000000c0: e8a2 2abe 38a1 bd3d 9366 3bbc b332 e43d
000000d0: e650 b83d 7219 11be ca05 2dbe 859d 113e
000000e0: cb17 3e3d e7ea e3bd e5c8 1bbd 3f19 81be
000000f0: 6dd4 4fbe 4653 84bd 4f15 80bd f729 9d3d
00000100: 1013 3f3e 4907 7b3e 58aa 523d 1a8d e93d
00000110: 31e7 763d 98d9 353e 51d1 3d3d d5a1 633e
00000120: d6ef f73d c71c c73d e83e 40be 4add 70be
00000130: ff4e 34be bec8 98bd a050 43be 3936 febd
00000140: 1466 923d c8be c93c 1a65 cd3d 1a21 24be
00000150: 3a9f 43bd 740e 8e3d 3b4f 00be 8577 25be
00000160: 32d2 e13d 454e bd3c 032a 843d d494 c33d
00000170: 2f64 2a3e 96f4 8a3d 78c9 1ebe df7c 703d
00000180: 5e53 07be 91ba babd abc3 28be bc0f fbbd
00000190: 09ad cdbd eed8 c03d 0c9a 9fbb 7f28 89bd
000001a0: 8b44 233e 9180 943d 0208 003d e760 39be
000001b0: 8997 80bd dd37 d9bc d142 e6bc f9ff 45be
000001c0: 1cfa 013d 4ff9 f8bd 52a4 863d 68a2 e73d
000001d0: 343c 193d 5290 063e 9926 10bb 3a24 193e
000001e0: 2b9d 34be ac8d 643d 1d1f 4cbe 2399 5fbd
000001f0: ef51 253c db9b 773d f942 2d3e 9d5c 473d
00000200: 166f 10be 86da 2dbe 3a3f c2bd 9d13 1b3e
00000210: 6051 093d 03a4 34be ead1 22be 5bcd 393e
00000220: d235 eabd 7173 343e ea7a 263e 6947 f43d
00000230: ce9d 96bd 4f04 a7bd 705b 22be 2e00 d73d
00000240: da83 46be e2a3 4abe 8e41 eb3d 27f7 103e
00000250: fdea 1f3e 554c 53be 4e55 893d 422f c3bd
00000260: b409 25bd 1492 9c3d d5cf 29be 9d80 0d3c
00000270: c559 41bd 4e1b cabc f601 e63d 5c52 663d
00000280: 2408 593d 7a20 ab3d 3479 3dbe e517 2dbe
00000290: 8ef2 55be f041 133e c4f2 1a3e 3752 f63d
000002a0: 5e5a ef3b 0539 e03d fe01 0cbe 67e5 2ebe
000002b0: 76ef 1cbd 695c 223e 41e3 f6bd c26a 5f39
000002c0: 9b81 d9bc a75f ed3c 08cb b1bc 41e4 c9bd
000002d0: 5591 023e fbcc 21be 1ace 5d3d a195 6cbd
000002e0: 0960 59bd 175b 1cbd eef2 20bc 0e86 aa3d
000002f0: 6172 9e3c 730e 86bd 885b 94bd 7ceb 003d
00000300: 254b 3abe a515 4bbe e6fd f33b 4485 39bd
00000310: 83fd 003e 226d 5c3e 14fd f33d 6a4a 1cbe
00000320: a3d1 7f3c 27b3 5c3d 8352 f7bc a966 323e
00000330: 595b 53be 0258 0a3e e175 64bd 63a1 4dbe
00000340: 6b83 b4bd 063b cbbd b1b6 c03d b895 5ebe
00000350: 74a9 293c c67b 3bbe 1f05 eebd c6be 0a3e
00000360: 08e2 d13d 1847 1cbe 1eda a63d fe2b 97bd
00000370: deca 223e 1450 173d 72ff 0d3e d466 3739
00000380: 7dc8 cabd a57c 803d aab5 3cbe 3566 883d
00000390: 0c0a 22bc fcd3 08be d704 103e 3ab2 04be
000003a0: 49d1 cbbd 91dd c3b9 9300 09be 82fa 1abe
000003b0: 6d8e d0bd 33a4 e53d 2d4d e2bc 73a2 67bd
000003c0: 1973 893d b436 0fbe 9304 893c 16cd 46be
000003d0: 7b1f 7bba 303c eb3d 1e18 333d 3d3c 98bd
000003e0: aede 07bb fadd 50be 8518 5dbe c4a1 28be
000003f0: aa89 28be 6bf0 9ebc d713 f6ba 6c38 243e
0.21760805 0.23091616 -0.09866342 0.015234834 -0.11763212 -0.111679986 0.24231735 -0.0035069496
0.17679271 -0.15401323 0.13809824 0.098041266 0.12707993 0.03430936 0.15209527 -0.08021093
-0.12546772 -0.010307104 0.013231668 0.12992077 0.032661866 0.11479765 0.14375103 0.13020794
-0.13603716 0.07390424 -0.013766642 0.11276657 -0.11825056 -0.028658751 -0.110301405 0.15030666
-0.19892275 0.10403901 0.17526233 0.030286686 -0.14415914 0.19578399 -0.19527131 0.16347936
0.06894114 -0.12755857 -0.17541772 0.07199488 -0.1723478 -0.08964266 -0.113640465 -0.025206467
-0.16663706 0.09259266 -0.01143803 0.111424826 0.08999805 -0.14169863 -0.1689674 0.14220245
0.04640941 -0.111287884 -0.038033385 -0.25214574 -0.20295878 -0.06461196 -0.06254064 0.0767402
0.18659616 0.24514498 0.051431984 0.11403866 0.060279075 0.17758787 0.046342198 0.22229703
0.12106292 0.09722286 -0.18773997 -0.23521915 -0.1760826 -0.074601635 -0.19073725 -0.12412686
0.07148376 0.024627104 0.10029049 -0.16028252 -0.047759272 0.069363505 -0.12530224 -0.16158874
0.1102642 0.02310861 0.064533256 0.09549871 0.1663978 0.06784932 -0.15506542 0.058712836
-0.13215396 -0.09117616 -0.16480891 -0.122588605 -0.100427695 0.09416376 -0.0048706587 -0.06697177
0.15944116 0.072510846 0.031257637 -0.18103372 -0.06278903 -0.026515896 -0.028108032 -0.19335927
0.031732664 -0.12156927 0.0657431 0.113102734 0.03741093 0.13140991 -0.0021995662 0.14955226
-0.1763808 0.05579917 -0.19933744 -0.054589402 0.010090335 0.06045137 0.1692008 0.048672307
-0.14104876 -0.16977891 -0.09484716 0.151442 0.03352487 -0.1764069 -0.15900388 0.18144743
-0.11436047 0.17622162 0.16257825 0.11927683 -0.073543176 -0.08155119 -0.15855193 0.10498081
-0.19386235 -0.19789079 0.11487113 0.14156781 0.15616985 -0.20634587 0.06705724 -0.09530498
-0.040292457 0.0764505 -0.16583188 0.008636621 -0.04720475 -0.024671223 0.11230843 0.056230888
0.05298628 0.08355804 -0.18503267 -0.16903646 -0.20893309 0.14380622 0.1513167 0.120274
0.007304474 0.109483756 -0.13672635 -0.17079698 -0.038314305 0.15855564 -0.12055064 0.00021306708
-0.026551059 0.028976275 -0.021703258 -0.09857989 0.12750752 -0.1580085 0.054151632 -0.057759885
-0.053070102 -0.038172808 -0.009823544 0.0832635 0.01934165 -0.06545725 -0.07244021 0.031474575
-0.18192728 -0.19832475 0.0074460385 -0.045293108 0.12596707 0.21526006 0.11913505 -0.15262762
0.015613946 0.05388179 -0.030190712 0.17421974 -0.20640315 0.13510135 -0.05577648 -0.20081095
-0.088141285 -0.09923367 0.094098456 -0.217368 0.010355342 -0.18308935 -0.116220705 0.13549337
0.1024819 -0.15261495 0.08147071 -0.07381438 0.158977 0.036941603 0.13866976 0.00017490546
-0.09901521 0.06273774 -0.18428674 0.066601194 -0.009890091 -0.13362116 0.14064346 -0.12958613
-0.09952027 -0.00037358378 -0.13379125 -0.15134624 -0.101834156 0.11212959 -0.02762469 -0.056551408
0.06711406 -0.13985711 0.016725814 -0.19414172 -0.0009579581 0.11486089 0.04372417 -0.074333645
-0.0020732093 -0.20397177 -0.21591385 -0.16467959 -0.16458765 -0.01940175 -0.0018774223 0.16037148

inconv.0.bias f4 [16]
00000000: 8360 05bf 594e 2fbe 81da 23be fcae 0abe
00000010: 3d92 16bd e597 a9bd 4fe1 7fbd 4cb5 a3bd
00000020: 2770 ce3e 7ba9 853e 5660 633e f481 633e
00000030: 46c6 33be 319a 713e 3a63 f8bd 0e7f a53e
-0.5210039 -0.17119731 -0.16001321 -0.13543314 -0.036760557 -0.08280925 -0.06247073 -0.07993564
0.4031994 0.26105866 0.22204718 0.22217542 -0.17556104 0.23593976 -0.12128301 0.32323498

convs.0.weight f4 [16, 16, 3, 3]
00000000: 82c7 8abd 9451 75bd bfe8 a6bd c91a c4bd
00000010: e191 47bd 9fdd 4dbd 0bd1 08be 1c03 afbd
00000020: 6b1f 85bd 2d82 ecbc 466f 463c 18c5 f6bb
00000030: b061 32bd d5b4 153d f7b9 ddbc ebee 913c
00000040: 8cfb ffbc 08f3 ccbd 3e05 3b3e d062 263e
00000050: b94b 3f3e 1e89 d03d 44d9 003e 3f14 eb3d
00000060: 6097 273e 7566 b73d 84cf da3d 59a0 243d
00000070: 3d61 61bd 0d7a 013d 9669 90bb 0e9e 673d
00000080: 60db 733c c140 28bc d137 c93c 7053 89bd
00000090: db45 b3bb 46ac 78bd 278c 16bd b031 b83b
000000a0: 1c25 883d 3988 a1bd 3972 293c 7688 503d
000000b0: bcb8 13bd c856 813d 14ce b5bd 4bbf 37bd
000000c0: 134e 5fbd 3d18 d9bb 2e6e 403d 37a7 143d
000000d0: b65a 503c b768 5f3d 1d89 983d dbbf 12bd
000000e0: ad2c 943d 4ca4 f93b 5850 21bd a645 17bd
000000f0: 612d 013d 4d08 97bd cd56 293b 8afd 173b
00000100: b7f9 c83c 2f34 6abc f84b a5bc 32b1 a73d
00000110: ab74 cf3d 5133 e23d c3ac b23d 8c32 7a3d
00000120: bd24 573d 83ca 183e 184c 203d 7eb6 f83d
00000130: 07bf 023e cd04 f63d a63a 2e3e 3cab 2f3e
00000140: 15ec 213e 9901 723d d545 743c e482 293e
00000150: bb19 0e3e 9026 fb3d 1980 1f3e 03fe 213e
00000160: 51b3 813d 8a49 2c3d 30f7 5dbb 36c5 fb3d
00000170: 1724 1abb ce7b 90bc a040 f23d 6301 93bc
00000180: 33ea a03d ec7d e73d d8d2 0d3e b75f 813d
00000190: 36d3 063e 385a b93d 34f1 af3d 4efd 233e
000001a0: ddc7 493e 4ddf 003e 10c4 213e 3cf1 1d3e
000001b0: 4dcf 97bd 9ff5 b13d 63a7 a1bc 0810 4bbd
000001c0: 228e a43d 59f1 5fbd 7cba 88bb 6025 3bbd
000001d0: f8a6 963d 1e12 a4bc 7b41 2c3d 4850 ad3c
000001e0: d02e 993d 1d5d ec3c b3b7 053e 4b07 3e3d
000001f0: fa2d 4e3d 5e2e d23c 80ce 7c3c 12a3 eb3d
00000200: 6139 da3d 0065 2b3d 81c4 023d 46bc da3d
00000210: 198e b63d d408 973c 7e91 44bc 59a1 093e
00000220: 48e6 4c3e 0489 e53d 5766 7a3e 829c 593e
00000230: ac70 3f3e c3f8 243e 9a30 5f3e 5be6 983d
00000240: 637b aebd 7175 0e3d 30e0 7e3d 4c13 c1bc
00000250: 748a afbd 2850 b73c 03e7 3dbb 7edd eeba
00000260: de3c 553d 0b3c 413d d09b 8fbc 48c4 d2bb
00000270: ae0e 603c 302b 4cbd 70ca 4a3d 9dc5 803d
00000280: 3139 533d 5d70 0dbc 5941 7c3d e516 23bd
00000290: 8795 1abd f5c2 fb3b 1bd6 ad3c d0d8 4b3d
000002a0: 069c 403c 33c2 4e3d eb73 88bd 21d4 81bd
000002b0: 47a4 093d 4802 a3bd 8c09 19bd 2170 7939
000002c0: b4ef 1fbd 5269 763d 2b8c 943d aef8 973d
000002d0: 3a91 923d 57be 7d3c 199f cbba e41f c6bc
000002e0: 489e 043d 5184 08bd 4e85 8dbd c313 3b3d
000002f0: 27ff a9bd 8b46 1e3c 75c0 eabc 043a 94bd
00000300: 6420 5e3b aa20 bebd ad67 c23c e546 3cbd
00000310: 7fd3 b2bd ef43 27bc ab43 15bd 4934 713d
00000320: a5ad 7fbc 9f95 7abd b945 3dbc 0216 49bd
00000330: 69c5 d8bc bcc0 8a3d 8df2 e8bc d4d5 01bc
00000340: 87ca 88bc bb63 55bd 5d0c 29bb fb63 a5bc
00000350: b97e 1a3c 9b92 063d ba87 623a 4f61 debd
00000360: decb c23c b103 ca3a e39f 58bd fea6 a5ba
00000370: 8ad0 423d 878d abbd b35c 2e3d e7cc 6e3b
00000380: 5201 1d3c dc3d 513d a4be 3a3d 5afd 49bd
00000390: 6dc4 d5bd 938a 623d f400 873c b94d 89bd
000003a0: 1b54 d4bd f644 463d e9ad 533d ae70 b43c
000003b0: 8b05 abbd ac2c 25bd eb86 45bb 5ef4 74bd
000003c0: fdea c6bd c847 e93b ad21 35bd 0491 1fbd
000003d0: 9e57 a6bc c3ac 1cbd f50b d8bc 6ef4 abbc
000003e0: 0b7e 48bc 1b2b b6bd 6c3b e83c 8009 a0bb
000003f0: cf1a f43b 5971 a0bd 2101 9fbd 9664 0bbd
-0.06776334 -0.059892252 -0.081498615 -0.09575421 -0.048723105 -0.050260182 -0.13360994 -0.08545515
-0.06500133 -0.028870666 0.012111491 -0.0075308196 -0.043550193 0.036549408 -0.027066214 0.01781412
-0.031247877 -0.10007292 0.18263718 0.16248631 0.1868123 0.10182403 0.1258288 0.11478471
0.16366339 0.08955089 0.10684112 0.040191982 -0.055024374 0.031610537 -0.004407118 0.056547217
0.014883846 -0.010269345 0.024562748 -0.067053676 -0.005470974 -0.060711168 -0.036754753 0.0056211576
0.06647703 -0.078873105 0.010342174 0.05091139 -0.03606485 0.0631538 -0.08877197 -0.044860166
-0.054517817 -0.006625204 0.046980076 0.03629228 0.01271694 0.054543223 0.07448027 -0.0358275
0.07235084 0.0076184627 -0.039383262 -0.036931656 0.031537417 -0.0737463 0.002583909 0.0023191893
0.024533136 -0.014294668 -0.020177826 0.08188094 0.101296745 0.11044944 0.08724358 0.06108336
0.05252527 0.14921002 0.03913507 0.121441826 0.12768184 0.120126344 0.1701456 0.17155164
0.15812714 0.059083555 0.014909227 0.16553837 0.13877003 0.122632146 0.15576209 0.15819554
0.0633303 0.04206232 -0.003386926 0.122934744 -0.0023520046 -0.01763716 0.118287325 -0.017944997
0.0785717 0.113033146 0.13849962 0.06317084 0.13166508 0.09050411 0.08590928 0.16014597
0.19705148 0.12585182 0.15797448 0.15424055 -0.07412586 0.08689427 -0.019733137 -0.049575835
0.08034922 -0.054673526 -0.0041726213 -0.04568994 0.073560655 -0.02002817 0.042054635 0.021156445
0.07479632 0.028852994 0.13058357 0.046393674 0.050336815 0.025656875 0.015430093 0.115057126
0.106554754 0.041844368 0.031925682 0.106804416 0.08913822 0.018436827 -0.011997579 0.13440455
0.2000972 0.11207774 0.24453102 0.21251109 0.18695325 0.1611052 0.21795884 0.07465812
-0.08519628 0.03477997 0.06222552 -0.023568772 -0.0857133 0.022377089 -0.0028976805 -0.0018223969
0.05206 0.047176402 -0.017530352 -0.00643209 0.013675375 -0.049845874 0.049509466 0.06287692
0.051568214 -0.0086327465 0.061585758 -0.039816756 -0.037740257 0.007683153 0.021220258 0.049767315
0.011755949 0.05047817 -0.066627346 -0.063392885 0.033603933 -0.079594195 -0.03736262 0.00023788262
-0.039046958 0.060159035 0.072532974 0.07420479 0.07156606 0.015487275 -0.0015535086 -0.024185129
0.03237751 -0.03332931 -0.069101915 0.045673143 -0.083006196 0.009660373 -0.028656224 -0.07237628
0.0033893818 -0.09283574 0.023731077 -0.045966048 -0.08731746 -0.010209068 -0.036441486 0.058887754
-0.015605365 -0.061177846 -0.011552268 -0.049093254 -0.02646132 0.067750424 -0.02843597 -0.007924516
-0.016698135 -0.052097064 -0.0025794723 -0.020189276 0.009429627 0.032854658 0.00086414407 -0.10858404
0.023778852 0.0015412477 -0.052886855 -0.0012638269 0.04756216 -0.083766036 0.042568874 0.003643805
0.009582834 0.051084384 0.045591965 -0.04931388 -0.10437856 0.055307936 0.016479947 -0.067042775
-0.10367604 0.04840561 0.051679526 0.022026386 -0.083506666 -0.040325806 -0.0030140232 -0.05980336
-0.09712789 0.0071191527 -0.04422157 -0.038956657 -0.020305451 -0.038250696 -0.026372889 -0.020990577
-0.012237082 -0.088949405 0.028348647 -0.004883945 0.007449485 -0.07834119 -0.07763887 -0.034031473

convs.0.bias f4 [16]
00000000: fa4f 5c3e d678 4e3d 07dc 4c3d 0305 aabd
00000010: a3d7 84bd b7cd 6f3e 2dc8 2ebd 5c3d 823e
00000020: ee3b 35bd cc9b 8cbd ac59 193e 6aca 9bbd
00000030: 6f21 b93c 6e4c 2b3e 4534 0ebd f104 7f3e
0.21514884 0.050408207 0.050014522 -0.08301737 -0.06486442 0.23418318 -0.04267137 0.25437438
-0.044246607 -0.068656534 0.14975613 -0.07606967 0.02259895 0.16728374 -0.034717817 0.24904229

outconv.0.weight f4 [1, 16, 1, 1]
00000000: 23a0 38be 1a9a 183d c854 3a3e 59e8 3c3e
00000010: 4a22 2e3e 7130 5cbe 21ce 753d 71eb 9abe
00000020: 0fbb b0bc 7046 013e 155b 81be a88c 8a3d
00000030: 4097 253e 027b 46be e95f de3b 209e 92be
-0.18029837 0.037256338 0.18196404 0.18448009 0.17005268 -0.21502854 0.060011033 -0.30257753
-0.021573571 0.12624526 -0.25264803 0.06765109 0.16170979 -0.19382861 0.0067863357 -0.28636265
