save/_SCI_model_EN.pth (torch, 62581 bytes, 15 tensors)

in_conv.0.weight f4 [16, 3, 3, 3]
0	0x3cb1fee4	0.021727987
1	0xbda4b325	-0.080419816
2	0x3d70b635	0.058767516
3	0xbe30e25c	-0.17273849
4	0xbe280ee4	-0.1641193
5	0xbe03c35f	-0.12867497
6	0xbcd03fc1	-0.025421025
7	0x3e2fd9e2	0.1717296
8	0xbd97938e	-0.07401191
9	0xbda88c62	-0.08229901
10	0xbd1faf31	-0.038985435
11	0x3e05ff63	0.13085704
12	0x3ca46437	0.020067317
13	0xbd7a53e2	-0.061115153
14	0xbdef47d4	-0.11683622
15	0xbe32eea8	-0.17473853
16	0x3c7beb91	0.015375988
17	0x3d7b4bbc	0.061351523
18	0xbde56de4	-0.112026006
19	0xbe0da82c	-0.13833684
20	0xbde46bb2	-0.11153354
21	0xbd36bf1a	-0.044615842
22	0x3df22da1	0.11825109
23	0x3cd3657f	0.025805233
24	0x3d27ae48	0.040937692
25	0xbe3004a3	-0.17189269
26	0x3d3d9ad3	0.04629023
27	0xbe12e6e2	-0.14345887
28	0x3d835b20	0.06413865
29	0xbdae5fde	-0.08514379
30	0xbd90c761	-0.070692785
31	0x3dcb1ff6	0.099182054
32	0xbd8f94e3	-0.0701082
33	0xbcba9996	-0.022778314
34	0xbe25f3c8	-0.16206276
35	0xbd774520	-0.060368657
36	0xbdcc13d4	-0.099647194
37	0x3de5009b	0.11181756
38	0x3e3dfd7f	0.18553732
39	0xbdffb31a	-0.12485333
40	0x3c58d063	0.013233277
41	0xbd841b21	-0.06450487
42	0x3d90a5e3	0.070628904
43	0xbe16efed	-0.14739962
44	0xbd624032	-0.055237003
45	0xbcd70075	-0.026245335
46	0xbcb4f870	-0.02209112
47	0xbda95161	-0.08267475
48	0xbe134d70	-0.14385009
49	0xbe1250b2	-0.14288595
50	0x3d553633	0.05205364
51	0xbd6ada72	-0.057337232
52	0xbdaafaf1	-0.083486445
53	0xbdd83127	-0.1055625
54	0x3e525156	0.2053884
55	0x3c64eb93	0.013972181
56	0x3d83b4ab	0.06430944
57	0xbe1ade83	-0.15123944
58	0x3e5beeaf	0.2147777
59	0xbe27fd26	-0.16405162
60	0x3e1f644d	0.15565605
61	0x3dd9142c	0.105995506
62	0xbdb81555	-0.08988444
63	0xbd9c7662	-0.07639767
64	0x3dd07475	0.101784624
65	0x3dfa3911	0.12217916
66	0x3e022518	0.12709463
67	0x3e0dc3e7	0.13844262
68	0x3e2dd647	0.16976272
69	0xbc7e0bf0	-0.015505776
70	0x3e39549d	0.18098684
71	0x3d1c6968	0.03818646
72	0xbdfd0962	-0.12355305
73	0xbd611587	-0.05495217
74	0xbe15525b	-0.14582197
75	0xbd71d7f0	-0.059043825
76	0x3cd858f4	0.026409604
77	0x3e0ff272	0.1405733
78	0x3e1e2ed4	0.15447551
79	0x3e342756	0.1759313
80	0x3df847b8	0.12123054
81	0x3e523073	0.20526294
82	0x3dbbc8f3	0.091691874
83	0xbc0fed15	-0.008784552
84	0x3cf120da	0.02943461
85	0xbe0812b7	-0.13288389
86	0xbd260b54	-0.040538147
87	0x3de6c9fa	0.11268993
88	0xbd2f3af7	-0.042780843
89	0x3da50e4c	0.080593675
90	0xbd0d9691	-0.03456742
91	0x3e019d89	0.12657751
92	0xbc47d3c4	-0.012196485
93	0x3cbe8a6a	0.02325936
94	0x3cca5171	0.024697037
95	0x3c530b95	0.012881179
96	0xbe31d1c7	-0.1736518
97	0x3e28b865	0.16476591
98	0x3d05d2a3	0.032671582
99	0xbd52c35d	-0.051455844
100	0x3dfbc0b1	0.12292612
101	0xbb7fb2bc	-0.0039016446
102	0xbe194b00	-0.14970016
103	0xbda7f0cb	-0.082002245
104	0xbd7bdd14	-0.061490133
105	0xbe0088eb	-0.1255223
106	0xbe26f3d5	-0.16303952
107	0x3d545184	0.05183555
108	0xbd65aa2e	-0.0560705
109	0x3d138800	0.03601837
110	0x3ddc7353	0.10764184
111	0x3db55363	0.088537954
112	0x3dca4944	0.098772556
113	0x3dafd526	0.08585577
114	0x3e0f7659	0.1400999
115	0x3dd8605c	0.10565254
116	0x3c5aad3b	0.013346965
117	0xbd0778db	-0.03307424
118	0x3e1c0801	0.15237428
119	0xbdea01fc	-0.1142616
120	0x3e3d49f4	0.18485242
121	0x3e243b9b	0.16038363
122	0xbdcbdfb6	-0.09954779
123	0xbdeab0e5	-0.11459521
124	0x3e2e7adc	0.17039055
125	0x3d3ac1e4	0.045595065
126	0xbbdcf12a	-0.006742616
127	0x3d00e4c8	0.031468183
128	0xbdbe14b8	-0.092812955
129	0xbdf13468	-0.11777574
130	0x3d32fbfe	0.04369735
131	0xbd7cce22	-0.06172002
132	0xbdec5311	-0.11539281
133	0x3e0c9221	0.13727619
134	0x3dce0f5d	0.10061524
135	0x3d5c5284	0.05378963
136	0xbe43fc6f	-0.19139265
137	0xbe35d7ac	-0.17758054
138	0x3cceb4af	0.025232641
139	0xbe3df2f3	-0.18549709
140	0xbd52144a	-0.05128888
141	0x3c766095	0.015037675
142	0xbdaebe2f	-0.085323684
143	0x3e0c9ed4	0.13732463
144	0x3e1c610c	0.15271395
145	0x3c253cdd	0.010085312
146	0xbda95843	-0.08268788
147	0x3c861874	0.016369082
148	0x3e23d05a	0.15997449
149	0x3d9a5cf6	0.07537262
150	0x3e3eb85e	0.18625018
151	0xbe283ddb	-0.16429846
152	0xbde0c9e0	-0.109760046
153	0x3ccecdbb	0.025244584
154	0xbe0c9417	-0.13728367
155	0x3dd4b316	0.103857204
156	0xbe1c7018	-0.15277135
157	0xbc60ee9c	-0.013728764
158	0xbdd280e1	-0.10278488
159	0x3e1b1421	0.15144397
160	0x3d9dcc42	0.07704975
161	0xbcf2205b	-0.029556444
162	0xbe440855	-0.19143803
163	0xbdc7d2bd	-0.09756992
164	0xbb6ede28	-0.0036448333
165	0xbac79f32	-0.0015229939
166	0xbd97e766	-0.074171826
167	0x3d7d09f6	0.061777078
168	0xbd9313dc	-0.07181522
169	0xbd0c87d2	-0.034309216
170	0xbddb03be	-0.10694073
171	0x3b2de4a5	0.0026533988
172	0xbe38c161	-0.18042518
173	0xbe1213c2	-0.1426535
174	0xbd8d6a10	-0.069049954
175	0xbde9c8ce	-0.114152536
176	0x3ca17c68	0.019712642
177	0xbe294e70	-0.16533828
178	0x3dd5eff8	0.10446161
179	0x3e025ecb	0.12731473
180	0xbd95337f	-0.07285213
181	0xbd990ee9	-0.07473547
182	0x3de51680	0.11185932
183	0xbdedfd9a	-0.11620636
184	0x3e43da83	0.19126324
185	0xbbd05b2e	-0.0063585257
186	0xbe24f81b	-0.1611027
187	0xbad416f4	-0.0016181157
188	0x3e3f372c	0.1867339
189	0x3d162cf6	0.03666397
190	0x3e18f7dc	0.14938301
191	0xbc6b0946	-0.014345473
192	0xbd6d6061	-0.057953242
193	0x3e095427	0.13411008
194	0x3d548ee5	0.051894087
195	0xbd52b5b9	-0.051442835
196	0xbd1f524f	-0.038896855
197	0x3e47d970	0.1951654
198	0x3de8973c	0.11356971
199	0xbda78fc3	-0.08181717
200	0xbd7534a8	-0.05986467
201	0xbe11435b	-0.1418585
202	0xbd9e21ad	-0.07721267
203	0xbcd88092	-0.026428495
204	0xbe39592a	-0.1810042
205	0xbe292299	-0.16517104
206	0xbd22e7d3	-0.039771866
207	0xbe286f50	-0.16448712
208	0xbe0d7b3f	-0.13816546
209	0x3e0dd983	0.13852505
210	0xbe1020db	-0.14075033
211	0x3de05bad	0.10954986
212	0xbdc4f3b9	-0.09616799
213	0xbc829f9c	-0.015945248
214	0x3d96616a	0.07342799
215	0xbdf92687	-0.12165552
216	0x3bd0a7aa	0.0063676434
217	0x3d9aff18	0.075681865
218	0x3e3bc4bf	0.18336771
219	0x3e527f35	0.20556338
220	0x3d08e5cd	0.03342228
221	0xbdf3b14f	-0.11899053
222	0x3e041ecc	0.12902373
223	0xbe2ddccd	-0.1697876
224	0xbd88a151	-0.06671394
225	0x3c709f76	0.014686456
226	0x3e091aad	0.13389082
227	0xbd9fa7b6	-0.0779566
228	0xbe1e5714	-0.15462905
229	0x3dec3f62	0.11535527
230	0xbe37a526	-0.17934093
231	0xbcb6825e	-0.02227896
232	0x3e3b250a	0.18275848
233	0x3c827729	0.01592596
234	0x3e2e80a1	0.17041256
235	0x3e2c70eb	0.1683995
236	0xbdef8526	-0.11695318
237	0x3df54388	0.11975771
238	0xbe1d01e8	-0.15332758
239	0x3df29b16	0.118459865
240	0x3d86e182	0.06585981
241	0x3da21e79	0.079159684
242	0x3c1ed378	0.009693973
243	0x3de396f2	0.11112775
244	0xbda7c9f3	-0.08192816
245	0xbda2fb1e	-0.07958053
246	0xbd98d15b	-0.074618064
247	0xbe21312e	-0.15741417
248	0xbd5bee9c	-0.053694353
249	0x3daedb1a	0.08537884
250	0x3cd3e9e9	0.025868373
251	0x3e21895c	0.15775055
252	0xbd8725b4	-0.06598988
253	0x3cd95baa	0.026532967
254	0x3cbfe375	0.02342389
255	0xbe1b2fec	-0.15155

in_conv.0.bias f4 [16]
0	0xbdd24e62	-0.102688566
1	0xbd449370	-0.04799217
2	0xbe5e62ae	-0.21717331
3	0x3e04df84	0.1297589
4	0xbe4ccbfa	-0.19999686
5	0xbbd56438	-0.006512191
6	0xbe1b9b0f	-0.15195869
7	0xbd95eb39	-0.07320256
8	0x3d7790a1	0.060440663
9	0xbc8840c3	-0.016632443
10	0x3d0fb431	0.035083953
11	0x3ce41324	0.027841158
12	0x3e20f31f	0.15717743
13	0xbdde6a02	-0.10860063
14	0x3e1048ca	0.14090267
15	0xbe038436	-0.12843403

convs.0.0.weight f4 [16, 16, 3, 3]
0	0x3c60c06b	0.013717751
1	0x3d2cd300	0.042193413
2	0xbd90541c	-0.070472926
3	0xbb9bbd56	-0.004752795
4	0x3c7b0740	0.015321553
5	0x3d9fb4e7	0.07798176
6	0x3d20039b	0.03906594
7	0xbd8b580c	-0.06803903
8	0xbd8e4523	-0.069467805
9	0x3da524e0	0.08063674
10	0x3ca40e18	0.020026252
11	0x3d13c7cc	0.036079213
12	0x3cd91df9	0.02650355
13	0x3d5a0160	0.053223968
14	0x3be1da9a	0.0068925144
15	0xbbe59254	-0.007005969
16	0x3d316cf0	0.04331678
17	0xbcd12d77	-0.025534375
18	0xbce2ba01	-0.027676584
19	0xbd36cc8c	-0.044628665
20	0xbda70788	-0.08155733
21	0x3d0b382f	0.033989128
22	0xbd63d2b4	-0.055620864
23	0x3d43533b	0.047686797
24	0xbcc41a54	-0.023938335
25	0xbd19255d	-0.037389148
26	0x3cf475d8	0.029841349
27	0x3cd97e64	0.026549526
28	0x3dc0f76d	0.09422193
29	0x3dcc80bc	0.09985492
30	0xbce42032	-0.027847383
31	0x3cdeae47	0.027182711
32	0x3d812901	0.06306649
33	0x3d89db74	0.067313105
34	0x3d4f80cd	0.050659943
35	0xbd2406f0	-0.04004568
36	0x3d298b15	0.041392405
37	0xbdd38d39	-0.103296705
38	0xbd5e0630	-0.05420512
39	0xbdbd4d98	-0.092433155
40	0xbdf4d5ca	-0.119548395
41	0xbd959972	-0.07304658
42	0x3d2643b9	0.04059193
43	0xbd8e33c8	-0.0694347
44	0xbdeb776d	-0.11497388
45	0x3b2c5324	0.0026294673
46	0xbc63ff50	-0.013915852
47	0xbcedc6d6	-0.029025476
48	0x3c99ea8b	0.018788597
49	0x3d632c05	0.055461902
50	0x3c449cfb	0.012000318
51	0xbd1b1e6c	-0.03787081
52	0xbd1b3876	-0.037895642
53	0xbd86b50e	-0.06577502
54	0x3d480b5c	0.04883896
55	0xbda3e2ba	-0.08002229
56	0xbc166568	-0.009179451
57	0xbd4fcc8d	-0.050732184
58	0x3bf2e9f9	0.0074131456
59	0xbc2c5099	-0.010517263
60	0x3d901845	0.07035879
61	0xbd58a775	-0.052894074
62	0x3bfecb7c	0.007775722
63	0x3da3fbe6	0.0800703
64	0xbd5df78c	-0.054191157
65	0x3d2f181f	0.042747613
66	0x3cec4bae	0.02884468
67	0x3c57a8df	0.013162821
68	0xbcc688ea	-0.024235208
69	0x3d116e0e	0.035505347
70	0xbd4fafde	-0.05070483
71	0x3cdde669	0.027087407
72	0x3d9091fd	0.07059095
73	0xbd5965b3	-0.053075504
74	0x3d81b2c2	0.063329235
75	0x3d85a981	0.06526471
76	0xbd7f9843	-0.062401067
77	0x3cd3cc41	0.025854232
78	0x3d3648ff	0.04450321
79	0xbc555dc3	-0.013022843
80	0xbcc6cf4f	-0.024268774
81	0x3d7799d0	0.06044942
82	0xbd0717c2	-0.03298164
83	0x3d2a9cf1	0.041653577
84	0x3e0050af	0.12530778
85	0x3def36d5	0.1168038
86	0x3e02d1dc	0.12775367
87	0x3cad6662	0.021166984
88	0x3d14518f	0.036210593
89	0x3d7b1a1d	0.0613042
90	0xbd2517db	-0.040305953
91	0x3dd1a2df	0.10236143
92	0x3d6cb262	0.057787307
93	0x3d4a548d	0.04939704
94	0x3c15e45a	0.009148682
95	0x3dae55e8	0.08512479
96	0x3dac5c2e	0.084160194
97	0x3dc223c0	0.09479475
98	0xbd2841db	-0.04107843
99	0x3dbeeb8b	0.0932227
100	0x3b6e0974	0.0036321552
101	0xbd85398e	-0.06505118
102	0x3d63d0dd	0.05561911
103	0xbd386da3	-0.045026433
104	0x3d102561	0.035191897
105	0x3c74712b	0.0149195595
106	0x3d822012	0.06353773
107	0x3cf94aaf	0.03043112
108	0x3cb2ba0c	0.02181723
109	0x3dab1b35	0.08354799
110	0xbcc45800	-0.023967743
111	0x3d95238f	0.07282173
112	0x3ceca924	0.028889246
113	0x3d37f69f	0.04491293
114	0xbc9775d4	-0.018488802
115	0xbcd1fa13	-0.02563194
116	0xbc852297	-0.016251845
117	0xbe014ab9	-0.1262616
118	0xbd0e1c3a	-0.034694888
119	0x3c2560bf	0.010093867
120	0xbdfd1012	-0.12356581
121	0xbdce265f	-0.100659125
122	0xbd48fc6e	-0.04906886
123	0xbd3724b8	-0.044712752
124	0xbd1541b4	-0.036439613
125	0x3d28fe4b	0.041258138
126	0x3de5e985	0.11226181
127	0x3d8fe714	0.070264965
128	0xbbe2802f	-0.0069122533
129	0x3dd16c21	0.10225702
130	0x3da00530	0.078134894
131	0xbbb57398	-0.0055374615
132	0x3da45bec	0.08025345
133	0xbb4c286f	-0.003115203
134	0x3bd65546	0.006540927
135	0x3c848446	0.016176354
136	0x3cda1b96	0.026624482
137	0xbded4176	-0.11584751
138	0x3cc9cbed	0.024633372
139	0xbc7f6b02	-0.0155894775
140	0x3c859017	0.016304059
141	0xbdca7e42	-0.09887363
142	0x3d49f3be	0.049304716
143	0xbcd4b219	-0.02596383
144	0x3ccc046b	0.02490445
145	0xbd3d21c6	-0.046174787
146	0xbc51d5ab	-0.01280729
147	0xbd442f9e	-0.047896974
148	0x3d393726	0.04521861
149	0xbd0f1888	-0.034935504
150	0x3cc7e256	0.024399918
151	0xbcf3a32b	-0.02974089
152	0x3d1f0c5b	0.038830142
153	0xbd1e3426	-0.03862395
154	0xbd9bc4a2	-0.07605864
155	0xbd87078a	-0.06593235
156	0xbd838faf	-0.0642389
157	0xbd5c2d7e	-0.053754322
158	0x3d32da2b	0.043665092
159	0x3d4603a3	0.048343312
160	0xbd2cdc5b	-0.042202335
161	0x3d359f9b	0.044341665
162	0x3c78cc6a	0.015185455
163	0xbd913c27	-0.07091551
164	0x3cfb4607	0.03067304
165	0x3cf43097	0.029808326
166	0x3d28530a	0.041094817
167	0xbd3f9910	-0.04677683
168	0x3d9e5abc	0.0773215
169	0xbd4292c7	-0.04750326
170	0xbc40f898	-0.011778019
171	0xbd7156c6	-0.058920644
172	0xbdbcb3ee	-0.09214006
173	0x3ca753e4	0.020425744
174	0xbd96e5b4	-0.07368031
175	0xbce86f76	-0.028373461
176	0x3d4d28d4	0.050087765
177	0x3d17b50d	0.037037898
178	0xbcec73f4	-0.028863885
179	0x3c6d8c81	0.014498831
180	0xbd21c9f8	-0.039499253
181	0xbdae67d6	-0.08515899
182	0x3d577bae	0.052608185
183	0x3d2e1c4d	0.04250746
184	0xb9c7e71f	-0.00038128436
185	0x3d679237	0.056535926
186	0x3d91a22c	0.0711101
187	0x3d8e1ad8	0.06938714
188	0xbd25c267	-0.0404686
189	0xbd89caf5	-0.06728164
190	0x3d702cf8	0.058636636
191	0x3d4d4626	0.050115727
192	0x3ce96bbc	0.028493755
193	0xbd85f916	-0.0654165
194	0xb96ae63b	-0.00022401747
195	0x3c8325d0	0.016009241
196	0x3bab1769	0.0052212966
197	0xbbc09711	-0.0058773835
198	0xbd846289	-0.064641066
199	0x3ca5b9f2	0.020230267
200	0xbd031e5b	-0.03201137
201	0x3d36c81d	0.044624437
202	0x3d96c083	0.073609374
203	0x3c813640	0.015772939
204	0x3d183ed8	0.037169307
205	0xbcdd672b	-0.027026733
206	0x3d219cc6	0.03945615
207	0x3be9c6d6	0.007134299
208	0xbd5a8d3e	-0.053357355
209	0x3d435406	0.047687553
210	0x3da9f600	0.08298874
211	0xbd6417ce	-0.055686764
212	0xbcf6387b	-0.030056229
213	0x3c747c60	0.014922231
214	0x3d98b524	0.07456425
215	0x3da8171e	0.08207534
216	0xbc82ccc1	-0.015966775
217	0x3a01931a	0.00049428793
218	0x3d94e227	0.07269698
219	0xbd9e25f9	-0.077220865
220	0xbcf494b5	-0.029856065
221	0x3d8ce9ba	0.06880517
222	0xbd816baf	-0.06319367
223	0xbd560aec	-0.05225651
224	0x3cf94a9a	0.03043108
225	0x3d0ee870	0.03488964
226	0xbcbbfde7	-0.022948219
227	0x3d28a858	0.04117617
228	0x3d013340	0.031543016
229	0xbb892e1e	-0.004186406
230	0x3c6bf9c5	0.014402811
231	0xbd27a3c7	-0.040927675
232	0x3d41c161	0.04730356
233	0xbd97b2b3	-0.07407131
234	0x3d8bb117	0.068208866
235	0xbdaa88d4	-0.08326879
236	0xbd104287	-0.035219695
237	0x3d92f993	0.07176509
238	0xbc8a123b	-0.016854396
239	0x3cc16bf9	0.023611056
240	0xbdaa03a3	-0.08301475
241	0x3c9cef2b	0.019157013
242	0x3d4ee476	0.050510846
243	0xbda03907	-0.07823377
244	0x3d0902f0	0.033450067
245	0xbd8ea902	-0.069658294
246	0x3c2bd776	0.010488382
247	0xbd56cd03	-0.05244161
248	0xbdb81859	-0.08989019
249	0xbd298a6a	-0.041391768
250	0xbda30b61	-0.07961155
251	0xbd964752	-0.07337822
252	0x3d35350e	0.04424005
253	0xbd33c95f	-0.043893214
254	0xbda5ab78	-0.08089346
255	0xbd8dbb2a	-0.06920464

convs.0.0.bias f4 [16]
0	0x3de42de6	0.11141567
1	0x3d36be7d	0.044615258
2	0xbdb407eb	-0.08790573
3	0x3d495f22	0.04916299
4	0xbd993aa6	-0.074818894
5	0xbdc4596c	-0.09587368
6	0xbdd89aed	-0.10576425
7	0x3dc2d892	0.09513964
8	0xbda09da2	-0.07842566
9	0xbd8d3cc0	-0.06896353
10	0xbda69d5c	-0.08135483
11	0x3c5c9aa4	0.013464604
12	0x3cef6a64	0.029225536
13	0x3de47c65	0.11156539
14	0xbca21fed	-0.019790614
15	0xbd619069	-0.05506936

convs.0.2.weight f4 [16, 16, 3, 3]
0	0xbd24bb54	-0.040217713
1	0x3cb3e4ab	0.021959623
2	0xbd7374eb	-0.059437674
3	0x3ba3dc34	0.0050006155
4	0xbd6a1cb0	-0.057156265
5	0x3d5f82d7	0.054568138
6	0xbba74731	-0.005104922
7	0xbda72e52	-0.08163132
8	0x3c534417	0.012894652
9	0xbd927a78	-0.07152265
10	0xbd94e4ec	-0.07270226
11	0xbd6fbe7c	-0.05853127
12	0xbda3bba9	-0.07994778
13	0x3d4a0897	0.0493246
14	0x3d8cdc6a	0.06877978
15	0xbcbc73ab	-0.023004374
16	0x3d5fdb94	0.054652765
17	0x3d7d3619	0.06181917
18	0x3d91a8bc	0.07112262
19	0x3d1de8e3	0.038552176
20	0x3c96e19b	0.018418124
21	0x3cedf378	0.029046759
22	0x3d02247a	0.031773068
23	0x3cad2e86	0.021140348
24	0x3dc2c5d7	0.09510391
25	0xbd2c00c1	-0.041992906
26	0xbd46596f	-0.048425134
27	0xbdc7272e	-0.0972427
28	0x3d159862	0.036522277
29	0xbd96d9e7	-0.0736578
30	0xbb9ac8e3	-0.0047236546
31	0xbdb074ef	-0.08616053
32	0x3d0f2f5f	0.034957286
33	0x3c9064f8	0.01762627
34	0xbd293c72	-0.04131741
35	0x3be9ebd7	0.00713871
36	0x3dd94e91	0.106106885
37	0x3d7e1c97	0.062038984
38	0xbd4f7de1	-0.050657157
39	0x3d5a00a8	0.053223282
40	0xbd29069e	-0.041266076
41	0xbd76400b	-0.06011967
42	0x3ca93b82	0.020658258
43	0x3d005f8a	0.031341113
44	0x3ceebd6d	0.02914306
45	0x3dca0a87	0.09865289
46	0xbd3a2838	-0.04544851
47	0x3c8506c5	0.01623858
48	0x3d5a6189	0.053315673
49	0x3dcde79b	0.10053941
50	0xbd0396fb	-0.032126408
51	0xbd07ebd1	-0.033183876
52	0x3da9f6a8	0.08298999
53	0x3d9699e1	0.07353569
54	0x3d1ffe6c	0.039060995
55	0x3d44b6e3	0.048025977
56	0xbab81501	-0.0014044346
57	0x3d39f1d0	0.045396626
58	0xbd168ea4	-0.036757126
59	0x3d41f30b	0.047350924
60	0x3da15205	0.07876972
61	0xbd2b08a5	-0.04175629
62	0x3d5d635a	0.054049827
63	0x3c49c526	0.01231507
64	0xbc9b1f50	-0.01893583
65	0x3ca1aac4	0.019734748
66	0xbd750f77	-0.0598292
67	0x3d373bb3	0.044734668
68	0x3d5cd2e1	0.053912047
69	0xbd835847	-0.06413322
70	0xbdcc3515	-0.09971062
71	0x3d6a0a9f	0.057139035
72	0xbc088551	-0.008332566
73	0x3d3ce9d9	0.046121452
74	0x3d890e90	0.06692231
75	0xbd988336	-0.074469015
76	0xbbbe9cb3	-0.00581702
77	0xbca6c48f	-0.020357398
78	0x3c0871b3	0.008327889
79	0x3d2563b5	0.04037829
80	0xbc12d938	-0.008962922
81	0x3d07b95c	0.033135757
82	0xbd269a07	-0.040674236
83	0xbd128886	-0.03577473
84	0x3d636e9f	0.05552542
85	0x3d9de0ee	0.077089176
86	0x3d055ad9	0.032557342
87	0xbce11773	-0.027477002
88	0x3cafe8e1	0.02147335
89	0xbd237755	-0.039908726
90	0xbd874410	-0.06604779
91	0xbd91b470	-0.07114494
92	0x3d403ea3	0.046934735
93	0x3c1026d6	0.008798322
94	0xbd378108	-0.04480079
95	0x3cc17f46	0.023620259
96	0xbd9a473f	-0.0753312
97	0xbb253156	-0.0025206408
98	0x3da0317b	0.07821938
99	0xbd9bb884	-0.07603553
100	0xbd93f34e	-0.07224141
101	0xbc88ac26	-0.01668365
102	0x3cec0e35	0.028815368
103	0xbcff209d	-0.03114348
104	0xbd7c9390	-0.061664164
105	0x3d1de7e5	0.03855123
106	0x3d222fb6	0.039596282
107	0x3c5db870	0.013532743
108	0xbd212985	-0.039346237
109	0xbdc884d1	-0.09790958
110	0xbbdc6ca4	-0.006726818
111	0xbd2b7831	-0.04186267
112	0xbdac7ea0	-0.08422589
113	0xbd8a6a06	-0.067585036
114	0x3ca2d43f	0.019876597
115	0x3b8a7d5e	0.0042263707
116	0xbd881f58	-0.06646603
117	0x3d01f39b	0.03172646
118	0xbd471320	-0.048602223
119	0x3d52bc9e	0.05144941
120	0xbc0ddecc	-0.008659076
121	0xbd8196f0	-0.06327617
122	0xbd85e382	-0.06537534
123	0x3b03b546	0.002009706
124	0x3c9cedc0	0.019156337
125	0xbda96617	-0.08271425
126	0x3d8f1cea	0.06987937
127	0xbd6a2541	-0.057164434
128	0x3d8818c3	0.06645348
129	0x3d5b4642	0.0535338
130	0x3bc6f000	0.0060710907
131	0x3b2ef451	0.0026695917
132	0xbd418a37	-0.047250953
133	0x3d35fac5	0.044428606
134	0xbd61c296	-0.055117212
135	0x3d7f6ce8	0.06235972
136	0xbb249281	-0.0025111737
137	0x3d780765	0.060553927
138	0x3cfb8660	0.030703723
139	0xbb899dcb	-0.0041997186
140	0x3d3db633	0.046316337
141	0xbd419b34	-0.047267154
142	0x3c910757	0.017703695
143	0xbd1b0cb4	-0.03785391
144	0x3d84f2f7	0.06491654
145	0xbd9008fc	-0.07032964
146	0x3d9a83fa	0.07544704
147	0x3d9205a2	0.071299806
148	0xbd840b09	-0.06447417
149	0xbd506084	-0.050873294
150	0x3a075760	0.0005162861
151	0x3cfc4c89	0.030798214
152	0x3d7f4af4	0.06232734
153	0x3b29b7a3	0.002589681
154	0xbca2aabb	-0.019856801
155	0x3d0c2fb1	0.03422517
156	0xbd62529f	-0.055254575
157	0x3d99970b	0.07499512
158	0x3d67684d	0.056495953
159	0xbd432341	-0.047641043
160	0x3ccddd70	0.025130004
161	0xbd18721d	-0.037218202
162	0x3d9be1d6	0.07611434
163	0x3d2dc0f6	0.04242035
164	0xbc714b80	-0.014727473
165	0xbc934558	-0.017977402
166	0x3d97fa8b	0.07420834
167	0xbd2f8298	-0.042849153
168	0xbc734000	-0.014846802
169	0xbc90a4d6	-0.017656725
170	0x3d29008e	0.041260295
171	0xbd814ec7	-0.06313854
172	0x3ccb51ea	0.024819333
173	0xbd357948	-0.044305116
174	0x3c3df393	0.011593717
175	0x3d855eb8	0.06512207
176	0x3d8f5169	0.0699795
177	0x3d52f717	0.051505174
178	0xbd847a05	-0.06468586
179	0x3d802b6e	0.062582836
180	0xbccbcbb4	-0.024877407
181	0xbd20e4ab	-0.039280575
182	0xbd02e923	-0.031960618
183	0xbdab0d73	-0.083521746
184	0x3d7c02ac	0.061525986
185	0xbc843605	-0.01613904
186	0x3d87cba4	0.06630638
187	0xbd5d3dee	-0.05401414
188	0xbc962a0c	-0.018330596
189	0xbcc1a2cf	-0.023637203
190	0xbd9e7748	-0.07737595
191	0x3cd97726	0.026546072
192	0xbd189b95	-0.03725775
193	0xbcad561f	-0.02115923
194	0x3d85119c	0.06497499
195	0xbc8c9c0c	-0.017164253
196	0xbc0047c4	-0.00782961
197	0xbda62fb4	-0.081145674
198	0xbd75a9b3	-0.05997629
199	0x3d7313b0	0.059344947
200	0xbbda8a35	-0.0066693076
201	0xbc966ad2	-0.018361483
202	0x3bde2e2c	0.0067804065
203	0xbda657e9	-0.08122236
204	0xbc899d62	-0.016798679
205	0xbd4e3b0a	-0.050349273
206	0xbd393c30	-0.045223415
207	0x3d97c8f5	0.074113764
208	0xbd296729	-0.041358147
209	0x3d19df8a	0.0375667
210	0xbd9c0062	-0.076172605
211	0xbdb183aa	-0.08667691
212	0xbd24cc28	-0.04023376
213	0x3d48fe44	0.04907061
214	0x3d972625	0.07380322
215	0x3d997669	0.07493288
216	0x3da02074	0.0781869
217	0xbd77a25b	-0.06045757
218	0x3a0228ab	0.00049651664
219	0x3d100f28	0.035170704
220	0x3d923346	0.07138686
221	0xbc811bab	-0.015760263
222	0x3d0f18a8	0.034935623
223	0x3d385e08	0.04501155
224	0x3cbc55e6	0.022990178
225	0x3d11aace	0.035563283
226	0x3d7337b2	0.059379287
227	0x3d0ac5ae	0.03387993
228	0x3d64666e	0.055761747
229	0x3d9068ec	0.07051262
230	0xbd222ac8	-0.03959158
231	0xbc3e8402	-0.011628153
232	0x3c714f8c	0.014728438
233	0x3d679823	0.056541573
234	0x3d804784	0.062636405
235	0xbd5f5eae	-0.054533653
236	0xbcbb2100	-0.022842884
237	0xbcb6a0b0	-0.022293419
238	0xbd406be8	-0.046977907
239	0x3cfb7676	0.030696135
240	0xbc293a8b	-0.010328899
241	0x3cc46d96	0.023978036
242	0x3da15e8b	0.07879361
243	0xbc731c20	-0.0148382485
244	0xbda6c664	-0.08143309
245	0x3d07f846	0.033195756
246	0x3d151123	0.036393296
247	0xbd1dd73e	-0.03853535
248	0xbd9d0c98	-0.07668418
249	0x3d787c14	0.060665205
250	0x3ce47325	0.027886936
251	0x3d9bbff6	0.07604973
252	0xbc9a002d	-0.018798912
253	0xbd6854c7	-0.056721475
254	0xbd6044c9	-0.0547531
255	0xbd866252	-0.06561722

convs.0.2.bias f4 [16]
0	0x3d26412e	0.040589504
1	0xbd11b539	-0.035573218
2	0x3bd8769f	0.0066059376
3	0x3dd272de	0.102758154
4	0x3db4d95b	0.0883052
5	0x3d3277f2	0.04357142
6	0xbd525a61	-0.051355723
7	0x3d1d5c94	0.038418368
8	0xbd0c1697	-0.03420123
9	0x3cb4381e	0.021999415
10	0x3c23c424	0.009995494
11	0xbc0be07a	-0.008537406
12	0x3d9efbc2	0.07762863
13	0x3d8ee73c	0.06977698
14	0x3dd78766	0.10523872
15	0xbc68c23a	-0.0142064635

convs.1.0.weight f4 [16, 16, 3, 3]
0	0x3d266d2e	0.040631466
1	0x3d527bb4	0.051387504
2	0x3cb018ee	0.021496262
3	0xbd470970	-0.048592985
4	0xbcf20ffd	-0.02954864
5	0xbd3c0637	-0.045904364
6	0x3d149020	0.03627026
7	0x3d9eab71	0.077475436
8	0xbd7decfc	-0.061993584
9	0xbcd2d8fb	-0.02573823
10	0xbbe54221	-0.0069964086
11	0x3d7a50a8	0.061112076
12	0xbd8e10d3	-0.06936803
13	0x3d14c36e	0.03631919
14	0x3d39c681	0.045355324
15	0x3c549155	0.012974103
16	0xbcc6c459	-0.024263548
17	0x3cc603a2	0.024171654
18	0x3da9d2e5	0.08292178
19	0xbc9059b5	-0.0176209
20	0x3d98939d	0.0745003
21	0x3c7b5df1	0.015342222
22	0x3c84b69b	0.016200354
23	0x3dde08d6	0.10841529
24	0x3cfe5ba0	0.03104955
25	0x38fe3eb3	0.000121233425
26	0x3d4f5fa3	0.050628316
27	0xbda00634	-0.07813683
28	0xbd8aec4e	-0.06783353
29	0xbdbbb855	-0.09166018
30	0xbd54d332	-0.051959224
31	0xbda314af	-0.079629295
32	0xbdae1161	-0.084994085
33	0xbde801bb	-0.11328455
34	0x3d4afc41	0.049556974
35	0x3c8d8850	0.017276913
36	0x3d0c9a10	0.034326613
37	0x3d06335d	0.032763828
38	0x3d7aa2fb	0.061190587
39	0x3ce9f9d8	0.028561518
40	0x3c57ee94	0.01317944
41	0x3d8ef48d	0.06980238
42	0x3d88df90	0.06683266
43	0x3c11ab19	0.0088908905
44	0x3dbf5483	0.09342291
45	0x3c1f6f5b	0.009731139
46	0x3dc25b7b	0.09490105
47	0x3c6cacd0	0.014445499
48	0x3d002e24	0.031294003
49	0x3bbcedac	0.0057656374
50	0x3d76e09d	0.0602728
51	0x3d46af24	0.04850687
52	0x3c9d2081	0.019180538
53	0xbd6ad69b	-0.05733357
54	0x3b18b71f	0.0023302508
55	0x3cc2eb99	0.023793982
56	0xbb9c5691	-0.0047710617
57	0x3c9988bc	0.018741958
58	0x3cc7f238	0.024407491
59	0x3dc6be53	0.0970427
60	0x3d9848e8	0.07435781
61	0x3ce90b81	0.028447868
62	0x3d58f1a7	0.052964833
63	0xbd186003	-0.03720094
64	0x3c6dd0e4	0.014515135
65	0x3d10ad2f	0.03532141
66	0x3d8fd76d	0.07023511
67	0x3cba9e2a	0.022780497
68	0xbc37600e	-0.011192335
69	0xbccf171a	-0.02527957
70	0x3d4c501a	0.04988108
71	0x3cdde3ac	0.027086101
72	0xbccff4be	-0.025385257
73	0x3d43203d	0.047638167
74	0xbd0352d9	-0.03206143
75	0x3c9a4072	0.018829558
76	0xbce91be5	-0.028455684
77	0x3da1b8f5	0.07896606
78	0x3d9f569b	0.077801906
79	0x3d958055	0.07299868
80	0x3d8ff3fd	0.07028959
81	0xbc2d50b3	-0.010578322
82	0xbc985685	-0.018595943
83	0xbdd30d08	-0.1030522
84	0x3ca3d23a	0.019997705
85	0x3d3faeef	0.04679769
86	0xbddccb63	-0.107809804
87	0xbd260156	-0.040528618
88	0xbc6a0854	-0.014284212
89	0xbd938157	-0.07202404
90	0x3d90e2d9	0.07074518
91	0xbbeb348c	-0.007177895
92	0xbca9e3f5	-0.020738581
93	0xbb94bb57	-0.004538934
94	0x3d59f780	0.05321455
95	0xbcf86b16	-0.0303245
96	0x3d005877	0.031334367
97	0x3d58781b	0.052848917
98	0xbcc3eebd	-0.02391755
99	0xbc7199c4	-0.014746133
100	0x3d6fc944	0.05854155
101	0xbc0fc779	-0.008775585
102	0x3d492598	0.049108118
103	0x3d891ed7	0.06695335
104	0x3d4c22bc	0.049837813
105	0x3da00cc1	0.078149326
106	0xbc8c93fb	-0.017160406
107	0xb9d90b6c	-0.00041397975
108	0xbd0d1222	-0.03444112
109	0x3d139aef	0.036036428
110	0x3d2a55d1	0.041585747
111	0x3ca12981	0.01967311
112	0x3d325c9c	0.04354535
113	0xbd06815a	-0.032838203
114	0xbd0eaf78	-0.03483531
115	0xbbf1dada	-0.0073808255
116	0x3d8ab265	0.06772307
117	0x3d29a4ca	0.04141692
118	0xbdc4e4a3	-0.096139215
119	0x3b4c2904	0.0031152377
120	0xbd8218ff	-0.06352424
121	0xbd95e5df	-0.07319235
122	0x3d157b29	0.036494408
123	0x3d6fc6fd	0.05853938
124	0xb928caea	-0.0001609732
125	0xbd31fb6f	-0.043452676
126	0x3c8825c9	0.01661958
127	0x3ce5fc86	0.028074514
128	0xbda491da	-0.080356315
129	0xbd7ad72a	-0.061240353
130	0xbdae1e9a	-0.085019305
131	0x3d18a287	0.037264373
132	0xbd900a2f	-0.07033192
133	0xbddc46aa	-0.107556656
134	0x3d0020b9	0.031281207
135	0x3d337c60	0.043819785
136	0xbb3bb419	-0.0028641282
137	0x3bc34c31	0.0059600105
138	0xba3c52f2	-0.00071839907
139	0x3cb733ba	0.022363532
140	0x3d65e535	0.056126792
141	0xbd145905	-0.03621771
142	0x3d50c58a	0.050969638
143	0x3cc4a33f	0.024003623
144	0x3c94bacf	0.018155484
145	0xbc387a78	-0.011259668
146	0x3d2f42ea	0.042788424
147	0x3d7687ff	0.06018829
148	0xbbf82fcd	-0.0075740577
149	0x3d635bc2	0.05550743
150	0x3d8a1713	0.06742682
151	0xbd97e2c1	-0.07416297
152	0x3d7f56e9	0.062338743
153	0x3ce0c3db	0.027437141
154	0xbd72027e	-0.059084408
155	0xbd6cb8e1	-0.0577935
156	0xbca23d6c	-0.019804679
157	0x3d6593b3	0.05604906
158	0x3c22df0d	0.009940875
159	0x3c214640	0.009843409
160	0xbcbf3571	-0.023340913
161	0x3c3113a4	0.010807905
162	0xbdb750a4	-0.08950928
163	0xbda0596e	-0.07829557
164	0x3c62dae9	0.013846138
165	0x3d577943	0.05260588
166	0xbccbcec3	-0.024878865
167	0xbd433474	-0.047657445
168	0x3d4bd4ba	0.04976342
169	0xbd68604c	-0.05673246
170	0x3d854e7f	0.065091126
171	0x3d8dbe17	0.069210224
172	0x3d89c0c1	0.06726218
173	0x3d451365	0.0481142
174	0x3c268439	0.01016336
175	0x3daa9787	0.08329683
176	0x3d16ac7c	0.036785588
177	0x3d4f6c5d	0.050640453
178	0x3b9f6b8d	0.004865116
179	0x3db4e8cf	0.08833467
180	0x3dd654b9	0.10465378
181	0xbd3ba7d7	-0.04581436
182	0x3ba75b2e	0.005107305
183	0x3d0bb94f	0.03411227
184	0x3da0b0a9	0.07846195
185	0xbd3a878b	-0.04553942
186	0x3db1760a	0.08665092
187	0x3dad5289	0.08463008
188	0x3db58fa3	0.08865287
189	0x3b186610	0.0023254193
190	0xbda33a0d	-0.07970057
191	0xbda5c6e9	-0.0809458
192	0xbd2cc39a	-0.042178728
193	0x3cb41a4a	0.021985192
194	0xbd8a47a1	-0.067519434
195	0x3d4578ea	0.048211016
196	0xbd0c73a2	-0.034289964
197	0xbcd33c32	-0.02578554
198	0x3ce2b471	0.027673932
199	0xbdbc814e	-0.092043504
200	0xbd61c974	-0.05512376
201	0x3a4e2fac	0.000786538
202	0x3d176266	0.036959074
203	0xbd8af312	-0.06784643
204	0x3d337cfa	0.04382036
205	0xbda3ed57	-0.08004253
206	0x3c5d4bf4	0.013506878
207	0x3d85f7fe	0.065414414
208	0x3cdde886	0.027088415
209	0x3d6fcc48	0.058544427
210	0x3dc53cb3	0.09630718
211	0x3d808df1	0.06277073
212	0x3dd56639	0.10419888
213	0x3dabcfb9	0.08389229
214	0x3d40aa78	0.04703757
215	0x3d442290	0.047884524
216	0x3d2bc376	0.041934453
217	0x3d4bacc2	0.0497253
218	0x3dbdae8d	0.092618085
219	0x3d7e6d15	0.062115747
220	0xbd4d807c	-0.05017136
221	0x3d39406f	0.045227464
222	0x3c42de21	0.01189378
223	0xbbb83fb5	-0.005622829
224	0x3d79e770	0.06101173
225	0x3da02e08	0.0782128
226	0x3c38d76e	0.011281831
227	0xbd0dba89	-0.034601722
228	0x3ccef6a4	0.025264092
229	0xbba2bbbb	-0.004966227
230	0x3ccaa9c3	0.024739152
231	0x3dd3eb8f	0.103476636
232	0x3da2de7f	0.07952594
233	0x3d461c16	0.04836663
234	0xbcee3365	-0.029077241
235	0x3b93feb5	0.0045164474
236	0x3d6e6f68	0.058211714
237	0xbd8f473f	-0.06996011
238	0x3daa7b00	0.08324242
239	0xbd8856c3	-0.066571735
240	0x3cf3c52c	0.029757105
241	0x38fcc000	0.00012052059
242	0xbd460384	-0.048343197
243	0x3d93db94	0.072196156
244	0x3d08e228	0.033418804
245	0xbcdf4fc8	-0.027259722
246	0x3d5d130f	0.053973254
247	0xbd995ee7	-0.07488804
248	0x3d9f3aca	0.07774885
249	0x3cdb86b4	0.02679763
250	0xbd1d9561	-0.038472537
251	0x3d63cea3	0.055616986
252	0xbd16be2e	-0.036802463
253	0x3d5b8f1a	0.05360327
254	0x3d02be1b	0.03191958
255	0x3d520cf7	0.051281895

convs.1.0.bias f4 [16]
0	0xbdda131d	-0.10648177
1	0x3de58ab0	0.11208093
2	0xbbbab03d	-0.005697279
3	0xbd838fa3	-0.06423881
4	0x3d11f6cc	0.035635754
5	0x3d22b4e2	0.039723285
6	0xbdaea33e	-0.0852723
7	0xbd726d63	-0.05918635
8	0xbc7ae01d	-0.015312222
9	0x3db5be1f	0.08874153
10	0x3d4013e5	0.046893973
11	0xbd9c2d6d	-0.07625852
12	0xbd873596	-0.066020176
13	0x3dc4f69b	0.09617349
14	0x3d206b91	0.039165083
15	0xbd767e1d	-0.060178865

convs.1.2.weight f4 [16, 16, 3, 3]
0	0xbc828f6f	-0.015937535
1	0x3db64fd8	0.08901948
2	0x3d1482de	0.036257617
3	0x3ddf16b6	0.10893004
4	0x3d5d4940	0.054024935
5	0x3d6acb13	0.057322573
6	0x3d02f3ef	0.031970914
7	0x3c883dff	0.016631125
8	0x3da2e2bd	0.07953403
9	0xbda57198	-0.08078307
10	0x3d231ef8	0.039824456
11	0xbd5e6bd6	-0.05430206
12	0xbdc6d42e	-0.09708439
13	0x3c8da6e8	0.017291501
14	0x3cd122c3	0.025529271
15	0x3d2aaac5	0.041666765
16	0x3c90fea5	0.017699549
17	0xbd6ce5b8	-0.057836264
18	0xbccfa122	-0.025345389
19	0x3da51126	0.080599114
20	0xbd6839f7	-0.056695905
21	0xbcb16d79	-0.021658646
22	0x3c009fd9	0.007850611
23	0x3cb6d05a	0.022316147
24	0x3d3606ce	0.044440083
25	0x3d7a69f0	0.061136186
26	0x3d28f3d8	0.041248173
27	0x3d94b794	0.07261577
28	0x3dabb489	0.08384044
29	0x3da3a402	0.079902664
30	0x3dc294e8	0.09501058
31	0x3d66c331	0.056338493
32	0x3c7ab5a7	0.015302098
33	0x3d6cb546	0.057790063
34	0x3d4b1f3d	0.049590338
35	0xbd51bc98	-0.051205248
36	0x3d76e4cf	0.060276803
37	0xbb1ff773	-0.0024408966
38	0x3cbce75e	0.023059543
39	0xbdb2f36a	-0.08737834
40	0xbd15d806	-0.03658297
41	0x3d031145	0.03199889
42	0x3ceb42c7	0.028718365
43	0xbdaf15b0	-0.085490584
44	0xbd223c98	-0.039608568
45	0xbce7b838	-0.028286085
46	0x3dbf594f	0.09343206
47	0xbcd1781f	-0.025569974
48	0x3d16510a	0.03669838
49	0xbb5b1fda	-0.0033435733
50	0x3ddbd1c4	0.10733369
51	0x3c1bb15b	0.009502734
52	0x3d92fdf3	0.07177343
53	0xbcd87eaf	-0.026427595
54	0x3c7b12d0	0.0153243095
55	0x3d57e43d	0.0527079
56	0x3d056ffb	0.032577496
57	0xbc52d458	-0.0128680095
58	0x3d1211dd	0.035661567
59	0xbd454b40	-0.048167467
60	0xba97b386	-0.0011573888
61	0xbd5b41b8	-0.05352947
62	0x3b07ddeb	0.0020731639
63	0xbd60023c	-0.05468963
64	0x3d3bdcbc	0.045864806
65	0x3d9da712	0.07697882
66	0x3d4d31fb	0.050096493
67	0x3da6ef83	0.08151152
68	0xbd818138	-0.06323475
69	0x3c45a8b2	0.012064146
70	0xbd824dba	-0.063624814
71	0xbd168859	-0.036751125
72	0x3b34be1f	0.0027579141
73	0xbc81088a	-0.015751142
74	0x3d7bbb32	0.06145782
75	0xbda8cd98	-0.08242339
76	0xbc4eb6d0	-0.012616828
77	0xbbda03ec	-0.0066532996
78	0x3d61ddad	0.055143047
79	0x3d59a293	0.05313356
80	0xbd70b589	-0.058766875
81	0x3d62b5d1	0.055349175
82	0x3c060b89	0.008181461
83	0x3c5a477a	0.013322705
84	0x3c567800	0.013090134
85	0xbdb8341a	-0.089943126
86	0x3a9dd26e	0.0012040862
87	0x3c1a9ce8	0.009436823
88	0xbd9681d5	-0.07348982
89	0x3cd61eca	0.026137728
90	0x3a2d795a	0.0006617509
91	0xbc20ff63	-0.009826514
92	0xbc9d2293	-0.019181525
93	0xbd1a3c0e	-0.03765493
94	0xbbd644a8	-0.006538946
95	0x3d946917	0.07246607
96	0x3d218884	0.039436832
97	0xbd3372c6	-0.04381063
98	0xbd8e0b2f	-0.06935727
99	0xbc9d9a48	-0.019238606
100	0x3c66d836	0.014089635
101	0xbd0c3d10	-0.03423792
102	0x3d8a2c6b	0.06746753
103	0xbd6a3028	-0.05717483
104	0x3d734a36	0.059396945
105	0xbcb61e1a	-0.02223115
106	0xbd63b873	-0.055595826
107	0x3d4a0790	0.04932362
108	0xbce339a6	-0.02773745
109	0x3d739fcb	0.059478562
110	0x3c58fc96	0.013243815
111	0x3d9843ce	0.07434808
112	0x3d4b1790	0.049583018
113	0xbc189c6b	-0.009314637
114	0xbcf7546b	-0.03019162
115	0x3da71dcb	0.081599794
116	0x3c928d3b	0.01788961
117	0xbd8ac37b	-0.06775566
118	0xbc99a9ed	-0.018757785
119	0xbcb3ddd6	-0.021956366
120	0xbc92bb26	-0.017911505
121	0xbc7f5654	-0.015584547
122	0x3c849830	0.01618585
123	0x3d5bd976	0.053674184
124	0xbd189695	-0.03725298
125	0xbdb93669	-0.09043581
126	0xbd427a89	-0.04748014
127	0xbc6557df	-0.013998001
128	0x3ca5d169	0.020241456
129	0xbca71ffa	-0.02040099
130	0xbcee4f17	-0.029090447
131	0xbd577790	-0.052604258
132	0xbd0397f4	-0.032127336
133	0x3d7c9978	0.061669797
134	0xbd34b563	-0.044118296
135	0xbc696fd1	-0.0142478505
136	0xbb6140f6	-0.0034370995
137	0x3cd89c1d	0.026441628
138	0x3dca507d	0.09878633
139	0x3bb36fd9	0.0054759798
140	0xbd5a21d5	-0.05325492
141	0xbcc55819	-0.02408986
142	0x3dccb902	0.09996225
143	0x3d9b2933	0.075762175
144	0x3d00e8cd	0.031472016
145	0x3d57ba22	0.052667744
146	0x3bcc0dd3	0.006227234
147	0x3ce1555b	0.027506521
148	0x3d953e2f	0.07287251
149	0xbcb01505	-0.021494398
150	0x3b844664	0.0040367115
151	0x3d5c9198	0.053849787
152	0x3db9fde0	0.09081626
153	0x3c04164f	0.008061959
154	0x3d5f18f2	0.05446715
155	0x3c456298	0.012047432
156	0xbd4cd723	-0.050009858
157	0xbdd04378	-0.10169119
158	0x3d7a6d8c	0.06113963
159	0xbdc9ad1d	-0.09847472
160	0xbca864e0	-0.020555913
161	0xbd855ac9	-0.065114565
162	0xbd9a76e5	-0.075422086
163	0x3dab98e1	0.08378769
164	0x3d63a2b2	0.05557508
165	0x3b8db432	0.0043244595
166	0x3d822662	0.06354977
167	0xbd5e20ce	-0.054230504
168	0x3c159591	0.009129898
169	0x3d107a50	0.035272896
170	0x3c14bec5	0.009078686
171	0x3d8e2d34	0.069422156
172	0x3cc15808	0.023601547
173	0x3db9d240	0.09073305
174	0x3d6902b5	0.056887347
175	0x3d08774a	0.033316888
176	0x3d7fab14	0.062419012
177	0x3d886fbb	0.06661936
178	0xbca2fe61	-0.019896688
179	0xbd6907d5	-0.056892235
180	0xbd115a85	-0.035486717
181	0xbb1a1574	-0.0023511322
182	0xbd6bed33	-0.057599258
183	0xbce46ee7	-0.027884914
184	0xbd10062a	-0.03516213
185	0xbd575c23	-0.052578103
186	0xbd3c447a	-0.04596374
187	0x3d806fc4	0.062713176
188	0xbd8dddb2	-0.06927051
189	0xbab93bc0	-0.0014132187
190	0x3db36bf1	0.087608226
191	0xbc484d57	-0.0122254705
192	0x3dc8af41	0.09799052
193	0x3db844a9	0.08997471
194	0x3dc38881	0.095475204
195	0xbd2e47e7	-0.04254904
196	0x3d228519	0.039677713
197	0x3d10f93e	0.035393946
198	0xbd574763	-0.052558314
199	0xbda0321d	-0.07822058
200	0x3d6bdd31	0.05758399
201	0x3c63c584	0.013902072
202	0x3bfa4241	0.0076372926
203	0x3da0c039	0.078491636
204	0x3d575dec	0.052579805
205	0xbd330ed5	-0.043715317
206	0x3d6abb95	0.0573078
207	0x3d41e2d1	0.04733545
208	0xbce1287d	-0.027485127
209	0xbd2210ca	-0.039566793
210	0xbd1a4796	-0.037665926
211	0xbcc896d5	-0.024485985
212	0x3dbf5591	0.09342492
213	0xbd527f9e	-0.051391236
214	0xbd3bc3e7	-0.045841124
215	0x3d9031e1	0.07040764
216	0x3d97eed2	0.07418598
217	0xbd9f6db3	-0.07784595
218	0x39f0c975	0.00045926464
219	0x3d9614e0	0.073282
220	0x3d63b495	0.05559214
221	0xbd5487da	-0.05188737
222	0x3d2d45fd	0.042303074
223	0x3d61cbf5	0.05512615
224	0x3c8dc976	0.017307978
225	0xbdadd465	-0.08487777
226	0xbc50bb57	-0.012739978
227	0xbd8c32e7	-0.06845646
228	0xbd964441	-0.07337237
229	0xbc0ee14f	-0.00872071
230	0xbd6233de	-0.055225246
231	0xbc6672b9	-0.014065438
232	0xbda3814a	-0.07983644
233	0x3ce0e4ab	0.027452787
234	0xbc9f94b3	-0.019480085
235	0xbd47aa4b	-0.04874639
236	0xbda0e31b	-0.07855817
237	0x3c038fd9	0.008029901
238	0xbd95de65	-0.07317809
239	0xbc89333c	-0.016748063
240	0x3d828c2d	0.06374393
241	0xbda717cc	-0.08158836
242	0xbdc02288	-0.09381586
243	0x3d392b1c	0.045207128
244	0xbcbedc07	-0.023298277
245	0xbb1bc9ab	-0.0023771327
246	0x3d11a3a8	0.035556465
247	0x3da7e52c	0.08198008
248	0xbda6790c	-0.081285566
249	0xbd86965a	-0.06571646
250	0x3a69a58d	0.00089129136
251	0x3cc1d362	0.023660365
252	0x3d9d6a68	0.07686311
253	0x3d3824eb	0.044957083
254	0x3d4781c8	0.048707753
255	0x3d15f63e	0.036611788

convs.1.2.bias f4 [16]
0	0x3d4d7259	0.05015788
1	0x3d781425	0.060566086
2	0xbd8a9346	-0.067663714
3	0x3dd761fc	0.10516736
4	0xbd8b8cae	-0.06813942
5	0xbd8aa44c	-0.067696184
6	0xbd0ce6f7	-0.034399953
7	0x3d872e3d	0.06600616
8	0x3b4399b0	0.0029846244
9	0x3d456510	0.048192084
10	0xbc2ae06b	-0.010429482
11	0x3c2b3458	0.010449491
12	0xbda30c34	-0.07961312
13	0xbb8a8b5c	-0.0042280387
14	0xbc1cfba0	-0.009581476
15	0xbc9839a0	-0.018582165

convs.2.0.weight f4 [16, 16, 3, 3]
0	0xbd9bc4f8	-0.07605928
1	0xbd46f615	-0.048574526
2	0x3da042e6	0.0782526
3	0x3d878b60	0.066183805
4	0xbd87cb83	-0.06630614
5	0xbcba79d9	-0.02276318
6	0x3be9133f	0.00711289
7	0xbc476429	-0.012169876
8	0xbd8667ee	-0.06562792
9	0xbd38dc2a	-0.04513184
10	0x3d81a5c7	0.06330448
11	0x3d83b844	0.0643163
12	0xbda3280e	-0.07966624
13	0xbc5f70d3	-0.013637739
14	0xbcb4b783	-0.022060161
15	0x3afef8eb	0.0019452845
16	0xbb24448a	-0.0025065267
17	0x3daf75aa	0.085673645
18	0x3c88a959	0.016682314
19	0x3d871426	0.0659564
20	0xbcfdd019	-0.030983018
21	0x3d3acf43	0.045607816
22	0x3d7c744f	0.061634358
23	0xbd637ca3	-0.055538785
24	0xbd6c3085	-0.05766346
25	0xbd947087	-0.072480254
26	0x3d134256	0.035951935
27	0xbd2e69af	-0.042581256
28	0x3d9c2e42	0.076260105
29	0xbb5b51ff	-0.0033465622
30	0x3b81541c	0.003946794
31	0x3cb5279c	0.022113614
32	0xbcf2dbaf	-0.029645769
33	0x3cc00721	0.0234409
34	0x3c8246ea	0.015902955
35	0xbd1e14f0	-0.038594186
36	0xbd4662bd	-0.048434008
37	0xbd97fb58	-0.07420987
38	0xbcf469b1	-0.029835554
39	0xbd56a889	-0.05240682
40	0x3cbee2ef	0.02330157
41	0x3db56d8d	0.08858786
42	0x3cad1625	0.021128723
43	0xbd62abef	-0.05533975
44	0x3d03253c	0.03201793
45	0x3d81b1a9	0.06332714
46	0x3d8aaa23	0.06770732
47	0xbcd22b67	-0.025655461
48	0xbd3a9365	-0.045550723
49	0x3c3d49eb	0.011553268
50	0xbd94b6d3	-0.072614335
51	0x3d8809a3	0.06642463
52	0xbd986c5b	-0.07442542
53	0xbd3a8c1a	-0.045543768
54	0x3d81f3ef	0.06345355
55	0x3d8b01a0	0.06787419
56	0x3cb115eb	0.021616897
57	0xbc9d722e	-0.019219484
58	0x3d961b1a	0.07329388
59	0x3c06a8b5	0.008218934
60	0x3d95e8d6	0.073198006
61	0xbbe86a37	-0.00709274
62	0xbd905fd9	-0.070495315
63	0x3ce83257	0.028344316
64	0xbcc03de2	-0.023467008
65	0x3dc09d15	0.09404961
66	0x3d14dbcb	0.036342423
67	0xbc1f1e8e	-0.009711875
68	0xbc12447d	-0.008927462
69	0x3cef4606	0.029208194
70	0xbd35747b	-0.044300538
71	0x3d727b9f	0.059199926
72	0xbd9145a7	-0.07093363
73	0xbd43436f	-0.04767173
74	0x3da2beee	0.07946573
75	0x3ce939ce	0.028469946
76	0xbd57a916	-0.052651487
77	0x3c7d1106	0.015445953
78	0x3d95544d	0.0729147
79	0x3c797620	0.015225917
80	0x3d7c934a	0.061663903
81	0x3d9ca3bd	0.07648418
82	0x3c0e9b62	0.008704038
83	0xbca890f3	-0.02057693
84	0x3cc67f97	0.024230761
85	0xbd03c8ee	-0.032174043
86	0x3d4925b2	0.049108215
87	0xbcb1487f	-0.021641014
88	0x3d931c10	0.07183087
89	0x3c653c72	0.013991462
90	0x3d3e3518	0.046437353
91	0x3b8adc71	0.0042377044
92	0x3da4f00e	0.08053599
93	0x3b891822	0.004183785
94	0xbd73b944	-0.059502855
95	0x3da1f3ca	0.07907827
96	0xbd499849	-0.049217496
97	0x3db34968	0.087542355
98	0x3d195ccc	0.037442014
99	0xbda38cde	-0.07985853
100	0xbbc1a709	-0.0059098047
101	0x3d23f48d	0.040028144
102	0xbd0b57b4	-0.034019187
103	0x3d8bbb55	0.0682284
104	0xbc6be783	-0.014398458
105	0xbd73958d	-0.059468795
106	0x3d039107	0.03212073
107	0x3d3a1001	0.04542542
108	0x3d78f73e	0.060782664
109	0x3c605615	0.013692399
110	0xbd1d839f	-0.0384556
111	0xbc08955a	-0.008336389
112	0xbcdb56c5	-0.026774773
113	0xbd8c4c9c	-0.068505496
114	0x3d984ed2	0.07436909
115	0xbd4dfb44	-0.050288454
116	0xbd2165c8	-0.039403707
117	0xbd4ea676	-0.05045172
118	0x3daca2b5	0.084294714
119	0x3c3ab1d9	0.011394941
120	0x3d5dc000	0.054138184
121	0xbd17f2e9	-0.03709689
122	0xbc195f23	-0.009361061
123	0x3d16c800	0.03681183
124	0x3c9a4fef	0.018836943
125	0xbc4fcb9a	-0.01268282
126	0x3db55b8d	0.088553526
127	0x3d935860	0.071945906
128	0xbd1caed7	-0.038252678
129	0xbc826c43	-0.015920764
130	0xbc87bbf5	-0.016569117
131	0x3c0ef5ce	0.008725597
132	0x3d62572b	0.05525891
133	0x3d8bd0b7	0.068269186
134	0xbc817d4c	-0.015806817
135	0x3d241816	0.040062033
136	0xbd8f9e15	-0.07012574
137	0xbd5a2931	-0.05326194
138	0xbd2ebdc8	-0.04266146
139	0x3d42125e	0.047380798
140	0x3cd42359	0.025895761
141	0xbd8a8f53	-0.06765618
142	0x3daa6bd1	0.083213456
143	0x3c127824	0.008939777
144	0x3d9fec33	0.07808723
145	0x3d411436	0.047138415
146	0x3d1742fd	0.03692912
147	0x3d1aa4bb	0.037754755
148	0x3d8a774f	0.067610376
149	0x3da8b41d	0.08237479
150	0x3c36f0eb	0.011165838
151	0xbcc6d88f	-0.024273185
152	0xbd7b2d1a	-0.06132231
153	0x3da3c840	0.07997179
154	0x3b7fac33	0.003901255
155	0x3d7fa07f	0.06240892
156	0xbcd400e7	-0.025879337
157	0xba4e9404	-0.00078803324
158	0xbce8dd9d	-0.028425986
159	0x3d38dc8f	0.045132216
160	0xbd425a9f	-0.047449704
161	0x3d9cd4e3	0.076577924
162	0x3dea6bd1	0.114463456
163	0x3b829078	0.003984507
164	0xbd082906	-0.033242248
165	0x3db14beb	0.08657058
166	0x3d68c635	0.05682965
167	0x3c53f020	0.012935668
168	0x3c851769	0.016246514
169	0x3d96a7a8	0.07356197
170	0x3aa41fe7	0.0012521715
171	0x3d5fa1b5	0.054597575
172	0xbd401827	-0.046898033
173	0xbcb7f955	-0.022457758
174	0xbd0457d9	-0.03231034
175	0xbdb7ff5d	-0.089842536
176	0xbd5f4852	-0.05451233
177	0xbd59b2bc	-0.05314897
178	0x3d8438c2	0.06456138
179	0xbda4c902	-0.08046152
180	0x3dcdaceb	0.10042747
181	0x3d84c095	0.064820446
182	0x3c3b29a8	0.011423506
183	0x3da03b65	0.078238286
184	0xbd558db5	-0.052137095
185	0x3cd7c1e0	0.026337564
186	0x3c6a60c9	0.014305302
187	0x3d4122bf	0.047152277
188	0xbd235a4c	-0.039881036
189	0xbc22554d	-0.009908033
190	0x3dbebe0b	0.093135916
191	0x3dbe96b2	0.093060866
192	0x3da2d243	0.079502605
193	0x3dd018b9	0.101609655
194	0x3d656ceb	0.056012075
195	0x3cec4b7e	0.028844591
196	0xbc6f9ff3	-0.014625537
197	0x3dcd6572	0.10029115
198	0xbd0bb6dd	-0.03410994
199	0x3b0b1711	0.0021223465
200	0xbcf9e9cc	-0.03050699
201	0xbbd67878	-0.0065451227
202	0x3dc69546	0.096964404
203	0x3cfb8c9f	0.030706702
204	0x3d089ec0	0.03335452
205	0xbcdf36e9	-0.027247863
206	0xbcb02b63	-0.021505063
207	0xbc19f202	-0.009396078
208	0xbd9cdcfa	-0.076593354
209	0x3cb01633	0.02149496
210	0x3d608a13	0.054819178
211	0xbd3c72f2	-0.046008058
212	0xbd3fe412	-0.046848364
213	0xbd513870	-0.051079214
214	0xbcef9d6f	-0.029249875
215	0xbcf406ef	-0.029788462
216	0xbd39b98c	-0.045342967
217	0xbd4859a2	-0.048913606
218	0xbbea9b34	-0.007159615
219	0x3ca94ac4	0.020665534
220	0x3d9775ea	0.07395537
221	0xbbc89a59	-0.0061219153
222	0xbbca8c4a	-0.0061812745
223	0x3d2c1a1c	0.042017087
224	0x3d43154b	0.04762773
225	0xbd27a4fe	-0.040928833
226	0xbd632992	-0.055459566
227	0xbdc8ed01	-0.0981083
228	0xbdb7df6d	-0.08978162
229	0x3d82007c	0.06347749
230	0x3d29e3f0	0.041477144
231	0xbd61bb65	-0.055110354
232	0xbc2ddd7c	-0.010611888
233	0x3d8e6463	0.06952741
234	0x3c048f38	0.008090787
235	0xbc2707f4	-0.010194767
236	0x3db19942	0.0867181
237	0x3d31c649	0.04340199
238	0x3daac463	0.08338239
239	0x3d91ca5d	0.07118676
240	0xbd5daead	-0.054121662
241	0xbcdc8e70	-0.026923388
242	0xbd89dd88	-0.06731707
243	0x3d2bf880	0.041985035
244	0x3c378f91	0.0112036625
245	0xbc872bb5	-0.016500333
246	0xbd7c6175	-0.06161638
247	0xbd78215e	-0.060578696
248	0x3d9732a3	0.07382705
249	0xbc980d23	-0.018560952
250	0x3d5ca5db	0.05386911
251	0x3dcecfc9	0.100982256
252	0xbc8d1f0a	-0.017226715
253	0xbb8009c1	-0.0039074128
254	0x3d9ffce2	0.078119054
255	0x3cd2a05a	0.025711227

convs.2.0.bias f4 [16]
0	0xbd3340dd	-0.04376303
1	0x3cd2c82b	0.025730213
2	0x3c17a197	0.009254835
3	0x3da84d8f	0.08217918
4	0xbd888d57	-0.066675834
5	0x3b9ecdc5	0.004846307
6	0x3c8d4c43	0.017248278
7	0xbca677e0	-0.020320833
8	0xbc101291	-0.008793489
9	0xbd88c852	-0.06678833
10	0x3d50db29	0.050990257
11	0x3dd17d78	0.102290094
12	0x3c8f42ed	0.017487967
13	0xbd98ef3a	-0.07467504
14	0xbd8ff218	-0.070285976
15	0x3d88c72f	0.06678616
